model/model.pth (torch, 22729 bytes, 4 tensors)

linear1.weight f4 [256, 16]
000000 b3 77 d4 3e 1e 7c e3 be 8f ca 19 be 72 4d 72 bd
       0.41497573 -0.4443063 -0.15018676 -0.05915589
000010 96 7c b0 3c cb f0 89 3e dc c5 42 bd e5 bc 42 3d
       0.021543782 0.26941523 -0.047551975 0.047543425
000020 c9 73 28 bd ef 9c 9c 3d 1b c7 80 bd c0 59 93 3c
       -0.041126046 0.0764712 -0.06287976 0.017987132
000030 a8 b8 2d bd 94 9a 54 be 28 b0 c3 3d 7e 78 7f be
       -0.04241243 -0.20762092 0.095550835 -0.24948308
000040 e5 3e 85 3e ba c3 b7 3e be 78 45 3d 5b 17 13 3e
       0.26024547 0.35891515 0.04821085 0.14364378
000050 dc ab 88 3e 87 38 ac 3d c7 52 3d 3d d1 7a 6b 3e
       0.26693618 0.08409219 0.04622152 0.2299607
000060 db 6c ee bc ed 15 36 be 5b ca 40 3e d4 9e cd bd
       -0.02910464 -0.17781802 0.18827192 -0.1004006
000070 1c c0 ad bd fc da cc 3d 30 96 27 3e 48 4e 91 bd
       -0.084839076 0.100027055 0.16365886 -0.07095009
000080 90 e4 33 be be ef ee bd 76 47 44 be 65 8c 28 be
       -0.17567658 -0.11666821 -0.19167885 -0.16459806
000090 7c 51 3c 3e fc f9 3d be 02 89 7c be 4b 26 30 be
       0.18390459 -0.18552393 -0.2466164 -0.17202108
0000a0 89 6d 05 be 0e 42 87 be 86 dd 9b bd 28 04 6e 3e
       -0.13030066 -0.26417583 -0.076106116 0.23243773
0000b0 38 05 b7 3d a8 0e 52 3e c4 87 1b be 52 12 16 be
       0.08936542 0.20513403 -0.15188509 -0.14655426
0000c0 77 48 18 3d 1c cf 21 3c 6d 10 91 3e e6 ba ac bd
       0.037178483 0.009876039 0.28332844 -0.084340855
0000d0 a5 4b 89 3e ca 02 97 bd 29 71 7b bd a7 a4 16 3e
       0.26815525 -0.07373579 -0.061387215 0.14711247
0000e0 67 ea 1d 3e 45 0e 01 be 4d df 4e be e0 9a 7e bd
       0.15421449 -0.126031 -0.2020237 -0.06215942
0000f0 bc 88 24 3e 58 27 b0 3d 98 f3 54 3d f4 9c 8e bd
       0.16067785 0.08601254 0.05199012 -0.0696353
000100 61 df a1 bd b8 8d f2 bd 8c 54 08 3e 77 e5 96 3e
       -0.07903934 -0.11843437 0.13313502 0.29471943
000110 33 8c f1 bd 40 74 55 3d 06 55 eb 3c 28 fb ab 3e
       -0.11794319 0.052112818 0.028727066 0.33590055
000120 ef 83 23 be 0e 25 1f 3e 0a 1e a2 3e 66 fd 40 3e
       -0.15968297 0.15541479 0.31663543 0.18846664
000130 08 34 0d bd 2a a9 24 3e 4c 42 34 be d4 c7 4c 3e
       -0.03447345 0.16080156 -0.17603415 0.19998103
000140 64 84 57 be 3b ac 35 3e fe 5d 46 3e 14 75 fa 3d
       -0.21046597 0.17741482 0.19371793 0.12229362
000150 e9 3b 84 3e 12 3e f2 3d be 65 bc 3e fa da 71 3d
       0.25826958 0.11828245 0.36796373 0.059046723
000160 1a 89 25 be 2c 7c d6 bd ac 7c 6e 3e 46 4b 21 be
       -0.16165581 -0.10472903 0.23289746 -0.15751371
000170 1c 96 1c be 82 3f 03 3e 98 46 3a 3d 60 97 b1 3d
       -0.15291637 0.12817195 0.04547748 0.086714506
000180 5c d1 86 3e 76 a4 82 ba ad 4e 3a be 24 9d b2 3c
       0.26331604 -0.0009967226 -0.18194075 0.021803446
000190 fc 03 bc bd 9c 6e b8 3d f6 74 0c be 12 9b 54 3e
       -0.091804475 0.09005472 -0.13716492 0.2076228
0001a0 a8 95 76 bb a8 27 45 be 2b 0e 51 3e 1c c7 89 bd
       -0.0037625823 -0.19253409 0.20415561 -0.0672743
0001b0 8c 95 b5 bd 16 7f 1b 3e c8 37 5a bd de 45 0c be
       -0.088664144 0.15185198 -0.053275853 -0.13698527
0001c0 ee 97 5e be 6b ca 60 be 7e 8b f6 bd b9 dd 21 3e
       -0.21737644 -0.21952216 -0.12038325 0.15807237
0001d0 e4 41 42 3e c8 56 58 be bc e0 c6 bc e9 82 ee 3d
       0.18970448 -0.21126854 -0.024277084 0.11646063
0001e0 98 32 c6 3d 0e 8d c1 bd 72 27 cb bd e4 8e 89 bd
       0.09677619 -0.09450732 -0.09919633 -0.06716707
0001f0 1c 79 3a be d0 7e 07 be f4 d0 f1 3d 48 fa b1 bd
       -0.18210262 -0.13231969 0.11807433 -0.086903155
000200 16 b0 7d be 70 49 86 bc e8 07 cb 3c fa 41 6a 3c
       -0.24774203 -0.01639244 0.024784043 0.014297957
000210 8a ad 9d bd 63 cf 14 3d f4 01 0b 3d 7a 37 b8 3d
       -0.076991156 0.036330592 0.03393741 0.08994956
000220 88 57 95 be e9 da a4 bb 35 53 62 3b 80 2d 5e 3d
       -0.29168344 -0.005030979 0.0034534459 0.05424261
000230 dc 9a 34 3e c4 53 a4 bd f0 82 3a be 04 5d b7 bd
       0.17637199 -0.080237895 -0.18214011 -0.08953288
000240 24 7f d5 bd db 1b 65 3e 4a 0a 55 be 98 65 7f 3e
       -0.10424641 0.22373907 -0.20804706 0.24941099
000250 8b 02 bc bd 2e 85 68 3e 77 9d a3 3d 48 6a 78 bd
       -0.091801725 0.22707054 0.079890184 -0.060648233
000260 4b 8a 81 be d2 53 59 be d5 a4 06 3e 94 a4 f3 3d
       -0.25300822 -0.21223381 0.13148816 0.11896625
000270 da a5 5f be 20 ec 55 3d 80 7d 9a bc 90 0d 21 be
       -0.21840611 0.05222714 -0.018858671 -0.1572783
000280 08 12 08 be a6 9d 12 be 10 0c 21 bd a2 15 7c be
       -0.13288128 -0.1431795 -0.039318144 -0.24617627
000290 24 5e a8 3d f0 38 5e 3d 6c c4 a4 3d d0 bf a6 bd
       0.08221081 0.05425352 0.08045277 -0.08142054
0002a0 f0 7d 0c 3d 60 43 00 bd f0 b3 b4 bc 80 8b bf 3c
       0.03429979 -0.031314254 -0.022058457 0.023381948
0002b0 c0 48 70 bd 38 06 45 bd 40 09 66 3e 32 8b 58 be
       -0.05866313 -0.048101634 0.22464466 -0.21146849
0002c0 bc b2 a9 bc cd ab 1f 3e 8d 4f 41 be a5 d0 24 be
       -0.02071511 0.1559288 -0.18878002 -0.16095217
0002d0 ed e5 33 3e a1 08 29 be 6b d6 08 3e 11 a8 5a 3e
       0.17568178 -0.16507198 0.13363044 0.21353175
0002e0 34 2a cc bd 5d 7e 5d 3d 02 94 48 3e 58 7a 02 bd
       -0.09968987 0.054075588 0.1958771 -0.031854957
0002f0 8c d7 4f 3e f0 40 e2 3d 2c d8 2e be 22 aa 61 be
       0.20297068 0.11047542 -0.1707465 -0.22037557
000300 81 b8 0a 3e fd 35 ee bb be da 4e 3e 1c 64 07 be
       0.13546945 -0.0072696195 0.20200631 -0.13221782
000310 f8 76 7c be e0 5c 08 be 05 af f5 3d de 07 ed 3c
       -0.24654758 -0.13316679 0.11996273 0.028934415
000320 51 dd 86 bd ae b5 e5 3d b6 e3 b8 3d fc 7c fb bd
       -0.065851815 0.11216293 0.090278074 -0.12279698
000330 a8 ef 18 3d 00 f7 4b bd a4 10 e1 bd 00 5b 25 3b
       0.03733793 -0.049796104 -0.10989502 0.0025231242
000340 2a e0 c2 bc cd 7b b5 3e 68 37 02 be bf 9e 9d 3d
       -0.02378853 0.35446015 -0.12716448 0.07696294
000350 50 41 2b be ef fa 3c 3e d0 7f 43 3e ed b1 37 be
       -0.16724133 0.18455099 0.19091725 -0.17938967
000360 1d b3 01 be b1 78 ad 3d f2 8f 0b 3e 6c b2 17 be
       -0.12665983 0.08470286 0.1362913 -0.14814156
000370 d0 44 53 3e 6c 0a 5e be 14 db 1d be 4a cb 3b 3e
       0.20631719 -0.21683663 -0.15415603 0.18339267
000380 90 4a 7b 3e 9a 90 c5 3c 8a 74 48 3e 2a 8f 80 bb
       0.24540162 0.024116803 0.19575706 -0.0039233165
000390 da 3f 23 3e a8 a3 5e be 3d 21 41 be c6 02 11 3e
       0.15942326 -0.21742117 -0.18860336 0.14161214
0003a0 9e 47 c1 3d 7e c7 19 3c 6a c8 14 bd 7c d8 4c 3e
       0.09437488 0.009385942 -0.036323942 0.20004457
0003b0 fc ca fe bd e0 01 5b bc 58 f5 98 bd c0 65 4a bd
       -0.1244106 -0.013367146 -0.074686706 -0.049413443
0003c0 7c a9 18 3e c4 24 b6 bd 60 fa bc bc 08 de 77 bd
       0.14908403 -0.08893731 -0.023068607 -0.06051448
0003d0 6c 64 e7 bd f0 4b fe 3c b4 4a f0 3d 40 ed 17 be
       -0.11298451 0.03104207 0.117329985 -0.14836597
0003e0 f4 b0 3a be 40 4f d7 bc 48 28 a9 bd 00 fc c5 39
       -0.18231565 -0.026282907 -0.08259636 0.00037762523
0003f0 64 e3 7c be a4 69 4e be c8 06 2c 3d e8 c0 a8 3d
       -0.24696118 -0.20157486 0.041998655 0.08239919

linear1.bias f4 [256]
000000 43 e6 c4 3d 90 8a 8a 3e 1b 1f 41 3e b2 6d 87 3b
       0.096142314 0.2705884 0.18859522 0.0041329497
000010 51 80 8a 3e 0d fd ee 3d 58 3d 49 3e 8f c7 18 bd
       0.27051023 0.11669359 0.19652307 -0.03729969
000020 bc ba 54 3e f0 62 20 3c e8 41 53 be 72 43 84 bd
       0.20774359 0.009789214 -0.2063061 -0.06458177
000030 ff 45 ea bd 48 f9 88 3e b5 42 63 3e a6 53 64 be
       -0.11439132 0.26752687 0.22193415 -0.22297534
000040 7d 30 f7 bd a6 e4 bf bd ec ac 7d 3e 3e c0 c4 bd
       -0.12069795 -0.09369783 0.24772996 -0.0960698
000050 f2 00 2d be 8b 7e 3d 3e 3f c1 78 bc cb 96 f8 3d
       -0.16894892 0.18505304 -0.015182792 0.121381365
000060 25 76 38 be df e6 c4 3c 11 eb 18 3e de b0 53 3d
       -0.18013819 0.02403587 0.1493342 0.051682346
000070 1d 60 d8 3d f2 10 35 3e 45 b5 cc 3d 35 15 9b 3d
       0.10565207 0.17682245 0.09995512 0.07572404
000080 ce 04 67 3e 89 32 52 3e 05 47 96 3e 75 ca 40 bd
       0.22560427 0.2052709 0.2935106 -0.047068078
000090 06 3b e3 bd bb 9d 90 3d 13 94 8c 3c 16 cc 90 3e
       -0.11095242 0.07061335 0.017160451 0.28280705
0000a0 b4 f0 ac 3e b9 b0 17 bb f7 50 28 3e 7c 26 de bd
       0.33777392 -0.0023146106 0.16437136 -0.10847184
0000b0 9c 1c 5d be 31 dc 85 bd 46 48 32 bc 3d 42 de 3d
       -0.21592945 -0.06536139 -0.010881489 0.10852478
0000c0 b1 0d 7c bc 07 f4 80 3e 38 cc 22 be 78 24 56 3e
       -0.015384124 0.25186178 -0.15898216 0.20912349
0000d0 73 de 22 3e b2 26 89 bd dc d6 46 be 35 56 ee bd
       0.1590517 -0.06696834 -0.194179 -0.116375364
0000e0 4d 3c 21 3b 0c 6d 02 3e 14 1b 77 bd e5 9c 8b bb
       0.0024602592 0.1273691 -0.060328558 -0.0042606466
0000f0 14 2a 88 3e a7 0e 86 3e cb dd 44 3e 61 2f 13 bd
       0.26594603 0.26183054 0.19225232 -0.035933856
000100 96 12 00 3e 88 67 e6 bd f5 c3 dc bd 8b ba 6e 3e
       0.1250709 -0.11250216 -0.10779563 0.23313348
000110 56 9d 07 3e ee 2b c5 3d 12 55 4e 3e 9f 07 16 3e
       0.13243613 0.096275195 0.20149639 0.14651345
000120 40 99 72 3e f0 e6 a4 3e 08 33 c3 3e 2c 6d 00 be
       0.23691273 0.3220744 0.3812487 -0.12541646
000130 dc 30 5b be 89 b6 9d 3e d8 84 a3 3d e6 fe ec 3d
       -0.21405357 0.30803326 0.07984322 0.115720555
000140 3e cc bc 3c 9f 4e f3 3a a7 3d a9 3b d7 52 b9 bd
       0.023046609 0.001856286 0.0051648202 -0.090490036
000150 01 ac 70 3e 41 a7 be 3d bb 7f 28 3e c3 fc 12 be
       0.23503114 0.09309245 0.16454975 -0.14354233
000160 03 41 3b 3e 4a f3 0c 3e 94 6f bc 3d bc 96 46 3c
       0.18286519 0.13764682 0.09200969 0.012120899
000170 4e 68 c4 bd 15 40 11 be 13 d2 ea 3d 2b ff 23 3e
       -0.09590207 -0.14184602 0.1146585 0.16015308
000180 86 86 3b bd 41 0f c1 3e eb d6 8b be d0 72 dc 3b
       -0.04578259 0.3770695 -0.27312407 0.006727554
000190 d0 e4 a9 bd b1 44 9d 3e ee ec 39 3c 22 81 7c 3e
       -0.08295596 0.3071647 0.011347992 0.24658635
0001a0 7d c0 3f 3e 68 61 71 bd 3c ba 1e bd 54 30 ca 3d
       0.18725772 -0.058930784 -0.038751826 0.09872499
0001b0 f6 6f 44 be 82 54 c1 bd f9 d7 c2 3e 1d 97 e0 bd
       -0.19183335 -0.09439947 0.380554 -0.109663226
0001c0 48 00 c5 3d d1 92 14 be b7 e9 21 3d 26 a3 10 be
       0.09619194 -0.14509131 0.03952953 -0.14124736
0001d0 e3 05 76 3e c5 90 23 bd 0c 86 91 3e 05 f0 99 3e
       0.24025683 -0.039932985 0.28422582 0.30065933
0001e0 6c f6 fd 3d 81 09 ac 3d 7e a0 f1 3d f5 a7 0c 3d
       0.12400517 0.0840025 0.117981896 0.034339864
0001f0 08 e4 8a be fc 92 95 3b 33 00 9e be b7 c6 10 3e
       -0.271271 0.004564641 -0.30859527 0.14138304
000200 fb 07 ab 3e a4 68 52 3e 65 cc 81 3d 77 8c 43 bd
       0.33404526 0.2054773 0.06337813 -0.04774138
000210 c0 29 a3 bb bb 0a ff bb 28 7e 14 3e cd 76 e6 3c
       -0.004979342 -0.0077832616 0.1450125 0.02813282
000220 14 8c 75 3e d9 e9 8f be 09 1e 01 be e2 cd 17 be
       0.23979217 -0.281081 -0.12609114 -0.14824632
000230 d3 38 64 bd 46 aa 74 3e 72 a2 28 be df 01 0f 3e
       -0.055718254 0.23893079 -0.16468218 0.13965558
000240 92 c7 24 be d1 17 42 3d 1f 11 bc 3e 8a 07 23 be
       -0.16091755 0.047385994 0.36731812 -0.15920845
000250 bd c6 f9 bc 47 4e 51 3d 61 32 72 be 4f 8e 02 be
       -0.030490274 0.05110004 -0.2365203 -0.12749599
000260 db 0d 0d 3e 64 9c ec 3d 00 e3 f9 bd 89 18 55 3e
       0.13774817 0.11553267 -0.122015 0.2081014
000270 11 cd 3f 3e 30 4e 94 3e fd b6 b4 3d 70 75 ed 3d
       0.1873057 0.28965902 0.08823965 0.11594665
000280 96 81 0b 3d fe 89 4a be 6b c3 44 3e 27 89 64 bc
       0.03405913 -0.19779202 0.19215171 -0.013948715
000290 d6 2f 59 3e df d8 b6 bd fd be eb 3d 55 1c a7 3d
       0.21209654 -0.08928084 0.115110375 0.08159701
0002a0 66 8b 13 3d d6 48 69 be b0 a1 32 bd b7 bc 3a be
       0.036021613 -0.22781691 -0.04361123 -0.18236051
0002b0 29 16 11 be 9d 26 13 be 34 88 1b be af f5 d4 3d
       -0.1416861 -0.14370199 -0.15188676 0.10398423
0002c0 19 92 1a 3e 51 cd ae bc fe b1 85 bd da 42 56 3e
       0.15094794 -0.021338137 -0.0652809 0.2092394
0002d0 11 a1 1f bd 18 7e 6d 3e 91 7f af 3d 99 c2 23 be
       -0.038971964 0.23192632 0.08569253 -0.15992202
0002e0 24 9b ef bd b6 6d e3 bd cf ca 18 be fa fc 62 3e
       -0.116995126 -0.1110491 -0.14921115 0.22166815
0002f0 ac 39 42 bd 9e c0 ae bd 18 a5 68 be c9 87 0c be
       -0.04741828 -0.085328326 -0.22719228 -0.13723673
000300 1e a6 27 3d 9c 43 d6 3d 74 6a bf 3d 70 ce 65 3c
       0.040929906 0.10462114 0.09346476 0.014026269
000310 63 6c 17 be f5 7b 49 be fc 6c 37 3e fa a5 66 be
       -0.1478744 -0.19676192 0.17912668 -0.22524253
000320 99 aa 48 be a1 5e 59 be d8 bb 24 bb 09 5c 21 3c
       -0.19596328 -0.21227504 -0.0025136378 0.009848603
000330 e8 f5 1c 3e 7e 4b fd 3d 2e d8 08 3e b1 65 9d 3d
       0.15328181 0.123679146 0.13363716 0.07685412
000340 ba ee 32 3e 65 dc 7f 3e 80 0e c8 3d 38 81 db bb
       0.1747388 0.24986418 0.09768391 -0.0066987537
000350 b7 7a b9 bd 00 e2 c4 3c 43 fe 54 be 3e 4f 6e 3d
       -0.09056609 0.024033546 -0.20800118 0.05818104
000360 6d b2 31 bd 01 34 cb 3d 8d 8b 49 be 74 81 1d be
       -0.04338305 0.09922028 -0.1968214 -0.15381414
000370 63 48 3e 3e 84 aa 25 bd 35 f4 0e 3c 0d 76 b6 3d
       0.18582301 -0.04044582 0.008725216 0.08909235
000380 de 56 96 bd b9 95 31 be 1a d4 93 3d ec d9 71 be
       -0.07340787 -0.17342271 0.072181895 -0.23618287
000390 94 b5 e6 bd d4 e8 5d be d7 7a 12 3d a2 17 41 3e
       -0.11265102 -0.21670848 0.03576168 0.18856671
0003a0 56 4f 81 3e d6 69 9c bc 97 10 a0 3e 18 ab a4 3d
       0.2525584 -0.019093435 0.31262657 0.08040446
0003b0 5e cc 71 3e 93 b6 b6 3d 81 bd a4 3e ed 38 48 3e
       0.23613116 0.08921542 0.3217583 0.19552965
0003c0 9c d0 66 be f4 83 1b be a2 28 1e bd 12 a6 5f bd
       -0.22540516 -0.15187055 -0.03861297 -0.054601736
0003d0 e6 89 20 3e 54 b0 b7 bd b3 7b 9f 3d 1d 63 94 3e
       0.15677604 -0.08969179 0.07787266 0.28981867
0003e0 08 2e 8b 3d 57 9f 23 3e 0c 82 25 3e f7 c0 c0 3c
       0.06795889 0.15978752 0.1616289 0.023529513
0003f0 a3 b4 27 3e 72 95 28 bd 87 6a 39 be 23 42 95 3e
       0.16377501 -0.041158147 -0.18107043 0.2915202

linear2.weight f4 [3, 256]
000000 78 cc 26 be 05 bf 9b bd 9e 82 f0 3d ed e7 f1 3c
       -0.16288936 -0.076047935 0.11743663 0.029529536
000010 79 3f b6 bd 62 68 88 bc dc 9d 95 bd b7 ef 7f 3d
       -0.08898825 -0.016651336 -0.073055 0.06248447
000020 1d 31 5c 3d 9b 50 38 bc f8 08 74 bd a6 39 c7 bd
       0.053757776 -0.011249687 -0.059578866 -0.097277924
000030 94 de e9 3b 5a c1 86 bd d8 0e c0 bd 24 53 54 bd
       0.007137129 -0.06579848 -0.09377831 -0.0518371
000040 6d d9 94 3d 29 05 64 3d c3 9c 90 bd ca e4 79 bd
       0.07268033 0.055668984 -0.0706115 -0.061009206
000050 1f fd 12 bd d6 13 20 bc e0 da c8 3d d6 ff af bd
       -0.035885926 -0.009770354 0.09807372 -0.08593719
000060 48 f7 4f 3c 65 1d 2e be 72 3c 9f bd 5e 13 62 bd
       0.012693234 -0.170034 -0.07775201 -0.05519425
000070 db f0 e3 3c da b4 04 bb 17 04 be bd 6f d0 9d 3d
       0.02782481 -0.0020249397 -0.09278124 0.07705771
000080 8c ed 08 3d 58 c8 33 be 65 4a 08 be 88 08 2b bd
       0.033429667 -0.17556894 -0.1330963 -0.041756183
000090 76 a9 a3 bd d5 b8 8e bd f1 5c e8 bd bd 0a 91 bc
       -0.079913065 -0.06968848 -0.11345852 -0.017705316
0000a0 de bc c6 bc 31 1a a3 bd 0a c3 90 bd 10 e8 e8 bc
       -0.02425998 -0.0796398 -0.07068451 -0.028430969
0000b0 97 29 46 bd f6 2c 9a bd a1 27 0f 3e e5 f6 36 bd
       -0.048379507 -0.07528107 0.13979961 -0.04466905
0000c0 9c ca 43 3d 57 0b db bd 70 37 19 3d a7 73 5f bd
       0.047800645 -0.10695522 0.037406385 -0.054553654
0000d0 03 b2 19 bd 29 3f 17 be 38 a1 07 bc f5 ff ba bc
       -0.03752328 -0.14770187 -0.008278184 -0.022827128
0000e0 05 e2 8e bd ce 65 4d bd fd 17 8f 3c 7c 68 62 3d
       -0.069767036 -0.050145917 0.017467493 0.055275425
0000f0 f9 b0 bd bd cc 9a cd bd 12 b6 db bd e3 a1 63 3c
       -0.092622705 -0.10039291 -0.107280865 0.013893577
000100 05 d0 75 bd 5e 58 32 be f0 be 96 bd f0 1b cd bd
       -0.060012836 -0.17416522 -0.07360637 -0.10015094
000110 cf fe 2d bd 46 93 1f 3e 76 c3 14 bd 9d 02 64 bb
       -0.042479333 0.15583524 -0.03631922 -0.0034791597
000120 c0 d5 b9 bd 4b e3 27 be 89 80 e0 bd 86 c4 14 3e
       -0.09073973 -0.16395299 -0.10962016 0.14528093
000130 0d 2f dd 3d 91 a1 e2 bd 30 31 d3 bd 00 71 aa bd
       0.1079999 -0.110659726 -0.10312116 -0.08322334
000140 7d 74 ba bd 82 38 10 be 81 89 90 bd 94 4b 4a bd
       -0.091042496 -0.14084056 -0.07057477 -0.049388483
000150 38 21 10 bd 2e e4 81 bb ce 7f 27 be d3 00 d1 bd
       -0.03518793 -0.0039639687 -0.16357347 -0.10205235
000160 b1 21 a3 bc 27 d1 19 3d 8a 65 0b bd fc 3a 98 bd
       -0.019913526 0.03755298 -0.034032382 -0.074331254
000170 af 3b 12 be 8b cd 12 3c db 84 05 be 46 c7 ba 3c
       -0.1428058 0.008960138 -0.13038962 0.0228001
000180 d9 94 e8 bd 40 14 f5 bd d8 42 79 3c b9 57 19 be
       -0.113565154 -0.11966753 0.015213691 -0.1497487
000190 4b d3 0e 3d 7b 1f c2 bd cc 15 27 bd 6e 90 1a bd
       0.034869473 -0.09478661 -0.04079227 -0.037735395
0001a0 31 b2 d3 3d b8 a0 8b bc f7 6c 81 bc 93 b6 56 3d
       0.10336722 -0.01704441 -0.015799029 0.05242021
0001b0 e2 1a c4 3d d7 3f f1 bc 51 b6 51 bd 4d 4e f7 bd
       0.0957544 -0.029449387 -0.05119926 -0.120754816
0001c0 2d e6 dc bd 14 fd 65 bd 59 be 49 3d 37 79 3e bd
       -0.1078609 -0.056149557 0.049253795 -0.04650232
0001d0 07 e1 ae bc b2 b3 bb ba 5a 7c 11 be 43 71 5c bc
       -0.021347536 -0.0014320521 -0.14207593 -0.013454738
0001e0 a3 71 b0 bd d1 94 fc bd 61 49 a9 bd 8e 61 fd bd
       -0.086154245 -0.12333072 -0.08265949 -0.12372123
0001f0 82 a9 79 3c 7a 2b 96 3d 86 65 68 bc 32 3d 97 bd
       0.015238168 0.07332511 -0.014184361 -0.07384719
000200 94 61 37 be aa a1 ea bd 33 fc 80 bc fa 4d 1a bd
       -0.17908317 -0.11456616 -0.015745258 -0.03767202
000210 86 9f d2 3d 8b 00 0b be 9f 52 cc bd c4 2f e9 3d
       0.10284333 -0.13574426 -0.09976696 0.11386064
000220 df 67 1d be 07 d2 0e bb e0 b4 b6 bc 07 2b 00 3c
       -0.15371655 -0.0021792667 -0.022303045 0.0078227585
000230 85 55 4a bc 58 86 af bd 90 cc 29 3d f8 56 b4 bd
       -0.012349491 -0.08570546 0.04145485 -0.088056505
000240 dd 38 18 3c a6 46 08 be 48 ea bc bd c3 41 aa bd
       0.009290901 -0.133082 -0.09224373 -0.08313324
000250 b4 b0 2b be dc fa 0a be a4 c9 bb bc be eb c2 3c
       -0.16766626 -0.13572258 -0.022923298 0.023794051
000260 64 60 1c be ff 54 67 bc cc 91 3c 3e 96 90 ac bd
       -0.15271145 -0.014119386 0.18414992 -0.08426015
000270 ac 52 8b bd dc f2 4d bd 8f ef 85 bd 82 62 be bd
       -0.06802878 -0.050280437 -0.06539833 -0.092961326
000280 ca 8a 0a 3d 15 68 8b bd c1 49 a5 3b cb c4 3b 3d
       0.033823766 -0.068069614 0.0050441925 0.045841973
000290 7c 4d 41 3d 87 cc e6 bd bb cd ae bd 78 8f d6 bd
       0.047193035 -0.11269479 -0.08535334 -0.10476583
0002a0 50 71 07 3d 57 fd 27 3c 6a c0 49 3c c8 5b 41 3d
       0.033067048 0.010253272 0.0123139415 0.04720667
0002b0 df 4b e6 bb 9b e2 ec bb 45 1b 43 bd ec 60 08 be
       -0.0070280875 -0.007229162 -0.047633428 -0.13318223
0002c0 4e 05 2a 3a ee b4 03 bd 39 a9 5d 3c 1c 24 ae bd
       0.0006485776 -0.03215497 0.013529115 -0.08502981
0002d0 6d c2 13 bd 6e e4 d1 bd ec c3 cc 3d 46 82 36 bd
       -0.03607409 -0.10248648 0.09998307 -0.044557832
0002e0 8d d9 26 bd c9 0d c0 bc a8 b5 6b bd 08 bd 41 3c
       -0.040734816 -0.023444073 -0.057546288 0.011824854
0002f0 ad e4 04 be b5 52 f1 3c 85 f8 84 3b 04 57 a4 3c
       -0.12977858 0.029458383 0.004057946 0.020061024
000300 32 17 f2 bc 9d 64 2f bc 89 39 50 bd ab cc b7 bc
       -0.029552076 -0.01070514 -0.05083612 -0.02243646
000310 d9 ef 8c bd 81 89 7a bd 24 f4 bb bc 2a b4 4f bd
       -0.06881685 -0.06116629 -0.022943564 -0.050708927
000320 57 27 ec 3c 6f 29 58 bc 04 85 a3 bd 79 d6 49 bd
       0.028827352 -0.013193472 -0.07984355 -0.049276803
000330 a6 1d 75 3d 12 d0 4b 3d e4 e9 68 3d 96 63 4a bd
       0.059842728 0.04975898 0.05686368 -0.04941138
000340 7d a4 6a bd 01 dc b9 bd 03 90 ac 3d a4 ef e0 bd
       -0.057285774 -0.090751655 0.084259056 -0.10983208
000350 78 e7 15 3e 25 e6 0a 3e cc 2c 00 3d 97 5b 4a 3d
       0.1463908 0.13564356 0.03129272 0.049403753
000360 bc 70 67 3d 29 23 0a 3d 15 6f 82 bc 2b c1 f2 bd
       0.056503996 0.033724938 -0.015922109 -0.1185325
000370 e4 29 03 be 52 fb a1 3c 47 69 4b 3d 49 b7 63 bd
       -0.12808949 0.01977316 0.049660947 -0.055594716
000380 6e 4c c9 bd 23 df 3b 3d c8 82 c5 bc e6 87 f8 bb
       -0.09829031 0.045867097 -0.024110213 -0.0075845597
000390 22 7b 35 3e 81 38 5e bc f1 7c 2b bd cd 26 fc bb
       0.17722753 -0.013563276 -0.0418672 -0.007695055
0003a0 9f ca 2a be 33 3f 3f 3d 7b ac d3 3c 2d e3 6c be
       -0.16678856 0.04669113 0.025839081 -0.23133536
0003b0 1a 5d 94 bd 14 9b fd bd 7b 9c 03 be f9 73 3b bd
       -0.0724432 -0.123830944 -0.12852661 -0.045764897
0003c0 84 11 fc bc 9a e8 a5 bd bb d4 67 bd 3b 1f 88 bd
       -0.03077007 -0.08101006 -0.05659936 -0.06646582
0003d0 95 4c 07 bd 6d 4a c5 bd 7d 2a 9d bd 9c 93 06 be
       -0.03303202 -0.09633336 -0.076741196 -0.13142246
0003e0 e7 1f 2e bd cc 4d 16 be 76 e1 07 be 2f 5d ee 3d
       -0.042510893 -0.14678115 -0.132696 0.11638867
0003f0 47 91 e9 bd 54 ae 17 bd 1e 85 1f 3e 04 8a 08 be
       -0.114046626 -0.037031487 0.15578124 -0.13333899

linear2.bias f4 [3]
000000 62 18 fe bd 6d f4 1c bc 84 73 21 bd
       -0.124069944 -0.00957976 -0.039416805
