model/DuelDQN/checkpoint_2000.pth (torch, 287045 bytes, 9 tensors)

feature.0.weight f4 [256, 16]
0	0xbd16f16b	-0.036851328
1	0xbdb84433	-0.08997383
2	0x3de88867	0.11354142
3	0x3dc55b8a	0.096366
4	0xbe8ed34c	-0.27895582
5	0xbe6d5821	-0.2317815
6	0x3e15b889	0.14621176
7	0xbdea12d3	-0.11429372
8	0xbe5c3e90	-0.2150824
9	0x3e4ef9a9	0.20212425
10	0xbdffe312	-0.12494482
11	0x3dc32922	0.0952933
12	0xbe04e56f	-0.12978147
13	0x3d993a33	0.07481804
14	0x3e709540	0.23494434
15	0xbd19cf5a	-0.03755126
16	0x3ea11a71	0.31465486
17	0xbeecb9e3	-0.4623557
18	0x3e22b99e	0.1589112
19	0x3e1e62d0	0.15467381
20	0xbe9720b7	-0.29517147
21	0xbd74bc38	-0.059749812
22	0x3e034e4d	0.12822838
23	0xbd81b4c3	-0.06333306
24	0x3e34d111	0.17657878
25	0xbad31150	-0.0016103182
26	0xbeabd3d4	-0.3356005
27	0xbd79be31	-0.060972396
28	0x3e22594f	0.15854381
29	0x3d2150dc	0.039383754
30	0x3cbcbbef	0.023038832
31	0xbcc6aeec	-0.024253331
32	0x3e41cefe	0.18926618
33	0xbb6c5403	-0.0036060817
34	0xbeb51d80	-0.3537407
35	0x3d602a40	0.054727793
36	0xbe8798da	-0.26483804
37	0x3e524b43	0.20536523
38	0x3d4f99ec	0.0506839
39	0xbd814281	-0.06311513
40	0x3e19a7eb	0.15005462
41	0xbe340953	-0.17581682
42	0x3ba1dcf1	0.0049396683
43	0x3e0fa20d	0.14026661
44	0x3ca8e734	0.020618059
45	0xbce0ae4f	-0.027426867
46	0xbd6f9bb9	-0.058498118
47	0xbe037bec	-0.12840241
48	0x3c69a92a	0.014261523
49	0xbe0330ab	-0.12811534
50	0x3ddc079d	0.107436396
51	0x3e8d54a4	0.27603638
52	0x3e79b03c	0.24383634
53	0x3e727f1c	0.23681301
54	0x3e3e3d03	0.18577962
55	0xbca2f13f	-0.019890426
56	0x3d9f2352	0.07770409
57	0x3d65ce43	0.05610491
58	0xbe5acd81	-0.21367456
59	0x3e27ff47	0.16405974
60	0xbdd331a6	-0.10312204
61	0xbdfabf1a	-0.12243481
62	0xbd35a0dd	-0.044342864
63	0xbd8a7e47	-0.06762367
64	0x3e61cc82	0.2205067
65	0x3db621e0	0.0889318
66	0xbda990ed	-0.082795955
67	0x3d7a24dd	0.06107031
68	0xbdc30fe9	-0.09524519
69	0xba5c71ab	-0.0008409272
70	0xbe5fc086	-0.21850786
71	0xbda0d9fe	-0.07854079
72	0xbd5493ef	-0.051898893
73	0x3dd57b3c	0.10423896
74	0xbe933515	-0.28751436
75	0x3cab535e	0.020913776
76	0x3e9c0381	0.30471423
77	0x3e7b9ffe	0.24572751
78	0xbe23184e	-0.1592724
79	0xbe20ea8c	-0.15714473
80	0xbd434019	-0.04766855
81	0xbea52350	-0.32253504
82	0x3e9b4bf4	0.30331385
83	0xbe2f207a	-0.17102233
84	0xbd8643dc	-0.06555912
85	0x3c4c7447	0.012478895
86	0x3dd7ad02	0.105310455
87	0xbd887bd0	-0.0666424
88	0x3e181016	0.14849886
89	0xbd13b17a	-0.036057927
90	0xbe4e86c3	-0.20168595
91	0xbd93cd41	-0.072168835
92	0x3da05b28	0.07829887
93	0xbc7a986d	-0.01529513
94	0x3dfe2981	0.1241026
95	0x3e994ca8	0.29941297
96	0xbe5dcede	-0.21660945
97	0x3e8a68e5	0.27033153
98	0x3df0939c	0.11746904
99	0x3e363fd0	0.1779778
100	0xbbb4ebca	-0.0055212723
101	0xbd31a934	-0.043374255
102	0x3bda1da8	0.0066563673
103	0xbd50b69c	-0.0509554
104	0x3c823bc4	0.01589764
105	0xbe33a3d2	-0.17542961
106	0xbd0a100c	-0.03370671
107	0xbd9b6a7b	-0.07588669
108	0xbe945bc3	-0.2897626
109	0xbe18abd9	-0.14909305
110	0xbdc984c3	-0.098397754
111	0xbdeddaa9	-0.11613972
112	0x3e508d93	0.20366506
113	0x3d714929	0.05890766
114	0x3e26ed0c	0.16301364
115	0xbe8fa35c	-0.2805432
116	0xbe8f9a24	-0.28047287
117	0xbe5a304e	-0.2130749
118	0xbe1ac429	-0.15113892
119	0xbe1fd1bf	-0.15607356
120	0xbd852c87	-0.065026335
121	0x3d7e011f	0.062012788
122	0xbd2357ef	-0.039878782
123	0xbd7d970a	-0.06191162
124	0xbc078ade	-0.008272855
125	0x3d210dfc	0.039319977
126	0x3c69db48	0.014273472
127	0x3e8501e9	0.2597802
128	0x3d45ce71	0.04829258
129	0x3dcd039e	0.100104555
130	0xbc3b54c1	-0.011433781
131	0xbeb6ebe0	-0.35726833
132	0xbc0368be	-0.008020578
133	0xbea79705	-0.32732406
134	0x3d994d74	0.07485476
135	0xbc4e4dc1	-0.01259178
136	0xbe18d2a8	-0.14924109
137	0x3d8872c0	0.06662512
138	0xbe7cc3e1	-0.24684097
139	0x3d6a7fc2	0.057250746
140	0x3e0376ae	0.12838241
141	0x3e450076	0.19238457
142	0x3d8c5761	0.06852604
143	0xbd68fd6f	-0.056882318
144	0x3e7fa6e5	0.24966009
145	0x3d5f847c	0.054569706
146	0xbdb3f1f9	-0.08786387
147	0xbe73c783	-0.23806576
148	0xbe0c865f	-0.13723134
149	0xbd8d48da	-0.06898661
150	0xbdf55174	-0.119784266
151	0xbe0aa9d4	-0.13541347
152	0x3c53fb24	0.012938295
153	0xbd843965	-0.0645626
154	0x3de3858d	0.11109457
155	0xbea5cbbf	-0.32382008
156	0xbe7c07c2	-0.24612334
157	0xbb99c2a4	-0.0046923924
158	0xbe6f775d	-0.23385377
159	0xbe2d269f	-0.16909264
160	0xbd36aee3	-0.04460038
161	0x3d28bb75	0.041194398
162	0xbe6d098d	-0.23148175
163	0xbd7f66b6	-0.062353812
164	0xbea196b4	-0.3156029
165	0xbe4e9e5c	-0.20177597
166	0x3e4c28aa	0.19937387
167	0xbea4d222	-0.3219157
168	0xbda5e607	-0.08100515
169	0xbe95bab4	-0.29244006
170	0x3e1a3818	0.1506046
171	0xbe10d352	-0.14143112
172	0xbd5b2f59	-0.05351195
173	0xbe3b058e	-0.18263838
174	0xbc653713	-0.0139901815
175	0x3e061652	0.13094452
176	0x3e356301	0.17713548
177	0xbe6cb6ec	-0.23116654
178	0x3d8971d4	0.06711164
179	0x3dc813dd	0.097694136
180	0xbd80b143	-0.0628381
181	0x3e652b60	0.22379827
182	0x3e86e294	0.2634474
183	0x3df3ce5e	0.11904596
184	0xbe417c78	-0.18895137
185	0xbe25f964	-0.16208416
186	0xbdd416ca	-0.10355909
187	0x3dd6ced3	0.10488667
188	0x3e0ec74d	0.13943215
189	0x3d49659d	0.04916917
190	0xbe2604fa	-0.16212836
191	0xbe2e320c	-0.17011279
192	0x3dae9920	0.085253
193	0x3db83df6	0.08996193
194	0xbe4a83b7	-0.19776808
195	0x3cc491dc	0.023995332
196	0x3dffdde0	0.12493491
197	0xbd98d67e	-0.07462786
198	0xbb811552	-0.003939309
199	0x3e19c30c	0.1501581
200	0xbd9d36d4	-0.07676473
201	0xbe035d51	-0.12828566
202	0x3bcc12c7	0.0062278244
203	0x3db8ffd9	0.09033174
204	0xbe65bed5	-0.22436078
205	0xbe92a2e9	-0.28639916
206	0x3e98db32	0.29854733
207	0x3ed1adc3	0.40952882
208	0x3e48b4fc	0.1960029
209	0xbde4787e	-0.111557946
210	0xbe1a8c0a	-0.15092483
211	0x3d86659f	0.065623514
212	0x3d36c9e7	0.044626143
213	0x3cfd8b33	0.030950164
214	0x3e314b09	0.1731378
215	0x3e1ddbba	0.1541585
216	0x3e41b29c	0.1891579
217	0xbe9c6a68	-0.30549932
218	0x3cbb6358	0.02287452
219	0x3d42026e	0.0473656
220	0xbdbd4f3e	-0.0924363
221	0xbdbaa3e6	-0.091132924
222	0xba29c00d	-0.0006475456
223	0x3e47069d	0.19436117
224	0x3e1f9a82	0.15586284
225	0x3e57fa58	0.21091592
226	0x3dc41405	0.09574131
227	0xbd1c1f52	-0.038115807
228	0xbdeebeb0	-0.116574645
229	0xbbe4b4f7	-0.0069795805
230	0x3d905dc6	0.07049136
231	0xbe3069b7	-0.17227827
232	0xbd18a3d0	-0.0372656
233	0xbcfccb5a	-0.030858684
234	0xbe3611c8	-0.1778022
235	0x3df4f36a	0.1196049
236	0x3da08f1e	0.078397974
237	0x39b35efe	0.00034212315
238	0x3be6cfcd	0.0070438148
239	0x3dad90bc	0.084748715
240	0xbda799a6	-0.08183603
241	0x3e8309a4	0.25593293
242	0xbd7e2bda	-0.06205354
243	0x3dc83691	0.09776033
244	0xbd72dc82	-0.059292324
245	0x3e199af4	0.15000516
246	0x3e921122	0.28528696
247	0xbe09c8f1	-0.1345556
248	0xbdda3b24	-0.106558114
249	0xbdc3e47a	-0.09565063
250	0xbe8187c6	-0.252989
251	0xbbd9155c	-0.0066248607
252	0xbdfcf30f	-0.12351047
253	0x3c1d0830	0.009584472
254	0xbe111427	-0.14167844
255	0x3d8e8465	0.06958846

feature.0.bias f4 [256]
0	0xbe72652e	-0.2367141
1	0x3cc88ef3	0.024482226
2	0xbe00a86b	-0.12564246
3	0x3dff5350	0.124670625
4	0xbea13b69	-0.3149064
5	0x3da6e3e5	0.08148936
6	0xbe0e5804	-0.13900763
7	0xbd830077	-0.06396573
8	0xbd8e8028	-0.069580376
9	0xbc193787	-0.009351618
10	0x3e63a69c	0.22231525
11	0x3e910491	0.28323796
12	0xbe11b540	-0.14229298
13	0x3e59104f	0.21197627
14	0xbece8d18	-0.4034202
15	0x3da71961	0.081591375
16	0xbc7359ec	-0.014852982
17	0x3e894c1c	0.2681588
18	0xbe870496	-0.26370686
19	0xbe310f58	-0.1729101
20	0xbe259980	-0.16171837
21	0xbe04d7ba	-0.12972918
22	0x3cf401fe	0.029786106
23	0xbdad7273	-0.08469095
24	0x3c4fab9a	0.01267519
25	0x3eacc1c7	0.3374159
26	0xbd822dcc	-0.06356391
27	0xbe78c700	-0.24294662
28	0xbdcc4206	-0.099735305
29	0xbec07571	-0.375896
30	0xbdbdaed9	-0.09261865
31	0xbe01b7bf	-0.1266775
32	0xbdc8af40	-0.09799051
33	0xbe80fe86	-0.25194186
34	0xbe551fb8	-0.20812881
35	0xbdb60537	-0.088877134
36	0xbe2c1f7b	-0.16808884
37	0xbdc95b35	-0.098318495
38	0x3e1259dd	0.14292093
39	0xbe606115	-0.21912034
40	0x3e4f4027	0.20239316
41	0xbe27f562	-0.164022
42	0x3e0b05be	0.13576409
43	0x3b30ca30	0.0026975982
44	0xbe20a716	-0.15688738
45	0x3dee17f6	0.11625664
46	0x3e5078ce	0.20358583
47	0x3e95b89c	0.29242408
48	0xbdfb4f37	-0.122709684
49	0xbe9e603c	-0.30932796
50	0x3e930264	0.2871276
51	0xbdfe57a7	-0.12419062
52	0x3cd234db	0.02565997
53	0xbc1f9446	-0.009739941
54	0x3ec34139	0.38135698
55	0xbe4d8da8	-0.20073569
56	0xbe636161	-0.22205116
57	0xbea3c08f	-0.31982848
58	0xbe502235	-0.20325549
59	0xbdad233d	-0.08453987
60	0x3cfd6cfc	0.030935757
61	0x3e28b275	0.16474326
62	0xbc5687b5	-0.0130938785
63	0xbe463938	-0.19357765
64	0x3e3b6ade	0.18302485
65	0x3e9430ed	0.28943577
66	0xbe38c3e4	-0.18043476
67	0xbe253a19	-0.16135444
68	0x3e5411ae	0.2070987
69	0x3e0683ff	0.1313629
70	0xbd706592	-0.058690615
71	0x3e002436	0.12513813
72	0x3e64039f	0.22267006
73	0xbcd88888	-0.02643229
74	0xbe2cf3b1	-0.16889836
75	0xbea9257c	-0.3303641
76	0xbe93c86f	-0.28863856
77	0x3de06719	0.10957164
78	0x3e7349ad	0.23758574
79	0xbd8edbbc	-0.06975505
80	0xbea4f790	-0.32220125
81	0x3e9aa548	0.30204225
82	0xbdaacd18	-0.083399
83	0xbe352113	-0.17688398
84	0x3ea7cd9f	0.32774064
85	0x3d9e9ffc	0.07745358
86	0x3e7cbd72	0.24681643
87	0x3e113f08	0.14184201
88	0x3e96434b	0.29348215
89	0x3e98eb3a	0.29866964
90	0xbe98cd6f	-0.29844233
91	0xbdb64f42	-0.08901836
92	0xbd873930	-0.066027045
93	0xbdf41fcf	-0.119201295
94	0xbda8e75e	-0.08247255
95	0xbe8104d5	-0.25199
96	0xbe3750bf	-0.17901896
97	0xbe3a5710	-0.18197274
98	0xbe4c6564	-0.19960552
99	0xbe12bee7	-0.14330636
100	0xbe531305	-0.20612724
101	0xbe7e653b	-0.24843304
102	0xbd8fc080	-0.07019138
103	0x3e2be2d6	0.1678575
104	0x3e5b9459	0.21443309
105	0x3cd4cbfd	0.025976175
106	0xbde4d504	-0.11173442
107	0x3eb8d5b8	0.36100554
108	0xbea08d52	-0.3135782
109	0xbe39cd44	-0.18144709
110	0xbebffb50	-0.37496424
111	0xbeab0276	-0.33400315
112	0xbd16c5f7	-0.036809888
113	0x3e4e34b0	0.20137286
114	0xbda0b6ed	-0.0784739
115	0xbe4e3b95	-0.20139916
116	0xbe422e90	-0.18963075
117	0xbe48895c	-0.19583648
118	0xbe6b0f44	-0.22955042
119	0xbe0248cb	-0.12723081
120	0x3eab764e	0.33488697
121	0xbd9aedbb	-0.07564875
122	0xbe29e9d7	-0.16593109
123	0xbda5319a	-0.08066101
124	0x3eab073d	0.3340396
125	0x3e895b64	0.26827538
126	0xbe080fb9	-0.13287248
127	0x3de89057	0.11355656
128	0x3ec0dd5e	0.3766889
129	0xbe1d7789	-0.1537763
130	0xbd7e4cd4	-0.062084988
131	0xbe5160b8	-0.20447052
132	0xbe68548b	-0.226885
133	0x3e050c40	0.12992954
134	0xbbb44ed8	-0.005502563
135	0xbd93dcf7	-0.0721988
136	0xbdd6f0c6	-0.10495143
137	0xbe17a2fb	-0.14808266
138	0xbe586c9e	-0.21135184
139	0xbe8acde8	-0.2711022
140	0x3e1566a8	0.14589942
141	0xbdc4e8ed	-0.096147396
142	0xbd58ca5d	-0.052927364
143	0x3e526ffe	0.20550534
144	0x3d5546d5	0.052069504
145	0xbe6d348e	-0.2316458
146	0x3ed4a28f	0.41530272
147	0x3e92ec83	0.2869607
148	0xbd82d984	-0.06389144
149	0xbec059b6	-0.37568444
150	0xbd97b22f	-0.07407033
151	0x3b16faf2	0.0023037759
152	0x3eb70c95	0.35751787
153	0xbecfd9fe	-0.40596002
154	0x3eb89cb4	0.36057055
155	0xbe5b9336	-0.21442875
156	0x3e9cf76a	0.30657512
157	0xbd7c7dea	-0.06164352
158	0xbd8436b1	-0.06455744
159	0x3ecc0f7b	0.3985556
160	0xbe9f1d91	-0.31077245
161	0xbe20bd18	-0.15697134
162	0x3ea310b2	0.31848675
163	0x3df8beb0	0.12145746
164	0xbdf78840	-0.120865345
165	0x3eb6daa5	0.35713688
166	0xbd3ea1ce	-0.046541028
167	0x3e34567d	0.17611118
168	0x3eba49a1	0.363843
169	0x3d124d83	0.035718452
170	0xbe4b7a77	-0.19870935
171	0xbdd66cb8	-0.10469955
172	0x3b613a63	0.0034367077
173	0x3cd2533f	0.02567446
174	0x3eb9eb9b	0.36312565
175	0x3ce5b831	0.02804193
176	0xbe5bf177	-0.2147883
177	0x3ea2733b	0.3172854
178	0xbe343ccb	-0.17601316
179	0x3dde71e0	0.10861564
180	0x3e2c0df7	0.16802202
181	0xbe32e11e	-0.17468688
182	0xbea8c053	-0.32959232
183	0x3e8eaace	0.2786469
184	0xbd720291	-0.05908448
185	0xbedb064b	-0.4277824
186	0xbe73304d	-0.23748894
187	0xbe88cf7c	-0.26720798
188	0x3ea05d8b	0.31321368
189	0xbe073f6c	-0.13207787
190	0xbe087bac	-0.13328427
191	0xbd99c130	-0.07507551
192	0x3ea377b4	0.31927264
193	0x3d39c601	0.045354847
194	0xbd01a226	-0.031648777
195	0xbe401899	-0.18759383
196	0x3cc2a04b	0.023758074
197	0xbed887ea	-0.42291194
198	0x3e983a45	0.29731956
199	0xbe319cf8	-0.17345035
200	0x3e9f9750	0.3117013
201	0x3db91852	0.09037842
202	0xbe523a59	-0.2053007
203	0xbe840f19	-0.2579277
204	0xbe2457bb	-0.16049092
205	0x3db42137	0.08795398
206	0x3e896eba	0.2684229
207	0xbbd18d57	-0.006395023
208	0xbdc38b29	-0.09548027
209	0x3dc2f934	0.09520188
210	0x3dd6e3f7	0.104926996
211	0x3e0b3b0a	0.1359674
212	0xbe8af4a4	-0.2713977
213	0x3eb3fc23	0.35153303
214	0x3daddedb	0.08489772
215	0xbe23c296	-0.15992197
216	0x3e9f1f12	0.31078392
217	0x3e366cdd	0.17814966
218	0xbe317ac2	-0.17331985
219	0x3de7866a	0.11304934
220	0x3df648ef	0.1202563
221	0xbd6d9ddb	-0.05801187
222	0x3d1f0717	0.03882512
223	0xbcdc724d	-0.026909972
224	0xbe54d23f	-0.20783328
225	0xbe8b6e7c	-0.2723273
226	0x3e0f8942	0.14017203
227	0xbe5f3eea	-0.21801344
228	0xbea5474a	-0.32280952
229	0xbe0abb86	-0.13548097
230	0xbe03052b	-0.1279494
231	0x3df9b268	0.121922314
232	0xbe457c61	-0.19285728
233	0x3e44df9b	0.19225924
234	0xbdcb1a99	-0.099171825
235	0x3eb78c49	0.35849217
236	0x3e79c153	0.24390154
237	0xbe6236b0	-0.22091174
238	0xbdc88e52	-0.097927704
239	0xbe1a83dc	-0.15089363
240	0xbd4b8576	-0.049687825
241	0xbe5ea05d	-0.21740861
242	0x3e3f8279	0.18702115
243	0xbe30a755	-0.17251332
244	0x3cdc72d8	0.02691023
245	0xbe7f3bbb	-0.24925129
246	0x3ea17d9f	0.31541154
247	0x3e89a4e3	0.2688361
248	0xbc1a0dee	-0.009402735
249	0xbe0dcc45	-0.13847454
250	0x3e364b31	0.17802121
251	0xbd740555	-0.059575398
252	0x3d9cbabb	0.076528035
253	0x3eaa778d	0.33294335
254	0xbe1f2145	-0.15540035
255	0xbd9abca0	-0.075555086

value.0.weight f4 [128, 256]
0	0x3bb55ae4	0.0055345166
1	0x3ce8c19b	0.02841263
2	0xbd371e31	-0.044706527
3	0x3d112f5c	0.035445556
4	0xbdc56a01	-0.09639359
5	0xbdb74d65	-0.08950309
6	0x3c492594	0.012277026
7	0x3c8d1a81	0.017224552
8	0x3b297cec	0.0025861813
9	0x3d1ebe59	0.03875575
10	0xbe394fd5	-0.1809686
11	0xba4c35e6	-0.0007790014
12	0xbe0c8628	-0.13723052
13	0xbb21eda2	-0.002470829
14	0x3d7ad979	0.061242554
15	0x3d675771	0.056479875
16	0x3bbc23c6	0.005741569
17	0xbd903fcb	-0.070434175
18	0x3c9a1448	0.018808499
19	0xbaf38715	-0.0018579686
20	0x3d728fdc	0.059219226
21	0xbd6d4eb8	-0.0579364
22	0x3be29674	0.006914908
23	0xbd05cc4a	-0.03266553
24	0xbcee3af9	-0.029080855
25	0xbcb8f531	-0.022577854
26	0xbce9d055	-0.028541723
27	0x3b00ec83	0.0019672222
28	0xbd9ad15d	-0.07559464
29	0xbc26d960	-0.010183662
30	0xbd392a57	-0.045206394
31	0x3d4b1560	0.04958093
32	0x3d4fa5f2	0.050695367
33	0x3ce84e83	0.02835775
34	0xbda10e6f	-0.07864081
35	0xbdc78cb9	-0.097436376
36	0x3d818c9e	0.06325649
37	0xbd8a5bef	-0.06755816
38	0xbcb93835	-0.02260981
39	0xbcd2f931	-0.02575359
40	0xbd0e3e01	-0.0347271
41	0xbd631d81	-0.05544806
42	0xbc96e23e	-0.018418428
43	0xbdf3038c	-0.11865911
44	0xbd34c63f	-0.044134375
45	0x3d3d300d	0.046188403
46	0x3cbe87d4	0.023258127
47	0x3ce75389	0.028238075
48	0xbc7e32f2	-0.015515076
49	0x3cf5e1d1	0.030014904
50	0x3ca57381	0.020196678
51	0x3c82c220	0.015961707
52	0x3caed150	0.021340042
53	0xbe50a71c	-0.20376247
54	0x3baaba10	0.0052101687
55	0xbd46ca71	-0.048532907
56	0xbd764298	-0.060122102
57	0xbd39556d	-0.045247484
58	0x3d628d2c	0.055310413
59	0x3d56cbea	0.05244056
60	0xbe107245	-0.1410609
61	0xbda48a4f	-0.08034193
62	0x3d2478ff	0.040154453
63	0x3d51746c	0.05113642
64	0x3d7ba7fb	0.061439496
65	0xbd20f70e	-0.03929811
66	0x3cbc8c06	0.023015987
67	0x3ca17215	0.019707719
68	0xbc00ce94	-0.007861752
69	0x3b9e8e8c	0.0048387703
70	0xbd768a0a	-0.060190238
71	0xbd420f76	-0.047378026
72	0xbdadd54c	-0.08487949
73	0x3c9cc782	0.019138101
74	0x3d80cf44	0.06289533
75	0xbd443281	-0.047899727
76	0xbc5a31ce	-0.013317538
77	0xbc8a2e84	-0.016867884
78	0xbdacde87	-0.08440881
79	0x3ce06b3a	0.02739488
80	0x3da2fc9e	0.07958339
81	0xbd12f864	-0.035881415
82	0xbb9162f4	-0.004436845
83	0xbd439c6c	-0.047756597
84	0xbd94ee3d	-0.07272003
85	0xbd59c4a2	-0.05316604
86	0x3d6741c9	0.056459222
87	0xbd2ed199	-0.042680357
88	0x3ccdacdd	0.025106842
89	0xbc7609f8	-0.015017025
90	0x3d066fd9	0.03282151
91	0x3d47b1ad	0.04875343
92	0xbcabb87f	-0.020961998
93	0xbe045d87	-0.12926303
94	0xbd25328f	-0.04033142
95	0x3c1d3ad1	0.009596542
96	0xbd8a5cfc	-0.067560166
97	0xbd2cc8ec	-0.0421838
98	0x3d4c1979	0.04982898
99	0xbd95f9af	-0.07323014
100	0xbc78ab72	-0.0151775945
101	0x3ad7d7d4	0.001646752
102	0xbce94107	-0.02847339
103	0xbd20b5a7	-0.039235737
104	0xbd567169	-0.05235425
105	0xbde57f8c	-0.11205968
106	0xbbfe825d	-0.0077670054
107	0x3d585d2a	0.052823223
108	0xbdc2c6fa	-0.09510608
109	0xbd8ad199	-0.06778259
110	0x3ac0a4ef	0.0014697592
111	0x3d5ba35b	0.053622585
112	0xbdb87269	-0.09006197
113	0xbcbd335a	-0.023095775
114	0xbdf2de03	-0.118587516
115	0xbd02f41d	-0.031971086
116	0xbdd9f126	-0.106416985
117	0xbd9b6cb5	-0.075890936
118	0xbcce106c	-0.025154315
119	0xbd45659f	-0.048192617
120	0xbd8de2a4	-0.06927994
121	0xbd6461b3	-0.055757236
122	0x3c9e8c1e	0.019353922
123	0xbd0b5a67	-0.03402176
124	0x3d4fd76a	0.050742544
125	0xbadca444	-0.0016833623
126	0x3d64d91f	0.055871125
127	0xbd7c5871	-0.06160778
128	0xbe54b826	-0.20773372
129	0xbde60315	-0.112310566
130	0x3d2c9f51	0.042144123
131	0xbd465e58	-0.048429817
132	0x3d1e726f	0.03868335
133	0xbcae22c4	-0.021256812
134	0xbddbbb71	-0.10729111
135	0x3d9deffa	0.077117875
136	0xbd5ecd56	-0.054395042
137	0xbd703b37	-0.05865022
138	0xbdee3273	-0.11630716
139	0xbd87d2c8	-0.06632
140	0xbe19aacc	-0.1500656
141	0x3db45b2d	0.08806453
142	0xbb9897ec	-0.0046567824
143	0xbd88e37f	-0.066840164
144	0xbcc44c38	-0.023962125
145	0xbd6cd095	-0.057816107
146	0xbd6fd089	-0.058548484
147	0xbb58987c	-0.0033049872
148	0x3d859b73	0.0652379
149	0xbdb025d5	-0.08600966
150	0xbe060154	-0.13086444
151	0xbc826177	-0.015915615
152	0xbb57ee54	-0.003294845
153	0x3d0205a5	0.031743664
154	0xbd8d4ac4	-0.06899026
155	0xbdaf8239	-0.0856976
156	0x3ca81e79	0.020522343
157	0xbc9ece2d	-0.019385422
158	0xbd09b911	-0.03362376
159	0xbd8f3b04	-0.06993678
160	0xbd965f09	-0.07342345
161	0xbcc4edf5	-0.024039248
162	0xbcd90bbf	-0.026494859
163	0xbc672a65	-0.014109229
164	0x3c268229	0.010162869
165	0xbd2f4abc	-0.04279588
166	0xbcf15e23	-0.029463833
167	0xbddfa2e3	-0.1091974
168	0xbd021b27	-0.031764176
169	0x3bb0f205	0.0053999447
170	0x3d96f759	0.073713966
171	0xbd503f92	-0.050841875
172	0x3e05a04e	0.13049433
173	0xbd2e4c38	-0.042553157
174	0x3c273a32	0.010206746
175	0x3d074c44	0.033031717
176	0xbc248b83	-0.010043028
177	0x3d049ebc	0.032377943
178	0x3ca5050a	0.020144004
179	0xbd187e7c	-0.03723
180	0xbdb76193	-0.08954158
181	0xbc3057d3	-0.010763126
182	0x3cccf5ca	0.025019545
183	0xbdcb116c	-0.09915432
184	0xbe0d6908	-0.13809597
185	0xbdaa004f	-0.0830084
186	0x3d070842	0.03296686
187	0xbcf9364a	-0.030421395
188	0x3cf0fd90	0.029417783
189	0x3d9affbe	0.0756831
190	0xbcfbe208	-0.030747429
191	0x3bacb31b	0.0052703745
192	0xbb910d5f	-0.004426643
193	0xbdd165d1	-0.10224498
194	0xbe076b1a	-0.1322445
195	0xbe1e54f1	-0.1546209
196	0xbd5e6c87	-0.05430272
197	0xbce96549	-0.02849068
198	0x3a8bed83	0.0010675642
199	0xbd49922d	-0.04921167
200	0x3bb486e2	0.0055092433
201	0xbd214c25	-0.039379258
202	0xbdb6bba2	-0.08922507
203	0x3d1cd710	0.038291037
204	0xbd9ba939	-0.07600636
205	0xbd0825ee	-0.033239298
206	0x3bcb2809	0.006199841
207	0xbc1b2332	-0.00946884
208	0x3bc423b9	0.005985704
209	0xbc4576f1	-0.012052284
210	0xbd93175a	-0.07182188
211	0xbcc1edc9	-0.023672955
212	0xbd3cdeb5	-0.046110827
213	0xbd99cc96	-0.07509725
214	0xbdb666c2	-0.08906318
215	0xbd459c42	-0.048244722
216	0xbdfd5abb	-0.12370821
217	0x3d4595df	0.04823863
218	0x3cd24b18	0.025670573
219	0xbc6d22b8	-0.01447361
220	0x3cfe3647	0.03103174
221	0xbd5639f9	-0.05230138
222	0x3ca8495f	0.020542799
223	0xbda51ec0	-0.08062506
224	0xbb84acde	-0.0040489277
225	0xbd3a1e2d	-0.045438934
226	0xbdc50860	-0.09620738
227	0xbd83cd97	-0.064356975
228	0xbe261e56	-0.1622251
229	0x3dbb43d5	0.09143797
230	0xbd7c5793	-0.061606955
231	0x3d7d4eb6	0.061842643
232	0xbcb84629	-0.022494392
233	0xbcb4be0b	-0.022063276
234	0xbdff49f1	-0.12465275
235	0x3bca8253	0.0061800866
236	0x3d0e385c	0.034721717
237	0xbd56a00e	-0.052398734
238	0x3c8e0c4a	0.017339844
239	0x3d089867	0.033348467
240	0x3d177174	0.03697343
241	0x3d3a6f5e	0.045516364
242	0xbdb114f2	-0.08646573
243	0xbc8ad347	-0.016946448
244	0xbdd639e2	-0.10460259
245	0xbd542d8d	-0.051801253
246	0x3d5035d5	0.05083259
247	0x3d66bc76	0.056332074
248	0xbe8abd8f	-0.27097747
249	0x3c501928	0.01270131
250	0xbd7ef45e	-0.062244765
251	0xbe29c2d0	-0.16578221
252	0x3cf4c7eb	0.029880485
253	0xbd1d1bb3	-0.038356494
254	0xbd766286	-0.060152553
255	0xbc824d2a	-0.015905935

value.0.bias f4 [128]
0	0xbb0c5e97	-0.0021418685
1	0xbb7d2346	-0.003862576
2	0xbcd39575	-0.025828103
3	0xbcdcb064	-0.026939578
4	0x3e8bb987	0.27289984
5	0xbd77dbbf	-0.0605123
6	0xbc572c84	-0.013133172
7	0xbd136069	-0.035980616
8	0xbd7ad778	-0.061240643
9	0xbd56bff0	-0.05242914
10	0x3ad7c8f9	0.0016463093
11	0xbd344a4a	-0.04401616
12	0xbcb94bce	-0.022619154
13	0xbc4489d2	-0.01199575
14	0xbd2ca4c0	-0.042149305
15	0xbc823635	-0.015894989
16	0x3d16961f	0.03676426
17	0x3e8a44be	0.2700557
18	0xbcb61292	-0.022225652
19	0xbc49b977	-0.012312285
20	0xbd92bde0	-0.07165122
21	0x3e4b73f8	0.19868457
22	0x3cc8f8d8	0.02453272
23	0x3e7e8ba2	0.24857953
24	0xbd2eb4ce	-0.042652898
25	0xbca23d8a	-0.019804735
26	0xbd484831	-0.048896972
27	0x3e427f37	0.18993841
28	0x3e8e80b4	0.27832568
29	0xbc6ea438	-0.01456552
30	0x3e86a930	0.26300955
31	0x3e45daa5	0.19321688
32	0xbcb6004f	-0.022216944
33	0x3e2df6cb	0.16988675
34	0xbcd96c05	-0.026540766
35	0xbd802876	-0.06257717
36	0xbc327361	-0.010891766
37	0x3db7b233	0.08969536
38	0xbd8c4e8b	-0.068509184
39	0xbd7e0a9c	-0.062021837
40	0xbd8869c5	-0.06660799
41	0xbd372750	-0.044715226
42	0xbb0624db	-0.0020468745
43	0x3e66a94a	0.22525516
44	0xbbb36fd3	-0.005475977
45	0x3c155b57	0.009116015
46	0xbc22bc64	-0.009932611
47	0xbd15bd7b	-0.036557656
48	0x3e2bb44f	0.16768001
49	0xbd5f719a	-0.0545517
50	0xbdb1acfb	-0.086755715
51	0x3e59d3b3	0.21272163
52	0xbc5fde43	-0.013663831
53	0x3e8dfd2d	0.2773222
54	0xbd71760c	-0.05895047
55	0xbb54e18b	-0.0032483067
56	0xbdb263e7	-0.08710461
57	0x3e4ad765	0.19808729
58	0xbd9a5c29	-0.075371094
59	0x3e82632b	0.25466284
60	0xbd9acb09	-0.07558257
61	0x3c75dae0	0.015005797
62	0xbd79f86f	-0.06102794
63	0x3e7ba9e2	0.24576524
64	0xbd7ba4c6	-0.061436437
65	0xbd2c1173	-0.04200883
66	0xbcce0c4d	-0.02515235
67	0xbd765d64	-0.060147658
68	0xbd8cc9c7	-0.068744235
69	0x3ca4486b	0.020054063
70	0x3e12b0ec	0.14325303
71	0x3be69b25	0.0070375376
72	0x3c26ef0a	0.010188827
73	0x3c508a66	0.012728309
74	0xbd856073	-0.06512537
75	0x3d020ea1	0.031752232
76	0x3e7a23f6	0.2442778
77	0xbabcf855	-0.001441727
78	0x3e46e775	0.19424231
79	0xbb860676	-0.0040901257
80	0xbd0d1d69	-0.034451876
81	0x3e2f3566	0.17110214
82	0xbd7f4e44	-0.0623305
83	0xbc59b763	-0.013288352
84	0x3c9e22e0	0.01930374
85	0xbd73aaf6	-0.059489213
86	0xbd685d6c	-0.05672972
87	0xbd995f41	-0.07488871
88	0x3b89517c	0.004190622
89	0x3e8478b6	0.25873345
90	0x3e81696e	0.2527575
91	0xbd8f9b8e	-0.070120916
92	0xbd2494fb	-0.04018114
93	0xbd792008	-0.060821563
94	0xbc95babd	-0.01827752
95	0x3e24c3fc	0.16090387
96	0x3e8bc2e3	0.27297124
97	0xbc634e2b	-0.013873617
98	0x3cbc3815	0.02297596
99	0xbd8c4082	-0.068482414
100	0xbb9cd44a	-0.004786049
101	0x3d061903	0.032738697
102	0x3e86fcb2	0.26364666
103	0x3e802b2e	0.25032943
104	0x3e3b9593	0.18318777
105	0x3bf32836	0.007420565
106	0x3cb79b7c	0.022413008
107	0x3e207414	0.1566928
108	0x3bc914ac	0.0061364975
109	0xbdc56ec2	-0.09640266
110	0x3e3c0f0c	0.18365115
111	0xbda1761f	-0.07883858
112	0x3cb42def	0.02199456
113	0x3c80bc78	0.015714869
114	0xbc8e2a3d	-0.017354125
115	0x3dfddf6e	0.123961315
116	0xbce31dee	-0.027724233
117	0x3e8fc191	0.28077367
118	0xbd2fa225	-0.042879242
119	0x3e739d78	0.23790538
120	0x3c65f15b	0.014034594
121	0x3e8609e3	0.26179418
122	0xbc411a3a	-0.011786038
123	0xbdb26218	-0.08710116
124	0xbda7ed49	-0.081995554
125	0xbd4244d9	-0.04742894
126	0xbb94689d	-0.0045290724
127	0xbb812f5b	-0.003942413

value.2.weight f4 [1, 128]
0	0x3936d743	0.00017437064
1	0x3d6d6c32	0.05796451
2	0xbeeea2e3	-0.46608648
3	0xbd02f39b	-0.0319706
4	0x3e248af1	0.16068627
5	0xbdba5617	-0.090984516
6	0x3c0bcf0b	0.00853325
7	0x39f4e08c	0.00046706607
8	0x3d895fda	0.06707735
9	0xbf081ea5	-0.5317176
10	0xbefc1d79	-0.49241236
11	0xbef332b5	-0.47499624
12	0xbd22b76f	-0.039725717
13	0xbd08a53f	-0.033360716
14	0xbdc3c79b	-0.09559556
15	0x3cdde2d3	0.027085697
16	0x3d5c9872	0.05385632
17	0x3db8474a	0.08997972
18	0xbf1733a1	-0.59063154
19	0xbd8b64c1	-0.06806327
20	0xbe0234f4	-0.12715513
21	0x3de04a11	0.10951627
22	0xbcb79a96	-0.02241258
23	0x3d6cc674	0.057806447
24	0xbf069609	-0.52572685
25	0xbed83de1	-0.4223471
26	0xbcc57a66	-0.024106216
27	0x3dca3897	0.09874075
28	0x3de4121f	0.11136269
29	0xbf145cc0	-0.57954025
30	0x3e11ceab	0.14238994
31	0x3da83b2a	0.0821441
32	0xbf001946	-0.50038564
33	0x3deab12a	0.114595726
34	0xbc82c5e4	-0.015963502
35	0xbcbc453a	-0.022982229
36	0xbf094de6	-0.5363449
37	0x3abe0bd7	0.0014499378
38	0xbed47c08	-0.41500878
39	0xbeff84a8	-0.49905896
40	0xbf077bb2	-0.5292312
41	0x3d8d3c49	0.06896264
42	0x3d72c9f8	0.059274644
43	0x3dffa794	0.12483135
44	0x3d289b2c	0.04116361
45	0xbeb79810	-0.35858202
46	0xbf06442e	-0.52447784
47	0xbedf8f69	-0.436641
48	0x3daf2376	0.085516855
49	0xbf0aa993	-0.54165
50	0xbd9ada98	-0.07561225
51	0x3d844a5a	0.06459494
52	0xbd76789f	-0.060173627
53	0x3e0e5e38	0.13903129
54	0xbdafe905	-0.08589367
55	0x3888c454	6.521554e-05
56	0xbedbe7c8	-0.42950273
57	0x3d828584	0.06373122
58	0xbede0ab7	-0.4336755
59	0x3e120f73	0.14263706
60	0xbe8c0d9f	-0.27354142
61	0xbe511fec	-0.20422333
62	0xbec68887	-0.38776037
63	0x3dc5ba8e	0.09654723
64	0xbf175d7e	-0.5912703
65	0xbcfe4e06	-0.031043064
66	0xbf08dab3	-0.5345871
67	0xbeba116e	-0.36341423
68	0xbf09143e	-0.5354651
69	0xbc8a9940	-0.016918778
70	0x3d8c5b44	0.06853345
71	0xbeb4fdaa	-0.3534978
72	0xbd1f3580	-0.03886938
73	0x3d8583de	0.06519292
74	0xbda68303	-0.08130457
75	0xbba22af8	-0.00494897
76	0x3da57963	0.08079793
77	0xbf0a6da7	-0.54073566
78	0x3dee48bd	0.116349675
79	0xbd797525	-0.060902733
80	0xbe323eec	-0.17406815
81	0x3ddd9560	0.10819507
82	0x3d51ee81	0.051252846
83	0x3dd03bee	0.10167681
84	0xbd8afd09	-0.06786544
85	0xbddd3871	-0.10801781
86	0x3d90ac1e	0.07064079
87	0xbee486dc	-0.4463414
88	0xbeb0193e	-0.34394258
89	0x3e17820a	0.147957
90	0x3d9785a1	0.073985346
91	0xbee92175	-0.45533338
92	0xbef50e45	-0.4786245
93	0x3cdfdc73	0.027326798
94	0xbec5a1af	-0.38599917
95	0x3d4bab8b	0.049724143
96	0x3e0225a7	0.12709676
97	0x3d61402c	0.05499284
98	0xbc98abed	-0.018636668
99	0x3d928d66	0.07155876
100	0xbeb0940c	-0.3448795
101	0xbc8b5f33	-0.017013168
102	0x3ddc6427	0.1076129
103	0x3dc633cf	0.096778505
104	0x3e0a5bdd	0.13511606
105	0xbd777548	-0.060414582
106	0x3d887734	0.06663361
107	0x3daef795	0.08543316
108	0x3ba40edc	0.005006654
109	0xbedca0d4	-0.43091452
110	0x3d5192ae	0.051165275
111	0xbdbd594b	-0.09245547
112	0xbd70191e	-0.058617704
113	0xbeedc391	-0.46438268
114	0xbe22a5c7	-0.15883552
115	0x3db8caed	0.0902308
116	0xbd15d5d2	-0.036580868
117	0x3e058d74	0.13042241
118	0xbd9365f9	-0.07197184
119	0x3d9b132e	0.075720176
120	0x3a30117a	0.00067164714
121	0x3e1780be	0.14795205
122	0xbf0f6c7d	-0.56024915
123	0xbf0bbe94	-0.54587674
124	0xbeb8dc42	-0.36105543
125	0xbf08560a	-0.53256285
126	0xbf0372a3	-0.51346797
127	0xbd8c0051	-0.06835998

advantage.0.weight f4 [128, 256]
0	0x3ce0a9ea	0.027424771
1	0xbc8a5b39	-0.016889201
2	0x3da60189	0.081057616
3	0xbd2d639b	-0.04233132
4	0x3cf80b83	0.030278927
5	0xbe5fdc0e	-0.21861288
6	0xbdcb9179	-0.09939856
7	0xbc6697e5	-0.0140743
8	0xbd014161	-0.03155649
9	0xbd6b811d	-0.05749618
10	0xbd070f12	-0.032973357
11	0x3ddc7394	0.10764232
12	0xbc8fbe0a	-0.017546672
13	0x3ce49824	0.027904578
14	0xbd5b0379	-0.05347011
15	0xbcf47588	-0.0298412
16	0xbdc270b9	-0.094941564
17	0xbd00e7ae	-0.031470947
18	0x3cc773f0	0.024347275
19	0x3c2e54b3	0.010640311
20	0x3de9016c	0.11377224
21	0x3db363c8	0.08759266
22	0xbd619700	-0.055075645
23	0xbd82b07b	-0.06381317
24	0xbdd0675d	-0.10175965
25	0x3dcb23fe	0.09918974
26	0xbd0c3c56	-0.03423723
27	0x3d28a8a0	0.04117644
28	0xbdeef0b7	-0.116670065
29	0xbdab5dae	-0.08367477
30	0xbe02dc91	-0.12779452
31	0xbe234b08	-0.15946591
32	0xbd377210	-0.044786513
33	0xbdd9a626	-0.106273934
34	0xbcb864e3	-0.022509044
35	0xbd6585c5	-0.056035776
36	0xbe1418a3	-0.14462523
37	0x3de69683	0.112591766
38	0xbd2db9ab	-0.042413395
39	0x3a725ac1	0.0009245091
40	0x3d0d1d4d	0.03445177
41	0x3d8d53c0	0.0690074
42	0x3d9e9dc9	0.07744939
43	0x3dc825e4	0.09772852
44	0xbd4c1506	-0.049824737
45	0x3e0fff4c	0.14062232
46	0x3d944460	0.07239604
47	0xbdbd55d5	-0.09244887
48	0x3e223ce7	0.15843545
49	0x3b0e7407	0.0021736638
50	0x3d949f9e	0.07257007
51	0x3dac3c12	0.08409895
52	0x3c4c9fa8	0.012489237
53	0x3d442fa1	0.047896985
54	0xbd5242da	-0.051333286
55	0x3c5aa1f5	0.013344278
56	0xbd7014cd	-0.058613587
57	0xbdbb7d4c	-0.09154758
58	0xbd7e5279	-0.06209037
59	0x3cfced3a	0.030874837
60	0xbdac1cee	-0.084039554
61	0x3dce3e96	0.10070531
62	0xbd5d764d	-0.0540679
63	0xbb973b21	-0.004615203
64	0x3c29bf53	0.010360557
65	0x3e04b8ce	0.12961122
66	0xbd83d353	-0.06436791
67	0xbe0f7040	-0.14007664
68	0xbdeaa1dc	-0.114566535
69	0x3c801b04	0.015637882
70	0xbd9f2b41	-0.07771922
71	0xbce9527b	-0.028481713
72	0x3c98c6a6	0.01864941
73	0xbd8b10d3	-0.06790318
74	0x3d1d1f49	0.038359914
75	0x3d20075d	0.039069522
76	0x3db1260f	0.08649837
77	0x3d3750da	0.04475484
78	0xbe1aaa02	-0.15103915
79	0xbd9e5fb4	-0.07733098
80	0x3d891575	0.06693546
81	0x3caa80e3	0.020813411
82	0x3dcd26b5	0.100171484
83	0x3d846923	0.06465366
84	0x3ce1731c	0.027520709
85	0x3d1b75fd	0.03795432
86	0x3ced1d8b	0.028944751
87	0x3d401746	0.046897195
88	0x3d57e9a0	0.052713037
89	0x3d6a0dab	0.05714194
90	0x3c8bc02a	0.017059404
91	0xbe05ee0e	-0.13079092
92	0x3b01368b	0.0019716348
93	0xbcb6e779	-0.022327172
94	0xbd857d17	-0.065179996
95	0xbc381c80	-0.011237264
96	0x3e21e1cf	0.15808795
97	0xbd99e248	-0.07513863
98	0x3c88862c	0.01666554
99	0x3d3ce95f	0.046120998
100	0xbd6e2a46	-0.058145784
101	0xbdb14bc7	-0.086570315
102	0xbdd5bf15	-0.10436837
103	0x3de10221	0.10986734
104	0x3d1210c0	0.035660505
105	0xbe09c0e6	-0.13452491
106	0x3daaae78	0.083340585
107	0x3c858f64	0.016303726
108	0xbd1a2eac	-0.037642166
109	0xbe0f274a	-0.13979831
110	0xbd155186	-0.0364547
111	0x3e0e513d	0.13898177
112	0xbc894f54	-0.01676146
113	0x3d097338	0.033557147
114	0x3d74984d	0.059715558
115	0x3e03cccd	0.12871094
116	0xbe0c24cd	-0.13685913
117	0xbd8f1ca7	-0.06987887
118	0xbc1ff2d2	-0.009762483
119	0xbde9e8ca	-0.11421354
120	0xbd15f06b	-0.036606234
121	0x3e143e35	0.14476855
122	0xbcfc4fcd	-0.03079977
123	0x3d5e98d1	0.054344956
124	0x3b97b7e3	0.0046300753
125	0x3d4271ea	0.04747192
126	0xbdb3f183	-0.08786299
127	0x3d859f76	0.065245554
128	0xbe722b4d	-0.2364933
129	0xbcd75764	-0.026286788
130	0xbd1dabf9	-0.038494084
131	0x3d10aedd	0.035323013
132	0xbd64e917	-0.055886354
133	0x3d233799	0.039847944
134	0xbd3bfab4	-0.045893386
135	0xbcd66b47	-0.0261742
136	0x3cf941ed	0.030426944
137	0xbcd83659	-0.026393102
138	0x3c8f6cf1	0.017508002
139	0xbd9353c2	-0.0719371
140	0xba15db9c	-0.0005716623
141	0xbdaa513c	-0.083162755
142	0x3e09a615	0.13442262
143	0x3dde890a	0.10865982
144	0xbe256b16	-0.16154131
145	0xbdcf6da8	-0.10128337
146	0xbdb9d5c1	-0.090739734
147	0xbd393ab7	-0.04522201
148	0x3e54dc6e	0.20787212
149	0x3e3ee4e3	0.18642001
150	0xbda77272	-0.081761256
151	0xbdd19118	-0.102327526
152	0x3d3b3201	0.045701984
153	0x3d340ffe	0.043960564
154	0xbd490f2e	-0.049086742
155	0xbcc73837	-0.024318798
156	0x3ceeaf4c	0.029136322
157	0x3ddc8ec8	0.10769421
158	0xbc8a6780	-0.016895056
159	0x3d9e703f	0.07736253
160	0xbe26a44d	-0.16273613
161	0x3d22843e	0.039676897
162	0x3cccd553	0.025004065
163	0x3cf2673d	0.029590243
164	0xbc97c29c	-0.018525414
165	0x3d81cb48	0.06337601
166	0xbd65c8ff	-0.056099888
167	0xbd6e7353	-0.05821545
168	0xbd7bff3d	-0.06152271
169	0xbc9b1910	-0.01893285
170	0xbd73d893	-0.059532713
171	0xbd66174c	-0.05617456
172	0xbd14d2a5	-0.0363337
173	0x3de2563b	0.110516034
174	0x3c873f79	0.016509758
175	0xbb28d2aa	-0.0025760331
176	0xbdd6feea	-0.1049784
177	0xbc0293f6	-0.007969847
178	0x3d8bf91f	0.068346255
179	0xbdbd6b09	-0.09248931
180	0xbda5abf7	-0.0808944
181	0xbd72a47f	-0.059238907
182	0xbe1e8322	-0.1547971
183	0x3c6390f9	0.013889545
184	0x3e5def13	0.21673231
185	0xbd1d669a	-0.038427927
186	0xbd1a92f6	-0.03773781
187	0x3d1f786c	0.038933203
188	0x3d614086	0.054993175
189	0xbcf31448	-0.029672757
190	0xbcffc0e0	-0.0312199
191	0x3dfe8815	0.12428299
192	0xbdc4e381	-0.096137054
193	0x3c8f1406	0.017465603
194	0x3dbf4543	0.093393825
195	0xbd94bff9	-0.072631784
196	0xbcb29612	-0.021800075
197	0xbde62102	-0.112367645
198	0x3dfbfd6d	0.123041965
199	0x3dca47f2	0.09877004
200	0xbd05dc15	-0.03268059
201	0x3d3c4230	0.04596156
202	0xbd20b700	-0.039237022
203	0xbdf5cbda	-0.12001772
204	0xbdcd6d9e	-0.100306734
205	0xbd9796cc	-0.07401809
206	0xbd8f5138	-0.06997913
207	0xbb8cceb9	-0.004297104
208	0xbdb5cd06	-0.08876996
209	0x3df58b26	0.11989431
210	0x3dbea258	0.09308308
211	0xbc9e9da8	-0.019362286
212	0xbba55c4b	-0.0050464026
213	0x3cf07ff0	0.02935788
214	0x3ad4647b	0.0016204262
215	0x3c8956b1	0.01676497
216	0xbd685ccc	-0.056729123
217	0x3ca6d7e4	0.020366617
218	0xbe1c9c01	-0.15293886
219	0xbe224487	-0.15846454
220	0xbd089764	-0.033347502
221	0xbcd000d9	-0.02539103
222	0xbd89f9a2	-0.06737067
223	0xbe2b8241	-0.16748907
224	0x3cee9688	0.029124513
225	0xbd4747f0	-0.04865259
226	0x3e0d1c67	0.13780366
227	0x3da0744a	0.078346804
228	0xbca9ff95	-0.020751754
229	0x3d87b1b2	0.066256896
230	0xbbbc474f	-0.0057458053
231	0x3e05c58d	0.13063641
232	0xbd780161	-0.06054819
233	0xbddd3d02	-0.10802652
234	0xbd4aae95	-0.0494829
235	0xbd5808ee	-0.05274289
236	0x3d0541af	0.032533344
237	0xbcaf3d14	-0.021391429
238	0xbe0671e9	-0.13129391
239	0xbd180659	-0.03711543
240	0xbe2f5992	-0.17124012
241	0xbe00bd6d	-0.1257226
242	0x3d27ee22	0.040998586
243	0xbdf30b58	-0.11867398
244	0x3ce3b2f1	0.027795287
245	0x3d8da36a	0.069159344
246	0xbdcbc07a	-0.09948821
247	0xbc375505	-0.011189704
248	0x3cdec708	0.027194515
249	0x3dae75e2	0.08518578
250	0xbdab794c	-0.08372745
251	0xbe4c43ac	-0.1994769
252	0xbdfda1bf	-0.12384366
253	0x3d422594	0.04739912
254	0x3da8553a	0.08219381
255	0xbc8f39b8	-0.017483577

advantage.0.bias f4 [128]
0	0xbc813713	-0.015773332
1	0xbd36d244	-0.04463412
2	0xbc147bc4	-0.009062711
3	0xbc4f9c0e	-0.012671484
4	0x3d90bff6	0.07067864
5	0xbc072674	-0.008248914
6	0xbd47b2bf	-0.04875445
7	0x3cc8a059	0.024490522
8	0xbd18f42e	-0.037342243
9	0xbc3a2907	-0.011362321
10	0xbd8c1284	-0.06839469
11	0x3cac0d55	0.021002451
12	0x3a0725c7	0.00051554706
13	0xbd0d39e1	-0.034479026
14	0xbd3cd64b	-0.046102803
15	0x3c8a8302	0.016908173
16	0xbd424c2a	-0.047435917
17	0xbce86070	-0.028366297
18	0xbd12419b	-0.035707098
19	0x3cadb851	0.021206053
20	0xbc6bd0a6	-0.014393007
21	0xbbf2e377	-0.00741237
22	0x3d26a3d5	0.040683586
23	0x3cf2d7d2	0.029643927
24	0xbcc7075f	-0.024295507
25	0xbcf84038	-0.03030406
26	0xbcff084d	-0.031131888
27	0x3cb7f750	0.022456795
28	0x3d2b83c2	0.0418737
29	0xbd3b509b	-0.04573117
30	0x3baf0a13	0.005341777
31	0x3cb2a6d5	0.021808067
32	0xbd4818c4	-0.048851743
33	0x3d825ca7	0.06365328
34	0x3c83309b	0.016014388
35	0xbda44e5f	-0.080227606
36	0xbd281a85	-0.041040916
37	0x3ce3f2fc	0.027825825
38	0x3dc8abdc	0.097984046
39	0x3c17b7eb	0.009260158
40	0x3d06bc5b	0.032894474
41	0xbc3d4eca	-0.011554429
42	0xbd9bb305	-0.07602505
43	0xbcb4a6fb	-0.022052279
44	0xbd254b55	-0.040355045
45	0x3da27d82	0.07934095
46	0xbd38710a	-0.045029677
47	0x3d0b5e8f	0.034025725
48	0x3d9a809b	0.07544061
49	0xbba46f59	-0.0050181565
50	0x3cd2c9a6	0.02573092
51	0xbdbd76c2	-0.09251167
52	0xbdab7633	-0.08372154
53	0x3da02b81	0.07820798
54	0xbcf1735d	-0.029473955
55	0x3bfbd3a0	0.00768514
56	0x3c830055	0.01599137
57	0x3cad0b38	0.021123514
58	0xbc9b449d	-0.018953616
59	0xbdb83ca3	-0.089959405
60	0xbccfbbb8	-0.025358066
61	0xbba48513	-0.0050207465
62	0xb9eb917e	-0.00044931093
63	0xbd86f966	-0.06590538
64	0xbc208f1a	-0.009799743
65	0x3c8cf3d4	0.01720611
66	0xbb540d9b	-0.0032356742
67	0xbbcbf15d	-0.006223841
68	0x3c301834	0.010747958
69	0x3b5bae86	0.0033520772
70	0x3cae4b7d	0.02127623
71	0xbdd6dd43	-0.10491421
72	0xbc0ea9db	-0.008707489
73	0x3ca642d8	0.020295545
74	0xbd5e6a15	-0.054300386
75	0xbd41f003	-0.047348034
76	0xbd035742	-0.032065637
77	0xbd841bca	-0.06450613
78	0xbd9930a2	-0.07479979
79	0x3c9fa779	0.019489037
80	0xbd8a57fd	-0.06755064
81	0xbce0b0cc	-0.027428053
82	0x3d9a31c8	0.07529026
83	0xbccae6f3	-0.024768328
84	0xbdbf6adc	-0.09346554
85	0xbd6d5c57	-0.05794939
86	0x3db76083	0.08953955
87	0xbcb6c8af	-0.02231249
88	0x39d8f4e4	0.00041381188
89	0xbb324d40	-0.002720669
90	0x3c819a35	0.015820602
91	0xbdab0638	-0.083507955
92	0x3c47a4f3	0.012185323
93	0xbd3e874f	-0.04651576
94	0xba081680	-0.0005191341
95	0xbb5ac4b0	-0.0033381395
96	0x3c7945c3	0.015214386
97	0x3c18cc28	0.009326018
98	0xbd897584	-0.067118675
99	0xbbd3fb8c	-0.0064691957
100	0xbc6be5d8	-0.014398061
101	0xbdb16a1d	-0.086628176
102	0x3d6fb8e0	0.05852592
103	0xbc7bba64	-0.015364263
104	0xbcbcdb8f	-0.023053912
105	0xbdabbf44	-0.083860904
106	0xbd186126	-0.037202023
107	0x3d596e6d	0.053083826
108	0xbdbe802b	-0.0930179
109	0xbcdde6c6	-0.02708758
110	0xbc968ca0	-0.018377602
111	0xbd28bada	-0.04119382
112	0x3cb448e2	0.02200741
113	0xbd6f1d7c	-0.058377728
114	0xbdbe47c5	-0.09291033
115	0xbd8b86ef	-0.06812846
116	0x3d5c7e39	0.053831313
117	0x3c2822b6	0.010262182
118	0xbd66d4fd	-0.056355465
119	0xbc6d5afb	-0.014487023
120	0x3d12d7d9	0.03585038
121	0x3bed1ab0	0.0072358474
122	0xbce50e7a	-0.027961005
123	0xbd67d751	-0.056601826
124	0x3d431fc8	0.04763773
125	0x3cb12ff1	0.021629306
126	0xbce6aefd	-0.028159613
127	0x3caf685d	0.021412069

advantage.2.weight f4 [3, 128]
0	0xbc5badd0	-0.013408139
1	0x3d87fd55	0.06640116
2	0xbca719ea	-0.020398099
3	0x3c660500	0.014039278
4	0xbd3f5c10	-0.046718657
5	0x3cd05439	0.025430785
6	0x3dac1c89	0.0840388
7	0x3cde089e	0.027103718
8	0xbc8a5f26	-0.016891073
9	0x3ae5bbc8	0.0017527277
10	0x3c6a078f	0.014284029
11	0xbd185979	-0.037194703
12	0xbdfdc5ff	-0.123912804
13	0x3cce0f7c	0.025153868
14	0x3d35084d	0.04419737
15	0xbdc55e37	-0.09637111
16	0xbc27af2e	-0.010234637
17	0xbbb1be3b	-0.0054242886
18	0xbd807113	-0.06271567
19	0x3d33c43d	0.04388832
20	0x3d42e7d5	0.047584374
21	0x3d83b111	0.06430257
22	0x3d808455	0.0627524
23	0x3c8a0b7a	0.016851176
24	0xbd6bf01f	-0.057602044
25	0x3c2f83dc	0.01071259
26	0xbcc2319a	-0.023705292
27	0xbd4c75a4	-0.04991688
28	0xbca7f41d	-0.020502144
29	0xbdce79a5	-0.100817956
30	0x3c2b4f01	0.010455848
31	0x3d1e6c97	0.038677778
32	0x3d93c2b1	0.07214869
33	0x3da6400e	0.08117686
34	0x3d8adfd3	0.06780972
35	0x3cd40fce	0.025886443
36	0x3d11425b	0.035463672
37	0x3bc71235	0.0060751685
38	0x3d80102d	0.06253085
39	0x3da14ad6	0.07875602
40	0xbc118454	-0.008881647
41	0xbd0786ef	-0.033087667
42	0x3bbf949f	0.0058465744
43	0xbbc7023f	-0.006073266
44	0x3cd50288	0.026002184
45	0xbd6fd6b8	-0.05855438
46	0xbd1edc85	-0.038784523
47	0x3db9886b	0.09059223
48	0x3d48d671	0.049032632
49	0xbc859004	-0.016304024
50	0x3daa42bd	0.083135106
51	0x3dba566f	0.09098517
52	0xbd413de5	-0.047178168
53	0xbbc91824	-0.006136911
54	0x3d4360db	0.04769979
55	0xbba36de3	-0.0049874648
56	0xbdcf77dc	-0.10130283
57	0xbd54ad06	-0.05192282
58	0x3d5819fa	0.05275915
59	0x3d250f65	0.040297884
60	0xbdaf3de8	-0.085567296
61	0xbc8c5ebb	-0.017135015
62	0xbc1c5675	-0.009542097
63	0x3d821f90	0.06353676
64	0xbbc6b914	-0.0060645435
65	0x3ceaa7d4	0.02864448
66	0xbbb23c35	-0.005439306
67	0xbe02cff4	-0.1277464
68	0x3ca79874	0.020458438
69	0x3d0a96e1	0.033835296
70	0xbaac13e7	-0.001312849
71	0xbdac83c9	-0.084235735
72	0x3d48d9cf	0.049035843
73	0xbd4ae1f5	-0.049531896
74	0x3c833b97	0.016019626
75	0x3bc69e88	0.006061379
76	0x3d415f12	0.047209807
77	0xbd3838c8	-0.044976026
78	0xbcf53531	-0.02993259
79	0x3cd76208	0.026291862
80	0x3c895260	0.016762912
81	0x3d96a347	0.073553614
82	0x3d0d0631	0.034429733
83	0xbcfb8dcf	-0.030707268
84	0xbcc0f6f1	-0.02355525
85	0x3b01393c	0.0019717952
86	0x3c99803a	0.018737901
87	0x3d661f78	0.056182355
88	0xbdf89ad3	-0.121389054
89	0x3cff12f3	0.031136965
90	0x3d2b632c	0.041842625
91	0xbd58703c	-0.05284141
92	0xbc4e19b7	-0.012579373
93	0x3be4671d	0.0069703
94	0x3d13078c	0.03589587
95	0xbbf56ed0	-0.0074900165
96	0x3d43e42b	0.04782502
97	0x3ce75964	0.028240867
98	0xbdc85e96	-0.09783666
99	0xba3f3710	-0.0007294277
100	0xbcf31e8c	-0.029677652
101	0x3be108dd	0.0068675117
102	0x3c832e7e	0.01601338
103	0xbd4d8206	-0.05017283
104	0x3d63d19f	0.055619832
105	0x3d6256eb	0.055258673
106	0x3d90e023	0.07074001
107	0xbd7fab6f	-0.06241935
108	0x3bdd9d8a	0.006763165
109	0x3d73e0b4	0.059540465
110	0x3cf3e6ef	0.029773204
111	0x3b5d565b	0.0033773396
112	0x3d730f18	0.059340566
113	0xbd00bbdf	-0.031429168
114	0xbbaf8d32	-0.005357408
115	0x3d9701a9	0.073733635
116	0xbdf90617	-0.12159365
117	0x3d19fcd7	0.037594642
118	0x3d4e685c	0.050392494
119	0xbe04966f	-0.12948011
120	0xbd04dbdb	-0.032436233
121	0x3df0693e	0.11738823
122	0x3db4828f	0.088139646
123	0x3ced8f4e	0.028998997
124	0x3b646659	0.0034851043
125	0xbd80c44f	-0.06287443
126	0x3bd3985e	0.0064573726
127	0xbd3dd8e9	-0.04634944
128	0x3c60bda3	0.013717088
129	0x3d93540e	0.071937665
130	0xbd93f766	-0.07224922
131	0x3d068f1c	0.032851323
132	0x3df2c89d	0.1185467
133	0xbbf6e396	-0.0075344546
134	0x3d863cce	0.06554566
135	0x3c884b3a	0.016637433
136	0xbc6c4ddf	-0.014422863
137	0x3e2847ca	0.16433635
138	0xbd3053e2	-0.043048747
139	0x3c244031	0.01002507
140	0x3ddc0ee5	0.107450284
141	0x3e69b7b5	0.22823985
142	0xbdaf0a92	-0.08546938
143	0x3d410ebd	0.047133196
144	0x3d2f5596	0.04280623
145	0xb98d7891	-0.00026983445
146	0xbd993abc	-0.07481906
147	0x3cf0a892	0.029377256
148	0x3da7d999	0.081958
149	0x3d328f37	0.04359361
150	0x3d2f5362	0.04280413
151	0xbd5eacfd	-0.054364193
152	0xbd7328ee	-0.059365205
153	0xbd64a784	-0.055823818
154	0x3c858da6	0.016302895
155	0xbd96a3cd	-0.07355461
156	0xbc57f001	-0.01317978
157	0xbdaee4d2	-0.08539738
158	0x3d166465	0.036716837
159	0xbcb931ff	-0.022606848
160	0x3d26c752	0.04071743
161	0x3d3bf8b3	0.045891475
162	0x3d701a17	0.05861863
163	0x3d156c04	0.036479965
164	0x3d09b3da	0.033618785
165	0xbcff9b59	-0.031202005
166	0xbd9cba1b	-0.07652684
167	0x3bc49786	0.0059995083
168	0xbdef1c2d	-0.11675296
169	0xbe46877c	-0.1938762
170	0xbd204965	-0.039132494
171	0x3de94681	0.11390401
172	0x3d09fbca	0.03368739
173	0xbda52d4b	-0.080652796
174	0x3e1406e6	0.14455757
175	0x3e02a49b	0.12758105
176	0xbdbc8ef6	-0.09206955
177	0xbdb1bf2a	-0.0867904
178	0xbd79c413	-0.060978007
179	0x3d5f6d1e	0.05454742
180	0x3db06459	0.0861289
181	0xbdaad03a	-0.08340497
182	0xbd9d9031	-0.07693518
183	0x3d1d8441	0.038456205
184	0x3d962bd6	0.0733258
185	0x3d8de087	0.06927591
186	0xbd2c51fb	-0.04207037
187	0x3d04bdc3	0.032407533
188	0xbb391c8b	-0.0028245773
189	0xbd9c0098	-0.07617301
190	0xbc568a8c	-0.013094556
191	0x3d90de22	0.070736185
192	0xbca4998f	-0.020092754
193	0xbd2d270c	-0.042273566
194	0xbdac0abd	-0.08400486
195	0x3cf9939a	0.03046589
196	0xbde56be6	-0.112022206
197	0xbccdfea6	-0.02514584
198	0x3c5817dc	0.013189282
199	0x3d58ccf9	0.052929852
200	0x39f13464	0.00046006136
201	0x3d6adc04	0.05733873
202	0x3d814653	0.063122414
203	0x3c051cf8	0.0081245825
204	0x3d3951cb	0.04524402
205	0xbdcf8ff0	-0.10134876
206	0x3d33372d	0.04375379
207	0x3d76e497	0.060276594
208	0xbd524fa8	-0.051345497
209	0x3d73d690	0.059530795
210	0xbe13b7a6	-0.14425525
211	0x3cf4c682	0.029879812
212	0xbc9b1334	-0.018930055
213	0xbb816b9f	-0.003949597
214	0xbd0bff05	-0.034178752
215	0xbdca65d0	-0.098827004
216	0x3d8152ad	0.06314597
217	0xbd479c21	-0.04873288
218	0x3d30259e	0.043004625
219	0x3d48fe03	0.04907037
220	0x3ce5f575	0.028071145
221	0xbd407eea	-0.046996035
222	0xbd94c0df	-0.0726335
223	0xbd06b565	-0.032887835
224	0x3c7d74f1	0.015469776
225	0xbcb00edb	-0.021491459
226	0x3cb57dda	0.022154737
227	0x3cd4a50e	0.02595761
228	0xbd44ce38	-0.048048228
229	0xbc7948c6	-0.015215104
230	0x3d96f621	0.07371164
231	0xbde56bcd	-0.11202202
232	0x3e21435f	0.15748356
233	0x3da425cf	0.08015024
234	0x3ddd481f	0.10804772
235	0xbba93fb9	-0.005165067
236	0x3cd31841	0.025768401
237	0x3d325116	0.04353436
238	0x3d86092e	0.0654472
239	0xbcf60d7c	-0.030035727
240	0x3d92e463	0.071724676
241	0x3d9d5021	0.07681299
242	0x3d192334	0.037387088
243	0xbd82b5bc	-0.06382319
244	0x3d2eded5	0.042692978
245	0xbd6d0817	-0.057869043
246	0xbd4cb67c	-0.04997872
247	0xbca7d0da	-0.02048533
248	0xbc7e5444	-0.01552302
249	0xbcca557d	-0.024698967
250	0x3d876bcd	0.06612358
251	0x3d2673ca	0.04063777
252	0xbcb85271	-0.022500249
253	0x3da9ad0a	0.08284958
254	0xbb7d3df6	-0.0038641668
255	0xbe0ff6d9	-0.14059009

advantage.2.bias f4 [3]
0	0x3dcd3d7c	0.10021493
1	0xbda9c3b2	-0.08289279
2	0xbdc467e5	-0.09590129
