model/DuelDQN/checkpoint_400.pth (torch, 287029 bytes, 9 tensors)

feature.0.weight f4 [256, 16]
00000000: 3f8e f8bb 0ae6 6abb 87c8 973d dd50 bd3d
00000010: bd27 71be 50b3 25be 4a0b 633e 7645 78bd
00000020: df2c 3cbe c661 833e 8619 44bc 79df 0d3e
00000030: d7da 13be e4ef 083d 8256 7c3e d669 0dbe
00000040: 31eb 9b3e fe2f 95be 4c30 773d 5774 643e
00000050: 268b 6ebe eed3 13be 2625 323e 6af2 40bd
00000060: b91a 643e 8941 843c d9c0 85be 40fb 75bd
00000070: dca0 283e ebdb a4bb df05 61bd 2ad5 62bd
00000080: b58f 003e 5dec 66bd 163b 94be 9406 2c3d
00000090: 3afc 71be 650c 823e 20db a93d 831f 0bbd
000000a0: 9a5f 233e 9a28 adbd 8f2f 8b3c 94ca 4c3e
000000b0: 9da5 8fbc 5052 76bd d3f6 cfbd d06f 43bd
000000c0: 4f7e 613a f7f4 f7bd 69fd 953d 1494 843e
000000d0: 7779 403e 7cad 5e3e 17b1 223e e3e4 95bc
000000e0: 0ab4 633d ecc8 713d 1c6d 6fbe 23cb 263e
000000f0: 289b 99bd d3a4 dfbd 9678 f7bc 53a0 6bbd
00000100: dfb0 8d3e 8123 163e ef53 47be 92d2 143e
00000110: 666d 77bd 31c5 13be be00 63be c67a 09bd
00000120: 8332 6b3d 7275 3c3e c130 82be 446d e83c
00000130: 5c70 1c3e 976b 313e 67c9 1abe e7f8 f1bc
00000140: f5e5 dfbc f66a 8cbe ad0c 853e 370b 4bbe
00000150: 3cb4 4cbd 55d8 1b3d eb65 943d cf1f 9abd
00000160: 9212 5a3e 85e5 39bc d64e fbbd 0095 3cbd
00000170: 3955 82bc e2ab adbd c232 743d 93cc 913e
00000180: 5ac3 3ebe 05ef 8c3e 74ff b53d dba8 8b3e
00000190: a5db 2fbd 14b6 cf3c 27f5 e5bd e0b9 6cbb
000001a0: 5d52 08bd bc6a 26be bad8 973d 5944 95bd
000001b0: d421 79be ac33 5fbe f822 bbbc 2b91 febd
000001c0: 2ca6 803e 0b7b 8cbd 38d9 2f3e 072e 6dbe
000001d0: ab8c 72be 5721 99bd daff ed3c fd03 a9bd
000001e0: 5255 44bd 7cbf 163e 1966 03bd b5fe aebd
000001f0: 1e41 44bd 3cdd c23c 24ea a33d 76e3 453e
00000200: bcc9 713e 5915 c33d 3fe6 68bd ac84 46be
00000210: 03d9 593d 6658 8ebe efd5 123e f349 9d3c
00000220: 2cde 303c d35c 363e dbe7 15be c2ff 033e
00000230: 0f87 473e d39e 523e e1e4 463e 5dfe 4abe
00000240: 5eb0 273e f520 3d3a 059b fbbd e949 44be
00000250: 510b eebd 4b63 65be 23c6 81bd cc08 56be
00000260: 3a64 0e3d 31bc ddbc 1eff 123e a405 75be
00000270: c207 7cbe 00d2 4dbc a814 61be b85b 19be
00000280: 093f b7bd f211 3b3d 358f 7cbe 59ef 9dbd
00000290: f79d 8abe 5e33 0abe 6672 443e a627 8abe
000002a0: e9e3 fcbc e72e 8dbe f80c 363e f04c 0ebe
000002b0: 724a afbd f438 63be 0051 48be 1c6d 3f3e
000002c0: 4adc 0b3e 5385 60be 2320 363d 0a80 a03d
000002d0: 88dd dfbd c486 4c3e 6aa3 633e f6c1 083e
000002e0: b280 38be 6ac8 21be 6645 dfbd d1b7 fc3d
000002f0: 41f8 083e b049 b73d ba19 52be e981 46be
00000300: caec d13d e78e e33d fdab 33be c4c2 47bc
00000310: dbd5 363e f92d 89bd ed6a 1dbe bb5f 163e
00000320: 15eb 24be da0b 30be 846f 21bb 9ac9 0f3d
00000330: addc e8bd 6ef7 1fbe 75ca 6e3e 32e3 813e
00000340: b448 013e 1b03 f4bd d211 14be c2e5 803d
00000350: a127 efbc 03e2 983c 6ce3 0d3e 1ef1 303e
00000360: 1f8f 2b3e 28eb a1be 0647 ca3c ebe4 3f3d
00000370: e976 05be ba28 41be 1af8 ddbc 8692 503e
00000380: 0514 ab3d 6e38 7d3e 436e ef3c 8635 d63d
00000390: 0ff6 08be 35eb 383e 4cfd 3c3e 38e1 23be
000003a0: c7b9 4b3d 082f 703d 91dc 57be d6ae 013e
000003b0: 1d7d d13d f7a7 293d efd3 933d 8a2e 143e
000003c0: 591a bfbd 0faa 3c3e eac2 09be ff0d 733d
000003d0: 3c6b 0bbc 81cf 043e b4f5 8b3e a6ea fcbd
000003e0: f567 9fbd 1909 3dbc d181 65be 5401 7e3c
000003f0: b6ab 26be 0a6d 683c 40ca eabd eb4e 963d
-0.0075853164 -0.003584268 0.074112944 0.09243939 -0.23550315 -0.16181684 0.22172275 -0.060613118
-0.18376492 0.25660533 -0.011968976 0.1385478 -0.1443895 0.033431903 0.24642375 -0.13809904
0.30452874 -0.29138178 0.060348794 0.22310005 -0.23295268 -0.14436314 0.17396984 -0.047106184
0.22275819 0.01614453 -0.26123694 -0.060054064 0.16467613 -0.005031099 -0.05493724 -0.05537907
0.1255482 -0.056377757 -0.2895133 0.04199846 -0.23631373 0.2540008 0.08293748 -0.0339656
0.15954438 -0.0845501 0.016990451 0.19999152 -0.017535025 -0.060137093 -0.101545 -0.047714055
0.00086018903 -0.1210727 0.07323725 0.25894225 0.18796335 0.21745867 0.15887867 -0.018297618
0.05559162 0.059029505 -0.23381466 0.16288428 -0.07500297 -0.109201096 -0.030208867 -0.057525944
0.27674004 0.14661981 -0.19465612 0.14533451 -0.060407065 -0.14430691 -0.22168252 -0.03356435
0.05742122 0.18404177 -0.2542782 0.028372414 0.15277237 0.17326199 -0.15115891 -0.029537631
-0.027331332 -0.27425355 0.25986233 -0.19828497 -0.049976572 0.038048107 0.07246002 -0.07525598
0.21296147 -0.011346226 -0.12270896 -0.046040535 -0.015909778 -0.0848005 0.05961872 0.2847639
-0.18629208 0.27526107 0.088866144 0.27277264 -0.04293408 0.025355376 -0.112284 -0.0036121532
-0.033281673 -0.16251653 0.07414384 -0.07288427 -0.2432931 -0.21797055 -0.022843823 -0.12430032
0.2512678 -0.06859406 0.17172706 -0.2316209 -0.23686473 -0.07477062 0.029052664 -0.08252714
-0.04793293 0.14721483 -0.03207979 -0.08544675 -0.047913663 0.023787133 0.08003643 0.1932505
0.23612112 0.09525556 -0.056860205 -0.19386548 0.053185474 -0.27801818 0.14339422 0.0192003
0.010795157 0.17808847 -0.14639227 0.12890533 0.19485115 0.20568399 0.19423248 -0.19823594
0.16375872 0.0007214689 -0.12285427 -0.1916882 -0.11623252 -0.22401159 -0.0633662 -0.20901793
0.034763552 -0.027067276 0.14355132 -0.23927933 -0.24612334 -0.012562275 -0.21980536 -0.14976394
-0.0894757 0.04567141 -0.24664004 -0.077116676 -0.27073643 -0.13496158 0.19184265 -0.26983374
-0.030870395 -0.27574846 0.17778385 -0.13896537 -0.08559121 -0.22189695 -0.19562149 0.18693966
0.13658252 -0.21925859 0.04446424 0.078369215 -0.109309256 0.19973284 0.22230306 0.1335524
-0.18017843 -0.15799108 -0.109019086 0.12339748 0.13375951 0.08949602 -0.20517626 -0.19385494
0.10250242 0.11111241 -0.17546077 -0.012192432 0.17855017 -0.06698222 -0.1537282 0.14684956
-0.16105302 -0.17192021 -0.002463312 0.03510437 -0.113702156 -0.1562173 0.23319419 0.2536865
0.1262539 -0.11914655 -0.14459923 0.06293823 -0.029193701 0.018662458 0.13856286 0.17279479
0.16753815 -0.31624722 0.02469207 0.046849173 -0.13033642 -0.18863192 -0.027095843 0.20368394
0.08353428 0.24728557 0.029227382 0.104594275 -0.13375114 0.18058474 0.18456 -0.16003883
0.049737718 0.058638602 -0.21080233 0.12664351 0.102289416 0.04141995 0.072181575 0.14470878
-0.09331197 0.18424247 -0.1345326 0.05933952 -0.008509453 0.12969781 0.27335894 -0.12349443
-0.077835 -0.011537814 -0.22412802 0.015503246 -0.1627644 0.014186153 -0.114643574 0.07339271

feature.0.bias f4 [256]
00000000: 3851 17be 1381 493d 6095 acbd 1e56 8b3d
00000010: c78f 78be 1707 be3d f1aa 61bd b62c eb3d
00000020: 5dc0 983d 9abd 883c 81d8 833e 9ba8 6e3e
00000030: da19 3ebe 2b75 1e3e f33c 6cbe facf a53d
00000040: 32ab 59bb 98df 883e 9604 87be 910c d1bd
00000050: 6da9 debd 0c39 d0bd 7f88 903d 407b c03d
00000060: 2d2d b53d 7516 9a3e 45f0 b13d 5036 fdbd
00000070: 3eb5 43bd a637 54be b4a0 79bd 5141 d6bd
00000080: bcd6 10be ff3d 28be 6eeb 12be 34f4 ca3d
00000090: 2886 c6bd 435b fa3c 7256 603d 18d9 31be
000000a0: db6e 093e 93e8 c8bd a62c a23d 49a7 a93d
000000b0: 9de8 dabd db05 183e c79d 403e bf81 7d3e
000000c0: a6b7 f8bd f901 57be 04a7 843e 64f4 553d
000000d0: b418 8e3c a94a 0bbc 48f8 9d3e 4f92 25be
000000e0: e522 48bd 8dda 2cbe 3af2 51be b9ab de3b
000000f0: 5b1d 213e 7b15 593e 9066 933b b547 3cbe
00000100: 3f57 0c3e 6b37 893e 2dbf 14be f95a 4c3c
00000110: 5053 1e3e 4a44 bf3d c4a2 9cbd b418 833d
00000120: 0486 423e 1491 6cbd 977e b5bc b9c3 39be
00000130: 626e 27be f2f0 c43d bac5 173e c7ba c93d
00000140: 8955 17be c484 793e 451e 0cbd 6c58 36bc
00000150: 8189 893e 6e5d bf3d e175 813e 8907 0a3e
00000160: a033 623e 0d01 7b3e 6a01 f3bd 22aa 64bd
00000170: bb68 3cbd 2485 69bc 1d09 bebc 5dd0 50be
00000180: 7423 35be 43ae 0cbe a1c8 34be 0a7f 18be
00000190: e2c8 4abe 1de5 25be 9c89 ebbd a7a5 4f3e
000001a0: 5a1c 093e d58c 733c caee c2bc 0b13 893e
000001b0: 2067 36be 238c 2fbd 5a5c 46be 4717 18be
000001c0: 2581 c83d 011d 333e c8c6 ac3d bba0 3cbe
000001d0: e3d5 11be 2047 33be 6930 15be dde2 aabd
000001e0: 4049 943e 3097 893d fa67 47bd 3e7b 72bd
000001f0: 9352 8a3e 4290 4d3e c199 a0bd 4e3f ff3d
00000200: d89e 923e ecdc 2bbe dae7 34bd 00fe 1cbd
00000210: ad80 93bd b4f5 cc3d 75a3 263d 14ed 9cbd
00000220: bd79 f8bc 16f9 6fbd 49c5 35be a030 ccbd
00000230: 66f8 483e 2159 07be d7ef af3d 52ea 5c3e
00000240: 39a9 dc3d 9862 99bd 6e55 9c3e ab5d 753e
00000250: 9c77 a1bd 7faf 2ebe 189e 703c 9292 d33c
00000260: 0926 943e d0ac 83be d52d 843e a7c2 37be
00000270: f7a6 7c3e 7d3b 093c d489 a3bd a543 a73e
00000280: 0a88 5fbe 5f26 32bd 7b6d 6a3e 9f07 513e
00000290: bb11 70bd 52a5 9c3e 5a9f 373c 5d96 2a3e
000002a0: 5f94 7e3e ddfe c83d c3ac 48be 8723 ddbc
000002b0: 1286 34bc 152d 513d 73f1 993e c487 573d
000002c0: 1a97 21be c060 8e3e 822e a0bd a677 863d
000002d0: 90f0 173e 1725 25be 6619 38be f8a7 723e
000002e0: 66c0 b2bd 9684 55be 64c7 4cbe 07cc 7cbe
000002f0: 3142 803e 8977 98bd d875 3dbe ff68 5b3d
00000300: a91a 8b3e 1d9d 463e 1f4b 34bd 2bf9 48bd
00000310: a2de 9a3c 5a24 68be b174 5b3e ff77 03bd
00000320: ff59 5d3e dfe9 4e3e 411d cfbd e831 12be
00000330: c2ca eabb dcf8 023e 843e 5f3e ce98 3d3c
00000340: e9ea bbbd 8cd7 543e 14ee 013e ce48 1b3e
00000350: a792 2ebe 3231 943e 76ad ec3d b1ba 35bd
00000360: f116 8c3e 8944 263e 0884 31be 8caf 103e
00000370: 78b7 593e 419f 9a3d 673b 053d 18ce 483d
00000380: b1cd 04be fdf8 26be cc87 ef3d b176 83be
00000390: d7ec 2bbe 621c 273d 2f23 d5bd 0734 0a3e
000003a0: 73b4 0bbe f327 dc3d 2e79 8b3d b81d 923e
000003b0: d758 803e b036 62be f3ab 23bd d3ea 9abc
000003c0: ebb8 68bc b64b 1ebe c97d 3e3e 9a08 bcba
000003d0: 7576 3c3e 00b1 95bd 8959 853e 1efc 683e
000003e0: 745d f63c ba86 8dbd 4951 143e 7179 9d3c
000003f0: 5157 ee3d 4852 923e 75a9 24be c2c6 903d
-0.14777076 0.04919536 -0.084269285 0.06803535 -0.24273597 0.09278696 -0.055094663 0.11483137
0.074585654 0.016691972 0.25751117 0.23306505 -0.18564549 0.15474384 -0.23070125 0.08096309
-0.0033213613 0.26733088 -0.26370686 -0.10207475 -0.10872159 -0.10167131 0.070572846 0.09398508
0.08846507 0.30095258 0.08688406 -0.12363875 -0.047780268 -0.20724353 -0.060944274 -0.10461677
-0.14144415 -0.164299 -0.14347622 0.09909859 -0.09693557 0.030561095 0.05476994 -0.17367971
0.13421194 -0.09809985 0.07918672 0.0828386 -0.10688899 0.14845984 0.18810187 0.24756525
-0.12144403 -0.20996846 0.25908673 0.052235022 0.017345764 -0.008501687 0.30853486 -0.16169094
-0.048861403 -0.16880246 -0.20502558 0.0067953733 0.15733854 0.211996 0.0044983104 -0.18386729
0.13705157 0.26800093 -0.14526053 0.012472861 0.15461469 0.09339197 -0.076482326 0.06401196
0.18996435 -0.057755545 -0.02215509 -0.18141069 -0.16350701 0.09616269 0.1482152 0.09850078
-0.14778723 0.24367052 -0.034208555 -0.01112948 0.2686272 0.09343992 0.25285247 0.13479437
0.22090006 0.2451212 -0.11865504 -0.055826314 -0.045998316 -0.014252935 -0.023197705 -0.20391984
-0.17689306 -0.1373835 -0.17654659 -0.14892212 -0.19803193 -0.16200681 -0.11500856 0.20278035
0.13389722 0.01486512 -0.023795504 0.2677234 -0.17812777 -0.042858254 -0.19371167 -0.1485263
0.09790257 0.17491533 0.08436352 -0.18420689 -0.14241748 -0.17507601 -0.14569248 -0.08344052
0.28962135 0.0671829 -0.048683144 -0.059199564 0.27016124 0.20074561 -0.07841826 0.12463246
0.28636813 -0.16783494 -0.044166423 -0.03832817 -0.07202277 0.10007802 0.04068323 -0.076624066
-0.030331487 -0.058587156 -0.1775104 -0.09970212 0.19626006 -0.13217594 0.08590668 0.21573761
0.10774464 -0.074895084 0.30533928 0.23961513 -0.07884142 -0.17059134 0.01468613 0.025826726
0.2893527 -0.25717783 0.25816217 -0.17945348 0.24673067 0.0083759995 -0.07985273 0.32668796
-0.21829239 -0.043493625 0.22893326 0.20413063 -0.05861066 0.3059488 0.011207426 0.16658922
0.24861287 0.09814236 -0.19597153 -0.02699448 -0.011018293 0.051068384 0.30067024 0.05261971
-0.15780297 0.2780819 -0.07821371 0.0656579 0.14837861 -0.1612743 -0.17978439 0.23696887
-0.08728103 -0.20851359 -0.19997936 -0.24687205 0.250505 -0.074446745 -0.18501985 0.05356693
0.27168778 0.19395871 -0.044016954 -0.04906575 0.018904988 -0.22670117 0.21431233 -0.03209686
0.21616362 0.20206402 -0.101130016 -0.1427685 -0.007165284 0.12790245 0.21801192 0.011572076
-0.09175665 0.2078535 0.12688476 0.15164492 -0.17048131 0.28943783 0.115565225 -0.044367496
0.27361253 0.16237082 -0.17335522 0.14129466 0.21261394 0.075499065 0.032527354 0.04902467
-0.1296909 -0.16305919 0.11695823 -0.25676492 -0.16789566 0.040798552 -0.10407101 0.1349641
-0.13643055 0.10749807 0.068102226 0.285383 0.2506778 -0.22091174 -0.039958905 -0.018910801
-0.014204244 -0.15458569 0.1860267 -0.0014345825 0.18404563 -0.07309151 0.26044872 0.22752425
0.030073859 -0.06910463 0.14484133 0.019222947 0.11637748 0.285784 -0.16080268 0.0706916

value.0.weight f4 [128, 256]
00000000: c847 a73c 3317 103d ca72 d3bc 2083 873d
00000010: fba3 95bd b8e6 a4bd 3f8c 293d 5d22 ae3c
00000020: 1d01 3abb de8c 0e3d d501 1bbe a64d e93c
00000030: 72e1 ebbd 95c3 403c f444 593d d92e a63d
00000040: 3b97 b73c 93e6 3bbd 4814 9a3c 59dd 753c
00000050: 508a 6b3d 34a3 19bd bce3 433d 5b86 7c3c
00000060: aff0 b6ba 89c0 d43a 5d5d 4bbd 58da c03c
00000070: 72f9 63bd 489f efbc 3805 63bd fc03 883d
00000080: 0c0c d53c 69fb d1ba 02c6 9cbd f7ad babd
00000090: ac49 be3d cd68 8ebd f68b 983c 87bb 2bbc
000000a0: 7339 04bb 0c01 45bd f5c9 633c 6bb8 b8bd
000000b0: 7b07 65bc 77c3 403d 9591 643d d74c 1d3d
000000c0: 8471 a93c e814 d83c 3ae2 3f3d fadf a53c
000000d0: addf 553d 86b3 2ebe 9655 253d 58ac 29bd
000000e0: add7 a4bd bf22 1abd 2c8d 623d 43f6 d13d
000000f0: 3b19 a5bd 4dc8 4bbd 05b9 883d f2b0 863d
00000100: b6b6 a43d b124 82bc adb5 7fbb 4f16 7f3d
00000110: 0807 923c d599 d53c 6b39 30bd 0e83 41bc
00000120: 279d 14bd 0607 ea3c 5866 b63d f483 aebc
00000130: 6f83 fdbb 98a7 f73c c4fd 6abd 24b5 413d
00000140: 6cc7 9e3d 9956 d8bb 891f a83c 8fe7 1ebd
00000150: e24a 44bd f84f 2fbd c95c cd3d 60ac 00bc
00000160: 3523 473d e90f 673c 8b1c 6e3d 92da 873d
00000170: 8bd7 d4bb fdc8 10be 1609 27bc ae63 24bc
00000180: c5e9 4bbd 4481 95bd 1958 943d 8aef a7bd
00000190: 5452 053c 77e1 d53c d915 853a 27bc a339
000001a0: 6003 babc 64ca 7abc 6e9f dd3c b714 a73d
000001b0: 0b2c dfbd 5758 42bd 748b 903c adf9 743d
000001c0: 7c83 4cbd 71e5 4dbb 037c adbd b01e febc
000001d0: 5452 afbd 065c 9cbd 7573 50bc 132e 02bd
000001e0: 39ea 2dbd a792 1fbd b66e 4f3c ff54 c8bc
000001f0: 2a13 9e3d edce 2d3d 708e 053d af24 f3bc
00000200: 148f 31be 4f28 9ebd d3c0 b83d 3c32 66bc
00000210: 6e03 753d c52e 5c3c ae13 b8bd f981 fc3d
00000220: c295 a3bc 1877 73bd 50a8 bebd fff1 21bd
00000230: 465e f8bd 405e 703d edab 893c 7634 f5bc
00000240: a7d1 6bbd 3f4b 26bd 1335 dbbc 4daf b43c
00000250: 689e 313d 27d4 dfbd 81ad febd f88f 34bd
00000260: feaf 0a3d 48dc de3c 3f2b 2cbd 58d8 91bd
00000270: adf6 3a3d e332 26bd 8d9d 02bd 421b 47bd
00000280: 3df5 b0bd 264e e0bc a9a4 49bb d1ae 8a3b
00000290: 5949 03bd df48 2ebc 03aa 8d3b 4bc5 9abd
000002a0: a127 21bb 115c 013d f94c 643d 6113 d1bb
000002b0: f427 033e 0728 8cbd dd7c 2b3d fe0e 8b3d
000002c0: 6011 8cbb 6f22 853d 064f 1e3d add0 8e3a
000002d0: 2b9e 5fbd ef01 2a38 da40 bd3c 1513 85bd
000002e0: b5df 15be ac32 a0bd bdaf 363d 31d0 e1bc
000002f0: c189 6d3d 79bf 9d3d 09e5 f9bb bcb6 293d
00000300: efaa c53c d19d 61bd 0c8e babd c66d e8bd
00000310: 07b7 a1bd 9f6b 0abd 323f e93c 7249 b4b8
00000320: d6db 0e3d 7d29 03bd aced 1ebd 8ae2 a73c
00000330: 557a 36bd 36e6 70bc 8c05 2e3d 087e 453b
00000340: 46bb 2a3d ff89 303b 5f06 f2bc 2c14 0a3c
00000350: d54d 34bc fe5f 23bd da0c 5cbd 391d e7bc
00000360: 1fd1 b8bd ada0 9b3d afa7 013d 345f e63c
00000370: 39d0 823d 9dd6 13bd 5723 3b3d 5268 56bd
00000380: 8e2e 3a3b 1268 d7bc 0cf1 aebd 9f4c 10bd
00000390: 2af0 05be c195 fe3d d377 2fbd 9be1 2d3d
000003a0: a3d3 c4bb 7ea0 e13b da2a 95bd 11c1 223d
000003b0: bbf8 6a3d 0ea0 56bd dde9 653d 81ac 4e3d
000003c0: 9420 353b 7ac9 ac3c ac7f 73bd f2f8 b13b
000003d0: 940a aebd 2cd6 0fbd ee74 a43d 4892 b63d
000003e0: 2a40 5fbe e158 4ebc c529 0bbd 2e2f 10be
000003f0: 3ac3 4f3d 4b5f 73bb 3cf2 3ebd a4e6 2038
0.02041997 0.035178374 -0.025811572 0.06616807 -0.073066674 -0.080518186 0.041393515 0.02125662
-0.0028382011 0.03480231 -0.15137418 0.028479408 -0.1151761 0.01176538 0.053044274 0.08114404
0.02241098 -0.04587419 0.018808499 0.015006387 0.057504952 -0.03750916 0.047824606 0.015412892
-0.0013957227 0.0016231696 -0.049649585 0.023541614 -0.05565781 -0.029250756 -0.0554249 0.06641385
0.026006721 -0.0016020361 -0.076549545 -0.091152124 0.092913955 -0.06953583 0.018621426 -0.010481722
-0.0020175844 -0.0480967 0.013903131 -0.0901955 -0.013978834 0.04706141 0.0558029 0.03840336
0.020684011 0.026377156 0.046846606 0.020248402 0.052215267 -0.1706067 0.040364824 -0.041424125
-0.080489494 -0.037630793 0.055310413 0.10252049 -0.08061453 -0.04975157 0.06675915 0.065767184
0.08042662 -0.015886636 -0.00390182 0.062277135 0.017825618 0.02607433 -0.043023508 -0.011811031
-0.036282685 0.028567802 0.08906239 -0.021303155 -0.0077366154 0.030231282 -0.057370916 0.04729189
0.077528805 -0.00660212 0.02052285 -0.03879505 -0.047922976 -0.042800874 0.10027463 -0.007853597
0.04861756 0.014102914 0.05813269 0.06633486 -0.0064954213 -0.14139171 -0.010195037 -0.010033531
-0.049783487 -0.07300046 0.07243366 -0.08199985 0.008137304 0.026108487 0.0010153606 0.00031229967
-0.022706687 -0.015307043 0.027053561 0.08158248 -0.108970724 -0.04744753 0.017644621 0.059808422
-0.04993008 -0.0031417275 -0.08470919 -0.031020492 -0.08560625 -0.076347396 -0.01272284 -0.03178222
-0.0424597 -0.038958218 0.012660673 -0.024454592 0.07718499 0.042433668 0.032606542 -0.029680578
-0.17339736 -0.07722532 0.09021153 -0.014050063 0.059817724 0.013438885 -0.089881286 0.12329478
-0.019968871 -0.05943975 -0.09309447 -0.039537426 -0.12127356 0.058683634 0.016805613 -0.029932242
-0.057572987 -0.040599104 -0.026758706 0.022056246 0.04336396 -0.10929137 -0.12435437 -0.04408261
0.033859245 0.027204648 -0.04203343 -0.071213424 0.045645405 -0.040575873 -0.031888533 -0.04860998
-0.086405255 -0.027381014 -0.003076831 0.0042322655 -0.03205237 -0.010637491 0.0043232455 -0.07557162
-0.002459027 0.031581942 0.05573747 -0.006380484 0.1280821 -0.06843572 0.041867126 0.06789969
-0.004274532 0.06500708 0.03864958 0.001089593 -0.0545942 4.053296e-05 0.023102213 -0.0649778
-0.14636119 -0.07822165 0.04460119 -0.027565094 0.0579927 0.07702536 -0.00762618 0.041434035
0.024129359 -0.055082146 -0.091091245 -0.113490626 -0.07896238 -0.03379404 0.028472517 -8.596749e-05
0.03487762 -0.03202199 -0.03880088 0.020493764 -0.04455026 -0.014703324 0.04248576 0.0030134935
0.041682504 0.002693772 -0.029544054 0.008427661 -0.011004885 -0.039886467 -0.053723194 -0.028212177
-0.09024262 0.07599006 0.031654056 0.028121568 0.063873716 -0.036093343 0.045688 -0.05234558
0.0028409096 -0.026294742 -0.0854207 -0.03522932 -0.13079897 0.12430907 -0.042838883 0.042451482
-0.0060066744 0.0068855872 -0.07283564 0.039734904 0.057366114 -0.052398734 0.056131233 0.05045748
0.0027637826 0.021092165 -0.05944793 0.005431288 -0.08498111 -0.03511636 0.08030115 0.0891462
-0.2180182 -0.012594433 -0.03397538 -0.14080498 0.050723292 -0.0037135656 -0.04661773 3.8361773e-05

value.0.bias f4 [128]
00000000: ba81 bd3c 4623 7dbb 4e9d 80bc 64b0 dcbc
00000010: c10d 1a3e e729 62bd 842c 57bc 6960 13bd
00000020: 78d7 7abd 2eaf 05bd c901 9f3c d39f 8fbc
00000030: ce4b b9bc d289 44bc 00d3 16bd 3536 82bc
00000040: 1f96 163d 034b 283e a352 7fbc 77b9 49bc
00000050: e0bd 92bd 4512 af3d d8f8 c83c 3a5b 223e
00000060: e761 e3bc 1d41 05bb 3148 48bd c363 9d3d
00000070: d8cf 293e 6010 fdbb 14fe 123e 84e2 ba3d
00000080: fc0d b53a f83e 643d 056c d9bc 7628 80bd
00000090: 4789 133c a072 863d 82e6 39bd e3ae 3bbd
000000a0: d95a 55bd 5027 37bd 3c69 763c f134 dd3d
000000b0: c788 e236 149d 163d b317 4a3c a2a6 d2bc
000000c0: ba89 7f3d 1734 07bd 0425 86bd a65f ed3d
000000d0: 43de 5fbc 04ae 213e 0c76 71bd 8018 8a3c
000000e0: 1719 89bd de1a d03d f7b9 88bd 0a55 0a3e
000000f0: 6b66 5ebd 9d08 963c 2ebd 20bd 8f4a 0c3e
00000100: ad1f 29bd 7311 2cbd 922c c1bb 5902 30bd
00000110: ee0b 54bd 6b48 a43c 0480 3d3d 847b e83c
00000120: 0aef 263c 668a 503c e64f 79bd a10e 023d
00000130: e7b8 113e 98de 103c 4467 a43d 7606 86bb
00000140: 1773 9fbc 26ff 713d d6d2 22bd 3e40 04bb
00000150: e022 9e3c 9faf febc db5a 5bbd 381f 84bd
00000160: ddf1 ee3c 927b 0d3e e140 1d3e a11b 3fbd
00000170: 7edd fbbc 0820 79bd a464 64b9 6033 963d
00000180: 2344 203e 1744 2fbc d738 d63c 8240 8cbd
00000190: db09 233c 758e 4a3d 3065 1c3e f576 103e
000001a0: 3f8d 843d 3570 2c3c 7c9b b73c 54de 503d
000001b0: ac14 c93b 0c42 adbd 9fa5 c13d 1f76 a1bd
000001c0: ef2d b43c 6f86 1c3d f5cb 50bc e68c 4d3c
000001d0: ee1d e3bc d3a6 273e 25a2 2fbd 683b 0c3e
000001e0: 5bf1 653c ad97 0f3e 1e7b 873b 9073 88bd
000001f0: 07c5 86bd 741e 0bbd 4b53 ca3c 5b2f 81bb
0.023133148 -0.003862576 -0.015700009 -0.026939578 0.15044309 -0.055215742 -0.013133172 -0.035980616
-0.061240643 -0.032637767 0.01941003 -0.017532265 -0.022619154 -0.01199575 -0.03682232 -0.015894989
0.03676426 0.16434865 -0.015583667 -0.012312285 -0.07165122 0.085484065 0.02453272 0.15855113
-0.027756644 -0.0020333 -0.048896972 0.07685044 0.16583192 -0.0077228993 0.14354736 0.09125236
0.0013813372 0.055724114 -0.026540766 -0.06257717 0.009004897 0.06564832 -0.045385845 -0.04582108
-0.052088592 -0.044715226 0.015039738 0.108011134 6.751248e-06 0.036770895 0.012334752 -0.025714222
0.062387206 -0.03300866 -0.06550029 0.11590509 -0.013663831 0.15789038 -0.05895047 0.016857386
-0.06694239 0.101613745 -0.06676095 0.13509002 -0.054296892 0.018314654 -0.039242916 0.13700317
-0.041289974 -0.04200883 -0.005895206 -0.04297099 -0.05176919 0.020054063 0.046264663 0.02837921
0.010188827 0.012728309 -0.060867213 0.031752232 0.14230691 0.008842133 0.08027509 -0.0040901257
-0.019464059 0.05908122 -0.03975185 -0.0020179893 0.01930374 -0.031089602 -0.053553443 -0.06451267
0.029168064 0.1381667 0.1535678 -0.04665721 -0.030745264 -0.060821563 -0.00021781266 0.07334018
0.15650992 -0.010697386 0.02615015 -0.068482414 0.00995108 0.049452264 0.15272975 0.14107879
0.06472253 0.010524799 0.022413008 0.05099328 0.0061364975 -0.08459863 0.09455418 -0.07883858
0.02199456 0.038214143 -0.01274394 0.0125458 -0.027724233 0.16372232 -0.042879242 0.13694537
0.014034594 0.14022703 0.0041345498 -0.06662667 -0.06580549 -0.03396459 0.02469792 -0.003942413

value.2.weight f4 [1, 128]
00000000: dd58 663d 326c 6d3d 1ddf dbbd 9bf3 02bd
00000010: 094a 2e3e cbd9 bfbd 0bcf 0b3c 8ce0 f439
00000020: da5f 893d 0d8f 35be 71e0 ccbd be80 afbd
00000030: 6fb7 22bd 3fa5 08bd 3dfc c8bd d3e2 dd3c
00000040: 7298 5c3d 8dd8 d53d ccb5 4bbe c164 8bbd
00000050: f434 02be ca67 053e 969a b7bc bda0 a93d
00000060: 1948 37be 92d3 d5bd 667a c5bc c11f 163e
00000070: 7e15 f83d 1d1b 3abe cccc 1b3e 5f83 c43d
00000080: 6fce bfbd 08e7 063e e4c5 82bc 3a45 bcbc
00000090: 1008 1fbe bfb3 a53d 63c2 f4bd 583a 19be
000000a0: 37e9 3fbe 493c 8d3d 1594 993d ba09 193e
000000b0: aa52 323d 48d6 9ebd ab18 1bbe 6b9b b7bd
000000c0: 94e6 dd3d fead 35be 50cc 8abb 1219 c73d
000000d0: 9f78 76bd 39e1 1e3e 05e9 afbd 09b7 ac3d
000000e0: f838 edbd 8cdd c43d 899e b8bd 9ac0 1c3e
000000f0: dd85 f9bd e79c 4dbd ec00 6fbd 38cd e83d
00000100: 97da 56be 064e febc f1d9 18be d792 bcbd
00000110: 62e8 54be 4099 8abc 0ad9 ba3d 0a89 8abd
00000120: 8035 1fbd de83 853d f9ff 9cbd f82a a2bb
00000130: 24fc c73d 21b5 19be 3853 033e 2575 79bd
00000140: 568e 5dbd 006c fa3d 4c1f a43d 9277 723d
00000150: 09fd 8abd 19c7 2cbd 8f2c 973d 8a21 13be
00000160: 90ae 9bbd d273 223e f140 c13d c4db 92bd
00000170: 32c3 fdbd 73dc df3c ac35 84bd 638c b03d
00000180: 3040 0c3e c441 6e3d 3bac b2bc 668d 923d
00000190: 7306 56bd 4e95 563d 967a ea3d b00b f23d
000001a0: 486a 183e afe6 82bd 3477 883d 35ed e13d
000001b0: dc0e a43b 7a16 0abe 6a92 b53d 4b59 bdbd
000001c0: 1e19 70bd 96d1 f5bd a6e0 3ebd 1d4c 153e
000001d0: d2d5 15bd e574 0e3e f965 93bd 6e45 cb3d
000001e0: 7a11 303a c286 313e e06e 2bbe d3c8 31be
000001f0: 7190 9abd 953e 1fbe f665 1abe 5100 8cbd
0.05623709 0.05796451 -0.10735915 -0.0319706 0.1702043 -0.093677126 0.00853325 0.00046706607
0.06707735 -0.17730351 -0.10003746 -0.085694775 -0.039725717 -0.033360716 -0.09813736 0.027085697
0.05385632 0.104416944 -0.19893569 -0.06806327 -0.12715513 0.13027874 -0.02241258 0.082826115
-0.17898597 -0.104407445 -0.024106216 0.1466055 0.12113474 -0.18174405 0.15214843 0.095953695
-0.09365546 0.13174069 -0.015963502 -0.022982229 -0.1553042 0.080909245 -0.11951139 -0.14963663
-0.18741308 0.06896264 0.074989475 0.14945117 0.043535866 -0.07755715 -0.15146129 -0.089651905
0.10834995 -0.17742154 -0.0042357817 0.09721579 -0.060173627 0.15515603 -0.08589367 0.08433349
-0.115831316 0.09612569 -0.09014613 0.15307847 -0.121837355 -0.05019846 -0.05835049 0.11367267
-0.20981823 -0.031043064 -0.14926888 -0.09207695 -0.20791772 -0.016918778 0.09123428 -0.067644194
-0.03886938 0.06519292 -0.076660104 -0.00494897 0.09764889 -0.15010501 0.12824714 -0.060902733
-0.05409082 0.122276306 0.08013782 0.059196062 -0.06786544 -0.04218206 0.07381546 -0.14368263
-0.076016545 0.15864494 0.09436215 -0.07170823 -0.12390746 0.027326798 -0.064555496 0.08620527
0.1369636 0.058168188 -0.021810642 0.07155876 -0.052252244 0.05238848 0.11449163 0.118186355
0.14884293 -0.06391656 0.06663361 0.11031572 0.005006654 -0.13485137 0.08865817 -0.09245547
-0.058617704 -0.12002866 -0.04660096 0.14579816 -0.036580868 0.13911779 -0.07197184 0.09925352
0.00067164714 0.17336562 -0.16741514 -0.17361765 -0.07547081 -0.15551217 -0.15077958 -0.06835998

advantage.0.weight f4 [128, 256]
00000000: 4b3d 083d c5ec ec3b fe91 bc3c fcf7 23bd
00000010: 61c1 17bd 1e2d b7bd 65e4 34bd 03ce ac3b
00000020: f33c 68bd 8ef8 91bd fa22 dd3b be81 8a3d
00000030: fae2 6ebc 608d 5d3c 6d0f 1ebd e4bd eebc
00000040: f338 d2bd 7353 5dbd f073 c73c f4ba 023d
00000050: e61d e33d 19d7 863d 8fb3 a3bd cc46 f7bb
00000060: a2cc 11bc 37de 3c3d fb9a 8c3c 2b87 28bd
00000070: cdd4 ccbd ffcc a4bd 3b09 c0bd f2e0 b7bd
00000080: 8438 57bd 5d5e c0bc a235 8bbc 49ad 34bd
00000090: 66f4 1fbe 1247 85bb 5faa cdbc 9284 15bd
000000a0: 183f ef3c ad13 b13b 8598 b33c fbeb 113d
000000b0: 1935 093c 389a 553d a6d6 043d d9c1 bebd
000000c0: 2362 cb3d f0f0 2f3d 1534 173d 63dd 853d
000000d0: db6c d83c c2d1 213d 3c5b d1bc d835 d6bc
000000e0: d780 f6bd 776c d1bd 9461 71bd eeb9 7e3c
000000f0: f653 2bbd 4dc6 8c3d b25c dabd bd18 f83b
00000100: f41c 39bc 87af 683d 626b 88bd 7166 44bd
00000110: 15fd 95bd 90a3 813b 3135 f2bd f65d 7abd
00000120: e14b a03c ac25 dfbc ee6f e63c 111f bc3c
00000130: 0ead 123c e211 afbc 8b5a fcbd e752 74bd
00000140: f08e 713d 9ba2 bcbc 5070 d13d 0c60 2c3d
00000150: 74cd 1abd b0a8 2f3c 8073 ed3c 0a68 9b3d
00000160: 7e89 bc3c 6d01 f83c dd5a 11bc c6f7 05be
00000170: 324e 553c 30aa 8abb d5f9 a93c 99da dcba
00000180: 42d6 a13d 8608 41bd cfdc 3a3d f4f1 57bc
00000190: 2327 7fbd e3b0 d6bd a9c3 98bd 580c a23d
000001a0: 4d6c 4abc f57b b2bd afe6 873d 53fd d6bc
000001b0: ad62 cbbd 98b3 b6bd e1b3 acbd 0956 cc3c
000001c0: 8a7e 6d3c a7f2 70bc d272 563c b5ba 2c3d
000001d0: bf71 97bd 067d c8bd 8206 44bd 97c2 e9bd
000001e0: db19 a9bd 7f11 d73d 3b8d 80bd 2669 a93d
000001f0: 56b8 ffbc ca8a ba3c 9f7e 64bd d201 5f3d
00000200: 529b c6bd 91f0 00bd e271 49bd 7c80 be3c
00000210: 97f4 5bbd 07b8 cabc 9fa8 46bd 0ed5 b23b
00000220: 385b 383c 433f 82bc 19b8 50bd ad07 ffbc
00000230: bb16 853c 8adf 9dbd 2342 743d f282 2c3d
00000240: 1d1e e5bd 4ee7 d3bc a785 59bd c04f 86bd
00000250: 7d43 f73d e8a4 f73d 48cd bfbc c15a 6839
00000260: 9b1d a73b 1679 c03c af84 37bd 2b19 9a3c
00000270: b860 efbc 9859 983d a873 5dbc 5d68 483d
00000280: 7871 d6bd 3faa 6c3a 0e58 893c 258e 013c
00000290: c4fd 1bbd 16d6 0d3d 6241 35bd 8f37 1ebd
000002a0: c094 6abd 9322 c73b d572 ebbc 3d9a 57bd
000002b0: b3b5 0bbd 17e0 6d3d 04ed a63b 205c 9abc
000002c0: f101 6bbd d0bd d23c 4caf 9ebb f96c 27bd
000002d0: 9757 00bd fbbf 1bbe 882f b5bd 0050 1d3d
000002e0: 9731 333e 74bf 54bd bc87 18bd a12f bc3c
000002f0: 2d37 1c3d 8bc7 9abb 5945 063d d430 4e3c
00000300: 8b8d dcbd e568 a53c 145a b03d 84bb fcbd
00000310: c276 a4bb ec2c 9dbd f4a3 9f3d 7b3e aa3d
00000320: e2cf 34bd b11e a33b c378 343c 091d 93bc
00000330: 4f7d 8fbd e9b2 2fbd 4520 d6bd c036 acbc
00000340: 4564 5cbd 33d7 563d ebba 823d a705 d0bc
00000350: 69b0 2c3d 95ec 1f3d 4f94 053d 0d4c a1bc
00000360: 9da6 6bbd 4d6b 9d3c 852b 56bd 2be0 4cbc
00000370: 95d8 c8bc 05da 113c 42a8 b2bd 72b8 dabd
00000380: f269 31bd 2e85 113c 1750 e33d b8eb 16bd
00000390: 0ba9 973d 5151 7e3d 3499 eabc d6bc 4c3d
000003a0: a801 4bbd cc88 9dbd ba4f d93b 7b4a 45bd
000003b0: d207 4a3c 143d afbc 70cf 93bd e73c 333d
000003c0: 1cac c4bd 5633 0bbe b23c d73c da95 9dbd
000003d0: d8a8 f63c c453 3b3c 10d2 93bd 228b 7dbc
000003e0: 2a65 373d 3a90 733d cc37 16bd 2c41 42bd
000003f0: 3963 56bd d90d e53c 9e9b 483d cd5d 953c
0.03326158 0.0072303736 0.023018833 -0.04003142 -0.037049655 -0.08944152 -0.044163126 0.005273582
-0.05669875 -0.07127486 0.0067485543 0.067630276 -0.014580483 0.013522476 -0.03858893 -0.029143281
-0.102647685 -0.05403466 0.024347275 0.031916574 0.11089687 0.06583995 -0.079932325 -0.0075462814
-0.008898886 0.046110358 0.017163744 -0.04114453 -0.10001526 -0.080469124 -0.093767606 -0.08978452
-0.052544132 -0.023482496 -0.016993348 -0.04411057 -0.15620574 -0.00406731 -0.025105653 -0.036503382
0.02920489 0.005403957 0.021923313 0.03562544 0.008374476 0.052149028 0.032431267 -0.09314317
0.099308275 0.042954385 0.036914904 0.06536367 0.026419094 0.03950668 -0.0255562 -0.026148722
-0.12036293 -0.10225766 -0.05893095 0.015547259 -0.04182812 0.0687376 -0.106622115 0.0075713084
-0.011298407 0.05680802 -0.06661107 -0.04794926 -0.07323662 0.0039562657 -0.11826552 -0.061124764
0.019567432 -0.027239643 0.028129544 0.022964032 0.008952392 -0.021370832 -0.12321957 -0.059649374
0.058974206 -0.023026755 0.102265 0.042083785 -0.03779359 0.010721371 0.028985739 0.07588203
0.02301478 0.030274117 -0.008871761 -0.130828 0.0130191315 -0.0042317137 0.020749012 -0.0016849815
0.079021946 -0.04712727 0.045620736 -0.013180245 -0.062293183 -0.10482957 -0.07459194 0.07912511
-0.0123549225 -0.08715049 0.06635796 -0.026243841 -0.0993093 -0.089209735 -0.08432747 0.024943369
0.014495501 -0.01470629 0.013088899 0.042170245 -0.07394742 -0.09789471 -0.04785777 -0.11414068
-0.08256885 0.10501384 -0.062769376 0.082720086 -0.031215828 0.022771258 -0.055784818 0.054445095
-0.09697594 -0.031479422 -0.049180873 0.023254625 -0.053700056 -0.024745954 -0.048500653 0.005457527
0.011252217 -0.015899306 -0.05095682 -0.03113159 0.01624619 -0.07708652 0.059633385 0.042117067
-0.11187384 -0.02586713 -0.053105976 -0.0655818 0.12073419 0.12092 -0.023413315 0.00022159053
0.005099965 0.023495238 -0.04480427 0.01881083 -0.029220924 0.07438964 -0.013516344 0.048927654
-0.10470861 0.0009028054 0.01676562 0.007907425 -0.038083807 0.034627996 -0.044251807 -0.038627204
-0.057270765 0.0060771196 -0.02874128 -0.052637327 -0.03410883 0.058075037 0.0050941724 -0.018842757
-0.0573749 0.025725275 -0.0048426744 -0.04087541 -0.031333532 -0.15209953 -0.088469565 0.038406372
0.17499386 -0.051940396 -0.03723882 0.02297193 0.038138557 -0.0047234944 0.03278098 0.012584884
-0.10769185 0.02019162 0.08610931 -0.12340453 -0.00501904 -0.07674584 0.077949435 0.083126985
-0.044143565 0.004978024 0.01101512 -0.017958181 -0.070063226 -0.04289523 -0.10455374 -0.0210222
-0.053806562 0.052451324 0.06383308 -0.02539332 0.042160425 0.03904398 0.03261214 -0.019689584
-0.05753194 0.019216204 -0.052287597 -0.012504618 -0.024517337 0.008902078 -0.08723499 -0.106797114
-0.043313928 0.00888185 0.1109926 -0.036845893 0.07405289 0.062089268 -0.028637506 0.049984775
-0.049562126 -0.076921076 0.0066318186 -0.048166733 0.012330966 -0.021391429 -0.072173 0.043759253
-0.0960314 -0.13593802 0.026274059 -0.076945975 0.030109808 0.0114335455 -0.072178006 -0.015475066
0.044774212 0.059463717 -0.036674306 -0.047425434 -0.05234072 0.027960705 0.048976533 0.018233204

advantage.0.bias f4 [128]
00000000: e3f7 0dbd acd0 29bd 2ce5 dc3c 9818 903c
00000010: add7 4c3d 3411 f03c 40e6 d1bc fa70 4d3d
00000020: 8cd6 f13b b0b5 cf3b 8412 8cbd da4a 043d
00000030: f928 18bc 08c2 38bd 4bd6 3cbd c55c 67bb
00000040: 2a4c 42bd 7060 e8bc 19c3 ddbb 51b8 ad3c
00000050: 5a59 e33b 6ce1 da3c 0ecb 363d 2ae1 2c3d
00000060: 84b1 a3bc b371 e5bc 5492 e3ba 50f7 b73c
00000070: 9470 873d 5922 11bc eb04 2a3d 7ff8 cf3c
00000080: 2854 3dbd 8e56 8b3d 737d 6d3d 663e 9dbd
00000090: d3bd 7c3b 0aa6 3e3d ceb1 6f3d 48bf 4b3c
000000a0: da5e 623b 1a65 c939 7ded 3fbd 9ff0 33bd
000000b0: 5fab f33b 8191 7a3d a881 edbc d291 09bc
000000c0: fbfa a73c 80ca d3bc 238b 383d 67c6 75bd
000000d0: d2ae 0fbd 9627 943d c56f d7bc f684 2e3d
000000e0: 4913 47bb 36db 843d 56f5 a03c eac0 8fbd
000000f0: c8a8 f3bc d48a 87bb 7e91 ebb9 19d0 35bd
00000100: a465 653c a434 a63c 13d3 7bb8 196e 23bc
00000110: c457 c73c 596a 2b3d 731e d93c d112 66bd
00000120: fd3a 19bb fad0 83bb 156a 5ebd 03f0 41bd
00000130: 51b7 dbbb f96f 30bd 3f03 0ebd edbf 403d
00000140: fd57 8abd ccb0 e0bc 8945 853d f3e6 cabc
00000150: dc6a bfbd 2acd 17bd 637d 713d 6950 99bc
00000160: 0b54 e03c 245f 183d 359a 813c ef95 21bd
00000170: 8e3d a23c 4f87 3ebd 8016 08ba 97db 13bc
00000180: 4874 283d 7466 8b3c 0fe0 26bd 1eb7 063d
00000190: d8e5 6bbc bb20 42bd 6fe3 233d e71e 49bc
000001a0: f744 89bc 302e 1bbd f6ec 0ebc eab3 493d
000001b0: 388a 48bd eb52 bcbb 19b0 a53c 67b9 1bbd
000001c0: b575 f7bc e6c9 1ebd e398 5fbd ac63 85bd
000001d0: b551 553d f5cd 753d 3b14 e3bc e193 c8bc
000001e0: d9d7 123d 6bfe 21bd 7a0e e5bc 201d babc
000001f0: 0f24 7c3d 3de4 423d 7db2 aabc 31b5 203d
-0.03466023 -0.04145877 0.026964746 0.017589852 0.050010372 0.029305078 -0.025622487 0.05015657
0.0073803123 0.0063387975 -0.06839469 0.032297947 -0.009287112 -0.045106918 -0.046102803 -0.0035303098
-0.047435917 -0.028366297 -0.006767642 0.021206053 0.006938142 0.026718818 0.04462724 0.04220692
-0.019982107 -0.028008318 -0.0017362335 0.022456795 0.066132694 -0.008858287 0.041508596 0.025387047
-0.046222836 0.06803618 0.057980966 -0.07677917 0.0038565292 0.046545066 0.058519177 0.012435742
0.00345414 0.00038413034 -0.046857346 -0.043930646 0.0074362005 0.06117392 -0.028992489 -0.008396583
0.020505419 -0.025853395 0.045054566 -0.060003664 -0.03507883 0.07234113 -0.026298413 0.04260727
-0.0030376485 0.06487124 0.019648235 -0.07019217 -0.029743567 -0.0041364226 -0.00044931093 -0.04438791
0.014001284 0.020288773 -6.003964e-05 -0.00997498 0.024333842 0.041849468 0.026503777 -0.05617029
-0.0023381107 -0.0040227147 -0.054300386 -0.047348034 -0.0067052026 -0.043075535 -0.034671064 0.047058035
-0.06755064 -0.027428053 0.065074034 -0.024768328 -0.09346554 -0.037060894 0.05895747 -0.0187151
0.027383825 0.03720011 0.015820602 -0.03944963 0.019804742 -0.04651576 -0.0005191341 -0.009024522
0.04112652 0.017016627 -0.040741023 0.032889478 -0.014398061 -0.047394495 0.04001182 -0.012275434
-0.016756518 -0.037885845 -0.008723488 0.049243845 -0.04895994 -0.0057471893 0.020225571 -0.03801861
-0.030207494 -0.038766764 -0.054589164 -0.065131515 0.052079875 0.06001087 -0.027719608 -0.024484577
0.03585038 -0.039549273 -0.027961005 -0.022718966 0.061557826 0.047580946 -0.020837063 0.039235298

advantage.2.weight f4 [3, 128]
00000000: 7d15 89bd f34f 8e3d b09a 4dbd a8ff eb3c
00000010: 7bb1 a0bd d031 4c3a 61b1 703d 36bf e13c
00000020: de19 7a3d 6e3d 983c 8f07 6a3c cff6 21be
00000030: f0d2 06be f63c f93c 4d08 353d 2659 d3bd
00000040: 2eaf 27bc 3bbe b1bb beea 8fbd 3dc4 333d
00000050: b943 603d a319 963d 640a 923d 623d 8a3c
00000060: f21e 3dbd 868a af3c 3227 fdbc a475 4cbd
00000070: 3978 be3c 0abd dfbd 16cc 603d 0b57 2e3d
00000080: 0f51 953d 126a ae3d 687e ae3d f9ad dc3c
00000090: 9408 9cbd 7ccd abbd d8fc a73d 26cb a73d
000000a0: 437a 87bd 1727 a3bd 020d 5f3d 15b0 0abd
000000b0: 8b63 75bb b4f7 e7bd 9847 a5bc 0fa4 d63d
000000c0: a412 2b3d 98a4 c8bd b062 383d b9c9 2c3d
000000d0: 53f8 bdbd f4e6 793c a3e4 4f3d 2f19 e63c
000000e0: 26e5 f4bd 13b1 49bd 4e2d 553d f4cf 8abb
000000f0: 5ba9 d4bd 267a 19bc 7556 1cbc 79cf c33d
00000100: 0dfd 793d a889 d13c a534 16bb a46d 18be
00000110: 5722 02bb 9cae 1d3c da5f 08bc 142b 0ebe
00000120: 4317 9e3d 425f b4bd 973b 833c 889e c63b
00000130: a9b1 113d 2731 3bbc 8fcd b9bd 8dcc af3d
00000140: 6052 893c 47a3 963d 4e5e 0abc cf8d fbbc
00000150: f1f6 c0bc 38ec 88bc 4305 62bc 9233 513d
00000160: 427c 0ebe 9219 c2bc 2c63 2b3d c962 89bd
00000170: 00da 62bd 1d67 e43b 8c07 133d bc81 49bc
00000180: ec5b b03c acd4 d43c 540e 01be 0d62 e1bc
00000190: 8c1e f3bc 3eee 7bbd b987 61bd 77cc 4dbd
000001a0: b6bf 7c3c a817 aa3c 1d60 c43d b8a6 b6bd
000001b0: 45b6 98bc b60c 273d e47c 7b3d 6454 d63b
000001c0: e001 8f3d a5b8 86bd b3c0 c9bc 8496 973d
000001d0: 35b1 03be 657d 7a3d b453 e33c 6baa b9bd
000001e0: dbdb 04bd 6bec 7e3d 8f82 b43d bc3d 8f3d
000001f0: 6718 4f3c e297 94bd 9742 85bd 790e 96bd
00000200: 4711 9a3c bd2d 8d3d ccba c4bd c2cd 1bbb
00000210: 7690 f53d c6ee 5bbd 3509 d83d a009 173d
00000220: e63d 8bbd f8a8 d93d e253 30bd 83dc 0e3d
00000230: 1868 e43d c7b6 223e 920a afbd 6261 db3b
00000240: 9655 2f3d 9178 8db9 384d d9bd 92a8 f03c
00000250: 01f3 c83d ecf8 163d f149 0c3d edb7 64bd
00000260: bfad 8bbd e46a 89bd 03ba 243d cda3 96bd
00000270: ff16 babc 7893 e2bd b008 413b 13eb d9bc
00000280: 39b1 5d3d 33ae 893d e4ae 203d f832 113d
00000290: 147b d63d 2dc8 c3bd 2671 bdbd 6349 393b
000002a0: bc01 9dbd 84be 5fbe 235a 9fbd 3364 0b3e
000002b0: da4e a33d 6afa d3bd eae7 fd3d b189 ca3d
000002c0: 3af9 cdbd e1ad e6bd a62f cbbc 2a5d b53d
000002d0: ac94 a73d 9936 fcbd 524e 97bd 9e2c 1c3d
000002e0: 9578 e43d 6ccb 923d bd15 13bd c801 953d
000002f0: 441d c9bd 72f9 bbbd 8c8a 56bc e763 9b3d
00000300: c78f 91bd 22b6 39bd a398 a5bd 4064 883d
00000310: 9b7d c8bd 3514 81bd 1fee a23c f02c f93d
00000320: 755c 35bd 7f4c 3f3d 5346 813d f81c 053c
00000330: dba6 b13c 0db2 cbbd 2dad d63d aadf 7c3c
00000340: a84f 52bd 90d6 733d 556d 68bd 82c6 f43c
00000350: 3413 9bbc 8ad1 de3c 7e73 a2bd c0db d4bd
00000360: 1f86 b13c cee1 96bd 9e25 303d 9ca8 fe3c
00000370: b98c 493d ea7e 40bd dfc0 94bd a412 f1bd
00000380: 6dc9 54bc 93d5 9dbc 389c 99bb 8aa9 d93b
00000390: 38ce 44bd 1b17 aebd 406a 273e 9f8c e5bd
000003a0: 53a7 093e a134 013e 4e02 ef3d 98bf 84bc
000003b0: 2b42 493d f406 c93c be23 843d bf02 08bd
000003c0: e592 583d d8f9 bb3d 1b26 5a3d e120 82bd
000003d0: e3e2 7b3d 41dc c9bd 2b2c adbd 176d c1bb
000003e0: 4454 7ebc ad93 d83a cd6b 873d b165 bf3b
000003f0: 46e8 0abd 8848 9e3d be2f d5bc 4537 1bbe
-0.06693552 0.06948843 -0.05019635 0.02880843 -0.07846352 0.0007789405 0.05876291 0.027556997
0.061059825 0.01858398 0.014284029 -0.15816806 -0.13166404 0.030424576 0.04419737 -0.10319738
-0.010234637 -0.0054242886 -0.070271954 0.04388832 0.054752085 0.073291086 0.07130888 0.016874973
-0.04617209 0.021428358 -0.030902479 -0.04991688 0.023250686 -0.10924728 0.05488213 0.04256348
0.07290851 0.08516325 0.08520204 0.026938425 -0.07618824 -0.083888024 0.08202523 0.08193044
-0.066151164 -0.0796644 0.054455765 -0.03385933 -0.0037443365 -0.113265425 -0.02017574 0.104805104
0.041765824 -0.09797019 0.04501599 0.042184565 -0.0927588 0.015252817 0.050755154 0.02808818
-0.11957769 -0.049241137 0.05204516 -0.0042362157 -0.103838645 -0.009367501 -0.009542097 0.09561057
0.061032344 0.025578335 -0.0022919562 -0.14885575 -0.0019856894 0.00962415 -0.008323634 -0.1388362
0.077192806 -0.088072315 0.016019626 0.006061379 0.03556982 -0.011425293 -0.0907241 0.08583937
0.016762912 0.073553614 -0.008445336 -0.030707268 -0.02355525 -0.0167142 -0.0137952 0.051074572
-0.13914588 -0.023693834 0.041842625 -0.06708295 -0.055383682 0.0069703 0.03589587 -0.0122989975
0.021528207 0.025980316 -0.12603122 -0.027512575 -0.029677652 -0.061506502 -0.055061076 -0.05024382
0.015426567 0.020763233 0.09588645 -0.08918518 -0.0186416 0.040783606 0.0613984 0.006540822
0.069827795 -0.06578187 -0.024628019 0.074017555 -0.12860568 0.06115474 0.027749874 -0.09065708
-0.032436233 0.062237184 0.088139646 0.06994197 0.012640095 -0.07255532 -0.06506842 -0.07326979
0.018807067 0.068934895 -0.09605941 -0.0023773764 0.11990444 -0.05369451 0.10548631 0.036874413
-0.067989156 0.10627931 -0.043048747 0.034878265 0.11152667 0.15890037 -0.08546938 0.0066949585
0.04280623 -0.00026983445 -0.106104314 0.029377256 0.09811974 0.036858484 0.034250204 -0.055839468
-0.06820249 -0.06709841 0.040216457 -0.07355461 -0.022716044 -0.11063284 0.002945464 -0.02660135
0.05412409 0.06722679 0.03922929 0.035449 0.10472694 -0.09559665 -0.09250097 0.0028272502
-0.076663464 -0.2185002 -0.07780864 0.13612442 0.07974024 -0.10350497 0.1239775 0.09889544
-0.10057302 -0.112636335 -0.024802994 0.0885566 0.08182654 -0.12315101 -0.07387985 0.038128488
0.11155812 0.07167706 -0.035909403 0.0727573 -0.09820035 -0.09178437 -0.013094556 0.07587414
-0.071075015 -0.04533971 -0.08085754 0.06659746 -0.09789582 -0.06302682 0.019888936 0.12166774
-0.044277627 0.04670381 0.063122414 0.0081245825 0.021686008 -0.0994607 0.104822494 0.015434185
-0.051345497 0.059530795 -0.056744892 0.029879812 -0.018930055 0.027199525 -0.07932185 -0.103934765
0.0216704 -0.073672876 0.043004625 0.031086259 0.04920647 -0.046996035 -0.0726335 -0.117711335
-0.012987477 -0.01926688 -0.004687812 0.006642525 -0.048048228 -0.08500501 0.16349125 -0.11208462
0.13442735 0.12617733 0.116703615 -0.01620464 0.04913537 0.024539448 0.0645213 -0.033205744
0.052874465 0.09178513 0.053258996 -0.063539274 0.061495673 -0.09856463 -0.0845569 -0.005902897
-0.01552302 0.0016523503 0.06612358 0.00584098 -0.03391292 0.07728678 -0.026023742 -0.15157802

advantage.2.bias f4 [3]
00000000: b62a 313d e427 91bd f234 60bd
0.043253623 -0.07087687 -0.054737993
