model/DuelDQN/checkpoint_1500.pth (torch, 287045 bytes, 9 tensors)

feature.0.weight f4 [256, 16]
00000000: d526 2cbd 1098 48bd 89a0 e63d 5514 5f3d
00000010: ed9f 82be d67e 59be 6920 5d3e b567 0fbe
00000020: 5a2e 3dbe ad31 443e b0f3 3ebd 8ab7 c63d
00000030: 48bc f0bd 38f3 6e3d 4008 663e 03f3 78bd
00000040: 11a8 9a3e 968c e8be 4581 073e 223f 3f3e
00000050: 4262 9dbe 21d8 b6bd 4be4 fe3d 9216 85bd
00000060: ab28 3a3e 4b0c c3bc 203e b7be b68e a7bd
00000070: d6d9 083e 2bb7 fb3c a284 db3b ec76 f2bc
00000080: 1df3 373e 2b42 e23b 0d14 b9be ad38 f33d
00000090: 42dd 97be ee73 563e dd70 943d 4403 05bc
000000a0: 5e61 073e 181b 0bbe f1db 9b3b 7836 3c3e
000000b0: 483d 8abc d178 48bd 684c a0bd c443 95bd
000000c0: 5d72 103c 74c2 f9bd f205 c53d 64e8 8c3e
000000d0: ca45 6b3e c256 6f3e e408 333e 399f 31bc
000000e0: c247 9a3d 7e79 513d 04c7 64be b69a 403e
000000f0: 41b5 dbbd 4be5 03be 17aa f1bc 041e 93bd
00000100: 8548 843e f486 dd3d 211a c8bd ab12 603d
00000110: 7da6 41bd b45e 42bd d6ce 66be 2b6f b8bd
00000120: 5e2a c8bc acfc 013e 1535 93be fe27 883c
00000130: 38fe 783e 72d3 613e bd83 0bbe 98bf 29be
00000140: 6296 46bd 0fc4 a2be 4bbc 8b3e c539 6ebe
00000150: 6064 9ebd 7c4b c33c 850b e53d ed9c b1bd
00000160: 030b 223e bd0e bfbc 0fc4 47be 7173 a4bd
00000170: 3470 293d 2f84 63bd 59e2 e13d 1052 923e
00000180: 3615 1ebe 1187 913e 1f36 d83d 3422 4e3e
00000190: ba27 b0bc cde7 cbbc 6ea7 3fbd 5588 fdbc
000001a0: 387c 423c c117 51be 2b97 80bc bf28 96bd
000001b0: 4d36 9bbe ac7a 19be e54e afbd 2596 f7bd
000001c0: 5ce3 5d3e 84fc 583d 6efd 413e 0271 89be
000001d0: 0f00 84be cf0a 64be e154 eabd 208e f6bd
000001e0: 6e76 bdbd a7e8 513d 7119 c5bb 78de 09bd
000001f0: 6542 edb9 2f78 3d3c d897 793c 4a96 883e
00000200: f728 f83d 25c3 973d 3468 51bc 9831 acbe
00000210: 735e 9cb9 3c9f b7be 1041 be3d c93f 7ebb
00000220: 1008 d5bd cdac b03d d955 62be 4175 933d
00000230: 9bff fa3d a625 3b3e 6273 ce3d e157 f2bd
00000240: a2b7 803e ac1e 883d fcec a0bd 40b2 62be
00000250: dd63 21be d45d f2bd 7d55 8abd ac1d 37be
00000260: f5ec 2b3d 9d2a 4dbd a0e0 063e 9e85 8fbe
00000270: c207 7cbe a1c6 a13a 5d77 6fbe e3a5 26be
00000280: df6b 4cbd 5282 3c3d b2e2 82be 07aa 93bd
00000290: c015 93be 7281 3dbe 666b 423e 177f 9abe
000002a0: dc04 7fbd 9b46 82be bab6 243e 695a 11be
000002b0: d888 42bd 689a 39be c50f 44bd 0678 1d3e
000002c0: 46dc 1e3e a244 81be 4e42 7f3d ba85 b33d
000002d0: 055e 7dbd d9ae 623e 4e0e 7b3e a407 0a3e
000002e0: 32d2 41be 5082 27be d796 dabd c836 0a3e
000002f0: 5d73 0d3e c49d 833d d349 1bbe 8c29 36be
00000300: 1aa4 393d edd2 1a3e 9fae 58be bbfa 9a3c
00000310: cb0e 0d3e 20af c3bd 7033 67bd a128 1a3e
00000320: 43b4 fcbd de8e 10be 382f 89bc ecd3 583d
00000330: cc2c 30be c920 8fbe f8d5 733e f8e8 b43e
00000340: 033a 373e 5435 debd c04c 23be 5fa6 883d
00000350: 1c4f c03c 0e1a ae3c 18b3 273e e8f0 303e
00000360: c3f6 383e 1ffb a2be 760d 713c bc4e 7f3d
00000370: 376e dabd a77f 06be 7bfb 06bb ec06 453e
00000380: aced 303e da92 693e 0121 f73d f2c6 ed3c
00000390: 8a58 06be 08e7 61bc 2f79 cb3d 82f6 23be
000003a0: 6421 92bc 0d5d 02bd 7e7e 14be 83c6 203e
000003b0: 669a b13d ce4e 47bb 78fc bb39 cce5 eb3d
000003c0: 3ec5 c1bd a813 693e 883c 9abd e92c ac3d
000003d0: ef24 86bd 1d31 0f3e b1c9 9b3e f0f8 c1bd
000003e0: f177 f8bd eae2 92bd 6b8e 78be f9d1 cd3b
000003f0: 7bfc e8bd 7f55 863b 3967 6bbd c87d 2a3d
-0.04202922 -0.048973143 0.112610884 0.05446275 -0.2551264 -0.2123979 0.21594395 -0.14004405
-0.18474713 0.19159575 -0.046619117 0.09702976 -0.11754662 0.05833742 0.22464085 -0.06077863
0.3020635 -0.4541976 0.13232906 0.18676427 -0.30739027 -0.08927942 0.12445887 -0.064984456
0.18179576 -0.023809573 -0.35789585 -0.08181517 0.13364348 0.03072699 0.0066991607 -0.029597722
0.17963834 0.0069048605 -0.3614811 0.118760444 -0.29660994 0.20942661 0.072480895 -0.008118454
0.13220736 -0.13584554 0.0047564437 0.18380153 -0.016874924 -0.048943345 -0.07827073 -0.07288316
0.008816329 -0.12195292 0.096202746 0.2752105 0.22975841 0.23372939 0.1748386 -0.010841184
0.07533218 0.051141255 -0.22341543 0.18809018 -0.10727931 -0.12880437 -0.02950005 -0.071834594
0.25836578 0.10816756 -0.09770609 0.054705303 -0.047277916 -0.047453597 -0.22539839 -0.090055786
-0.024434265 0.12694043 -0.28751436 0.016620632 0.24315727 0.22053316 -0.13624473 -0.16576993
-0.04848326 -0.31790206 0.27292094 -0.23264225 -0.07733989 0.023839705 0.11183838 -0.08672509
0.15824513 -0.023322457 -0.19508384 -0.08029831 0.04136677 -0.055545982 0.110295005 0.28578234
-0.15437779 0.2842336 0.10557198 0.20130235 -0.021503318 -0.024890805 -0.046790533 -0.030948797
0.011870436 -0.20419218 -0.015697083 -0.073319905 -0.30314866 -0.14988202 -0.0855997 -0.12089185
0.21668762 0.052975193 0.18944332 -0.2684403 -0.25781295 -0.22269748 -0.114419706 -0.12038827
-0.09251104 0.051247265 -0.0060149957 -0.03365943 -0.0004525363 0.0115642985 0.015233956 0.2667716
0.121171884 0.07410268 -0.012781192 -0.33631587 -0.0002982501 -0.35863674 0.092897534 -0.0038795343
-0.104019284 0.08626709 -0.22103061 0.07200099 0.12255784 0.1827608 0.10080601 -0.11833168
0.251401 0.06646475 -0.07857701 -0.2213831 -0.15760751 -0.118343025 -0.06754587 -0.17882413
0.041974027 -0.050089467 0.13171625 -0.2803163 -0.24612334 0.0012342521 -0.23385377 -0.16274218
-0.04990756 0.04602272 -0.2556358 -0.072101645 -0.2872753 -0.1850641 0.18986282 -0.30175087
-0.062260494 -0.25444493 0.1608533 -0.14194645 -0.047493786 -0.18125308 -0.0478666 0.15377817
0.15513715 -0.25247675 0.062319092 0.08765741 -0.061857242 0.22137012 0.24517176 0.13479477
-0.1892784 -0.16358304 -0.10673302 0.1349746 0.13813539 0.06426576 -0.1516488 -0.17789286
0.045322515 0.15119524 -0.21160363 0.018918386 0.13775174 -0.09554887 -0.05644554 0.15054561
-0.1233907 -0.14117 -0.016746148 0.05293648 -0.17204589 -0.279547 0.23812091 0.3533399
0.17893223 -0.10850015 -0.15947247 0.06672358 0.023475222 0.021252658 0.16376913 0.17279398
0.18062882 -0.31832215 0.014712682 0.062330946 -0.10665553 -0.13134633 -0.0020596671 0.19240922
0.17278165 0.22809926 0.12066842 0.029025529 -0.13119712 -0.013787992 0.09935223 -0.16012004
-0.017838188 -0.03182702 -0.14501378 0.15700726 0.08672027 -0.0030411961 0.00035855523 0.1151844
-0.09461449 0.22761405 -0.07531077 0.084070034 -0.06550013 0.13983579 0.30427316 -0.09471309
-0.12132252 -0.07172187 -0.24273078 0.006281134 -0.11376282 0.0040995474 -0.057471488 0.04162386

feature.0.bias f4 [256]
00000000: 5a36 63be 573e ba3c a28c a7bd ba07 e33d
00000010: 75b7 9abe 3ca7 9f3d 5667 f2bd 7785 1bbd
00000020: 4727 69bd 2bf5 883c 3575 643e 7ec0 8a3e
00000030: b492 29be 49d9 463e 53f8 babe 1ba9 b43d
00000040: fb59 db3b 62fd 853e 9604 87be e0f5 30be
00000050: f70e edbd dded 01be 26ea 783d 98d3 b8bc
00000060: 5cde 1f3c e8bf a93e 482f dfbb 0608 76be
00000070: 0738 a3bd 1415 c2be a65c bebd 9ba2 ddbd
00000080: 70aa e0bd c9b2 6ebe edaa 63be 7783 a3bc
00000090: a281 20be 910b b4bd 3cf8 ff3d ca57 60be
000000a0: 4ddf 3a3e 4cd7 04be b46b f13d fa09 0a3c
000000b0: 185b 39be d172 d83d 2c6a 4d3e 9089 823e
000000c0: ed1f eebd 065d 92be 326e 913e ada7 babd
000000d0: aaec 253d 3082 adbc 0105 b73e 5d3b 4cbe
000000e0: b742 45be 9d3e a1be 7db1 4ebe 6ea8 0cbd
000000f0: f4b0 333d edc0 2d3e 80a1 e8bc 506f 3abe
00000100: 70cc 2c3e 356d 943e e4c3 38be 4a4c cabd
00000110: 8cc8 413e 0272 063e 426e 4ebd c596 dd3d
00000120: 787f 463e 9540 85bc f1db 22be 1070 a1be
00000130: b599 8fbe ed2a de3d 774a 5e3e 418f 12bd
00000140: 645f 8cbe 3c44 953e 98d6 28bd 9d65 10be
00000150: ba2a 9f3e 2404 a83d 8464 7a3e 2ba2 1c3e
00000160: 5bc5 8d3e 37ab 913e c2ad 94be 902b bdbd
00000170: 6d5b 15bd f4f6 bfbd b5b5 4dbd e0d5 68be
00000180: bbc7 2ebe ee88 24be e243 38be bf6c 26be
00000190: 6bde 44be e54b 6dbe c4a5 b0bd 67f1 413e
000001a0: a996 453e a46c a53c 22e8 b5bd 7cab ac3e
000001b0: 2208 94be 92eb 28be 102f b3be 93da a4be
000001c0: 217a 15bc 1981 463e 8ffc 1bbd dacf 53be
000001d0: 07fe 25be b939 54be 1cfd 5bbe 5c60 f4bd
000001e0: 983a a33e c6d2 68bd 2ab6 34be fa10 a5bd
000001f0: 06a8 a23e 670a 773e 9b60 ddbd 8b97 0b3e
00000200: 8a80 b13e 865f 3bbe ff1a 7fbd 9805 20be
00000210: 10b2 50be ec1d fb3d 0a9e 11bd 7054 74bd
00000220: 1529 90bd fa9b 20be 27e5 6fbe 3787 77be
00000230: 535d 293e 39ce e2bd 2d15 e2bb 2572 5e3e
00000240: d1e7 823d f8cf 52be 6e7b c63e 7b8c 8b3e
00000250: d262 6dbd 595e 9bbe 73b0 52bd f64a ce3c
00000260: defd ab3e 630a cabe fc07 aa3e 4838 5abe
00000270: 5053 943e af5b 8dbd a559 82bd db72 c33e
00000280: cc9f 9fbe fc5b 07be c498 993e 60d8 3c3e
00000290: 7831 fabd 12c8 b23e b7ab 47bc 3fb0 383e
000002a0: 693a ad3e 6976 703d 8c13 3bbe 9a18 d5bd
000002b0: 0d02 27bc 7ee2 d43c 7c78 b13e 36e3 273d
000002c0: cf9c 5cbe 0bc2 9c3e a2e3 24be c15c de3d
000002d0: 43ef 2a3e 874f 0dbe 73d3 a1be 00cd 883e
000002e0: f841 bebd 2f7a c0be 46f7 76be aa87 8abe
000002f0: 14c8 983e 55b9 fabd 7da9 1cbe ba9f 7bbd
00000300: b62f 9f3e 30dd 5d3d ee39 37bd 7646 36be
00000310: a290 b83c 86b3 d2be 237a 8b3e 761e debd
00000320: 3a04 943e 4cbe 123e be9c 22be 01be 76be
00000330: 5aa9 dbbd 71bb 023e 1dc6 853e 2445 343c
00000340: 7050 b1bd b8ea a13d 5f6f f63d e094 0f3e
00000350: 4156 85be 9a37 ac3e 6de3 d53d 82f9 2ebe
00000360: 662a 973e 2940 3b3e 5c42 11be 38f3 033e
00000370: aefc 2a3e 6426 78bd 910b 0c3d a108 19bd
00000380: 8db5 3abe d505 5bbe ffed bb3d 083d 6cbe
00000390: 77c1 98be a221 febd 3e76 fbbd 10c2 cc3d
000003a0: 527b 3cbe 7d3a 2e3e 268f c3bd b661 ad3e
000003b0: 9ca6 783e b036 62be 3521 09bd d9e8 26be
000003c0: aff1 20bd 7aaa 55be edd7 2c3e 8e47 1bbe
000003d0: 4081 f53b b253 69be 14e0 993e adff 853e
000003e0: 324d 81bb add9 1bbe 0ff9 2b3e 4800 89bc
000003f0: 592b aa3d 4ef2 a33e 9738 36be c9df 89bd
-0.22188702 0.022734804 -0.081811205 0.11085458 -0.30218092 0.07795569 -0.11836116 -0.03796908
-0.056922223 0.016718468 0.22310336 0.27099985 -0.16559869 0.19418825 -0.3651758 0.08821317
0.006694076 0.26169878 -0.26370686 -0.17281294 -0.1157512 -0.12688394 0.060770176 -0.022561833
0.009757604 0.33154225 -0.0068110563 -0.24026498 -0.07969671 -0.37906706 -0.09295015 -0.1082203
-0.109700084 -0.23310389 -0.22233172 -0.019960148 -0.15674451 -0.087912686 0.12498519 -0.21908489
0.18249245 -0.12972754 0.11788121 0.00842523 -0.18101156 0.105687745 0.20060033 0.25495577
-0.11627183 -0.28586596 0.28404385 -0.09114013 0.040508904 -0.021180242 0.35746005 -0.1994452
-0.19263731 -0.31493083 -0.20184894 -0.034340315 0.043869928 0.16968127 -0.028397322 -0.18206525
0.16874862 0.28989568 -0.18043476 -0.09877832 0.18924159 0.13129428 -0.05039812 0.10819773
0.19384563 -0.016266147 -0.15904213 -0.3153081 -0.28046957 0.10848031 0.21708094 -0.03578115
-0.27416527 0.2915362 -0.041220278 -0.14101262 0.31087285 0.08203915 0.24452406 0.15296237
0.27689633 0.2845094 -0.29038817 -0.092368245 -0.036464144 -0.093732744 -0.050222117 -0.22737837
-0.17068379 -0.1606786 -0.17994645 -0.16252421 -0.1922547 -0.23173483 -0.08625367 0.18939744
0.19295754 0.020193405 -0.088821664 0.33724582 -0.28912455 -0.16496113 -0.34996843 -0.3219801
-0.009123356 0.19385184 -0.038082656 -0.20684758 -0.16210185 -0.20725144 -0.21483272 -0.119324416
0.3188064 -0.056841634 -0.17647615 -0.08059879 0.31768817 0.24125062 -0.10809442 0.13632028
0.3466838 -0.18298158 -0.062281605 -0.15627134 -0.20380425 0.122615665 -0.03555111 -0.05965084
-0.07039086 -0.156845 -0.23427258 -0.24172674 0.16539507 -0.1107449 -0.006899497 0.2172323
0.06391872 -0.20587146 0.38766044 0.27255616 -0.05795557 -0.3034542 -0.051437806 0.025182229
0.33592123 -0.3946105 0.33209217 -0.21310532 0.28969812 -0.06902253 -0.063647546 0.38173565
-0.31176603 -0.13218683 0.29999363 0.18441916 -0.12216467 0.34918267 -0.012186936 0.18035983
0.33833626 0.058706675 -0.18269175 -0.10405083 -0.01019336 0.025986906 0.34662235 0.04098817
-0.21544193 0.30616793 -0.1610246 0.10857535 0.16692834 -0.13799869 -0.31606635 0.26718903
-0.09289926 -0.3759322 -0.24117765 -0.27056628 0.29840147 -0.122423805 -0.1529903 -0.061431624
0.31091088 0.05416602 -0.04473298 -0.17800316 0.022529904 -0.4115259 0.2724162 -0.10845654
0.28909475 0.14330405 -0.15880105 -0.24095918 -0.107256606 0.12766816 0.2612771 0.011002813
-0.0865792 0.07906097 0.12032961 0.14021635 -0.2604237 0.3363617 0.10443769 -0.17087367
0.29524535 0.18286194 -0.1418547 0.1288575 0.16697952 -0.060583487 0.034190718 -0.037361745
-0.18233319 -0.21388943 0.091762535 -0.23070157 -0.29835102 -0.12408759 -0.12278412 0.09997952
-0.18406418 0.17014499 -0.09548788 0.3386361 0.24282306 -0.22091174 -0.033478934 -0.16299762
-0.039292987 -0.20865813 0.16879244 -0.15164015 0.0074922144 -0.22785833 0.3005377 0.26171628
-0.00394597 -0.15219755 0.16794227 -0.016723767 0.08309049 0.320208 -0.17795025 -0.06732137

value.0.weight f4 [128, 256]
00000000: e45a b53b 9bc1 e83c 311e 37bd 5c2f 113d
00000010: 016a c5bd 654d b7bd 9425 493c 811a 8d3c
00000020: ec7c 293b 59be 1e3d d54f 39be e635 4cba
00000030: 2886 0cbe a2ed 21bb 79d9 7a3d 7157 673d
00000040: c623 bc3b cb3f 90bd 4814 9a3c 1587 f3ba
00000050: dc8f 723d b84e 6dbd 7496 e23b 4acc 05bd
00000060: f93a eebc 31f5 b8bc 55d0 e9bc 83ec 003b
00000070: 5dd1 9abd 60d9 26bc 572a 39bd 6015 4b3d
00000080: f2a5 4f3d 834e e83c 6f0e a1bd b98c c7bd
00000090: 9e8c 813d ef5b 8abd 3538 b9bc 31f9 d2bc
000000a0: 013e 0ebd 811d 63bd 3ee2 96bc 8c03 f3bd
000000b0: 3fc6 34bd 0d30 3d3d d487 be3c 8953 e73c
000000c0: f232 7ebc d1e1 f53c 8173 a53c 20c2 823c
000000d0: 50d1 ae3c 1ca7 50be 10ba aa3b 71ca 46bd
000000e0: 9842 76bd 6d55 39bd 2c8d 623d eacb 563d
000000f0: 4572 10be 4f8a a4bd ff78 243d 6c74 513d
00000100: fba7 7b3d 0ef7 20bd 068c bc3c 1572 a13c
00000110: 94ce 00bc 8c8e 9e3b 0a8a 76bd 760f 42bd
00000120: 4cd5 adbd 82c7 9c3c 44cf 803d 8132 44bd
00000130: ce31 5abc 842e 8abc 87de acbd 3a6b e03c
00000140: 9efc a23d 64f8 12bd f462 91bb 6c9c 43bd
00000150: 3dee 94bd a2c4 59bd c941 673d 99d1 2ebd
00000160: ddac cd3c f809 76bc d96f 063d adb1 473d
00000170: 7fb8 abbc 875d 04be 8f32 25bd d13a 1d3c
00000180: fc5c 8abd ecc8 2cbd 7919 4c3d aff9 95bd
00000190: 72ab 78bc d4d7 d73a 0741 e9bc a7b5 20bd
000001a0: 6971 56bd 8c7f e5bd 5d82 febb 2a5d 583d
000001b0: fac6 c2bd 99d1 8abd efa4 c03a 5ba3 5b3d
000001c0: 6972 b8bd 5a33 bdbc 03de f2bd 1df4 02bd
000001d0: 26f1 d9bd b56c 9bbd 6c10 cebc 9f65 45bd
000001e0: a4e2 8dbd b361 64bd 1e8c 9e3c 675a 0bbd
000001f0: 6ad7 4f3d 44a4 dcba 1fd9 643d 7158 7cbd
00000200: 26b8 54be 1503 e6bd 519f 2c3d 585e 46bd
00000210: 6f72 1e3d c422 aebc 71bb dbbd faef 9d3d
00000220: 56cd 5ebd 373b 70bd 7332 eebd c8d2 87bd
00000230: ccaa 19be 2d5b b43d ec97 98bb 7fe3 88bd
00000240: 384c c4bc 95d0 6cbd 89d0 6fbd 7c98 58bb
00000250: 739b 853d d525 b0bd 5401 06be 7761 82bc
00000260: 54ee 57bb a505 023d c44a 8dbd 3982 afbd
00000270: 791e a83c 2dce 9ebc 11b9 09bd 043b 8fbd
00000280: 095f 96bd f5ed c4bc bf0b d9bc 652a 67bc
00000290: 2982 263c bc4a 2fbd 235e f1bc e3a2 dfbd
000002a0: 271b 02bd 05f2 b03b 59f7 963d 923f 50bd
000002b0: 4ea0 053e 384c 2ebd 323a 273c 444c 073d
000002c0: 838b 24bc bc9e 043d 0a05 a53c 7c7e 18bd
000002d0: 9361 b7bd d357 30bc caf5 cc3c 6c11 cbbd
000002e0: 0869 0dbe 4f00 aabd 4208 073d 4a36 f9bc
000002f0: 90fd f03c beff 9a3d 08e2 fbbc 1bb3 ac3b
00000300: 5f0d 91bb d165 d1bd 1a6b 07be f154 1ebe
00000310: 876c 5ebd 4965 e9bc 83ed 8b3a 2d92 49bd
00000320: e286 b43b 254c 21bd a2bb b6bd 10d7 1c3d
00000330: 39a9 9bbd ee25 08bd 0928 cb3b 3223 1bbc
00000340: b923 c43b f176 45bc 5a17 93bd c9ed c1bc
00000350: b5de 3cbd 96cc 99bd c266 b6bd 429c 45bd
00000360: bb5a fdbd df95 453d 184b d23c b822 6dbc
00000370: 4736 fe3c f939 56bd 5f49 a83c c01e a5bd
00000380: deac 84bb 2d1e 3abd 6008 c5bd 97cd 83bd
00000390: 561e 26be d543 bb3d 9357 7cbd b64e 7d3d
000003a0: 2946 b8bc 0bbe b4bc f149 ffbd 5382 ca3b
000003b0: 5c38 0e3d 0ea0 56bd 4a0c 8e3c 6798 083d
000003c0: 7471 173d 5e6f 3a3d f214 b1bd 47d3 8abc
000003d0: e239 d6bd 8d2d 54bd d535 503d 76bc 663d
000003e0: 8fbd 8abe 2819 503c 5ef4 7ebd d0c2 29be
000003f0: ebc7 f43c b31b 1dbd 8662 76bd 2a4d 82bc
0.0055345166 0.02841263 -0.044706527 0.035445556 -0.09639359 -0.08950309 0.012277026 0.017224552
0.0025861813 0.03875575 -0.1809686 -0.0007790014 -0.13723052 -0.002470829 0.061242554 0.056479875
0.005741569 -0.070434175 0.018808499 -0.0018579686 0.059219226 -0.0579364 0.006914908 -0.03266553
-0.029080855 -0.022577854 -0.028541723 0.0019672222 -0.07559464 -0.010183662 -0.045206394 0.04958093
0.050695367 0.02835775 -0.07864081 -0.097436376 0.06325649 -0.06755816 -0.02260981 -0.02575359
-0.0347271 -0.05544806 -0.018418428 -0.11865911 -0.044134375 0.046188403 0.023258127 0.028238075
-0.015515076 0.030014904 0.020196678 0.015961707 0.021340042 -0.20376247 0.0052101687 -0.048532907
-0.060122102 -0.045247484 0.055310413 0.05244056 -0.1410609 -0.08034193 0.040154453 0.05113642
0.061439496 -0.03929811 0.023015987 0.019707719 -0.007861752 0.0048387703 -0.060190238 -0.047378026
-0.08487949 0.019138101 0.06289533 -0.047899727 -0.013317538 -0.016867884 -0.08440881 0.02739488
0.07958339 -0.035881415 -0.004436845 -0.047756597 -0.07272003 -0.05316604 0.056459222 -0.042680357
0.025106842 -0.015017025 0.03282151 0.04875343 -0.020961998 -0.12926303 -0.04033142 0.009596542
-0.067560166 -0.0421838 0.04982898 -0.07323014 -0.0151775945 0.001646752 -0.02847339 -0.039235737
-0.05235425 -0.11205968 -0.0077670054 0.052823223 -0.09510608 -0.06778259 0.0014697592 0.053622585
-0.09006197 -0.023095775 -0.118587516 -0.031971086 -0.106416985 -0.075890936 -0.025154315 -0.048192617
-0.06927994 -0.055757236 0.019353922 -0.03402176 0.050742544 -0.0016833623 0.055871125 -0.06160778
-0.20773372 -0.112310566 0.042144123 -0.048429817 0.03868335 -0.021256812 -0.10729111 0.077117875
-0.054395042 -0.05865022 -0.11630716 -0.06632 -0.1500656 0.08806453 -0.0046567824 -0.066840164
-0.023962125 -0.057816107 -0.058548484 -0.0033049872 0.0652379 -0.08600966 -0.13086444 -0.015915615
-0.003294845 0.031743664 -0.06899026 -0.0856976 0.020522343 -0.019385422 -0.03362376 -0.06993678
-0.07342345 -0.024039248 -0.026494859 -0.014109229 0.010162869 -0.04279588 -0.029463833 -0.1091974
-0.031764176 0.0053999447 0.073713966 -0.050841875 0.13049433 -0.042553157 0.010206746 0.033031717
-0.010043028 0.032377943 0.020144004 -0.03723 -0.08954158 -0.010763126 0.025019545 -0.09915432
-0.13809597 -0.0830084 0.03296686 -0.030421395 0.029417783 0.0756831 -0.030747429 0.0052703745
-0.004426643 -0.10224498 -0.1322445 -0.1546209 -0.05430272 -0.02849068 0.0010675642 -0.04921167
0.0055092433 -0.039379258 -0.08922507 0.038291037 -0.07600636 -0.033239298 0.006199841 -0.00946884
0.005985704 -0.012052284 -0.07182188 -0.023672955 -0.046110827 -0.07509725 -0.08906318 -0.048244722
-0.12370821 0.04823863 0.025670573 -0.01447361 0.03103174 -0.05230138 0.020542799 -0.08062506
-0.0040489277 -0.045438934 -0.09620738 -0.064356975 -0.1622251 0.09143797 -0.061606955 0.061842643
-0.022494392 -0.022063276 -0.12465275 0.0061800866 0.034721717 -0.052398734 0.017339844 0.033348467
0.03697343 0.045516364 -0.08646573 -0.016946448 -0.10460259 -0.051801253 0.05083259 0.056332074
-0.27097747 0.01270131 -0.062244765 -0.16578221 0.029880485 -0.038356494 -0.060152553 -0.015905935

value.0.bias f4 [128]
00000000: 975e 0cbb 4623 7dbb d249 2fbd 64b0 dcbc
00000010: 1838 733e bfdb 77bd 842c 57bc 6960 13bd
00000020: 78d7 7abd c9e3 82bd 24d6 42bc b1b8 56bd
00000030: ce4b b9bc d289 44bc c0a4 2cbd 3536 82bc
00000040: 1f96 163d 9e0f 763e cc9f 1bbd 77b9 49bc
00000050: e0bd 92bd fe91 2a3e d8f8 c83c 3a8e 663e
00000060: 7307 2dbd 1bf9 f1bc 3148 48bd 1564 223e
00000070: b016 7c3e 11d9 dcbc 660d 6a3e b8a2 283e
00000080: 69af 07bd 5bab 0c3e 056c d9bc 7628 80bd
00000090: 00f1 3ebc 91b1 fa3d 0a21 98bd ca23 9ebd
000000a0: 7c7b 95bd 5027 37bd db24 06bb 7074 443e
000000b0: d36f b3bb 06b6 803a 0074 66bc 1c86 4dbd
000000c0: 77bf 0d3e 8024 83bd 74a0 a9bd 07a6 3f3e
000000d0: 43de 5fbc c3db 783e 0c76 71bd 8be1 54bb
000000e0: ce11 9ebd aece 303e 04af a4bd 7b7e 613e
000000f0: 62fd 93bd 804b 5f3c 70da 81bd 7e36 5c3e
00000100: e5c5 91bd 7311 2cbd 9ccb 12bd 89ac 8dbd
00000110: 86a2 9fbd 6b48 a43c 84c8 ef3d 3af3 373b
00000120: 0aef 263c 668a 503c 7360 85bd a10e 023d
00000130: a11a 5d3e c1a7 85bc b382 253e 7606 86bb
00000140: e905 2abd 748a 0e3e 444e 7fbd 7fac ebba
00000150: e022 9e3c 5686 8abd 6c5d 68bd 1b45 a7bd
00000160: def8 c4bb 1859 653e 72f8 663e d137 a0bd
00000170: 5eab 60bd 0820 79bd 0624 c3bc a502 0f3e
00000180: 6242 753e 2b4e 63bc 1538 bc3c 8240 8cbd
00000190: 3de2 83bc 8b93 063d d974 6d3e 46e2 603e
000001a0: 02bc 183e 3628 f33b 7c9b b73c 5e6d 023e
000001b0: ac14 c93b da89 e9bd 9da9 253e 1f76 a1bd
000001c0: ef2d b43c bd63 0c3b 02f2 7dbc 1476 bf3d
000001d0: ee1d e3bc 4b07 7d3e 25a2 2fbd 6a4c 573e
000001e0: 5bf1 653c 2464 683e 3d06 c2bc 5c61 cfbd
000001f0: 7e98 c5bd 5d51 7dbd 85c8 1fbc 5b2f 81bb
-0.0021418685 -0.003862576 -0.04279501 -0.026939578 0.23751867 -0.0605123 -0.013133172 -0.035980616
-0.061240643 -0.06391103 -0.011891875 -0.05242223 -0.022619154 -0.01199575 -0.042149305 -0.015894989
0.03676426 0.24029395 -0.03799419 -0.012312285 -0.07165122 0.16657254 0.02453272 0.22515193
-0.042243432 -0.029537728 -0.048896972 0.15858491 0.2461803 -0.026958974 0.22856674 0.16468322
-0.03312627 0.13737242 -0.026540766 -0.06257717 -0.011654139 0.12240899 -0.07428177 -0.0772167
-0.072989434 -0.044715226 -0.0020468745 0.19185042 -0.005475977 0.0009819872 -0.0140657425 -0.050176725
0.1384257 -0.06403446 -0.08282557 0.18715678 -0.013663831 0.24302582 -0.05895047 -0.0032483067
-0.0771824 0.17266342 -0.08041194 0.22020905 -0.07226063 0.01362884 -0.06340492 0.21505162
-0.071178235 -0.04200883 -0.03583871 -0.06917674 -0.07794671 0.020054063 0.11708167 0.0028068558
0.010188827 0.012728309 -0.06512537 0.031752232 0.2159219 -0.016315343 0.16163139 -0.0040901257
-0.041509543 0.13920003 -0.0623305 -0.0017980485 0.01930374 -0.06763904 -0.05672972 -0.08167478
-0.0060111126 0.22397268 0.22555712 -0.07823146 -0.05485093 -0.060821563 -0.023820888 0.13965853
0.23951104 -0.013873617 0.02297596 -0.068482414 -0.01609909 0.03285555 0.23189105 0.21961316
0.1491547 0.007420565 0.022413008 0.12737033 0.0061364975 -0.11403246 0.16177984 -0.07883858
0.02199456 0.0021421753 -0.015499594 0.093486935 -0.027724233 0.24709813 -0.042879242 0.21025243
0.014034594 0.2269445 -0.023684615 -0.10125992 -0.09648226 -0.061845172 -0.009752397 -0.003942413

value.2.weight f4 [1, 128]
00000000: 43d7 3639 326c 6d3d 073e eabe 9bf3 02bd
00000010: dc94 283e 1756 babd 0bcf 0b3c 8ce0 f439
00000020: da5f 893d fc75 04bf 445f ecbe bb3a e4be
00000030: 6fb7 22bd 3fa5 08bd 9bc7 c3bd d3e2 dd3c
00000040: 7298 5c3d 0ac6 c43d 669f 0ebf c164 8bbd
00000050: f434 02be 955a ef3d 969a b7bc e0d6 893d
00000060: dfa6 02bf 9478 d3be 667a c5bc a593 e73d
00000070: 2db7 ed3d 8cc9 0bbf 7d1f 163e deb6 b33d
00000080: 4f2d f6be 1993 f73d e4c5 82bc 3a45 bcbc
00000090: 5a82 05bf 62f4 243d b642 d1be e6a9 f1be
000000a0: e268 06bf 493c 8d3d f8c9 723d 9dd1 073e
000000b0: 2c9b 283d 5656 aebe a317 02bf 8802 d4be
000000c0: 8149 c03d 3d39 07bf e2c0 0dbe f243 9b3d
000000d0: 9f78 76bd 0450 143e 05e9 afbd 54c4 8838
000000e0: 3783 d9be d31e 9b3d 7661 dfbe f301 163e
000000f0: 4df2 8cbe 3ea2 5cbe 0657 bfbe 9892 d43d
00000100: 7186 11bf 064e febc c08a 01bf 5789 b4be
00000110: a63c 03bf 4099 8abc 8b13 9f3d 54a1 aabe
00000120: 8035 1fbd de83 853d 0383 a6bd f82a a2bb
00000130: 178d b23d 5c60 03bf 8eb8 f83d 2575 79bd
00000140: b023 3fbe 989d e93d 81ee 513d 7f20 ea3d
00000150: 09fd 8abd b335 d2bd 1eac 903d b792 ddbe
00000160: 9616 b2be e5fa 1b3e 4551 a73d a644 e0be
00000170: 9038 e4be 73dc df3c 9f6e b9be c979 823d
00000180: 63f0 063e 2c40 613d edab 98bc 668d 923d
00000190: c865 afbe b63d bbbb 887e e43d 3be5 d43d
000001a0: ebb6 0f3e 4875 77bd 3477 883d 5c2a c13d
000001b0: dc0e a43b 52bc dbbe af0e 863d 4b59 bdbd
000001c0: 1e19 70bd 2156 e6be ac1a 23be cdd9 d93d
000001d0: d2d5 15bd 3475 093e f965 93bd 784c ad3d
000001e0: 7a11 303a f0b2 1f3e 105d 0abf 3669 06bf
000001f0: c7bb acbe 870b 02bf 74d5 fbbe 5100 8cbd
0.00017437064 0.05796451 -0.45750448 -0.0319706 0.16463035 -0.090984516 0.00853325 0.00046706607
0.06707735 -0.5174253 -0.46166432 -0.44576058 -0.039725717 -0.033360716 -0.09559556 0.027085697
0.05385632 0.096080855 -0.5571197 -0.06806327 -0.12715513 0.11687199 -0.02241258 0.06730437
-0.51035875 -0.4130293 -0.024106216 0.11307458 0.11607204 -0.5460441 0.1466045 0.087751135
-0.48081443 0.120886035 -0.015963502 -0.022982229 -0.52152026 0.040272124 -0.4087121 -0.47199935
-0.5250379 0.06896264 0.059274644 0.13263555 0.04116361 -0.34050244 -0.50817317 -0.4140818
0.0938902 -0.52821714 -0.1384311 0.07581319 -0.060173627 0.14483649 -0.08589367 6.521554e-05
-0.4248292 0.07574239 -0.43629044 0.14649181 -0.2752861 -0.21546265 -0.3737108 0.10379523
-0.56845766 -0.031043064 -0.5060234 -0.35261032 -0.5126442 -0.016918778 0.077673994 -0.3332621
-0.03886938 0.06519292 -0.08130457 -0.00494897 0.08718317 -0.5131891 0.12144576 -0.060902733
-0.18665957 0.11407012 0.051252846 0.114319794 -0.06786544 -0.102641486 0.07064079 -0.43275997
-0.34782857 0.15232427 0.08169798 -0.43802375 -0.44574404 0.027326798 -0.3621721 0.06370885
0.13177638 0.05499284 -0.018636668 0.07155876 -0.3425734 -0.0057141436 0.111569464 0.10395285
0.14034621 -0.060414582 0.06663361 0.094319075 0.005006654 -0.42917114 0.065457694 -0.09245547
-0.058617704 -0.44987586 -0.15928143 0.10637245 -0.036580868 0.13423616 -0.07197184 0.08461851
0.00067164714 0.15595603 -0.5404825 -0.5250429 -0.33737013 -0.5079884 -0.4918629 -0.06835998

advantage.0.weight f4 [128, 256]
00000000: 9025 123d c0e8 9abb 02ff 5b3d bfc7 4abd
00000010: eeee 353b 84ea 1abe 699b c5bd 6977 4c3c
00000020: d103 f9bc 519a a2bd 233d e8bc 4785 a93d
00000030: 51ba 873c 9a03 6f3c 78f1 cdbc 178c b7bc
00000040: 5fed cfbd 595c f9bc f073 c73c b922 5a3d
00000050: e98e d63d 780a 8d3d 6fc4 f5bd 2d46 303c
00000060: fea2 93bd 4b91 773d 414c 0e3d 4ea4 82bc
00000070: 6f21 d0bd cc21 abbd 8c66 0fbe bc8b 21be
00000080: 8c6c 3cbd 1d1d 9dbd 6880 e83c b243 89bd
00000090: 24eb 26be 87b4 9b3d 5a74 6cbd 1845 5bbd
000000a0: 7000 1d3c cafb fd3c a2d0 253d 1f6b b73d
000000b0: c82d 67bb 1175 003e 0de1 8d3d fde8 ecbd
000000c0: 68a0 db3d ec03 483d 1b32 243d d68f 743d
000000d0: b639 303d 393e c63c 957d 3ebd 18a4 543c
000000e0: ce1f 1dbd 64ff ccbd 7952 7ebd 864b cd3c
000000f0: 5440 c4bd 5d9b 8d3d 84f6 a4bd 1aa8 1c3d
00000100: 8ed8 40bc 5dc6 d33d 53d3 83bd 5382 09be
00000110: 35a1 debd df23 01bc 6f8d a8bd c21f 82bd
00000120: 3ee7 123c 19fb 5bbd c4f4 033d 7b18 a73d
00000130: e43e aa3d 4af8 9c3a edf2 35be 5d72 b5bd
00000140: cd6d cb3d 330e b3bb f769 ab3d 4987 943d
00000150: c774 88bc 73c8 a63b 867a 943c 5dd0 943d
00000160: 90b3 d33c 022a f53c 31ac 9b3c e3df c2bd
00000170: aae6 a1ba 896a 0bbd 97bc 22bc 4134 a9bc
00000180: d02f e03d bc82 babd c7e1 ba3c 3e05 52bb
00000190: ee08 6bbd fe02 b9bd a2a6 06be 492a ad3d
000001a0: be11 a33b 2c1b eabd 41dc 8b3d f006 31bc
000001b0: 44ec a9bd aaa0 1dbe 3d6b 55bd 2b05 b13d
000001c0: d502 c6bc a171 433c 490d 773d a48d bb3d
000001d0: d982 f6bd 3ef7 8bbd b288 b13c eaa2 0fbe
000001e0: 0cea ccbd 1de9 0c3e 8471 e7bb 1d4c 773d
000001f0: ef4b d2bc 5a1d 493c d9a6 3abd c75a 9c3d
00000200: 7391 40be 6ac8 8dbc 26ce 80bd 285f 263d
00000210: 8ff1 88bd dea3 40ba 19da 6abd 5090 fabb
00000220: 2e7a 523b 6594 f3bb 1eb4 973c 02e4 fbbc
00000230: 4f3f 763c eb55 83bd 217e ec3d bed5 6e3d
00000240: e8d2 19be 3813 68bd c9c3 c7bd 67f5 9ebd
00000250: acf0 193e d245 3e3e da3e b9bd 0e2a 6dbd
00000260: 2ea1 cc3c c208 ea3c ba2d 1dbd 4401 cebb
00000270: 90d2 7abc 7d27 fa3d 38cf 42bd 1e02 663d
00000280: 2c89 28be e42b 823c f8d7 48bc 3239 293c
00000290: 3c39 49bd 6978 463d 9f6c 63bd e1aa 5dbd
000002a0: 822e 9abd 5e0c d4bc 15fb 21bc 73fd e3bd
000002b0: 95e0 77bd 0f3a 853d 0b69 fd3b 67c7 023c
000002c0: 9621 acbd 02b9 4abc de37 a8bb 0dbc b6bd
000002d0: 3c8e 78bd 56ab 86bd ef1f 1bbe 92e2 9c3c
000002e0: f8d3 373e a18b d4bc e33d 44bd 9c00 2b3d
000002f0: 5158 2c3d 7542 28bc 1dcd 03bd 9017 473d
00000300: 6783 ecbd 57b1 f93b 99b0 bb3d 76ee 79bd
00000310: 9b2f bcbc 10aa d5bd ed16 c43d cf6e fb3d
00000320: 9b74 80bd 3433 f73c eda9 abbc ea47 04be
00000330: f9a9 9cbd e940 48bd 6259 dfbd 2493 aabc
00000340: 95e9 97bd 29de 733d 3530 b43d 0a39 30bd
00000350: f847 5bbc 9521 0c3d 7f22 c03c 99b7 09bd
00000360: ed36 7bbd 1f11 883c 784e 0dbe 9862 c5bd
00000370: 1788 36bd d900 d0bc 6455 b8bd a432 e6bd
00000380: b1d8 64bc 4a91 22bd bc6d cd3d 0571 293d
00000390: 49eb cbbc deff b43d 5ac1 c5bc 710a fb3d
000003a0: 79f5 02bd 7aa6 eebd 95ae 4abd bda8 9fbd
000003b0: 4b20 c43c 143d afbc 3774 20be c744 203c
000003c0: 102b 29be 6e20 17be 69d7 ea3c ea1e f2bd
000003d0: af24 303c f6c0 b13c 9afd dcbd 5371 1cbd
000003e0: 9035 4f3d 776b ae3c 1bdf c3bd 7657 17be
000003f0: ac2d dfbd dd57 f93c 8592 943d 51ad 06bc
0.035680354 -0.004727453 0.05370999 -0.0495069 0.0027760821 -0.15128523 -0.09648783 0.0124796415
-0.030397328 -0.0793959 -0.028349465 0.08277374 0.016568335 0.014588261 -0.025139555 -0.022405667
-0.10152697 -0.030439543 0.024347275 0.05325577 0.10476477 0.068867624 -0.12000357 0.010758919
-0.07208823 0.060441297 0.03474069 -0.015947487 -0.10162627 -0.083560556 -0.14003962 -0.1577596
-0.046001956 -0.076715685 0.028381541 -0.06702365 -0.16300637 0.07602792 -0.05772815 -0.05353269
0.009582624 0.031003851 0.04048217 0.089559786 -0.003527509 0.12544657 0.06927691 -0.115678765
0.107239544 0.048831865 0.040086847 0.059707485 0.043023787 0.024199592 -0.046506483 0.012978576
-0.03836041 -0.100096494 -0.06209037 0.025060426 -0.09582582 0.06914399 -0.080548316 0.03824625
-0.011770381 0.10340569 -0.06436791 -0.13428621 -0.108705916 -0.0078820875 -0.08230101 -0.063537136
0.008966265 -0.053706262 0.03221585 0.08158966 0.08312777 0.0011975851 -0.1776845 -0.08859704
0.09933052 -0.005464339 0.083698206 0.07252366 -0.016657246 0.0050898134 0.01812483 0.07266305
0.025842458 0.029927257 0.019003006 -0.09515359 -0.0012352068 -0.034037147 -0.009932659 -0.0206548
0.109466195 -0.09106967 0.022812737 -0.0032046582 -0.057381563 -0.09033774 -0.13149503 0.08455331
0.0049764803 -0.11430964 0.068291195 -0.010804877 -0.08297017 -0.1539332 -0.052104224 0.08643564
-0.024171272 0.011928947 0.060315404 0.09157875 -0.12036676 -0.06834267 0.021671627 -0.1402699
-0.100055784 0.137608 -0.0070630927 0.06037532 -0.025670974 0.012275064 -0.045569275 0.07634502
-0.18805484 -0.017307479 -0.0628932 0.04061809 -0.06686699 -0.0007348637 -0.0573369 -0.007646598
0.0032116282 -0.0074334615 0.018518504 -0.030748371 0.015029742 -0.06412872 0.11547495 0.05830931
-0.1502186 -0.056658953 -0.0975414 -0.077616505 0.15033215 0.18581322 -0.09045191 -0.057901435
0.0249792 0.02856863 -0.038373686 -0.006286772 -0.015308991 0.12214563 -0.0475609 0.056154363
-0.16458577 0.01589007 -0.012258522 0.010328578 -0.04912685 0.048454676 -0.05552351 -0.05411804
-0.07528402 -0.025884803 -0.009886523 -0.11132326 -0.060516912 0.065052144 0.0077334694 0.007982112
-0.084048435 -0.012373211 -0.005133613 -0.089225866 -0.06068252 -0.065756485 -0.151489 0.019151006
0.17951953 -0.025945487 -0.047910582 0.041748628 0.042076413 -0.010269751 -0.032178033 0.048606455
-0.115485005 0.0076200175 0.09164543 -0.06101843 -0.022971919 -0.104328275 0.09574685 0.122769944
-0.06272241 0.030175783 -0.02095505 -0.12918058 -0.07649607 -0.04889003 -0.1090572 -0.020822115
-0.07417599 0.05953804 0.08798257 -0.043023147 -0.013383858 0.034211714 0.023453949 -0.033622358
-0.06133168 0.016609726 -0.13799465 -0.09637946 -0.04456338 -0.02539103 -0.09000662 -0.11240128
-0.013967679 -0.03968934 0.10030696 0.04136755 -0.024892466 0.08837865 -0.024140049 0.12257851
-0.031972382 -0.11652847 -0.0494829 -0.07795856 0.02394118 -0.021391429 -0.15669332 0.009782023
-0.16520333 -0.14758465 0.028667169 -0.11822303 0.010750934 0.021698456 -0.10790558 -0.038194012
0.05058819 0.021291478 -0.09564038 -0.14779457 -0.10897383 0.030437404 0.07254509 -0.008220033

advantage.0.bias f4 [128]
00000000: ab4a 29bd 44d2 36bd c47b 14bc d34b debb
00000010: 256a 4f3d 7426 07bc bfb2 47bd 59a0 c83c
00000020: f1a1 ebbc d831 19bc 8412 8cbd 54f5 573c
00000030: 282e 9dbb 1896 20bd 4bd6 3cbd df6e b1bb
00000040: 2a4c 42bd 7060 e8bc 9b41 12bd 51b8 ad3c
00000050: b103 abbc 77e3 f2bb d5a3 263d d2d7 f23c
00000060: 7a96 c3bc 3840 f8bc 4d08 ffbc 50f7 b73c
00000070: 332e 903d 9b50 3bbd 130a af3b d5a6 b23c
00000080: 2854 3dbd c73d 893d a920 453d 5f4e a4bd
00000090: a1ce 713b cf2a 423d 024c bc3d ebb7 173c
000000a0: 2d08 e33c c409 2d3c 05b3 9bbd c08b 18bd
000000b0: 554b 25bd b02d 623d 6cd3 cbbc 7054 b83c
000000c0: f760 813d 4246 e53a 366e cd3c c276 bdbd
000000d0: 3376 abbd c78c 853d 5d73 f1bc af33 f93b
000000e0: dd6b b93b 380b ad3c 9d44 9bbc a33c b8bd
000000f0: 24cc 80bc d1b5 26bd 7e91 ebb9 150d 72bd
00000100: 1a8f 20bc d4f3 8c3c 13d3 7bb8 3b60 a7bc
00000110: 1ec2 373c 4fb5 d43b a64b c83c 30bb a7bd
00000120: a196 d33c 8f55 563b 156a 5ebd 03f0 41bd
00000130: 4257 03bd 70c4 84bd a230 99bd 79a7 9f3c
00000140: fd57 8abd ccb0 e0bc 228f 923d f3e6 cabc
00000150: dc6a bfbd 575c 6dbd 25f0 a93d afc8 b6bc
00000160: e4f4 d839 4da8 6d3b 359a 813c 3806 abbd
00000170: 5046 8b3c 4f87 3ebd 8016 08ba e029 1cbc
00000180: c345 793c 28cc 183c efe8 91bd fa1c 693b
00000190: d8e5 6bbc 1d6a b1bd 5257 4c3d 64ba 7bbc
000001a0: 9674 acbc 5e24 53bd 2661 18bd 6275 583d
000001b0: 2b80 bebd e876 903b a08c 96bc daba 28bd
000001c0: 1b44 8e3b 4a79 2abd c547 bebd ef86 8bbd
000001d0: ba69 603d 0128 5c3c fdd4 66bd 1567 9fbc
000001e0: d9d7 123d 698b 7dbc 7a0e e5bc e392 13bd
000001f0: c81f 433d 4d47 ec3c 9f95 6bbc 5d68 af3c
-0.041330975 -0.04463412 -0.009062711 -0.0067839413 0.050638337 -0.008248914 -0.04875445 0.024490522
-0.028763743 -0.009350263 -0.06839469 0.013181049 -0.004796762 -0.03920564 -0.046102803 -0.005414828
-0.047435917 -0.028366297 -0.035707098 0.021206053 -0.020875784 -0.00741237 0.040683586 0.029643927
-0.023875464 -0.03030406 -0.031131888 0.022456795 0.07040062 -0.04573117 0.005341777 0.021808067
-0.046222836 0.06701236 0.04812685 -0.080227606 0.0036896842 0.047404107 0.09194185 0.009260158
0.02771386 0.01056141 -0.07602505 -0.03724265 -0.040355045 0.055219352 -0.024881087 0.0225012
0.06317323 0.0017492252 0.025076967 -0.09251167 -0.08372154 0.06520992 -0.029473955 0.007605038
0.0056586103 0.021123514 -0.018953616 -0.089959405 -0.015722342 -0.040700737 -0.00044931093 -0.059094507
-0.009799743 0.01720611 -6.003964e-05 -0.020431628 0.011215715 0.00649134 0.024450134 -0.0819
0.025828661 0.0032704805 -0.054300386 -0.047348034 -0.032065637 -0.0648278 -0.07479979 0.019489037
-0.06755064 -0.027428053 0.07156207 -0.024768328 -0.09346554 -0.05794939 0.08297757 -0.02231249
0.00041381188 0.0036263645 0.015820602 -0.083507955 0.017001301 -0.04651576 -0.0005191341 -0.009531468
0.015214386 0.009326018 -0.07124507 0.003557025 -0.014398061 -0.086628176 0.049887963 -0.015364263
-0.021051686 -0.051548354 -0.037202023 0.05284632 -0.0930179 0.004408706 -0.018377602 -0.04119382
0.004341615 -0.041619577 -0.09291033 -0.06812846 0.05478833 0.013437272 -0.056355465 -0.019458333
0.03585038 -0.0154751325 -0.027961005 -0.036028754 0.04763773 0.028842593 -0.014378934 0.021412069

advantage.2.weight f4 [3, 128]
00000000: ff2b 99bd 55fd 873d ea19 a7bc 7f81 693c
00000010: 93b5 4fbd 3954 d03c 891c ac3d 9e08 de3c
00000020: 540b 5ebc 498e 0abd 8f07 6a3c e8be a1bd
00000030: f459 24be 9a19 f73c 4d08 353d b547 91bd
00000040: 2eaf 27bc 3bbe b1bb 1371 80bd 3dc4 333d
00000050: 1556 233d 11b1 833d 5584 803d 7a0b 8a3c
00000060: 9f19 4bbd dc83 2f3c 9a31 c2bc a475 4cbd
00000070: 56e5 9fba a579 cebd 014f 2b3c 976c 1e3d
00000080: 0f51 953d b2a7 e33d 7ffe c23d ce0f d43c
00000090: 8290 8fbc baf7 4abc e9ab 5a3d d64a a13d
000000a0: 3ceb 22bd 0ec5 79bd 9f94 bf3b ee6a 2b3c
000000b0: 8802 d53c 10ce 82bd 9338 46bd 657c a33d
000000c0: 8441 1d3d 79bb 42bd 3a66 863d 6f56 ba3d
000000d0: e53d 41bd bfb2 babb db60 433d a06d 8fbb
000000e0: 35ee 0abe 06ad 54bd fa19 583d 650f 253d
000000f0: c659 ffbd 9aab ccbb 7556 1cbc c701 913d
00000100: 14b9 c6bb d4a7 ea3c a534 16bb 55c8 41be
00000110: 6310 a0bc bd1c 003d 5ffd 92bb de96 e3bd
00000120: e4d7 6c3d 8759 8fbd 973b 833c 889e c63b
00000130: 125f 413d 31dd 1dbd 3135 f5bc 0862 d73c
00000140: 6052 893c 47a3 963d df55 db3c cf8d fbbc
00000150: f1f6 c0bc 3c39 013b 24bd 05ba 781f 663d
00000160: d39a f8bd e77f 193d 2c63 2b3d 3c70 58bd
00000170: 1843 4dbd 1d67 e43b 8c07 133d b5c9 dd3b
00000180: 2be4 433d 6459 e73c 655e c1bd dfad 1dbc
00000190: 8c1e f3bc dd08 e13b e14e 813c 0682 4dbd
000001a0: 9842 cd3c a5a4 fb3c 23e0 903d 7143 87bd
000001b0: 8a9d dd3b 2e3c 1e3d efe6 f33c 5b56 5d3b
000001c0: 8220 533d e882 4abd 328d afbb a901 973d
000001d0: 66ce 0fbe fb20 273d 5c68 4e3d 9e2f 22be
000001e0: dbdb 04bd f39d c33d 8f82 b43d b020 373d
000001f0: 5966 643b 12a8 4cbd f0ce ecbc e9d8 3dbd
00000200: 793e fa3c 0e54 933d 66f7 93bd 396e 073d
00000210: ab34 f03d 96e3 f6bb ce3c 863d 3a4b 883c
00000220: ec25 92bc e045 273e e253 30bd 0a49 403d
00000230: 70a6 ee3d dbc7 5a3e 920a afbd e9a4 ab3c
00000240: 9655 2f3d 9178 8db9 bc3a 99bd 92a8 f03c
00000250: 7727 b73d 378f 323d 6253 2f3d fdac 5ebd
00000260: acf6 71bd 84a7 64bd a68d 853c cda3 96bd
00000270: 0003 ddbc d2e4 aebd 6564 163d ff31 b9bc
00000280: 39b1 5d3d 3da0 f13c ea38 1b3d 046c 153d
00000290: 694b 963d fe52 47bd a86d 9cbd 8697 c43b
000002a0: e4f0 02be 9013 35be 6549 20bd 7147 d03d
000002b0: cafb 093d 200b b8bd 8049 173e b36d fc3d
000002c0: f5e2 b8bd 9b79 dfbd 3e89 31bd 1e6d 5f3d
000002d0: 5964 b03d bcb4 bcbd 3190 9dbd 7401 1b3d
000002e0: 6f4d 983d 87e0 8d3d fb51 2cbd c3bd 043d
000002f0: a886 13bc 1b88 3bbd 8c8a 56bc 5be6 813d
00000300: 8f99 a4bc 0c27 2dbd a398 a5bd c7bc 7b3d
00000310: abcf a4bd f9f2 e2bc dd0d 863c 5af2 823d
00000320: 1d18 c8bc be56 8c3d 5346 813d f81c 053c
00000330: cb51 393d a00e c9bd 2d37 333d 97e4 763d
00000340: a84f 52bd 90d6 733d 02c7 11be 82c6 f43c
00000350: 3413 9bbc 9f6b 81bb 4cd9 8abd d065 cabd
00000360: ad52 813d baa5 2dbd 9e25 303d 03fe 483d
00000370: ceca 703d ea7e 40bd dfc0 94bd 1644 01bd
00000380: f174 7d3c db0e b0bc 8700 9e3c 9e49 0f3d
00000390: 38ce 44bd c648 79bc b674 a73d cd6b e5bd
000003a0: 19c6 1e3e eefa c23d 1f48 dd3d 66c7 2b3c
000003b0: 4118 d33c 8e9a 5e3c 2e09 863d 7c0d f6bc
000003c0: 4bf2 7e3d 3453 b13d 3423 193d bcb5 82bd
000003d0: 82d5 a33d b94c 7abd 7cb6 4cbd c960 debb
000003e0: 4454 7ebc 5dfc 81bc cd6b 873d 95c9 033d
000003f0: 7152 b8bc a0f5 943d 0d43 113c d9f6 0fbe
-0.07479095 0.06640116 -0.020398099 0.014252066 -0.050710272 0.025430785 0.0840388 0.027103718
-0.0135525055 -0.0338271 0.014284029 -0.078977406 -0.1604994 0.030163575 0.04419737 -0.07093755
-0.010234637 -0.0054242886 -0.06271567 0.04388832 0.039877016 0.06430257 0.0627524 0.016851176
-0.04958498 0.01071259 -0.023705292 -0.04991688 -0.0012199085 -0.100817956 0.010455848 0.038677778
0.07290851 0.1111597 0.095211975 0.025886443 -0.017524961 -0.012388164 0.053386603 0.07875602
-0.03977512 -0.06097894 0.0058465744 0.010462506 0.026002184 -0.063869596 -0.048393797 0.07982711
0.03839256 -0.04754207 0.06562467 0.09098517 -0.047178168 -0.0056975777 0.04769979 -0.004377082
-0.13567431 -0.05192282 0.05275915 0.040297884 -0.12468295 -0.0062460424 -0.009542097 0.07080417
-0.0060645435 0.02864448 -0.0022919562 -0.18924077 -0.019539064 0.031277407 -0.0044857706 -0.1111276
0.057823077 -0.06999498 0.016019626 0.006061379 0.047209807 -0.038541023 -0.02993259 0.026291862
0.016762912 0.073553614 0.026774345 -0.030707268 -0.02355525 0.0019717952 -0.00051017315 0.056182355
-0.121389054 0.037475493 0.041842625 -0.05284141 -0.050112814 0.0069703 0.03589587 0.00676843
0.04782502 0.028240867 -0.094418325 -0.009623974 -0.029677652 0.0068675117 0.015784683 -0.05017283
0.025056168 0.030718157 0.07074001 -0.0660466 0.006763165 0.03863161 0.029773204 0.0033773396
0.051544674 -0.04944125 -0.005357408 0.073733635 -0.14043579 0.040802937 0.050392494 -0.15838477
-0.032436233 0.09551611 0.088139646 0.044708908 0.0034851043 -0.04996497 -0.02890727 -0.04634944
0.030547367 0.071937665 -0.07224922 0.0330641 0.117287956 -0.0075344546 0.06554566 0.016637433
-0.017840348 0.16335249 -0.043048747 0.046944655 0.11652839 0.21365301 -0.08546938 0.020952659
0.04280623 -0.00026983445 -0.07481906 0.029377256 0.08943074 0.04359361 0.04280413 -0.054364193
-0.059073135 -0.055823818 0.016302895 -0.07355461 -0.02697897 -0.08539738 0.036716837 -0.022606848
0.05412409 0.029495353 0.037896074 0.036479965 0.07338602 -0.048663132 -0.07638103 0.0059995083
-0.12787205 -0.17683244 -0.039132494 0.10169876 0.03368739 -0.08986497 0.14774132 0.12325611
-0.090276636 -0.10911866 -0.043343775 0.05454742 0.0861289 -0.0921416 -0.07693518 0.037843183
0.07436644 0.06927591 -0.04207037 0.032407533 -0.0090042725 -0.045784097 -0.013094556 0.06342765
-0.020092754 -0.042273566 -0.08085754 0.06145933 -0.08047422 -0.027703749 0.016364032 0.06393881
-0.02442556 0.06852482 0.063122414 0.0081245825 0.04524402 -0.098172426 0.04375379 0.060276594
-0.051345497 0.059530795 -0.14236072 0.029879812 -0.018930055 -0.003949597 -0.06779727 -0.098827004
0.06314597 -0.042394377 0.043004625 0.04907037 0.05878716 -0.046996035 -0.0726335 -0.031559072
0.015469776 -0.021491459 0.01928736 0.034982316 -0.048048228 -0.015215104 0.08176558 -0.11202202
0.15505256 0.09520517 0.10804772 0.010484552 0.025768401 0.013586653 0.0654472 -0.030035727
0.062242787 0.08658448 0.037387088 -0.06382319 0.07999708 -0.061108325 -0.04997872 -0.00678644
-0.01552302 -0.015867407 0.06612358 0.032174665 -0.022500249 0.07273412 0.008866084 -0.14059009

advantage.2.bias f4 [3]
00000000: 1a0d c13d edce c4bd 61c8 a9bd
0.09426327 -0.096097805 -0.08290172
