model/DuelDQN/checkpoint_1400.pth (torch, 287045 bytes, 9 tensors)

feature.0.weight f4 [256, 16]
0	0xbf0ac1e4	-0.54202104
1	0x3ee91537	0.45523998
2	0x3eef20da	0.4670475
3	0xbea12506	-0.3147356
4	0xbec616e4	-0.3868934
5	0x3e9525ad	0.29130307
6	0x3d03a1c5	0.032136697
7	0xbf401b77	-0.7504191
8	0xbf3acccd	-0.7296875
9	0xbdd3d038	-0.10342449
10	0xbecca204	-0.39967358
11	0xbec54580	-0.38529587
12	0x3da06151	0.07831062
13	0x3d773f54	0.06036313
14	0xbd97edfd	-0.074184395
15	0xbf096dfb	-0.5368344
16	0xbcdba40d	-0.026811624
17	0xbe2e60d0	-0.17029119
18	0xbe499e03	-0.19689183
19	0xbe6ca766	-0.23110732
20	0x3d893bae	0.06700836
21	0x3c9c9cbc	0.019117706
22	0x3df4dd01	0.11956216
23	0x3d6c2b76	0.057658635
24	0xbe31bdc8	-0.17357552
25	0xbc805f05	-0.015670309
26	0x3cfe2d0f	0.031027345
27	0xbe7fda94	-0.24985725
28	0x3e638a18	0.22220647
29	0xbc6567a9	-0.014001765
30	0xbde657af	-0.11247193
31	0xbdf5c200	-0.11999893
32	0xbec2f098	-0.38074183
33	0x3ea0b1ac	0.31385553
34	0x3da5a697	0.08088415
35	0xbe5ce97e	-0.21573445
36	0xbe21cdf9	-0.15801229
37	0xbe4c2679	-0.19936551
38	0xbe84de48	-0.25950837
39	0x3d9b591d	0.075853564
40	0xbe05794a	-0.1303455
41	0xbeb61f32	-0.35570675
42	0xbe0ed57b	-0.13948624
43	0xbec51261	-0.38490584
44	0x3d991ce8	0.074762166
45	0x3e5fa06d	0.21838541
46	0x3c25225e	0.010078995
47	0xbd7314a0	-0.05934584
48	0x3e45f12d	0.19330283
49	0x3e94590a	0.2897418
50	0x3eb2c0d5	0.34912744
51	0xbea51377	-0.32241413
52	0xbe874cf4	-0.26425898
53	0xbea254ca	-0.31705314
54	0xbe68d05c	-0.22735733
55	0xbe419d42	-0.18907645
56	0xbe91bb7c	-0.28463352
57	0xbe0bc1ba	-0.1364812
58	0x3d086dfc	0.033308014
59	0xbeb5b733	-0.35491332
60	0x3de96d4b	0.11397799
61	0xbbc1831d	-0.0059055225
62	0x3e80bdbf	0.25144765
63	0x3d820cd7	0.06350105
64	0xbd66878b	-0.056281608
65	0x3ed4d1d0	0.41566324
66	0x3ebf4fe6	0.37365645
67	0xbf20abe3	-0.6276228
68	0xbe7626a4	-0.24038178
69	0xbe4cb170	-0.19989562
70	0xbe9fc62e	-0.31205887
71	0xbf15ec3d	-0.58563596
72	0xbeff0189	-0.4980586
73	0xbe3c7699	-0.18404616
74	0xbdddba28	-0.10826522
75	0xbef4611f	-0.47730348
76	0x3dc6612f	0.09686505
77	0xbe4c5b75	-0.19956763
78	0x3d99e5ec	0.07514557
79	0xbca0c4a3	-0.019625014
80	0x3dcc591f	0.09977936
81	0x3e179270	0.14801955
82	0x3c3531db	0.01105925
83	0x3c151b58	0.009100758
84	0xbddf090c	-0.108903974
85	0xbdfaab6f	-0.122397296
86	0xbd207e37	-0.039182868
87	0xbe33547b	-0.17512695
88	0x3bd65a7d	0.0065415488
89	0xbe754811	-0.23953272
90	0xbca177b9	-0.019710409
91	0xbdb31e0e	-0.08745967
92	0x3e2fbad5	0.17161115
93	0x3ca75aa2	0.02042896
94	0xbe3672b7	-0.17817198
95	0xbd4f688c	-0.050636813
96	0x3dc3d4e4	0.0956209
97	0x3f012c9a	0.5045868
98	0xbf471a00	-0.7777405
99	0xbf1eb45e	-0.6199397
100	0x3f04cbcc	0.5187347
101	0xbe6d5b1e	-0.2317929
102	0xbeec8da6	-0.4620182
103	0x3f01dd88	0.50728655
104	0xbeb794a0	-0.3585558
105	0x3e6f0477	0.23341547
106	0xbed6568a	-0.418629
107	0x3d6cb6ee	0.057791643
108	0xbdf93407	-0.121681266
109	0xbc4e296c	-0.012583118
110	0x3e0dda74	0.13852865
111	0xbc34c79a	-0.011033917
112	0x3ef60c40	0.4805622
113	0x3ea1b5b9	0.31583956
114	0x3e8350df	0.25647637
115	0xbe91234b	-0.2834724
116	0xbeb2c940	-0.34919167
117	0xbe8e31c9	-0.27772358
118	0xbe871aac	-0.26387537
119	0xbdf2db07	-0.118581824
120	0xbd414a81	-0.047190193
121	0xbe1e673c	-0.15469068
122	0xbe2ac9fe	-0.16678616
123	0xbb359866	-0.0027709245
124	0x3e9e0c69	0.30868843
125	0x3e18c3bd	0.14918418
126	0xbdbdc462	-0.09265973
127	0xbeb0d469	-0.34537056
128	0x3ceabaa0	0.028653443
129	0x3dc671cb	0.09689673
130	0xbe814c71	-0.25253633
131	0xbe5a3d8c	-0.21312541
132	0xbd90bc8c	-0.070672125
133	0xbe457803	-0.19284062
134	0xbeb49971	-0.35273317
135	0xbc3c6977	-0.011499754
136	0xbe1c4499	-0.15260543
137	0x3d7e51ab	0.062089603
138	0xbbbc9980	-0.0057556033
139	0xbec079d6	-0.37592953
140	0xbd1b5d6f	-0.037930902
141	0x3d3b46f7	0.045721974
142	0xbc2cc907	-0.0105459755
143	0x3bc2ee39	0.0059488085
144	0xbee10fb9	-0.43957308
145	0xbde1e0a6	-0.110291764
146	0xbe0cfa46	-0.13767347
147	0xbdc7c19b	-0.09753724
148	0x3df16589	0.117869444
149	0x3e622ae2	0.22086671
150	0xbe2d9348	-0.16950715
151	0xbeee1322	-0.46498972
152	0x3c4b3d3d	0.012404737
153	0xbdb61b17	-0.08891886
154	0xbeb8ca3b	-0.3609179
155	0xbd5282fb	-0.051394444
156	0xbe713c08	-0.23558056
157	0xbc1cbf63	-0.0095671145
158	0xbe94ccc5	-0.29062477
159	0xbe480b3b	-0.19535534
160	0xbf9488ef	-1.1604289
161	0xbed67aa8	-0.41890454
162	0x3ea971e3	0.330947
163	0xbe0d04ee	-0.13771412
164	0x3ebc8cd1	0.36826184
165	0x3f02d1b1	0.51101214
166	0xbf2213b0	-0.6331129
167	0xbf40fe7e	-0.75388324
168	0x3eb19d3b	0.3469027
169	0x3dc48dd9	0.09597368
170	0xbf72078c	-0.94542766
171	0x3d576ac0	0.05259204
172	0xbdc3fe84	-0.095700294
173	0xbe5d17d5	-0.21591122
174	0xbdce4b7f	-0.100729935
175	0xbdcec890	-0.10096848
176	0x3c565b62	0.013083311
177	0xbf219eac	-0.6313274
178	0x3cf04ec9	0.029334443
179	0xbbeaeb01	-0.007169128
180	0xbf27d53d	-0.6555975
181	0x3ef63e67	0.48094484
182	0xbf2ddce7	-0.67915195
183	0xbf069206	-0.52566564
184	0x3edb243f	0.4280109
185	0xbc8b5030	-0.01700601
186	0xbf231541	-0.63704306
187	0xbe1a6478	-0.15077388
188	0xbc54510f	-0.012958779
189	0xbe3a7721	-0.18209507
190	0x3d7bb56a	0.061452307
191	0xbe6060a2	-0.21911862
192	0x3c1b55e0	0.009480923
193	0xbf0c4560	-0.5479336
194	0x3dcd498f	0.10023796
195	0xbf05aa5b	-0.52213067
196	0xbe10e7a7	-0.14150868
197	0x3e53dbf2	0.20689371
198	0xbe5e9562	-0.21736673
199	0xbf10bd96	-0.56539285
200	0xbe6ad3da	-0.22932377
201	0xbf26ee76	-0.6520761
202	0x3e150852	0.14553955
203	0xbe96fd60	-0.29490185
204	0x3e8d9827	0.27655146
205	0xbe69e44c	-0.22840995
206	0x3e8971b2	0.26844555
207	0xbe5c5986	-0.21518525
208	0x3da2a720	0.07942033
209	0x3e8b7308	0.272362
210	0xbe96d50c	-0.29459417
211	0xbed9a31c	-0.42507255
212	0xbe953145	-0.29139152
213	0xbe17b236	-0.14814076
214	0xbe702217	-0.23450504
215	0xbb8720d5	-0.004123787
216	0xbe88a47f	-0.26688
217	0xbe58fe8d	-0.21190853
218	0xbe972f3c	-0.29528224
219	0xbeadb47c	-0.3392676
220	0xbe3babef	-0.18327306
221	0xbd641b06	-0.055689834
222	0x3d079f82	0.033111103
223	0x3e5a4a0a	0.21317306
224	0x3da9b071	0.08285607
225	0xbe4d1120	-0.20026064
226	0xbe91091c	-0.28327262
227	0x3d04681b	0.032325845
228	0xbd5d8371	-0.05408043
229	0x3df6dee3	0.12054231
230	0x3da54828	0.08070403
231	0xbcf3350e	-0.029688384
232	0xbdd0dd97	-0.10198515
233	0x3d469951	0.048486058
234	0xbc9ea1a7	-0.019364191
235	0xbe558a51	-0.20853545
236	0x3da72fbc	0.081634015
237	0xbe6d2754	-0.23159534
238	0xbdf10d0a	-0.11770065
239	0xbe4413c3	-0.19148163
240	0x3ee029dd	0.4378194
241	0xbeb12627	-0.3459942
242	0xbec8c3c8	-0.3921187
243	0xbeb6524d	-0.35609666
244	0xbda3d8c6	-0.080003306
245	0x3e420729	0.18948044
246	0xbe641770	-0.22274566
247	0xbf064f45	-0.52464706
248	0xbf168f28	-0.5881219
249	0xbe9190dc	-0.2843083
250	0xbef55b47	-0.47921202
251	0xbeba1b80	-0.36349106
252	0xbdea2445	-0.11432699
253	0xbe8686aa	-0.26274616
254	0xbe8a3b11	-0.2699819
255	0xbdc9cd94	-0.09853664

feature.0.bias f4 [256]
0	0xbf0247d2	-0.5089084
1	0xbe6c80ff	-0.23096083
2	0xbe82d419	-0.25552443
3	0xbf14313c	-0.57887626
4	0xbeed3152	-0.4632669
5	0xbeb49d5d	-0.3527631
6	0xbed709f4	-0.4199978
7	0xbf565457	-0.8372244
8	0xbe6d74e8	-0.23189127
9	0xbe6c70b7	-0.23089872
10	0xbe46e427	-0.1942297
11	0xbeea7feb	-0.4580072
12	0xbf0509fe	-0.5196837
13	0xbe748404	-0.23878485
14	0xbe81d550	-0.25358057
15	0xbc837a84	-0.016049631
16	0xbeb1e499	-0.3474472
17	0xbe61ed76	-0.2206324
18	0xbe87fa41	-0.26558116
19	0xbe98e8ba	-0.29865056
20	0xbe406d74	-0.18791753
21	0x3c4d12d2	0.012516694
22	0xbe5fd025	-0.21856745
23	0x3d4d18fe	0.050072663
24	0xbed90261	-0.42384627
25	0xbecf13b0	-0.40444708
26	0xbddbff5a	-0.10742064
27	0xbdb651b8	-0.08902305
28	0xbdc30fc5	-0.09524492
29	0xbeae2cdf	-0.3401861
30	0x3e23cbdb	0.15995733
31	0xbf263c67	-0.64935917
32	0xbea3c583	-0.31986627
33	0xbe893d26	-0.26804465
34	0xbe90b765	-0.2826492
35	0xbe7a3099	-0.24432601
36	0xbed90b79	-0.42391565
37	0xbe87cdc1	-0.26524165
38	0xbeefaea4	-0.46812928
39	0xbf1dfd05	-0.617142
40	0xbe8065f0	-0.25077772
41	0xbef5ec2b	-0.48031744
42	0xbedf901e	-0.4366464
43	0xbed9f391	-0.4256864
44	0xbe1cf9b0	-0.15329623
45	0xbee2661b	-0.44218525
46	0xbeea36ff	-0.45745084
47	0xbf046ea4	-0.51731324
48	0xbea9582a	-0.33075076
49	0xbea9b5ca	-0.33146507
50	0xbf06d6f2	-0.5267173
51	0xbe3aeacf	-0.18253635
52	0xbf11e538	-0.56990385
53	0xbe810d7e	-0.25205606
54	0x3e22c7d2	0.15896538
55	0xbe773647	-0.24141799
56	0xbea3d7b9	-0.3200052
57	0xbca57223	-0.020196026
58	0xbea6de3c	-0.32591426
59	0xbdf3f2c0	-0.11911535
60	0x3d48303d	0.04887413
61	0xbed5f31b	-0.41787037
62	0xbea706da	-0.32622415
63	0xbe325ad8	-0.17417467
64	0xbca56363	-0.020188993
65	0xbe0b2d43	-0.13591485
66	0xbdc5cd2c	-0.09658274
67	0xbe0573b4	-0.13032418
68	0xbe39e9e0	-0.18155622
69	0xbdf78b9f	-0.120871775
70	0xbea8ad30	-0.32944632
71	0xbdf2db5c	-0.11858246
72	0xbf0312a8	-0.5120034
73	0xbec65e28	-0.3874371
74	0xbe36d227	-0.17853604
75	0xbcd9723d	-0.02654373
76	0xbec9352c	-0.3929838
77	0xbe2a4bf5	-0.16630538
78	0x3f26e3bd	0.6519125
79	0xbeea9ee2	-0.45824343
80	0xbf276f01	-0.65403754
81	0xbe8b4761	-0.27202895
82	0xbe6327cf	-0.22183155
83	0xbecbdca0	-0.3981676
84	0x3e4395a9	0.1910006
85	0xbeb049af	-0.34431216
86	0xbf03897b	-0.51381654
87	0xbe8f3b85	-0.27975097
88	0xbdb5c64a	-0.08875711
89	0x3d287572	0.04112763
90	0xbec2ef7d	-0.3807334
91	0xbeb86586	-0.36014956
92	0xbe876e21	-0.2645121
93	0xbe902b0b	-0.2815784
94	0xbea98578	-0.3310964
95	0xbe176541	-0.14784719
96	0xbe441030	-0.191468
97	0xbe08b662	-0.13350824
98	0xbe8a06d3	-0.2695833
99	0xbe9e7c73	-0.30954322
100	0xbf063f9d	-0.52440816
101	0xbf334613	-0.700288
102	0xbe978e4e	-0.29600757
103	0xbe1ad4a9	-0.15120186
104	0xbe1fdc7c	-0.15611452
105	0xbe942e88	-0.2894175
106	0xbe4ec11d	-0.20190854
107	0xbd535580	-0.05159521
108	0xbe4d86e3	-0.20070986
109	0xbe2fd588	-0.171713
110	0xbedbc0c7	-0.42920515
111	0xbe83cd46	-0.2574255
112	0xbe996055	-0.29956308
113	0xbdd8a607	-0.10578542
114	0xbe8e5dbb	-0.27805886
115	0xbede82d7	-0.43459198
116	0xbec37187	-0.38172552
117	0xbe0ccec4	-0.1375075
118	0xbe776242	-0.24158576
119	0x3f4e48f8	0.8058009
120	0xbebb9c09	-0.36642483
121	0xbf02f5be	-0.5115622
122	0xbea98215	-0.33107057
123	0x3e08f358	0.13374078
124	0xbe7d0c17	-0.24711643
125	0xbe8240fe	-0.2544021
126	0xbf0baf43	-0.54564303
127	0xbded639f	-0.11591267
128	0xbdeb4d10	-0.11489308
129	0xbe91f8c0	-0.28510094
130	0xbe79a133	-0.24377899
131	0xbec9f1b0	-0.39442205
132	0xbf583f3c	-0.8447149
133	0xbf17eba3	-0.5934393
134	0xbf2c2915	-0.67250186
135	0xbe1fbc34	-0.15599138
136	0xbe552e15	-0.2081836
137	0xbe129183	-0.14313321
138	0xbe9869de	-0.2976827
139	0xbd223c71	-0.039608423
140	0xbe60ee99	-0.21966018
141	0xbeb50ee1	-0.35362914
142	0xbd042c08	-0.032268554
143	0xbe5e691e	-0.21719787
144	0xbe3304a8	-0.17482245
145	0xbe84a2a7	-0.25905344
146	0xbe2a299d	-0.16617437
147	0xbee49e43	-0.44651994
148	0xbeb9bc08	-0.3627627
149	0xbe30d101	-0.17267229
150	0xbe4d7ec4	-0.20067888
151	0xbeb6d4e6	-0.35709304
152	0xbe838d7c	-0.25693882
153	0xbebc43d5	-0.36770502
154	0xbe341863	-0.17587428
155	0xbeb72893	-0.35773143
156	0xbe9863be	-0.29763597
157	0xbe3baa74	-0.18326741
158	0xbe9e7548	-0.30948853
159	0xbe85b244	-0.26112568
160	0xbebe3d1b	-0.37155995
161	0xbe442f30	-0.19158626
162	0xbe114991	-0.1418822
163	0xbea93a7c	-0.33052433
164	0xbeeace2b	-0.4586042
165	0xbe5382af	-0.2065532
166	0xbe1d3455	-0.15351994
167	0xbf130fce	-0.5744599
168	0xbbdcd365	-0.0067390674
169	0xbe862f64	-0.2620803
170	0xbe97bb60	-0.29635143
171	0xbedc9c3c	-0.43087947
172	0xbe743c46	-0.23851117
173	0xbe8f2cb1	-0.27963784
174	0xbe64f2f1	-0.223583
175	0xbeb4ba13	-0.35298213
176	0xbe204e70	-0.15654922
177	0x3d2f1beb	0.042751234
178	0xbeacf2e2	-0.33779055
179	0x3d661c0f	0.056179103
180	0xbef58735	-0.47954717
181	0xbeb0d73e	-0.34539217
182	0xbe80a064	-0.25122368
183	0xbec06b55	-0.37581888
184	0xbe8917e5	-0.26776043
185	0xbed210aa	-0.4102834
186	0xbeb4093c	-0.35163295
187	0xbe93cb51	-0.28866056
188	0xbf056cee	-0.5211934
189	0xbe9bbfb6	-0.304197
190	0x3d8733b6	0.0660166
191	0xbe02dada	-0.12778798
192	0x3d8325cc	0.064036936
193	0xbe22f7ca	-0.15914837
194	0xbed100cc	-0.4082092
195	0xbe875967	-0.26435396
196	0xbc1db57a	-0.009625787
197	0xbe159e88	-0.14611256
198	0xbe9d32c6	-0.307028
199	0x3ef970d2	0.48718888
200	0xbf023f5e	-0.5087794
201	0xbe7cbf17	-0.2468227
202	0xbda92d47	-0.08260589
203	0xbe8fed01	-0.28110507
204	0xbf144c25	-0.5792869
205	0x3da93296	0.082616016
206	0xbec8c439	-0.39212206
207	0xbeb32643	-0.3499013
208	0xbdf51e18	-0.119686306
209	0x3e33f1c7	0.175727
210	0xbed8a60d	-0.42314187
211	0xbe97fe54	-0.29686224
212	0xbe78b330	-0.24287105
213	0xbe9ebb1e	-0.31002134
214	0xbceb3f5e	-0.02871674
215	0xbdb0d288	-0.08633906
216	0xbe7352fc	-0.23762125
217	0xbf016586	-0.5054554
218	0xbdbc416f	-0.09192168
219	0xbf66c494	-0.90143704
220	0xbd9f7ea2	-0.07787825
221	0xbc90a4c5	-0.017656693
222	0xbef5e18d	-0.48023644
223	0xbe48faf0	-0.19626975
224	0x3ec415cf	0.3829789
225	0xbe3be4f8	-0.18349063
226	0xbca3b3a2	-0.019983117
227	0xbea0dbd9	-0.3141773
228	0xbe372864	-0.17886502
229	0x3dbe4c99	0.092919536
230	0xbea317b8	-0.31854033
231	0xbe4fda41	-0.20298101
232	0xbdce82e0	-0.10083556
233	0xbeba3635	-0.36369482
234	0xbdbc061d	-0.091808535
235	0xbee57772	-0.44817692
236	0xbe9b0803	-0.3027955
237	0xbec38f49	-0.38195255
238	0xbe22ec63	-0.15910487
239	0xbe01a9dc	-0.12662452
240	0xbe21312b	-0.15741412
241	0xbe870e0f	-0.26377913
242	0xbde52240	-0.11188173
243	0xbe8f4d62	-0.27988726
244	0xbeb35996	-0.35029286
245	0xbdddb21a	-0.10824986
246	0xbea8b493	-0.32950267
247	0xbe2dd0f7	-0.16974245
248	0xbec47d61	-0.38376907
249	0xbe86bd85	-0.26316467
250	0xbe8d32a8	-0.2757771
251	0x3e4c5576	0.19954476
252	0xbea7c021	-0.3276377
253	0xbe4f6510	-0.20253396
254	0xbea9b4fe	-0.331459
255	0xbe91a219	-0.28443983

value.0.weight f4 [128, 256]
0	0xbd3b9e1c	-0.04580508
1	0xbd5d2baa	-0.05399672
2	0xbd191e24	-0.03738226
3	0xbcb22bf5	-0.021749476
4	0xbce386a4	-0.027774163
5	0x3c7c5b8e	0.015402688
6	0x3d7a173e	0.06105732
7	0xbcfe4477	-0.031038506
8	0xbcdfbcc8	-0.027311698
9	0xbc9eb2c7	-0.019372357
10	0xbd2aec86	-0.041729473
11	0xbd5e0eea	-0.054213442
12	0xbc59b9d9	-0.013288938
13	0xbd25d90a	-0.040490188
14	0x3d175adb	0.03695188
15	0x3d6dab73	0.058024835
16	0xbd92be98	-0.07165259
17	0xbd455f3c	-0.048186526
18	0xbd1e850d	-0.038701106
19	0xbd7f0097	-0.062256422
20	0xbcfd6306	-0.030931007
21	0x3aafa2d6	0.0013399969
22	0xbc8e52fc	-0.017373554
23	0xbd212164	-0.039338484
24	0xbd26080b	-0.040535014
25	0xbca98bb6	-0.020696502
26	0xbd821add	-0.0635278
27	0xbca81cea	-0.0205216
28	0xbd9c62c7	-0.07636028
29	0x3d3060ee	0.04306119
30	0xbc55da36	-0.013052514
31	0xbd89794d	-0.067125894
32	0xbd60fbe6	-0.05492773
33	0xbd314984	-0.043283
34	0xbdad1288	-0.084508
35	0xbddc1fea	-0.107482746
36	0xbdcf3018	-0.10116595
37	0xbd37b0a0	-0.044846177
38	0xbbb13422	-0.005407826
39	0xbc58b685	-0.01322711
40	0xbd2997fd	-0.041404713
41	0xbd531229	-0.05153099
42	0xbd111f63	-0.035430323
43	0x3ca5e1c6	0.020249259
44	0x3cd66105	0.02616931
45	0xbdb99cdf	-0.09063124
46	0x3c187d09	0.009307154
47	0xbd65067f	-0.0559144
48	0xbbe475c9	-0.006972049
49	0xbc974ce0	-0.018469274
50	0xbcad134a	-0.021127362
51	0xbd9fa3f5	-0.07794944
52	0xbd5b7e41	-0.053587202
53	0xbd24d588	-0.0402427
54	0xbd394eec	-0.04524128
55	0x3d729ce1	0.059231643
56	0xbdaa579c	-0.083174914
57	0x3c3342a8	0.010941185
58	0xbda36c90	-0.07979691
59	0x3d0484c5	0.03235318
60	0xbc953330	-0.018212885
61	0xbd6b3c0e	-0.05743032
62	0xbd807858	-0.06272954
63	0xbc9f4b2b	-0.019445023
64	0x3d4761b9	0.04867718
65	0xbd48fe4c	-0.04907064
66	0x3c832cbe	0.016012546
67	0xbc66c7c0	-0.01408571
68	0x3ca7a957	0.02046649
69	0xbd2b1687	-0.04176953
70	0xbe09f367	-0.13471757
71	0xbd086df0	-0.03330797
72	0xbda02ce5	-0.07821063
73	0xbc800378	-0.015626654
74	0xbcba0de8	-0.02271171
75	0xbd2aa5f1	-0.04166216
76	0x3d742c9e	0.059612863
77	0xbd9a4a50	-0.07533705
78	0xbd9697f4	-0.073532015
79	0xbb92377c	-0.0044621807
80	0xbd3a8f6c	-0.045546934
81	0xbb88fc7f	-0.0041804905
82	0xbdceaafa	-0.10091205
83	0x3d47ad94	0.04874952
84	0x3d55a596	0.05215987
85	0xbcbeee9e	-0.02330714
86	0xbcea15f7	-0.028574927
87	0x3d372dbb	0.044721346
88	0xbd01bfa8	-0.03167692
89	0xbd3b6780	-0.045753002
90	0xbd9dbcc4	-0.0770202
91	0xbb223e03	-0.00247562
92	0xbdd3fe5c	-0.103512496
93	0x3d29435a	0.041323997
94	0x3c440320	0.011963636
95	0xbc1417e1	-0.009038896
96	0x3cace54a	0.021105427
97	0xbd495486	-0.049152873
98	0xbd9108e7	-0.07081776
99	0xbdabebbd	-0.08394573
100	0x3d4d6604	0.050146118
101	0xbd37179d	-0.044700254
102	0xbce8719d	-0.028374488
103	0xbce12440	-0.027483106
104	0x3d1b3ba0	0.03789866
105	0xbc634e25	-0.013873612
106	0xbb8d8fa0	-0.0043201
107	0x3d0d2132	0.034455486
108	0x3c27d9f0	0.010244831
109	0x3c205877	0.009786717
110	0x3d62c9e4	0.05536832
111	0xbce4fdb5	-0.027953008
112	0xbb23712d	-0.0024939284
113	0xbd898151	-0.06714118
114	0xbd7c7e01	-0.061643604
115	0xbc0b4d3f	-0.008502304
116	0xbd7db9fe	-0.061944954
117	0x3b3238ca	0.0027194493
118	0xbd2acaf8	-0.041697472
119	0xbd503d51	-0.050839726
120	0xbcb64ac5	-0.02225245
121	0xbcd0a90f	-0.025471238
122	0xbd13e01b	-0.036102396
123	0xbd264f9f	-0.040603276
124	0x3c89d3cf	0.016824631
125	0x3cff39bd	0.031155461
126	0xbd9e4e91	-0.07729829
127	0x3c9beda8	0.019034222
128	0xbcd0b583	-0.025477177
129	0x3cb0d571	0.021586152
130	0xbbbe9117	-0.005815636
131	0xbd9055ed	-0.07047639
132	0xbcfcba7b	-0.03085064
133	0xbd8ac31e	-0.06775497
134	0x3cc6ca1d	0.024266297
135	0xbd56c080	-0.052429676
136	0xbd6be91a	-0.05759535
137	0x3b24489c	0.0025067693
138	0x3cfd9886	0.030956518
139	0x3cb90586	0.022585642
140	0xbda4da61	-0.08049465
141	0xbbc31001	-0.0059528355
142	0xbd4ace19	-0.049512956
143	0xbc2cdbd7	-0.010550461
144	0x3b72094d	0.0036931813
145	0xbbf54cb2	-0.0074859494
146	0xbd156454	-0.036472633
147	0xbc57cd1d	-0.013171461
148	0xbd138765	-0.036017794
149	0x3c28a224	0.010292564
150	0xbd3d7a90	-0.046259463
151	0xbdc92118	-0.09820765
152	0x3b0a0f9e	0.0021066437
153	0x3c977e93	0.018492972
154	0xbc2e8ff0	-0.010654435
155	0xbd9a8328	-0.07544547
156	0xbe1a0b88	-0.15043461
157	0xbd3d05f3	-0.04614825
158	0xbd5897c3	-0.052879106
159	0xbcdfd281	-0.027322056
160	0x3d285abb	0.041102152
161	0x3c03f44b	0.008053849
162	0xbb4bdd91	-0.0031107406
163	0xbda0fced	-0.07860742
164	0x3bb3fa4a	0.0054924833
165	0xbcbb5d90	-0.022871763
166	0x3cf25e1e	0.029585894
167	0xbbf30f89	-0.0074176234
168	0x3ce7a65e	0.028277572
169	0xbcc9805b	-0.024597337
170	0x3b8de1a0	0.004329875
171	0xbd983aec	-0.074331135
172	0x3bde658d	0.006787008
173	0xbdacdc35	-0.08440439
174	0xbdbc3e21	-0.09191538
175	0xbd2644ab	-0.04059283
176	0xbd80d4c8	-0.06290585
177	0x39c4877b	0.00037484974
178	0xbd62cbbd	-0.05537008
179	0xbc54bf61	-0.012985081
180	0xbdcbc5b2	-0.09949817
181	0xbda9d614	-0.08292785
182	0xbd1ed981	-0.038781647
183	0xbbaf6ba4	-0.005353408
184	0xbd6200fa	-0.055176713
185	0xbd7bc738	-0.061469287
186	0x3ce9750f	0.0284982
187	0xbbc27d2c	-0.005935332
188	0x3b547735	0.0032419686
189	0x3d6de57b	0.058080178
190	0xbd189be8	-0.03725806
191	0xbcacfcd1	-0.021116646
192	0xbc620424	-0.0137949325
193	0x3cc6b7b1	0.024257513
194	0xbd73c07f	-0.05950975
195	0x3ccc9c5a	0.024976898
196	0xbbee5a27	-0.0072739306
197	0xbcea8db6	-0.028632026
198	0xbe062a8b	-0.13102166
199	0xbd527d5b	-0.05138908
200	0xbcf05d4a	-0.029341359
201	0xbd4a4862	-0.049385436
202	0xbce1f008	-0.027580276
203	0xbdb60ea8	-0.08889514
204	0x3c8fa11a	0.017532874
205	0xbd52f29b	-0.051500898
206	0xbaf5a4eb	-0.0018741166
207	0x3d959b92	0.07305063
208	0xbd16057f	-0.036626335
209	0xbdaea994	-0.08528438
210	0xbde80ad9	-0.11330194
211	0xbd070019	-0.032959078
212	0x3c95cc9c	0.018286042
213	0xbda23e16	-0.07921998
214	0x3b7314e4	0.003709131
215	0x3bdedaee	0.006801001
216	0xbd78d781	-0.060752396
217	0xbd9f8db7	-0.07790702
218	0xbd737680	-0.059439182
219	0xbd682c2b	-0.056682747
220	0xbde3e33c	-0.11127326
221	0xbbffda9f	-0.007808044
222	0xbdb05eb3	-0.086118124
223	0xbdca0414	-0.09864059
224	0x3cc04b88	0.023473516
225	0x3d232a7c	0.039835438
226	0xbda7ccae	-0.081933364
227	0x3c8c6aae	0.017140713
228	0xbd88cd7f	-0.0667982
229	0x3c9c31dd	0.019066745
230	0x3d61682c	0.055030987
231	0x3d3cc8f7	0.046090093
232	0x3b76b85b	0.0037646506
233	0xbd567a9e	-0.05236303
234	0xbcc3221d	-0.023819977
235	0xbcfd8311	-0.030946286
236	0xbd689484	-0.05678226
237	0x3a8f2d5d	0.0010923553
238	0x3b97ebf3	0.0046362816
239	0x3bedb2e2	0.0072539905
240	0x3d8b3123	0.067964815
241	0xbd0e20da	-0.0346993
242	0xbb93db36	-0.004512216
243	0xbd05801f	-0.03259289
244	0xbd85c0fe	-0.06530951
245	0xbd33af86	-0.043868564
246	0xbc4462dc	-0.011986461
247	0xbd12eb7f	-0.035869118
248	0xbc718577	-0.014741293
249	0xbd5e4a24	-0.054269925
250	0x3d0f9424	0.035053387
251	0x3cacb6d4	0.021083273
252	0x3ca66dd3	0.02031604
253	0xbdb6b277	-0.08920758
254	0xbcc82fec	-0.024436913
255	0xbd4a4f86	-0.049392246

value.0.bias f4 [128]
0	0xbddf6151	-0.109072335
1	0xbde954fe	-0.11393164
2	0xbea189be	-0.315504
3	0xbeac5ddf	-0.33665368
4	0xbe979c87	-0.29611608
5	0xbe489111	-0.19586588
6	0xbe981ecb	-0.29710993
7	0xbe0fa5cf	-0.14028095
8	0xbe7d1b7e	-0.24717519
9	0xbe10efad	-0.14153929
10	0xbdfe7a3d	-0.12425659
11	0xbd87fccc	-0.06640014
12	0xbde20a8b	-0.11037167
13	0xbdb57ec0	-0.08862066
14	0xbdc62993	-0.096758984
15	0xbe02565a	-0.12728253
16	0xbc3caf2f	-0.011516376
17	0xbdaf684e	-0.085648164
18	0xbd97f4df	-0.07419752
19	0xbe073dbb	-0.13207142
20	0xbdef63e0	-0.116889715
21	0xbd81315d	-0.063082434
22	0xbe65691c	-0.22403377
23	0xbe0d84b2	-0.1382015
24	0xbe269faf	-0.16271852
25	0xbe085dab	-0.13316981
26	0xbdbc4ffe	-0.09194945
27	0xbddfb05f	-0.10922312
28	0xbe14d39f	-0.14533852
29	0x3f06e906	0.52699316
30	0xbedc08b4	-0.4297539
31	0xbe296358	-0.16541803
32	0xbe19563f	-0.14974307
33	0xbe4cb019	-0.19989051
34	0x3f18fdd4	0.5976231
35	0xbd8e0918	-0.06935328
36	0xbd8e724f	-0.069553964
37	0xbe1ed4ef	-0.15510915
38	0xbddfdfc2	-0.1093135
39	0xbeb17081	-0.34656146
40	0xbe03b974	-0.12863714
41	0x3daeadb4	0.08529225
42	0xbe0b31c2	-0.135932
43	0xbdb3b52f	-0.087747924
44	0xbe5a83ca	-0.21339336
45	0xbe0974ba	-0.13423434
46	0x3ebd5cb6	0.36984795
47	0xbdd687da	-0.104751304
48	0xbdaf34fc	-0.08555028
49	0xbad9571e	-0.0016581749
50	0xbe71699b	-0.23575442
51	0xbdd4c3c2	-0.103889
52	0xbd8b1ef9	-0.06793017
53	0xbd87ee71	-0.06637276
54	0xbdaf2876	-0.08552639
55	0xbd6933cd	-0.056934167
56	0xbf0c58ab	-0.54822797
57	0xbe294a88	-0.16532338
58	0xbddac337	-0.106817655
59	0xbd66d545	-0.056355733
60	0xbe0ba227	-0.13636075
61	0xbdd8aba2	-0.10579611
62	0xbd91c710	-0.07118046
63	0x3c16208a	0.009163031
64	0xbde7ef86	-0.11324982
65	0x393dbc27	0.00018094537
66	0xbd438f91	-0.047744337
67	0xbe0de6f0	-0.13857627
68	0xbeb05fbd	-0.34448043
69	0xbdabc208	-0.08386618
70	0xbe7cbec9	-0.24682154
71	0xbdbf1426	-0.09330015
72	0xbec17761	-0.3778639
73	0xbd9b2de7	-0.075771146
74	0xbdb0ec4b	-0.08638819
75	0xbe75cb20	-0.24003267
76	0xbdc2697c	-0.09492776
77	0xbe2b5c34	-0.16734391
78	0xbdc7dc55	-0.09758822
79	0xbde5d990	-0.112231374
80	0xbeaea556	-0.34110516
81	0xbde5c6b6	-0.11219542
82	0xbea9e00c	-0.33178747
83	0xbe80777f	-0.25091168
84	0xbe8bb590	-0.2728696
85	0xbce0c115	-0.027435819
86	0xbde789c9	-0.11305577
87	0xbeb7a122	-0.35865122
88	0xbe097af7	-0.13425814
89	0x3ea0e291	0.31422856
90	0xbe1f7d1e	-0.15575072
91	0xbdfed5f6	-0.124431536
92	0xbd4ccf2e	-0.05000227
93	0xbe91845f	-0.28421304
94	0xbe032b5d	-0.1280951
95	0xbdb70691	-0.08936799
96	0xbd9f2b76	-0.077719614
97	0xbef44914	-0.47712004
98	0xbe15f22a	-0.1464316
99	0xbdcabc75	-0.098992266
100	0xbd8abb5a	-0.06774016
101	0xbeae9adf	-0.34102532
102	0xbee2778a	-0.44231826
103	0xbd469567	-0.048482325
104	0xbdc7aec6	-0.09750132
105	0xbe4aa288	-0.19788563
106	0xbe470597	-0.19435726
107	0xbe25a724	-0.1617704
108	0xbdab7aab	-0.083730064
109	0xbdc058a8	-0.0939191
110	0xbde8a554	-0.11359659
111	0xbe9a9d53	-0.30198154
112	0xbe75104f	-0.23932002
113	0xbdf69ad2	-0.120412484
114	0xbd9fa3e5	-0.07794932
115	0xbe2df32a	-0.16987291
116	0xbd801ac3	-0.062551044
117	0x3bc4d8a6	0.006007272
118	0xbdb0c52c	-0.086313576
119	0xbde6a4b6	-0.11261885
120	0xbe229945	-0.1587878
121	0xbd55b36a	-0.052173056
122	0xbe6a3bdf	-0.22874402
123	0xbdaed98a	-0.08537586
124	0xbec4ac79	-0.38412836
125	0xbe35f3b3	-0.17768745
126	0xbe1ea16e	-0.15491268
127	0xbdb71cfb	-0.089410745

value.2.weight f4 [1, 128]
0	0x3cf799df	0.030224739
1	0x3cd503b8	0.02600275
2	0xbefe3a82	-0.49654013
3	0xbe826072	-0.25464207
4	0xbe91e346	-0.28493708
5	0x3c6f6858	0.01461228
6	0x3d818c03	0.06325533
7	0xbccd8799	-0.025089072
8	0xbd6684bd	-0.056278933
9	0x3b23bc8e	0.0024984214
10	0xbedf1443	-0.43570146
11	0x3d137eba	0.036009528
12	0xbaa89dab	-0.0012864372
13	0x3c4fb7f4	0.012678135
14	0x3c7db09e	0.015484003
15	0xbd0090ba	-0.031388022
16	0xbcbdef64	-0.02318544
17	0xbbb1063d	-0.005402355
18	0x3ab2682e	0.001361137
19	0xbc94ea1c	-0.018178038
20	0xbc10c480	-0.008835912
21	0xbac4831a	-0.0014992685
22	0xbc30d968	-0.010794021
23	0x3c800e50	0.015631825
24	0xbe101170	-0.14069152
25	0xbc9d251c	-0.019182734
26	0xbbdd7ca3	-0.0067592426
27	0xbc31026f	-0.010803803
28	0xbccc9b67	-0.024976445
29	0x3e0e427b	0.13892548
30	0xbb94d84d	-0.0045423866
31	0xbcc58d31	-0.024115177
32	0xbc7107ac	-0.014711302
33	0xbd01dc09	-0.031703983
34	0xbe9d37ef	-0.30706736
35	0xbcb8453f	-0.022493957
36	0xbc4b951d	-0.012425688
37	0xbc2ea4a5	-0.0106593715
38	0x3c20f0aa	0.009823004
39	0xbed472b8	-0.41493773
40	0xbce689f3	-0.028141951
41	0xbed58fd5	-0.41711298
42	0x3c9baa04	0.019001968
43	0x3ce99ef9	0.028518187
44	0xbee0ca54	-0.43904364
45	0xbed12480	-0.4084816
46	0x3d741851	0.059593502
47	0x3c86301e	0.016380366
48	0xbc0a8154	-0.008453686
49	0xba923a32	-0.001115626
50	0xbeb8e641	-0.3611317
51	0x3bb57146	0.005537185
52	0x3cbd8802	0.023136143
53	0x3c2c90b0	0.010532543
54	0x3c4ec0e7	0.012619234
55	0xbcb2a075	-0.021805027
56	0x3e9dbb8e	0.30807155
57	0xbcf74392	-0.030183587
58	0xbc958eec	-0.018256627
59	0xbb0d6f46	-0.0021581217
60	0xbc6538d2	-0.013990598
61	0xbb80dd97	-0.0039326656
62	0xbccdd803	-0.025127416
63	0xbb34d2a9	-0.0027591384
64	0x3c3b8d1a	0.011447215
65	0x3c27e073	0.010246384
66	0x3d0c3b32	0.03423614
67	0x3cfdcc15	0.030981103
68	0x3c689d8e	0.01419772
69	0x3cb199ff	0.021679876
70	0xbe651197	-0.22369991
71	0xbbe02c89	-0.0068412465
72	0x3c26e08d	0.010185373
73	0x3b6215f5	0.003449795
74	0xbb54f9e5	-0.0032497582
75	0xba6e2b78	-0.0009085457
76	0x3c2b3132	0.010448741
77	0xbbb3822d	-0.0054781646
78	0x3a2fd2cd	0.0006707132
79	0xbca19457	-0.019724054
80	0x3c93eaf1	0.018056365
81	0xbca39438	-0.019968137
82	0xbcb018dc	-0.021496229
83	0xbe91fd11	-0.28513387
84	0x3dcf230c	0.101141065
85	0xbc7f2f7f	-0.015575289
86	0x3c887072	0.01665518
87	0x3e847d97	0.25877067
88	0x3a953c8e	0.0011385845
89	0xbdf76c72	-0.12081231
90	0x3ccb69bd	0.024830693
91	0xbc12335e	-0.00892338
92	0x3c6603fc	0.014039036
93	0x3c5fb599	0.013654136
94	0x3d6e07dd	0.058112968
95	0xbc240b0e	-0.010012401
96	0xbb388f38	-0.0028161537
97	0x3ca6bd46	0.020353924
98	0xba8bf203	-0.0010676984
99	0x3cf54e2f	0.029944507
100	0x3c8bc175	0.017060021
101	0x3ebf4705	0.3735887
102	0xbd786289	-0.060640845
103	0x3b3c1918	0.002870148
104	0xbcf9bef2	-0.030486558
105	0xbeba20ca	-0.3635314
106	0xbec4ef52	-0.38463837
107	0xbe15b9a6	-0.146216
108	0x3cc597a6	0.024120163
109	0x3d3e56ab	0.04646937
110	0xbc7b2ecd	-0.015330982
111	0x3be60c2d	0.0070204944
112	0x3b3a250d	0.0028403432
113	0xbc1a8229	-0.009430447
114	0x3ba8fb9f	0.0051569487
115	0xbb9fccd4	-0.0048767123
116	0xbcb61e7c	-0.022231333
117	0xbc411c00	-0.011786461
118	0xbb88c61a	-0.004174006
119	0xbbc9a824	-0.006154077
120	0xbc8b82b4	-0.017030098
121	0x3cf310b5	0.029671052
122	0x3a77f7d6	0.00094592327
123	0x3cf53e33	0.029936885
124	0x3d85b9a7	0.06529551
125	0x3b95f112	0.004575857
126	0xbcf2b539	-0.02962743
127	0x3d01209a	0.031525232

advantage.0.weight f4 [128, 256]
0	0xbd2f83d9	-0.04285035
1	0x3d10bece	0.035338216
2	0xbd9abb4c	-0.07555255
3	0xbc61d502	-0.013783695
4	0x3d74526a	0.05964891
5	0x3d031d8f	0.03201061
6	0x3d41de1f	0.04733097
7	0xbd699cbf	-0.05703425
8	0x3c970de1	0.018439235
9	0x3d18a6cd	0.03726845
10	0xbce9d6d2	-0.028544817
11	0x3d45b899	0.04827175
12	0xbda001eb	-0.07812866
13	0xbbc1f20d	-0.0059187473
14	0x3c69f11b	0.014278675
15	0x3d51f811	0.051261965
16	0x3c2a8709	0.010408171
17	0xbc331978	-0.010931365
18	0xbc8c29df	-0.01710981
19	0xbda8b7cd	-0.08238182
20	0x3cb2204f	0.021743922
21	0xb8e11bff	-0.00010734051
22	0xbd21b110	-0.0394755
23	0xbbb72a87	-0.0055897865
24	0xbd74c736	-0.059760295
25	0x3d6fcf1a	0.058547117
26	0xbc9e4d71	-0.019324036
27	0x3c920aba	0.01782738
28	0xbc8dbe07	-0.017302526
29	0xbc86c7b7	-0.016452653
30	0xbc8cfceb	-0.017210444
31	0xbd7247ef	-0.059150632
32	0x3d85ac86	0.06527047
33	0xbbbf3e58	-0.0058362894
34	0xbdae2db3	-0.0850481
35	0xbcf3d614	-0.029765166
36	0xbd0729ee	-0.03299897
37	0x3d48c0de	0.049012057
38	0xbd5c2bd4	-0.053752735
39	0xbd1fcef8	-0.03901574
40	0x3caee1d1	0.021347912
41	0xbb802661	-0.003910825
42	0xbd9030ef	-0.07040583
43	0xbb47e8a3	-0.0030503653
44	0x3ced32ed	0.028954947
45	0xbc8ac6f0	-0.016940564
46	0xbd57141e	-0.05250942
47	0xbc1ebf73	-0.0096892
48	0x3d5e9b00	0.05434704
49	0xbd5528ea	-0.05204097
50	0x3cc932ee	0.024560418
51	0x3d7b0550	0.061284363
52	0x3d82942a	0.06375916
53	0x3b8eae67	0.0043542865
54	0xbc64f4d2	-0.013974385
55	0x3cdadd7f	0.026716946
56	0xbb902760	-0.004399225
57	0x3c94bb24	0.018155642
58	0xbcb8dd7c	-0.02256655
59	0xbd64ed1a	-0.05589018
60	0x3d0fd750	0.035117447
61	0x3d07de34	0.033170894
62	0xbd4bc306	-0.049746536
63	0xbda34b87	-0.0797339
64	0xbcaf4e4d	-0.021399641
65	0xbca7a9a9	-0.020466642
66	0xbd446c33	-0.04795475
67	0x3bad3f0e	0.0052870577
68	0xbd33e1fa	-0.04391668
69	0xbc7e4584	-0.0155195035
70	0xbd7b8e2a	-0.061414875
71	0xbd90caa2	-0.07069899
72	0xbc49e068	-0.012321569
73	0xbd8d2874	-0.068924814
74	0xbbd53167	-0.0065061334
75	0xbb350c8f	-0.0027625894
76	0xbd8227d9	-0.063552566
77	0xbd83939b	-0.06424638
78	0xbdc3c088	-0.09558207
79	0xbccd68ff	-0.02507448
80	0x3d52a98e	0.05143123
81	0xbcec8b53	-0.028875029
82	0xbcf47301	-0.029839994
83	0xbd10e6de	-0.035376422
84	0xbd38e918	-0.04514417
85	0xbd7e9f2f	-0.062163528
86	0xbd34cff1	-0.04414362
87	0xbc1eb933	-0.00968771
88	0x3d26ec70	0.040752828
89	0xbca6b948	-0.02035202
90	0xbcbc4f2a	-0.022986967
91	0x3d03d2a9	0.032183323
92	0xbb37d380	-0.0028049648
93	0x3cc253a0	0.023721516
94	0xbcf336a8	-0.029689148
95	0x3cce5aa4	0.025189705
96	0xbd549c75	-0.05190702
97	0xbb332c2e	-0.0027339566
98	0x3aeb2890	0.0017941166
99	0x3d7c04ee	0.06152814
100	0xbcae754f	-0.021296171
101	0x3c73ce90	0.014880791
102	0xbba04ff9	-0.004892346
103	0x3c8a004c	0.016845845
104	0x3d311597	0.04323348
105	0xbd543f25	-0.05181803
106	0xbd5b2e02	-0.053510673
107	0x3d7ab377	0.061206307
108	0xbd1c4462	-0.038151152
109	0xbb8acae8	-0.004235614
110	0xbd2ac35c	-0.041690215
111	0xbd6aa2d2	-0.057284184
112	0xbd8847af	-0.066542976
113	0x3c6620a1	0.014045865
114	0xbd48a7b8	-0.048988074
115	0xbd5dff40	-0.054198503
116	0x3ccc1812	0.024913821
117	0xbd22f3be	-0.039783232
118	0x3c5f7eca	0.013641069
119	0xbd91895d	-0.07106278
120	0xbc63aefd	-0.013896701
121	0x3cc271c8	0.023735896
122	0x3cdadc97	0.026716514
123	0x3d275f76	0.040862523
124	0x3bf00dd0	0.0073258653
125	0x3cf21974	0.029553153
126	0xbdb2feed	-0.087400295
127	0xbd51499b	-0.051095586
128	0xbd06d0d9	-0.032914016
129	0xbd6c4498	-0.057682604
130	0xbcf5278c	-0.029926084
131	0xbb100ba0	-0.0021979585
132	0xbcf431f2	-0.029808972
133	0xbd81871d	-0.06324599
134	0xbd7cf78a	-0.06175951
135	0xbd4b6016	-0.04965218
136	0xbc14b8cc	-0.009077262
137	0xbd1e79ae	-0.03869026
138	0xbbbc2560	-0.00574176
139	0x3cd89fc3	0.026443368
140	0xbb56e1f7	-0.0032788494
141	0xbd711619	-0.058858965
142	0xbd103d24	-0.03521456
143	0xbc8b3454	-0.016992725
144	0x3d16dc70	0.03683132
145	0x3ca0ca28	0.019627646
146	0xbd1e89b2	-0.038705535
147	0x3b830edc	0.003999574
148	0xbd95b480	-0.07309818
149	0xbd69f62c	-0.057119533
150	0xbd094792	-0.03351552
151	0xbc8f1d3a	-0.017469991
152	0xbd1668f2	-0.036721177
153	0xbce96083	-0.028488403
154	0xbb884a89	-0.004159276
155	0xbd9817e6	-0.07426433
156	0xbce267f4	-0.02763746
157	0xbd207196	-0.039170824
158	0x3d549b1f	0.051905748
159	0x3c909f0e	0.017653968
160	0xbd74546c	-0.059650823
161	0x3b569646	0.0032743379
162	0xbd0c47da	-0.03424821
163	0x3cb3a911	0.021931203
164	0x3ca9e48a	0.020738859
165	0xbd5831c4	-0.052781835
166	0xbcc3bd02	-0.023893837
167	0xbc56b71f	-0.013105183
168	0xbc21eb1e	-0.009882716
169	0x3a488f54	0.0007650752
170	0x3d114be6	0.035472773
171	0x3d0c421e	0.03424274
172	0x3c2e4b82	0.01063812
173	0xbd0cbce3	-0.034359824
174	0xbd7b14b5	-0.061299045
175	0xbd817f96	-0.06323163
176	0xbd43c159	-0.047791813
177	0x3c0379e8	0.00802467
178	0x3d0af22d	0.033922363
179	0xbcbf0f36	-0.023322683
180	0xbd126b50	-0.035746872
181	0x3bfb2378	0.0076641403
182	0xbd3472c0	-0.044054747
183	0x3b349f00	0.0027560592
184	0xbd0bcda9	-0.03413168
185	0xbcdda31c	-0.027055316
186	0xbd7c43e7	-0.061588194
187	0x3d3073fa	0.043079354
188	0x3c444918	0.0119803175
189	0x3d902b30	0.07039487
190	0xbd351705	-0.044211406
191	0xbcd194aa	-0.025583584
192	0xbc4482b6	-0.011994055
193	0xbd32277c	-0.043494686
194	0x3ca00c56	0.019537132
195	0xbd361650	-0.044454873
196	0x3bbf6dc0	0.0058419406
197	0xbd5e4352	-0.05426342
198	0xbcac7fcd	-0.021057034
199	0xbd6f6f00	-0.058455467
200	0x3d23134b	0.03981332
201	0x3c144d48	0.009051628
202	0x3c3a3248	0.011364527
203	0xbce0be9a	-0.027434636
204	0x3c746282	0.014916064
205	0xbd4816d1	-0.048849884
206	0x3d62b8ac	0.055351898
207	0xbd8aa9bf	-0.06770658
208	0x3ba06795	0.0048951604
209	0xbcd0e4ca	-0.02549972
210	0x3cf98f3a	0.030463804
211	0xbc84b29e	-0.016198453
212	0x3c6c0327	0.014405048
213	0x3d23252e	0.03983038
214	0xbd64ded4	-0.055876568
215	0x3d7e5688	0.06209424
216	0x3cecef3b	0.028922668
217	0xbcb86266	-0.022507858
218	0x3d0ca60a	0.034338035
219	0xbd035086	-0.032059215
220	0xbda654e5	-0.08121661
221	0x3c9bf1fb	0.019036284
222	0xbb8d616a	-0.004314591
223	0xbd945eaf	-0.07244622
224	0x3c212ea8	0.009837784
225	0xbcf31b80	-0.029676199
226	0xbda9580d	-0.082687475
227	0xbd8feac8	-0.07027203
228	0x3d0e0b5f	0.034678813
229	0x3c8538fb	0.016262522
230	0x3d051c30	0.032497585
231	0x3d02b9d6	0.03191551
232	0xbbdbf18f	-0.0067121456
233	0x3cb8ccfe	0.022558685
234	0xbd9cdd23	-0.07659366
235	0xba111180	-0.0005533919
236	0x3d2634b3	0.0405776
237	0x3d5d2483	0.0539899
238	0x3cf7da64	0.030255504
239	0xbd9bb635	-0.076031126
240	0xbd0151a2	-0.03157199
241	0xbc8789c9	-0.016545193
242	0xbc8124e1	-0.015764656
243	0xbd57c719	-0.05268011
244	0x3d5e4c25	0.054271836
245	0x3d031834	0.032005504
246	0xbad82da6	-0.0016493096
247	0x3c4953f3	0.012288081
248	0x3ceddf8d	0.029037261
249	0xbcf7f1e0	-0.030266702
250	0x3ce84b23	0.02835614
251	0x3d23688b	0.03989462
252	0x3c2d2f35	0.010570337
253	0x3c853f39	0.016265498
254	0x3c9247ec	0.01785656
255	0x3c913c08	0.01772882

advantage.0.bias f4 [128]
0	0xbde1140d	-0.109901525
1	0xbdc13eab	-0.09435781
2	0xbeedcb68	-0.4644425
3	0x3e743eee	0.23852131
4	0x3e92141d	0.2853097
5	0xbe6a39a0	-0.22873545
6	0xbe12d80f	-0.14340232
7	0xbdea752a	-0.114481285
8	0xbd55469a	-0.052069284
9	0xbe16d79a	-0.14730683
10	0xbeef2943	-0.46711168
11	0xbe15aa39	-0.14615716
12	0xbe07d6bc	-0.13265508
13	0xbe19c6a0	-0.15017176
14	0xbdca1a4d	-0.09868298
15	0xbe1d10c8	-0.15338433
16	0x3ebd01d4	0.36915457
17	0xbecf5839	-0.40496996
18	0xbe8ee156	-0.27906293
19	0xbe29daeb	-0.16587417
20	0xbe6a331d	-0.2287106
21	0xbe08e14a	-0.13367191
22	0xbe837751	-0.2567697
23	0xbf018582	-0.5059434
24	0xbd5c6316	-0.053805433
25	0xbe6583b3	-0.2241352
26	0xbdd5ce11	-0.10439695
27	0xbddb8abc	-0.10719821
28	0xbd249c28	-0.040187985
29	0xbd9f0abf	-0.077657215
30	0xbe30547e	-0.17219731
31	0xbea14d05	-0.31504074
32	0xbe939dcd	-0.2883133
33	0xbe2b1839	-0.16708459
34	0xbdf5f3c6	-0.12009387
35	0xbdac0656	-0.08399646
36	0xbd655595	-0.05598982
37	0xbe93f0d4	-0.28894675
38	0xbdc95a07	-0.098316245
39	0xbdad9c89	-0.08477122
40	0x3ede617b	0.43433747
41	0xbda558ac	-0.080735534
42	0xbe5a3d90	-0.21312547
43	0xbe890928	-0.26764798
44	0xbecba4a0	-0.39774036
45	0xbe9ed0a2	-0.3101855
46	0xbe8939a8	-0.268018
47	0xbe12b9a3	-0.14328627
48	0xbe2b27a2	-0.16714337
49	0xbe85a5c2	-0.26103026
50	0xbec33bad	-0.38131467
51	0xbdc7fdc0	-0.09765196
52	0xbe517630	-0.20455241
53	0xbdaf9e67	-0.08575135
54	0xbdda4686	-0.106579825
55	0xbe095a9b	-0.1341347
56	0xbe3e693e	-0.18594834
57	0x3dd73014	0.10507217
58	0xbe37fe9a	-0.17968217
59	0xbe0074ed	-0.12544604
60	0xbd9375aa	-0.07200177
61	0xbe33702e	-0.17523262
62	0xbe3d539b	-0.18488924
63	0xbd5e5b22	-0.05428613
64	0xbd9a0839	-0.075210996
65	0x3d676f76	0.05650278
66	0xbda8078c	-0.082045645
67	0xbdbee252	-0.09320511
68	0xbdbc36e8	-0.0919016
69	0xbe8a2203	-0.26979074
70	0xbefd0c5c	-0.49423492
71	0xbe0bdb44	-0.13657862
72	0xbe6ba6d1	-0.23012854
73	0xbdad30a1	-0.08456541
74	0x3eb7a442	0.35867506
75	0xbe12b93c	-0.14328474
76	0xbea58f92	-0.32336098
77	0xbe6e6fc9	-0.2328483
78	0xbdaef6b8	-0.085431516
79	0xbeccc34c	-0.3999275
80	0xbd939098	-0.072053134
81	0xbdc21ae4	-0.09477785
82	0xbe9ca794	-0.30596602
83	0xbd75a0f7	-0.05996796
84	0xbe8234d8	-0.25430942
85	0xbe674d63	-0.22588114
86	0x3f1a9452	0.6038257
87	0xbe0a7dc1	-0.13524534
88	0xbce8d04d	-0.028419638
89	0xbdb4df2e	-0.08831631
90	0xbe029447	-0.12751876
91	0xbed74fbc	-0.4205302
92	0xbf06f20d	-0.5271309
93	0xbdedaeff	-0.116056435
94	0xbd56e71c	-0.052466497
95	0xbe9fbd9e	-0.31199354
96	0xbdd396a2	-0.10331465
97	0xbec74027	-0.38916132
98	0xbdcf8df4	-0.10134497
99	0xbe5b8555	-0.21437581
100	0xbeee185f	-0.4650297
101	0xbddb2ab5	-0.10701505
102	0xbd9baac9	-0.07600934
103	0x3eb257fa	0.34832746
104	0xbe8f74d3	-0.28018817
105	0xbe5c8125	-0.2153364
106	0xbe1ff483	-0.15620618
107	0xbdaa564c	-0.08317241
108	0xbe761852	-0.24032715
109	0xbdbb8e19	-0.09157962
110	0xbdbf4d73	-0.09340944
111	0xbe8b70df	-0.2723455
112	0xbe5ae396	-0.2137588
113	0xbe623d58	-0.22093713
114	0xbd9bd6d6	-0.07609336
115	0xbda39385	-0.079871215
116	0xbec8fac9	-0.39253834
117	0xbcec0820	-0.028812468
118	0xbea723ff	-0.3264465
119	0xbe7b1dea	-0.2452313
120	0xbe8eb3f9	-0.27871683
121	0xbe449fbc	-0.19201559
122	0xbe60b961	-0.21945716
123	0xbe34281a	-0.17593423
124	0xbe26e0ed	-0.1629674
125	0xbdf1e15f	-0.11810564
126	0xbdc48dd1	-0.09597362
127	0xbe30dcc3	-0.17271714

advantage.2.weight f4 [3, 128]
0	0x3d285b26	0.04110255
1	0xbbc5bca9	-0.006034453
2	0x3e39ed3c	0.18156904
3	0x3dd48e81	0.10378743
4	0x3e00e25c	0.12586349
5	0x3e658c24	0.2241674
6	0x3d408f0b	0.047011416
7	0x3c1413c7	0.009037918
8	0xbbde99e8	-0.0067932494
9	0xbd3dfde1	-0.046384696
10	0x3dc569bb	0.09639307
11	0xbb92e0e3	-0.004482375
12	0x3da6f8ef	0.08152949
13	0xbb3d3540	-0.002887085
14	0x3c72e208	0.014824398
15	0x3d90f7eb	0.070785366
16	0xbe1bc338	-0.15211189
17	0x3e68acfc	0.22722238
18	0x3e8cc8dd	0.27496997
19	0x3d1ff627	0.03905311
20	0x3d68c484	0.056828037
21	0x3c4449ef	0.011980518
22	0x3d68123c	0.056658015
23	0x3d34a843	0.04410578
24	0x3d954a8b	0.072896086
25	0x3d9d2534	0.076731116
26	0x3d6056b1	0.054770175
27	0xbd49c8e3	-0.049263846
28	0xbc7f3099	-0.015575551
29	0x3d1e28ec	0.038613245
30	0x3d7a0178	0.061036557
31	0x3d7257ed	0.059165884
32	0x3e5f3d63	0.21800761
33	0xbd21653c	-0.039403185
34	0x3dc0df39	0.09417576
35	0xbc9fcb9d	-0.01950627
36	0x3c551c40	0.013007224
37	0x3dbf209f	0.09332394
38	0x38fe396c	0.000121223595
39	0xbb109fe3	-0.0022067956
40	0x3e4038c4	0.18771654
41	0x3cad99b6	0.02119146
42	0x3ddf747a	0.10910888
43	0x3d6369ea	0.05552093
44	0x3dad9e6d	0.08477483
45	0x3f08469c	0.5323274
46	0x3c4c786e	0.012479885
47	0xbcfd5fa3	-0.030929392
48	0x3bebddbf	0.007198065
49	0x3d99e1dc	0.075137824
50	0xbd83a08f	-0.064271085
51	0x3c69a490	0.014260426
52	0x3da23163	0.07919576
53	0xbc02bd14	-0.00797965
54	0xbca815ea	-0.020518262
55	0x3c9e7d60	0.019346893
56	0x3d5caf7b	0.05387829
57	0x3df22636	0.118236944
58	0x3d2816a0	0.041037202
59	0x3ccd5750	0.025066048
60	0x3d4479c6	0.047967695
61	0xbd892554	-0.06696573
62	0x3d3542ea	0.044253267
63	0xbd0c2521	-0.034215096
64	0x3cb99d7b	0.0226581
65	0xbe14a8ed	-0.14517565
66	0xbb817280	-0.003950417
67	0xbd3faad9	-0.046793792
68	0xbc8f6956	-0.017506283
69	0x3e28577a	0.1643962
70	0x3bc27100	0.005933881
71	0xbd563422	-0.05229581
72	0x3d66ff88	0.056396037
73	0x3bcc2e3d	0.006231098
74	0x3eafff08	0.3437426
75	0x3ce7b942	0.02828658
76	0x3c797407	0.015225417
77	0x3dbc8338	0.092047155
78	0x3c63ad3f	0.013896286
79	0x3e009da5	0.12560137
80	0x3d1b5693	0.03792436
81	0x3d306c58	0.043072075
82	0x3dfe262b	0.12409624
83	0xbbccf3b8	-0.0062546395
84	0xba94448e	-0.0011311935
85	0x3e176804	0.14785773
86	0x3d6e526b	0.05818407
87	0x3b8cb6df	0.004294261
88	0x3cfdd0d0	0.030983359
89	0x3cbca54c	0.023028038
90	0x3cb30e3d	0.021857375
91	0x3e018830	0.12649608
92	0x3eca3be2	0.39498812
93	0xbce14cc7	-0.02750243
94	0x3d88d619	0.06681461
95	0x3d1c3a48	0.03814152
96	0x3c9b28c7	0.018940343
97	0xbd268b6a	-0.0406603
98	0x3bbdfed5	0.0057982006
99	0x3bdb8346	0.0066989986
100	0x3ddb2f9d	0.10702441
101	0x3c3ad8e7	0.011404253
102	0xbcd6a597	-0.026202006
103	0x3ea6cf76	0.32580155
104	0x3d55cfee	0.05220025
105	0x3e128526	0.14308605
106	0x3db45b48	0.08806473
107	0xbcb7390b	-0.022366067
108	0x3dc0077e	0.09376429
109	0x3bc49770	0.005999498
110	0x3bc43001	0.005987168
111	0x3df2c268	0.11853486
112	0x3c8e08bd	0.017338151
113	0x3f00b8ec	0.5028217
114	0x3d6f638e	0.058444552
115	0xbddffe4f	-0.109371774
116	0x3dd01639	0.10160489
117	0x3e8d4f40	0.27599525
118	0x3d8d3ba9	0.06896145
119	0x3e1ac6f3	0.15114956
120	0xbd5e8d0e	-0.05433374
121	0x3f5afbd6	0.8554052
122	0x3ddf64f0	0.10907924
123	0x3da5bf7c	0.08093163
124	0xbd3a689e	-0.045509927
125	0xbd88e100	-0.0668354
126	0x3d09f40d	0.03368001
127	0x3cfdd049	0.030983107
128	0xbc2f850a	-0.010712871
129	0x3d50249b	0.05081616
130	0x3e69f3b2	0.22846869
131	0x3e3b1740	0.18270588
132	0x3e6652b2	0.22492483
133	0xbe619857	-0.2203077
134	0x3cf56c30	0.029958814
135	0xbd28bedb	-0.04119764
136	0x3cc07d49	0.02349724
137	0x3ba72193	0.005100438
138	0x3e177db8	0.14794052
139	0x3da81977	0.08207982
140	0x3d833130	0.06405866
141	0x3c2bad43	0.0104783205
142	0x3c063fc8	0.008193918
143	0x3c087e9a	0.008330965
144	0x3e64a3ef	0.2232816
145	0x3cf20fd9	0.029548572
146	0xbdf88dcd	-0.12136421
147	0xbca88ea2	-0.020575825
148	0x3d87e426	0.06635313
149	0xbd04f315	-0.032458384
150	0x3d303cf1	0.04302687
151	0x3e19bcdb	0.15013449
152	0x3db5e960	0.088824034
153	0x3d1661a3	0.036714207
154	0x3be8de97	0.007106613
155	0xbcc95027	-0.024574352
156	0x3d15973c	0.03652118
157	0x3dd350a7	0.103181176
158	0x3dc762ac	0.09735617
159	0x3d15c05f	0.036560412
160	0x3e10baa1	0.14133693
161	0x3be03166	0.0068418263
162	0x3dae7ddf	0.08520102
163	0xbd38000b	-0.044921916
164	0x3db0b819	0.08628864
165	0x3dd4747f	0.10373782
166	0xbc2c7524	-0.010525975
167	0x3bf75aa8	0.007548649
168	0xbe2377f6	-0.1596373
169	0x3d2ede90	0.04269272
170	0xbd6151d5	-0.05500968
171	0x3d4aa334	0.04947205
172	0xbcc1fbbf	-0.023679612
173	0x3c8c80bd	0.017151231
174	0xba82266f	-0.0009929667
175	0xbc893827	-0.016750408
176	0xbd00704b	-0.03135709
177	0x3d6ee27d	0.058321465
178	0xbdaf433b	-0.08557745
179	0xbd991c29	-0.07476074
180	0x3d5c4743	0.053778898
181	0x3cf80429	0.030275421
182	0x3d4187ca	0.04724864
183	0x3bf1f6ec	0.0073841717
184	0x3da7b1ad	0.08188186
185	0xbd994776	-0.07484333
186	0x3d768bcd	0.06019192
187	0xbc548e60	-0.012973398
188	0x3e128a7a	0.14310637
189	0xbbbc80ca	-0.0057526575
190	0x3d06491e	0.032784574
191	0x3e639905	0.22226341
192	0x3d5ce6d5	0.053931076
193	0x3dea832a	0.11450799
194	0xbca77f30	-0.02044639
195	0x3c566406	0.013085371
196	0x3c9cdad0	0.019147307
197	0x3d8f56dc	0.06998989
198	0x3ddd8bb8	0.10817665
199	0x3c117bd6	0.008879622
200	0x3d47b378	0.04875514
201	0xbcabc53f	-0.020968078
202	0xbef21390	-0.4728055
203	0x3d61c74f	0.055121716
204	0x3d0c7ce0	0.034298778
205	0x3cabf2df	0.020989833
206	0xbbc2dfd4	-0.0059470925
207	0x3da581b6	0.08081381
208	0x3da473f5	0.080299295
209	0x3d9b27e9	0.07575972
210	0xbc51f979	-0.012815827
211	0x3d0e0e61	0.03468168
212	0xbc82fe77	-0.015990479
213	0x3d8913e9	0.06693251
214	0xbe2d496b	-0.16922538
215	0xbd1b3838	-0.03789541
216	0x3d23933c	0.039935336
217	0x3c8d2c0f	0.017232923
218	0x3cebea5c	0.028798275
219	0xbe1f6d77	-0.15569101
220	0x3ee355c4	0.4440137
221	0xbd4889fb	-0.048959713
222	0xbb5a49d5	-0.0033308167
223	0x3c4b5787	0.012411005
224	0xbd48f492	-0.049061365
225	0x3dde076c	0.10841259
226	0xbcbbb0ad	-0.022911394
227	0x3ccf620b	0.025315305
228	0xbca81b9f	-0.020520983
229	0x3d0a1b2e	0.033717327
230	0xbc7c61ea	-0.015404204
231	0x3e61c7ce	0.22048876
232	0x3cdd6a96	0.027028363
233	0x3e2b0942	0.1670275
234	0x3f04e9df	0.5191936
235	0xbd2a9f64	-0.041655913
236	0x3d287b5f	0.04113328
237	0x3cb0fbed	0.021604503
238	0x3d17f16a	0.037095465
239	0x3c45fe6b	0.012084584
240	0x3d358d8a	0.044324435
241	0xbc9cea38	-0.019154653
242	0xbbefcbe7	-0.007318008
243	0xbda131db	-0.07870837
244	0xbdd963b4	-0.1061472
245	0xbe3ce1c2	-0.18445495
246	0x3dd11a12	0.10210051
247	0x3d120dd5	0.035657723
248	0xbc6e4c04	-0.014544491
249	0xbed1a472	-0.40945774
250	0x3a65e3b7	0.0008769589
251	0x3dae550a	0.08512314
252	0xbc94e81d	-0.018177086
253	0x3c6190f9	0.013767474
254	0x3cdcbb51	0.026944788
255	0x3d2bbb20	0.041926503

advantage.2.bias f4 [3]
0	0x3e0bb545	0.13643368
1	0x3af4eeca	0.0018686887
2	0xbe14d8bd	-0.14535804
