model/DuelDQN/checkpoint_1700.pth (torch, 287045 bytes, 9 tensors)

feature.0.weight f4 [256, 16]
000000 84 74 40 bd 4c ad 84 bd 03 50 0d 3e 47 39 a9 3d
       -0.046986118 -0.06478366 0.13800053 0.08262878
000010 64 5a 8b be fa c3 49 be 6a f3 49 3e 1d 8b e1 bd
       -0.272174 -0.19703665 0.19721761 -0.11012862
000020 43 20 39 be 05 39 5b 3e 62 18 bc bd 85 b3 da 3d
       -0.18078713 0.2140847 -0.09184338 0.10678772
000030 bb e7 d2 bd 3a e8 8c 3d 65 62 78 3e 24 bd 1d bd
       -0.10298105 0.06880231 0.24256285 -0.038510457
000040 f7 15 a1 3e 0b 80 e7 be ab 45 2e 3e 82 c8 3e 3e
       0.3146207 -0.45214877 0.17018764 0.18631175
000050 e1 11 97 be 02 6f b6 bd b4 d1 05 3e 7d 07 3a bd
       -0.29505828 -0.08907892 0.13068277 -0.045417298
000060 6a e0 40 3e de ee 9b bc 62 70 aa be 66 40 8d bd
       0.18835607 -0.0190348 -0.33288866 -0.06897049
000070 b3 b3 17 3e fb 05 e1 3c 5c 0d 38 3c 23 2f 68 bc
       0.14814644 0.027468672 0.011233654 -0.0141713945
000080 58 ba 37 3e a4 39 70 bc e2 f4 b4 be a1 6f a3 3d
       0.17942178 -0.01466218 -0.3534308 0.07980276
000090 e6 5e 93 be 2f 1c 55 3e b5 61 7e 3d 2b 00 25 bd
       -0.2878334 0.20811532 0.0621049 -0.040283363
0000a0 e0 a4 fa 3d 4a cd 26 be 72 9c 71 3b 23 c9 21 3e
       0.12238479 -0.16289249 0.003686693 0.15799384
0000b0 f6 b7 95 bc 6d f7 ac bc 47 15 4e bd 59 0b dc bd
       -0.018276196 -0.021114076 -0.05031326 -0.10744352
0000c0 54 87 07 3c 72 2d 01 be ee 45 ce 3d f4 9e 8d 3e
       0.008272011 -0.12614992 0.10071932 0.27660334
0000d0 29 d1 71 3e 24 45 6f 3e de a3 39 3e 6f 20 ce bb
       0.23614945 0.23366219 0.18128917 -0.0062904875
0000e0 8a 5a 8a 3d f4 29 2d 3d 95 48 56 be 72 24 34 3e
       0.0675555 0.042276338 -0.20926125 0.17592028
0000f0 04 9d f3 bd 7b 8e 00 be 61 5e 29 bd 41 ce 85 bd
       -0.11895183 -0.12554352 -0.041349772 -0.065334804
000100 06 10 7b 3e 00 66 cd 3d 15 21 c2 bd de 89 40 3d
       0.24517831 0.100292206 -0.09478966 0.04700648
000110 a7 41 7a bd 2d 2b a3 bc 38 01 63 be 6f 9b c6 bd
       -0.061097767 -0.019918049 -0.22168434 -0.09697615
000120 47 e5 14 bd c8 cd e9 3d 15 35 93 be 16 bb 90 3c
       -0.03635147 0.11416203 -0.28751436 0.017667335
000130 dd 40 86 3e 38 ca 6e 3e 0a b5 12 be 3f 65 20 be
       0.26221362 0.23319328 -0.14326873 -0.15663622
000140 9b d6 2b bd d3 7a a9 be 1d 99 8f 3e b8 03 42 be
       -0.04195271 -0.3310152 0.28046504 -0.18946731
000150 ce 9b a1 bd a9 64 fe 3b f3 08 de 3d 33 b7 a1 bd
       -0.078910455 0.0077634645 0.10841551 -0.078962706
000160 78 bd 11 3e 67 03 57 bd 75 8e 4b be 93 77 a8 bd
       0.14232433 -0.05249348 -0.19878562 -0.08225932
000170 8b be 5f 3d e8 a4 d7 bc 3a 0c d8 3d a3 01 9f 3e
       0.054625075 -0.02632375 0.10549207 0.31055936
000180 fd 89 24 be 58 49 97 3e bd 71 fa 3d 8d fa 66 3e
       -0.16068263 0.29548144 0.12228725 0.22556515
000190 ba 8a 38 39 03 e8 84 bc d4 68 16 bd 1a 2d be bc
       0.00017599287 -0.016223913 -0.036721066 -0.023214865
0001a0 9b d8 83 3c 12 f3 4b be a4 27 22 3d 35 29 18 bd
       0.016094496 -0.19916943 0.039588585 -0.037148673
0001b0 13 e5 9c be 8a a7 16 be 44 ed d7 bd b7 0d ec bd
       -0.3064352 -0.14712349 -0.10543302 -0.115260534
0001c0 52 82 49 3e 37 e8 5a 3d 23 d0 31 3e 73 84 91 be
       0.1967862 0.053444114 0.17364554 -0.28421363
0001d0 d1 59 8c be e7 1b 5d be 28 ae 0b be 4f bc 0c be
       -0.27412274 -0.21592675 -0.13640654 -0.13743709
0001e0 dc ed af bd 8a 25 57 3d 1b 7c b2 bc 27 af 4f bd
       -0.0859029 0.052526034 -0.021787694 -0.050704148
0001f0 d1 8d 86 bc ae ec 92 3c 48 c4 cf 3b cb bf 80 3e
       -0.016425045 0.017935123 0.006340537 0.25146326
000200 62 15 bb 3d 5a 3a cf 3d b1 9a 2c 3c 04 13 ac be
       0.09134938 0.101185516 0.010534928 -0.33608258
000210 0f b3 67 3c 7f c7 9f be c2 03 cf 3d 40 dd b8 3b
       0.014141812 -0.3120689 0.101081386 0.0056416094
000220 05 52 aa bd b5 69 db 3d d6 35 6f be 91 3f be 3d
       -0.08316425 0.107135214 -0.2336038 0.09289468
000230 9d b2 eb 3d 8c d6 71 3e f1 ae d2 3d c8 7f 80 bd
       0.11508677 0.23617 0.10287274 -0.06274372
000240 bc 30 81 3e 6a d6 d0 3c 85 3a c5 bd 4b c7 60 be
       0.25232494 0.025492866 -0.09630302 -0.21951024
000250 36 33 3e be ec 33 be bd a5 49 d0 bd d0 5b 21 be
       -0.18574223 -0.09287247 -0.101702966 -0.1575768
000260 2f a7 f6 3b 69 2a 4b bd fc ed e8 3d 4b 25 9d be
       0.007527254 -0.049600992 0.11373517 -0.30692515
000270 c2 07 7c be a4 c2 99 bb 5d 77 6f be 9f 26 2d be
       -0.24612334 -0.0046923924 -0.23385377 -0.16909264
000280 1d 09 65 bd 6a 88 60 3d c3 56 82 be 50 4d 80 bd
       -0.055916894 0.054817595 -0.2545682 -0.06264746
000290 01 51 88 be b9 4e 5a be 4d 72 4e 3e 94 ae 97 be
       -0.266243 -0.21319093 0.2016079 -0.2962538
0002a0 41 43 ad bd 3b b8 94 be d0 f2 2b 3e a5 c1 13 be
       -0.08460093 -0.29046807 0.16791844 -0.14429338
0002b0 d9 09 61 bd e4 eb 43 be 37 aa 4d bd c2 36 05 3e
       -0.054941032 -0.19132954 -0.050211158 0.1300917
0002c0 cb 45 2d 3e 82 b7 82 be d0 e3 8c 3d b7 b8 b4 3d
       0.16921155 -0.2553063 0.06879389 0.08824294
0002d0 4f f0 8d bd 6a b5 64 3e ad 33 82 3e 02 b1 09 3e
       -0.06930601 0.22334829 0.2543005 0.1344643
0002e0 ef db 51 be d5 50 33 be 19 87 c9 bd 9b 4b ef 3d
       -0.20494054 -0.17511304 -0.09840221 0.116843425
0002f0 40 d2 04 3e 46 3d 4b 3d 06 e0 2a be 08 70 34 be
       0.12970829 0.04961898 -0.1668702 -0.17620862
000300 74 b0 69 3d 96 ad d3 3d 90 83 4f be 5a b4 eb b9
       0.057053044 0.10335843 -0.20265031 -0.00044957065
000310 59 73 0d 3e bd 37 c9 bd 2c 76 1e bd 6e 17 06 3e
       0.13813533 -0.09825084 -0.038686916 0.13094875
000320 78 05 df bd 20 a6 11 be 1f be 95 bc 48 57 44 3d
       -0.10889715 -0.14223528 -0.018279133 0.0479348
000330 70 6c 52 be 58 b6 9b be 37 94 74 3e 82 b5 bb 3e
       -0.20549178 -0.30412555 0.23884664 0.36661917
000340 72 89 40 3e 89 21 cb bd 26 67 18 be 29 71 94 3d
       0.18802431 -0.09918506 -0.14883098 0.07248146
000350 69 6e ee 3c a5 cf 59 3d 5c c1 2e 3e 10 5f 33 3e
       0.029105382 0.05317654 0.17065948 0.17516732
000360 f9 36 35 3e 20 d0 98 be a0 b2 e6 3c df f2 88 3d
       0.17696752 -0.29846287 0.028161347 0.06686949
000370 32 34 dc bd 9b 56 e4 bd bc 2e 5f bb bc 15 47 3e
       -0.10752143 -0.11149331 -0.0034054955 0.19441885
000380 8c 97 22 3e 6f 5b 6c 3e fa bc ef 3d d4 0d 93 3b
       0.15878123 0.23081754 0.11705966 0.0044877324
000390 2a f2 04 be 1f 35 85 bc ce c3 c5 3d ff 2e 1b be
       -0.12983003 -0.016260682 0.096564874 -0.15154646
0003a0 43 ba dd bc fa c1 a5 bc ee 3e 28 be b6 bd 18 3e
       -0.027066356 -0.020234097 -0.16430256 0.14916119
0003b0 c8 34 b4 3d 78 b2 f3 b9 6d 87 22 3a bf 21 e5 3d
       0.0879913 -0.0004648154 0.00061999896 0.11188077
0003c0 60 71 92 bd fa ac 7a 3e 4e 24 91 bd 8f 2b a5 3d
       -0.07150531 0.24480048 -0.07087003 0.08064949
0003d0 16 64 38 bd f5 ba 21 3e 48 a8 95 3e db 58 ea bd
       -0.045017324 0.15793975 0.2922995 -0.11442729
0003e0 73 c2 f1 bd a9 6b ab bd f9 ed 77 be 39 9e 87 bb
       -0.11804666 -0.08370144 -0.24211873 -0.0041387347
0003f0 18 89 ee bd 74 44 97 3c 8f 6c f4 bd 17 44 8b 3d
       -0.11647242 0.018465258 -0.119347684 0.068000965

feature.0.bias f4 [256]
000000 cb b1 5d be fc 13 05 3d 4a 24 e1 bd 2e d5 f1 3d
       -0.21649854 0.03248976 -0.1099325 0.11808239
000010 a0 da 9f be 1c 49 89 3d fe bb ca bd 8c bc 6c bd
       -0.31221485 0.06703398 -0.09899138 -0.057797
000020 da f5 dd bc 08 07 45 bc 20 fb 70 3e 14 30 8c 3e
       -0.02709477 -0.012025602 0.23533297 0.2738043
000030 c8 d3 35 be 89 2e 5f 3e 30 bd bf be d9 b1 b8 3d
       -0.1775657 0.21795096 -0.37449026 0.09018297
000040 55 8d 34 3b 45 74 88 3e 96 04 87 be e6 12 38 be
       0.002755006 0.26651207 -0.26370686 -0.17975959
000050 ce ac fe bd 26 68 bd bd 9e ff 50 3d 7e d7 75 bd
       -0.12435304 -0.0924838 0.051025026 -0.060019962
000060 32 67 39 3c 8d 43 ac 3e 93 3a 28 bd 1c 52 75 be
       0.011316108 0.33645287 -0.041071486 -0.23957103
000070 08 a8 9c bd 98 4b bf be de d4 a9 bd 2f 17 e3 bd
       -0.07649237 -0.3736236 -0.08292554 -0.11088406
000080 f2 e5 e0 bd 28 9b 75 be 3d 1b 58 be b2 85 9c bc
       -0.109813586 -0.23984969 -0.2110414 -0.01910672
000090 ca 4a 26 be 7e 51 a8 bd 92 b1 06 3e 96 91 59 be
       -0.16239467 -0.082186684 0.13153675 -0.21246943
0000a0 23 8c 44 3e 9a aa 0c be 42 ed 00 3e f4 76 b3 3a
       0.19194083 -0.13736954 0.12590507 0.0013692067
0000b0 2d 91 33 be 30 9f c1 3d 34 22 4f 3e 9a ab 8d 3e
       -0.17535849 0.09454191 0.20227891 0.27669984
0000c0 a2 6d e3 bd 56 c9 97 be 45 55 94 3e 7d c8 c5 bd
       -0.11104895 -0.29645795 0.28971305 -0.09657381
0000d0 f1 77 a9 3c 0f a6 60 bc a1 ce bb 3e ef df 53 be
       0.020687075 -0.013711466 0.36681083 -0.20690893
0000e0 d8 75 4c be df c6 a1 be ef 70 4b be b5 0f 4c bd
       -0.19966829 -0.3159704 -0.198673 -0.049819667
0000f0 9d 3c e5 3c 78 2d 3d 3e 56 ce 72 bc 56 7c 47 be
       0.027983004 0.18474376 -0.014819702 -0.19481024
000100 e3 95 39 3e 27 d0 93 3e e4 c3 38 be a3 16 1e be
       0.18123583 0.28869745 -0.18043476 -0.15438323
000110 dc 1d 4b 3e 18 5b 09 3e 55 34 3d bd e2 b2 ec 3d
       0.19835609 0.13413656 -0.046192486 0.11557557
000120 77 69 5c 3e 84 86 af bc 87 97 26 be 5b 9f a6 be
       0.21524607 -0.021426447 -0.1626874 -0.32543454
000130 5c b7 91 be f9 66 e9 3d bf 1a 66 3e 53 d4 3f bd
       -0.28460205 0.113965936 0.2247114 -0.046833348
000140 cb c6 8f be d3 3c 99 3e 8e 93 5e bd 21 2c 1d be
       -0.28081354 0.29929218 -0.054339938 -0.15348865
000150 48 21 a4 3e 14 52 af 3d a1 c3 7f 3e 15 71 1a 3e
       0.32056642 0.08560577 0.2497697 0.150822
000160 1e be 92 3e 29 f5 95 3e ce 3d 94 be e3 d1 b6 bd
       0.28660673 0.29288605 -0.28953403 -0.089267515
000170 a8 f5 61 bd 3b 9b b6 bd 86 4b 9f bd 86 eb 78 be
       -0.055165917 -0.089163266 -0.07778077 -0.24308595
000180 a7 44 26 be fb d0 23 be e5 38 31 be 2f b8 1e be
       -0.16237126 -0.15997688 -0.1730686 -0.15499948
000190 e3 18 59 be 7c 53 71 be 2d ae 9c bd 5f 63 42 3e
       -0.212009 -0.23567003 -0.07650409 0.1898322
0001a0 69 b7 4f 3e cf c2 33 3c e9 92 dd bd 93 1a b2 3e
       0.20284809 0.010971739 -0.108190365 0.347859
0001b0 5a 7b 99 be 31 8e 2c be ea 47 b9 be 34 62 aa be
       -0.29976922 -0.16851117 -0.3618768 -0.33278048
0001c0 c2 3b 5e bc d0 f7 46 3e aa 94 fa bc 63 0b 4b be
       -0.013564052 0.1943047 -0.030588467 -0.19828562
0001d0 8a cd 23 be 43 be 3b be aa 25 63 be a2 f0 e1 bd
       -0.15996376 -0.18334298 -0.22182336 -0.11032225
0001e0 92 b2 a5 3e f7 81 d0 bd 14 7c 46 be 31 55 cf bd
       0.323628 -0.10181039 -0.1938327 -0.10123671
0001f0 75 98 a6 3e 80 41 81 3e fa a0 0b be 66 dc 07 3e
       0.3253819 0.25245285 -0.13635626 0.13267669
000200 97 00 b4 3e 6e 2f 27 be 1b 3b 89 bd 40 e0 4e be
       0.351567 -0.16326687 -0.067007266 -0.20202732
000210 e3 58 50 be 6b 40 00 3e de 09 87 bc a9 9e 96 bd
       -0.20346408 0.12524574 -0.016484197 -0.07354481
000220 94 33 d5 bd fe ab 06 be c7 b5 6f be 3d 4d 7c be
       -0.10410228 -0.13151547 -0.23409186 -0.24638839
000230 4d 86 24 3e 60 89 da bd 3e 79 04 bd 69 87 55 3e
       0.16066857 -0.106707335 -0.032342188 0.20852436
000240 96 f7 6c 3d af ad 5b be 9a a8 cc 3e 34 fb 8f 3e
       0.057853304 -0.21452974 0.39972383 0.2812134
000250 7b e7 5f bd cd 7a a7 be 08 90 7e bd da 21 bd 3c
       -0.054664116 -0.32710877 -0.062149078 0.02308743
000260 76 44 b3 3e af 88 ca be ac c3 b1 3e c4 3a 63 be
       0.3501317 -0.39557406 0.34719598 -0.22190386
000270 0d 0e 99 3e 88 f5 53 bd b1 5b 6f bd 7c 24 c8 3e
       0.29893532 -0.05174783 -0.058437053 0.39090335
000280 b6 be 9b be 60 67 06 be d4 67 9d 3e 7a 34 33 3e
       -0.30418938 -0.13125372 0.30743277 0.17500487
000290 62 7b fa bd 29 82 b7 3e eb 05 80 bc 6f a0 37 3e
       -0.12230565 0.35841492 -0.015627822 0.17932294
0002a0 8e c2 b2 3e 77 3c 7e 3d 38 05 41 be 80 e2 dc bd
       0.34914058 0.062069383 -0.18849647 -0.10785389
0002b0 64 98 a8 3b 1d fe f2 3c 86 08 b6 3e b7 0c 02 3d
       0.0051451195 0.029662186 0.35553378 0.031750407
0002c0 cc 7d 5a be 82 b1 a0 3e 6c d7 30 be 73 25 cc 3d
       -0.2133705 0.31385428 -0.17269677 0.0996808
0002d0 93 66 30 3e 39 cb 24 be 60 d2 9d be 1d c7 8b 3e
       0.17226629 -0.16093148 -0.30824566 0.2730035
0002e0 70 19 ba bd 44 71 c9 be b7 79 6c be d6 00 97 be
       -0.09086883 -0.39344227 -0.23093306 -0.29492825
0002f0 66 64 9d 3e 35 7c 08 be 66 5f 12 be 98 91 a0 bd
       0.3074066 -0.13328631 -0.14294204 -0.0784027
000300 fe 3e a2 3e 47 3d 4d 3d ff 81 ea bc e1 2a 38 be
       0.31688684 0.050107267 -0.02862644 -0.17985107
000310 31 52 07 3d 9e e7 d5 be 87 f7 8e 3e 98 5c 22 be
       0.03303737 -0.41778272 0.27923223 -0.15855634
000320 0e 7b 9a 3e cc d7 01 3e 53 86 30 be 7e 17 7e be
       0.30172008 0.12679976 -0.1723874 -0.24813649
000330 e7 d1 df bd a9 76 08 3e 4a 18 88 3e 83 b1 3c 3c
       -0.109287076 0.13326515 0.2658103 0.0115169315
000340 d5 67 a9 bd 02 d7 94 3d 96 c0 04 3e c7 80 10 3e
       -0.082717575 0.07267572 0.1296409 0.14111625
000350 32 ae 8b be 69 61 af 3e 4c 1c da 3d 54 05 1a be
       -0.27281338 0.34254006 0.106499285 -0.15041095
000360 11 7c 95 3e b2 e4 37 3e 3f 17 18 be 08 6c f6 3d
       0.29196218 0.17958334 -0.14852618 0.12032324
000370 81 36 1a 3e f5 cc 60 bd 3a b9 16 3d f7 6a 57 bc
       0.15059854 -0.054882962 0.03679774 -0.013148061
000380 54 36 4c be ac 2b 7e be 3c e7 b9 3d 7b f7 56 be
       -0.199426 -0.24821347 0.090773076 -0.20992844
000390 9d 68 a1 be 61 e6 02 be f3 14 11 be 41 cc ea 3d
       -0.31525126 -0.12783195 -0.14168148 0.114647396
0003a0 45 04 30 be e4 3f 37 3e 99 1a cb bd f6 40 b2 3e
       -0.17189129 0.17895466 -0.099171825 0.34815186
0003b0 bb c5 78 3e b0 36 62 be a9 26 a0 bd 4d 21 18 be
       0.24294178 -0.22091174 -0.07819874 -0.14856453
0003c0 04 54 3a bd 8f f9 66 be c6 5e 36 3e d4 9e 1a be
       -0.04549028 -0.22556137 0.1780959 -0.1509965
0003d0 80 f1 0f 3c d7 b6 69 be 84 b2 9e 3e 25 04 86 3e
       0.008785605 -0.22823654 0.30995572 0.26175037
0003e0 1d 4a ad bb b1 1d 05 be d1 d3 32 3e 11 b5 e7 bc
       -0.005288376 -0.12999608 0.17463614 -0.028284581
0003f0 f0 71 b9 3d af a8 a7 3e 4c 46 28 be e5 13 a2 bd
       0.09054935 0.32745883 -0.16433066 -0.07913951

value.0.weight f4 [128, 256]
000000 e4 5a b5 3b 9b c1 e8 3c 31 1e 37 bd 5c 2f 11 3d
       0.0055345166 0.02841263 -0.044706527 0.035445556
000010 01 6a c5 bd 65 4d b7 bd 94 25 49 3c 81 1a 8d 3c
       -0.09639359 -0.08950309 0.012277026 0.017224552
000020 ec 7c 29 3b 59 be 1e 3d d5 4f 39 be e6 35 4c ba
       0.0025861813 0.03875575 -0.1809686 -0.0007790014
000030 28 86 0c be a2 ed 21 bb 79 d9 7a 3d 71 57 67 3d
       -0.13723052 -0.002470829 0.061242554 0.056479875
000040 c6 23 bc 3b cb 3f 90 bd 48 14 9a 3c 15 87 f3 ba
       0.005741569 -0.070434175 0.018808499 -0.0018579686
000050 dc 8f 72 3d b8 4e 6d bd 74 96 e2 3b 4a cc 05 bd
       0.059219226 -0.0579364 0.006914908 -0.03266553
000060 f9 3a ee bc 31 f5 b8 bc 55 d0 e9 bc 83 ec 00 3b
       -0.029080855 -0.022577854 -0.028541723 0.0019672222
000070 5d d1 9a bd 60 d9 26 bc 57 2a 39 bd 60 15 4b 3d
       -0.07559464 -0.010183662 -0.045206394 0.04958093
000080 f2 a5 4f 3d 83 4e e8 3c 6f 0e a1 bd b9 8c c7 bd
       0.050695367 0.02835775 -0.07864081 -0.097436376
000090 9e 8c 81 3d ef 5b 8a bd 35 38 b9 bc 31 f9 d2 bc
       0.06325649 -0.06755816 -0.02260981 -0.02575359
0000a0 01 3e 0e bd 81 1d 63 bd 3e e2 96 bc 8c 03 f3 bd
       -0.0347271 -0.05544806 -0.018418428 -0.11865911
0000b0 3f c6 34 bd 0d 30 3d 3d d4 87 be 3c 89 53 e7 3c
       -0.044134375 0.046188403 0.023258127 0.028238075
0000c0 f2 32 7e bc d1 e1 f5 3c 81 73 a5 3c 20 c2 82 3c
       -0.015515076 0.030014904 0.020196678 0.015961707
0000d0 50 d1 ae 3c 1c a7 50 be 10 ba aa 3b 71 ca 46 bd
       0.021340042 -0.20376247 0.0052101687 -0.048532907
0000e0 98 42 76 bd 6d 55 39 bd 2c 8d 62 3d ea cb 56 3d
       -0.060122102 -0.045247484 0.055310413 0.05244056
0000f0 45 72 10 be 4f 8a a4 bd ff 78 24 3d 6c 74 51 3d
       -0.1410609 -0.08034193 0.040154453 0.05113642
000100 fb a7 7b 3d 0e f7 20 bd 06 8c bc 3c 15 72 a1 3c
       0.061439496 -0.03929811 0.023015987 0.019707719
000110 94 ce 00 bc 8c 8e 9e 3b 0a 8a 76 bd 76 0f 42 bd
       -0.007861752 0.0048387703 -0.060190238 -0.047378026
000120 4c d5 ad bd 82 c7 9c 3c 44 cf 80 3d 81 32 44 bd
       -0.08487949 0.019138101 0.06289533 -0.047899727
000130 ce 31 5a bc 84 2e 8a bc 87 de ac bd 3a 6b e0 3c
       -0.013317538 -0.016867884 -0.08440881 0.02739488
000140 9e fc a2 3d 64 f8 12 bd f4 62 91 bb 6c 9c 43 bd
       0.07958339 -0.035881415 -0.004436845 -0.047756597
000150 3d ee 94 bd a2 c4 59 bd c9 41 67 3d 99 d1 2e bd
       -0.07272003 -0.05316604 0.056459222 -0.042680357
000160 dd ac cd 3c f8 09 76 bc d9 6f 06 3d ad b1 47 3d
       0.025106842 -0.015017025 0.03282151 0.04875343
000170 7f b8 ab bc 87 5d 04 be 8f 32 25 bd d1 3a 1d 3c
       -0.020961998 -0.12926303 -0.04033142 0.009596542
000180 fc 5c 8a bd ec c8 2c bd 79 19 4c 3d af f9 95 bd
       -0.067560166 -0.0421838 0.04982898 -0.07323014
000190 72 ab 78 bc d4 d7 d7 3a 07 41 e9 bc a7 b5 20 bd
       -0.0151775945 0.001646752 -0.02847339 -0.039235737
0001a0 69 71 56 bd 8c 7f e5 bd 5d 82 fe bb 2a 5d 58 3d
       -0.05235425 -0.11205968 -0.0077670054 0.052823223
0001b0 fa c6 c2 bd 99 d1 8a bd ef a4 c0 3a 5b a3 5b 3d
       -0.09510608 -0.06778259 0.0014697592 0.053622585
0001c0 69 72 b8 bd 5a 33 bd bc 03 de f2 bd 1d f4 02 bd
       -0.09006197 -0.023095775 -0.118587516 -0.031971086
0001d0 26 f1 d9 bd b5 6c 9b bd 6c 10 ce bc 9f 65 45 bd
       -0.106416985 -0.075890936 -0.025154315 -0.048192617
0001e0 a4 e2 8d bd b3 61 64 bd 1e 8c 9e 3c 67 5a 0b bd
       -0.06927994 -0.055757236 0.019353922 -0.03402176
0001f0 6a d7 4f 3d 44 a4 dc ba 1f d9 64 3d 71 58 7c bd
       0.050742544 -0.0016833623 0.055871125 -0.06160778
000200 26 b8 54 be 15 03 e6 bd 51 9f 2c 3d 58 5e 46 bd
       -0.20773372 -0.112310566 0.042144123 -0.048429817
000210 6f 72 1e 3d c4 22 ae bc 71 bb db bd fa ef 9d 3d
       0.03868335 -0.021256812 -0.10729111 0.077117875
000220 56 cd 5e bd 37 3b 70 bd 73 32 ee bd c8 d2 87 bd
       -0.054395042 -0.05865022 -0.11630716 -0.06632
000230 cc aa 19 be 2d 5b b4 3d ec 97 98 bb 7f e3 88 bd
       -0.1500656 0.08806453 -0.0046567824 -0.066840164
000240 38 4c c4 bc 95 d0 6c bd 89 d0 6f bd 7c 98 58 bb
       -0.023962125 -0.057816107 -0.058548484 -0.0033049872
000250 73 9b 85 3d d5 25 b0 bd 54 01 06 be 77 61 82 bc
       0.0652379 -0.08600966 -0.13086444 -0.015915615
000260 54 ee 57 bb a5 05 02 3d c4 4a 8d bd 39 82 af bd
       -0.003294845 0.031743664 -0.06899026 -0.0856976
000270 79 1e a8 3c 2d ce 9e bc 11 b9 09 bd 04 3b 8f bd
       0.020522343 -0.019385422 -0.03362376 -0.06993678
000280 09 5f 96 bd f5 ed c4 bc bf 0b d9 bc 65 2a 67 bc
       -0.07342345 -0.024039248 -0.026494859 -0.014109229
000290 29 82 26 3c bc 4a 2f bd 23 5e f1 bc e3 a2 df bd
       0.010162869 -0.04279588 -0.029463833 -0.1091974
0002a0 27 1b 02 bd 05 f2 b0 3b 59 f7 96 3d 92 3f 50 bd
       -0.031764176 0.0053999447 0.073713966 -0.050841875
0002b0 4e a0 05 3e 38 4c 2e bd 32 3a 27 3c 44 4c 07 3d
       0.13049433 -0.042553157 0.010206746 0.033031717
0002c0 83 8b 24 bc bc 9e 04 3d 0a 05 a5 3c 7c 7e 18 bd
       -0.010043028 0.032377943 0.020144004 -0.03723
0002d0 93 61 b7 bd d3 57 30 bc ca f5 cc 3c 6c 11 cb bd
       -0.08954158 -0.010763126 0.025019545 -0.09915432
0002e0 08 69 0d be 4f 00 aa bd 42 08 07 3d 4a 36 f9 bc
       -0.13809597 -0.0830084 0.03296686 -0.030421395
0002f0 90 fd f0 3c be ff 9a 3d 08 e2 fb bc 1b b3 ac 3b
       0.029417783 0.0756831 -0.030747429 0.0052703745
000300 5f 0d 91 bb d1 65 d1 bd 1a 6b 07 be f1 54 1e be
       -0.004426643 -0.10224498 -0.1322445 -0.1546209
000310 87 6c 5e bd 49 65 e9 bc 83 ed 8b 3a 2d 92 49 bd
       -0.05430272 -0.02849068 0.0010675642 -0.04921167
000320 e2 86 b4 3b 25 4c 21 bd a2 bb b6 bd 10 d7 1c 3d
       0.0055092433 -0.039379258 -0.08922507 0.038291037
000330 39 a9 9b bd ee 25 08 bd 09 28 cb 3b 32 23 1b bc
       -0.07600636 -0.033239298 0.006199841 -0.00946884
000340 b9 23 c4 3b f1 76 45 bc 5a 17 93 bd c9 ed c1 bc
       0.005985704 -0.012052284 -0.07182188 -0.023672955
000350 b5 de 3c bd 96 cc 99 bd c2 66 b6 bd 42 9c 45 bd
       -0.046110827 -0.07509725 -0.08906318 -0.048244722
000360 bb 5a fd bd df 95 45 3d 18 4b d2 3c b8 22 6d bc
       -0.12370821 0.04823863 0.025670573 -0.01447361
000370 47 36 fe 3c f9 39 56 bd 5f 49 a8 3c c0 1e a5 bd
       0.03103174 -0.05230138 0.020542799 -0.08062506
000380 de ac 84 bb 2d 1e 3a bd 60 08 c5 bd 97 cd 83 bd
       -0.0040489277 -0.045438934 -0.09620738 -0.064356975
000390 56 1e 26 be d5 43 bb 3d 93 57 7c bd b6 4e 7d 3d
       -0.1622251 0.09143797 -0.061606955 0.061842643
0003a0 29 46 b8 bc 0b be b4 bc f1 49 ff bd 53 82 ca 3b
       -0.022494392 -0.022063276 -0.12465275 0.0061800866
0003b0 5c 38 0e 3d 0e a0 56 bd 4a 0c 8e 3c 67 98 08 3d
       0.034721717 -0.052398734 0.017339844 0.033348467
0003c0 74 71 17 3d 5e 6f 3a 3d f2 14 b1 bd 47 d3 8a bc
       0.03697343 0.045516364 -0.08646573 -0.016946448
0003d0 e2 39 d6 bd 8d 2d 54 bd d5 35 50 3d 76 bc 66 3d
       -0.10460259 -0.051801253 0.05083259 0.056332074
0003e0 8f bd 8a be 28 19 50 3c 5e f4 7e bd d0 c2 29 be
       -0.27097747 0.01270131 -0.062244765 -0.16578221
0003f0 eb c7 f4 3c b3 1b 1d bd 86 62 76 bd 2a 4d 82 bc
       0.029880485 -0.038356494 -0.060152553 -0.015905935

value.0.bias f4 [128]
000000 97 5e 0c bb 46 23 7d bb 5e b4 c1 bc 64 b0 dc bc
       -0.0021418685 -0.003862576 -0.023645576 -0.026939578
000010 30 bf 81 3e bf db 77 bd 84 2c 57 bc 69 60 13 bd
       0.25341177 -0.0605123 -0.013133172 -0.035980616
000020 78 d7 7a bd d0 cf 68 bd a5 83 d4 bb 30 29 47 bd
       -0.061240643 -0.05683881 -0.00648542 -0.048623264
000030 ce 4b b9 bc d2 89 44 bc c0 a4 2c bd 35 36 82 bc
       -0.022619154 -0.01199575 -0.042149305 -0.015894989
000040 1f 96 16 3d 81 20 82 3e 5f 05 ee bc 77 b9 49 bc
       0.03676426 0.25415424 -0.029055296 -0.012312285
000050 e0 bd 92 bd 07 a5 39 3e d8 f8 c8 3c 76 8e 72 3e
       -0.07165122 0.18129359 0.02453272 0.23687157
000060 7e 4c 3d bd 2e 09 bd bc 31 48 48 bd de 43 31 3e
       -0.046215527 -0.023075666 -0.048896972 0.17311046
000070 22 94 85 3e e4 0c de bc 85 f9 79 3e 0b 5e 36 3e
       0.2608958 -0.027105756 0.2441159 0.17809312
000080 48 14 c7 bc 7a e3 1b 3e 05 6c d9 bc 76 28 80 bd
       -0.024301663 0.15223494 -0.026540766 -0.06257717
000090 13 d6 9a bc 56 11 03 3e 13 3a 8e bd ff e5 8e bd
       -0.018900907 0.12799582 -0.069446705 -0.06977462
0000a0 48 83 8e bd 50 27 37 bd db 24 06 bb 30 03 54 3e
       -0.06958634 -0.044715226 -0.0020468745 0.20704341
0000b0 d3 6f b3 bb 20 db 2b 38 94 41 12 bc 75 46 37 bd
       -0.005475977 4.0973653e-05 -0.008926768 -0.044744927
0000c0 f5 ca 1b 3e a5 5d 77 bd d6 df 8b bd b1 74 4c 3e
       0.1521414 -0.06039204 -0.06829803 0.19966389
0000d0 43 de 5f bc 78 5e 84 3e 0c 76 71 bd 8b e1 54 bb
       -0.013663831 0.25853324 -0.05895047 -0.0032483067
0000e0 74 bb b9 bd a4 91 3d 3e 45 e8 b6 bd b5 6a 71 3e
       -0.09068957 0.18512589 -0.08931021 0.23575862
0000f0 6f 0c a5 bd b3 bb 3e 3c dc 61 7b bd e4 c4 6a 3e
       -0.08059012 0.011641431 -0.061372623 0.2292667
000100 f6 34 90 bd 73 11 2c bd 09 00 ee bc 2d 92 7e bd
       -0.070413515 -0.04200883 -0.029052751 -0.062151123
000110 a9 37 92 bd 6b 48 a4 3c f1 db 04 3e 84 51 d0 3b
       -0.071395226 0.020054063 0.12974526 0.0063573737
000120 0a ef 26 3c 66 8a 50 3c 73 60 85 bd a1 0e 02 3d
       0.010188827 0.012728309 -0.06512537 0.031752232
000130 88 ca 6a 3e ad ca 06 bc cf c0 34 3e 76 06 86 bb
       0.22928822 -0.008227033 0.17651676 -0.0040901257
000140 f2 20 2f bd 6a 86 1d 3e 44 4e 7f bd 18 f7 50 bc
       -0.04275603 0.15383306 -0.0623305 -0.012754224
000150 e0 22 9e 3c f0 8c 7f bd 6c 5d 68 bd 9a 67 a1 bd
       0.01930374 -0.062390268 -0.05672972 -0.078810886
000160 c2 4a d2 3a 33 65 75 3e 9f 44 74 3e db 6d 96 bd
       0.0016044008 0.23964386 0.23854302 -0.07345172
000170 63 a8 4e bd 08 20 79 bd 42 82 9b bc fd 74 1a 3e
       -0.050453555 -0.060821563 -0.01898301 0.1508369
000180 17 68 82 3e 2b 4e 63 bc 15 38 bc 3c 82 40 8c bd
       0.2547004 -0.013873617 0.02297596 -0.068482414
000190 cb cc 52 bc 34 c8 12 3d 1b 5d 7c 3e cc 71 6f 3e
       -0.012866209 0.03583546 0.24644892 0.23383254
0001a0 ab 82 28 3e 36 28 f3 3b 7c 9b b7 3c c3 81 10 3e
       0.16456096 0.007420565 0.022413008 0.14112
0001b0 ac 14 c9 3b 02 35 d0 bd e7 4c 31 3e 1f 76 a1 bd
       0.0061364975 -0.101663604 0.17314492 -0.07883858
0001c0 ef 2d b4 3c cc 26 82 3b 7c d5 d3 bc 4d a4 dc 3d
       0.02199456 0.00397191 -0.025858633 0.107735254
0001d0 ee 1d e3 bc 40 54 86 3e 25 a2 2f bd cd c5 64 3e
       -0.027724233 0.26236153 -0.042879242 0.2234108
0001e0 5b f1 65 3c ed 7c 78 3e 05 44 9e bc 39 32 bc bd
       0.014034594 0.24266405 -0.019319544 -0.09189267
0001f0 05 17 c3 bd 83 78 5f bd 09 25 ef bb 5b 2f 81 bb
       -0.09525875 -0.05455829 -0.007298116 -0.003942413

value.2.weight f4 [1, 128]
000000 43 d7 36 39 32 6c 6d 3d ec 4a e9 be 9b f3 02 bd
       0.00017437064 0.05796451 -0.45564973 -0.0319706
000010 0f 5e 28 3e 17 56 ba bd 0b cf 0b 3c 8c e0 f4 39
       0.1644213 -0.090984516 0.00853325 0.00046706607
000020 da 5f 89 3d ab 5b 04 bf f6 30 f0 be 04 01 e9 be
       0.06707735 -0.51702374 -0.46912354 -0.45508587
000030 6f b7 22 bd 3f a5 08 bd 9b c7 c3 bd d3 e2 dd 3c
       -0.039725717 -0.033360716 -0.09559556 0.027085697
000040 72 98 5c 3d 08 20 c3 3d f1 ae 10 bf c1 64 8b bd
       0.05385632 0.09527594 -0.5651694 -0.06806327
000050 f4 34 02 be 66 de ed 3d 96 9a b7 bc 72 eb 86 3d
       -0.12715513 0.11614685 -0.02241258 0.065878764
000060 e0 a5 02 bf dc b0 d3 be 66 7a c5 bc 83 47 df 3d
       -0.51034355 -0.4134587 -0.024106216 0.10902312
000070 b3 23 ed 3d c6 62 0d bf e8 1e 16 3e 89 82 b2 3d
       0.11579075 -0.5522884 0.14660227 0.08716304
000080 24 31 fa be 5b 88 f5 3d e4 c5 82 bc 3a 45 bc bc
       -0.48865616 0.11988898 -0.015963502 -0.022982229
000090 3b cd 05 bf 69 1e f0 3c 6c 30 d0 be 04 5c f4 be
       -0.5226628 0.029311376 -0.40661943 -0.47726452
0000a0 da ff 03 bf 49 3c 8d 3d f8 c9 72 3d 74 5b 06 3e
       -0.51562274 0.06896264 0.059274644 0.13120824
0000b0 2c 9b 28 3d 94 10 af be 30 04 03 bf e5 9e d5 be
       0.04116361 -0.34192336 -0.51178265 -0.4172279
0000c0 99 69 bc 3d 1c d6 06 bf 6b 51 f3 bd 51 79 97 3d
       0.09199829 -0.52670455 -0.118807636 0.07396186
0000d0 9f 78 76 bd f4 5e 13 3e 05 e9 af bd 54 c4 88 38
       -0.060173627 0.1439169 -0.08589367 6.521554e-05
0000e0 8a 33 d3 be 3b 3a 95 3d 38 b0 d7 be 46 0b 16 3e
       -0.4125026 0.07286497 -0.42126632 0.14652738
0000f0 41 2e 88 be b0 a9 56 be f0 dd bf be 74 a5 d2 3d
       -0.2659779 -0.20963168 -0.37474012 0.10285464
000100 21 3e 13 bf 06 4e fe bc 7d cf 03 bf 1d af b4 be
       -0.57516676 -0.031043064 -0.51488477 -0.3528985
000110 74 d0 03 bf 40 99 8a bc 68 37 9b 3d 21 24 ae be
       -0.5148995 -0.016918778 0.07578927 -0.3401194
000120 80 35 1f bd de 83 85 3d 03 83 a6 bd f8 2a a2 bb
       -0.03886938 0.06519292 -0.08130457 -0.00494897
000130 82 8c b0 3d fa 69 04 bf ec e3 f7 3d 25 75 79 bd
       0.0862055 -0.5172421 0.121040195 -0.060902733
000140 9b 72 33 be 40 f1 e7 3d 81 ee 51 3d 47 a2 00 3e
       -0.17524187 0.11325312 0.051252846 0.12561904
000150 09 fd 8a bd 90 48 ce bd 1e ac 90 3d b5 0b de be
       -0.06786544 -0.10072434 0.07064079 -0.43368307
000160 d5 c7 b3 be 8d e5 1b 3e 68 91 a4 3d 18 2a e1 be
       -0.35113397 0.15224285 0.080355465 -0.43977427
000170 94 15 e8 be 73 dc df 3c f1 06 bc be f3 56 75 3d
       -0.45328963 0.027326798 -0.36724046 0.059897374
000180 85 95 06 3e 2c 40 61 3d ed ab 98 bc 66 8d 92 3d
       0.13142975 0.05499284 -0.018636668 0.07155876
000190 a8 e7 ad be 39 a8 f0 b9 e9 72 e4 3d cf 88 d1 3d
       -0.33965802 -0.00045901703 0.1115473 0.10231172
0001a0 33 6a 0f 3e 48 75 77 bd 34 77 88 3d ca f5 bd 3d
       0.14005356 -0.060414582 0.06663361 0.09275396
0001b0 dc 0e a4 3b 7d 69 dc be 0a 06 80 3d 4b 59 bd bd
       0.005006654 -0.4304923 0.06251152 -0.09245547
0001c0 1e 19 70 bd 97 98 ea be 50 2f 19 be 06 c3 cf 3d
       -0.058617704 -0.45819542 -0.14959455 0.1014462
0001d0 d2 d5 15 bd 99 c7 09 3e f9 65 93 bd 54 83 a9 3d
       -0.036580868 0.13455047 -0.07197184 0.08277002
0001e0 7a 11 30 3a 58 eb 1d 3e 29 69 0b bf 9b ed 07 bf
       0.00067164714 0.15421808 -0.54457337 -0.5309693
0001f0 5d 2f ad be cf 25 03 bf c8 1b ff be 51 00 8c bd
       -0.33825198 -0.51229566 -0.49825883 -0.06835998

advantage.0.weight f4 [128, 256]
000000 23 c8 03 3d f2 2a 9d bc 63 62 a6 3d 8b e1 fa bc
       0.032173287 -0.019185517 0.081242345 -0.030625125
000010 61 dd a0 3b 86 55 36 be 3f 47 de bd de fb 2b 3c
       0.004909203 -0.17806062 -0.10853433 0.010497062
000020 88 ae b9 bc 07 82 a2 bd bb 3d 8e bc 0f 6d d8 3d
       -0.02266623 -0.07934957 -0.01736342 0.10567676
000030 af d3 7f bc be ea 08 3d 9f b4 ec bc 93 95 ae bc
       -0.015614434 0.033426993 -0.02889472 -0.021311557
000040 bd df ad bd 69 0d c8 bc f0 73 c7 3c 3f 2f 55 3d
       -0.0848994 -0.024420457 0.024347275 0.05204701
000050 76 1b fd 3d 99 a9 88 3d a6 9e c0 bd 60 f5 3f bc
       0.123587534 0.06672973 -0.0940526 -0.011716217
000060 ab d3 87 bd d2 5a ad 3d d6 8b da bb 2b 42 f0 3c
       -0.06632169 0.08464588 -0.006669502 0.029328426
000070 20 27 d4 bd 03 a4 b7 bd d2 a7 13 be 82 ec 0a be
       -0.10359025 -0.0896683 -0.14419487 -0.13566783
000080 11 a3 0c bd e3 20 a5 bd 64 94 8e bc 2b 12 67 bd
       -0.0343352 -0.08062913 -0.017404743 -0.05641381
000090 d4 10 2e be 8c 59 c7 3d 94 2f 1d bd 60 8e de bc
       -0.16998607 0.097338766 -0.038375452 -0.027167499
0000a0 08 10 eb 3c f9 7d 7e 3d a8 24 8b 3d a3 8a b7 3d
       0.028694168 0.062131856 0.06794101 0.0896199
0000b0 2c 28 8d bb 56 27 0b 3e 0e a5 af 3d 30 76 d5 bd
       -0.0043077674 0.13589224 0.085764036 -0.10422933
0000c0 87 38 fb 3d f4 36 58 3c 42 c5 89 3d b1 b5 7f 3d
       0.12266641 0.013196696 0.06727077 0.062429134
0000d0 85 41 55 3d 01 66 6f 3d 4b 2a 15 bd d1 40 ac 3b
       0.052064437 0.058446888 -0.036417287 0.00525675
0000e0 57 09 52 bd af a5 cc bd 79 52 7e bd da ee 1f 3d
       -0.05127844 -0.09992539 -0.06209037 0.039046146
0000f0 08 1e ac bd f4 56 9f 3d ab db a2 bd a2 3e 1d 3c
       -0.084041655 0.07780257 -0.079520546 0.009597452
000100 99 70 65 3c 9b ee 03 3e 53 d3 83 bd 79 2e 0d be
       0.014003896 0.1288399 -0.06436791 -0.13787259
000110 5e 46 d8 bd 12 07 c9 3b a4 34 6c bd d6 d1 34 bd
       -0.105602965 0.006134876 -0.05766739 -0.044145428
000120 fd 96 c0 3c 43 11 ea bc 44 e0 bc 3c 9a cc 8e 3d
       0.023509497 -0.028572684 0.023056157 0.069726184
000130 d5 08 c0 3d 29 7e a7 3c a9 de 21 be c0 70 a9 bd
       0.093766846 0.0204459 -0.15807594 -0.082734585
000140 a1 50 9c 3d 0c 51 a6 3c 82 d0 c3 3d e1 26 86 3d
       0.07632566 0.020302318 0.09561254 0.06550384
000150 01 d9 39 3c 34 74 89 3c 25 7c be 3c 69 fd 3f 3d
       0.011343242 0.016779043 0.023252556 0.04687253
000160 10 9d 40 3d b5 88 3d 3d 5b 8a 09 3c 68 d1 eb bd
       0.047024786 0.046272952 0.008394803 -0.115145504
000170 ee f1 97 bc bc 5d f8 bc 8c 66 ed bc d4 16 d1 bc
       -0.018547978 -0.030318134 -0.028979562 -0.02552358
000180 d0 f8 1d 3e 33 47 a8 bd 4c bc 26 3d 43 ff 0a 3d
       0.15426946 -0.08216705 0.040706918 0.033934843
000190 c8 5f 44 bd 20 95 b2 bd 7b 9b 0d be f9 97 de 3d
       -0.047942907 -0.087198496 -0.13828842 0.1086883
0001a0 78 20 fa 3c af 1b 0a be fe 63 b9 3d ee 1a 18 3c
       0.03053306 -0.13487123 0.09052275 0.009283764
0001b0 9d eb 73 bd e8 d3 22 be 75 d9 37 bd 6a aa 05 3e
       -0.05955087 -0.15901148 -0.044885118 0.13053289
0001c0 f1 22 ce bc 34 a4 19 3d 2f a2 9f 3d 91 35 f1 3d
       -0.025163146 0.037510112 0.07794606 0.11777795
0001d0 d4 33 0f be 4e e9 41 bd b6 86 21 3d 2e 82 0e be
       -0.13984615 -0.047341637 0.03943511 -0.13916847
0001e0 bb 36 75 bd e5 79 14 3e 13 97 7c bc 82 05 80 3d
       -0.05986665 0.14499624 -0.015416878 0.062510505
0001f0 43 d0 9f bb 80 81 11 3d d1 1d 7d bd 03 b8 9a 3d
       -0.0048771217 0.03552389 -0.061796013 0.07554629
000200 ed dd 4e be fa 85 28 bd 70 4e 7f bd bb 6b 25 3d
       -0.20201845 -0.041143395 -0.062330663 0.040385943
000210 cc a3 7c bd e8 33 bb 3c ff 4d 54 bd b9 8f d3 bb
       -0.061679646 0.0228519 -0.051832195 -0.006456342
000220 57 57 b8 3c d5 2b de bc 75 bf 54 3c ca f1 46 bd
       0.022502584 -0.02712051 0.0129851 -0.04857043
000230 2d a5 93 ba 5b e2 95 bd d1 79 f6 3d f3 26 a5 3d
       -0.0011264436 -0.073185645 0.120349534 0.080640696
000240 0d be 1b be e5 88 8f bd 2b b3 b5 bd 9f 80 50 bd
       -0.15209217 -0.070085324 -0.08872064 -0.050903913
000250 4e 2d 45 3e 3d f2 4e 3e b1 97 b0 bd 90 4b b5 bd
       0.19255564 0.20209594 -0.08622683 -0.08852303
000260 1d e9 23 3d a6 f2 1c 3d 16 2c 2e bd a1 f8 fe bc
       0.040017236 0.038317345 -0.042522512 -0.031124415
000270 99 d5 73 3c fa 4a e8 3d 45 25 0e bd fd 0c 99 3d
       0.014882469 0.11342426 -0.03470351 0.074731804
000280 4f fe 20 be 4c 2c da 3c d2 e0 58 3c 2d e6 e7 3c
       -0.15722011 0.02663245 0.013237195 0.028307999
000290 f1 a1 2a bd 4d bf 89 3d a1 2a 56 bd cb 21 58 bd
       -0.041658346 0.06725941 -0.052286748 -0.052766602
0002a0 16 d0 8c bd e5 f8 bd bc 7c e0 df bc 83 88 a5 bd
       -0.06875627 -0.023189971 -0.027328722 -0.08082678
0002b0 c1 04 dd bc 65 65 bb 3d 4e 8b 2c 3c 07 62 2b bd
       -0.026979806 0.09150199 0.01053126 -0.041841533
0002c0 a8 ea c3 bd 84 ea b6 bb ec b3 0d 3d 98 f8 7b bd
       -0.095662415 -0.0055821557 0.034595415 -0.061516374
0002d0 52 e5 52 bd d0 f0 69 bd e5 1b 30 be 1c e8 9a 3c
       -0.05148823 -0.057114422 -0.17198141 0.018909506
0002e0 41 fe 43 3e 5c 4c b4 bc e8 5c 31 bd 49 2c fa 3c
       0.19139959 -0.022009067 -0.043301493 0.030538695
0002f0 cb 5f 5e 3d 77 07 ca bb f2 0d 40 bc 33 ef bd 3d
       0.054290574 -0.0061654407 -0.011722075 0.09274139
000300 da ec c6 bd a8 06 d1 3b ae 87 b2 3d dd 3a 69 bd
       -0.097131446 0.0063789673 0.08717285 -0.056940902
000310 ca fe 0e bd 11 b9 f7 bd 50 dd e3 3d 36 e5 d5 3d
       -0.034910955 -0.120958455 0.111261964 0.10444109
000320 90 67 0c bd ac 64 33 3d 3a ed 05 bd a7 50 09 be
       -0.034278452 0.04379718 -0.03269694 -0.13409673
000330 eb 76 be bd 83 12 84 bd 2d 7f a6 bd 42 ae cc bc
       -0.093000256 -0.06448843 -0.081297256 -0.024985436
000340 c1 36 b1 bd 27 e3 b3 3d 3c 68 c3 3d d9 9e fb bc
       -0.086530216 0.0878356 0.095413655 -0.030715393
000350 35 14 84 bb c4 d1 ff 3c bb a8 96 3c 6b 54 23 bc
       -0.004030729 0.031227954 0.018391004 -0.009968857
000360 fd 08 8d bd 1f db e3 3c 11 77 07 be 0e c5 cd bd
       -0.0688648 0.027814446 -0.13229014 -0.10047351
000370 88 65 58 bd d9 00 d0 bc b7 5e 89 bd 4d 6a 04 be
       -0.052831203 -0.02539103 -0.067075185 -0.12931176
000380 33 5f c5 3c bf 1e 01 bd a1 01 0b 3e 30 cb 60 3d
       0.024093246 -0.031523462 0.1357484 0.054881275
000390 2e fa 57 bc 63 3d b2 3d bd e1 c3 bc eb a9 0c 3e
       -0.013182206 0.08703115 -0.023911351 0.13736694
0003a0 d4 78 29 bd 8b 1c d3 bd 95 ae 4a bd 6a 24 69 bd
       -0.041374996 -0.103081785 -0.0494829 -0.056919493
0003b0 c5 58 ea 3c 14 3d af bc c1 22 18 be 43 e0 7d bc
       0.028606782 -0.021391429 -0.14857008 -0.015495363
0003c0 28 ee 2f be a2 bd 06 be 56 a1 d6 3c b4 67 f9 bd
       -0.17180693 -0.13158277 0.026199978 -0.12177983
0003d0 d9 7f 60 3c c7 fd 5a 3d 8c 56 d7 bd 89 da 74 bc
       0.013702356 0.053464677 -0.105145544 -0.014944681
0003e0 05 eb 20 3d 34 3a 81 3d c0 ab ac bd 97 5a 4b be
       0.039286632 0.063099295 -0.08431196 -0.19858776
0003f0 84 6d d4 bd 4c 38 31 3d 40 f2 a0 3d 99 b9 39 bc
       -0.10372451 0.04326658 0.078587055 -0.011335754

advantage.0.bias f4 [128]
000000 03 0c ab bc 44 d2 36 bd c4 7b 14 bc 39 79 1d bc
       -0.020879751 -0.04463412 -0.009062711 -0.009611421
000010 1f 09 85 3d 74 26 07 bc bf b2 47 bd 59 a0 c8 3c
       0.0649588 -0.008248914 -0.04875445 0.024490522
000020 d6 14 0c bd d8 28 8b bc 84 12 8c bd cd 64 01 3d
       -0.03419956 -0.01698725 -0.06839469 0.03159027
000030 19 f2 a1 bb 69 95 2e bd 4b d6 3c bd 5e ff 0d 3c
       -0.0049421904 -0.042622957 -0.046102803 0.008666841
000040 2a 4c 42 bd 70 60 e8 bc 9b 41 12 bd 51 b8 ad 3c
       -0.047435917 -0.028366297 -0.035707098 0.021206053
000050 02 a6 3c bc 77 e3 f2 bb d5 a3 26 3d d2 d7 f2 3c
       -0.011514189 -0.00741237 0.040683586 0.029643927
000060 5f 07 c7 bc 38 40 f8 bc 4d 08 ff bc 50 f7 b7 3c
       -0.024295507 -0.03030406 -0.031131888 0.022456795
000070 cf fb 3f 3d 9b 50 3b bd 13 0a af 3b d5 a6 b2 3c
       0.046871003 -0.04573117 0.005341777 0.021808067
000080 28 54 3d bd c7 0a b5 3d 2e 3e 0a 3d 5f 4e a4 bd
       -0.046222836 0.08839946 0.033750705 -0.080227606
000090 40 33 86 bb 2e 77 42 3d b3 63 c1 3d eb b7 17 3c
       -0.004095465 0.04747694 0.09442844 0.009260158
0000a0 43 54 9c 3c 06 de 82 3b 05 b3 9b bd cd 79 d5 bc
       0.019083148 0.0039937524 -0.07602505 -0.026059056
0000b0 55 4b 25 bd 8c 05 88 3d 94 1e 00 bd 27 78 16 3d
       -0.040355045 0.06641683 -0.03127916 0.03673568
0000c0 07 7c 7c 3d bc 08 16 3b 21 f5 bc 3c c2 76 bd bd
       0.06164172 0.002289339 0.023066105 -0.09251167
0000d0 33 76 ab bd 4d 1e 9e 3d 5d 73 f1 bc a0 d3 fb 3b
       -0.08372154 0.07720623 -0.029473955 0.00768514
0000e0 68 94 33 3c 38 0b ad 3c 9d 44 9b bc a3 3c b8 bd
       0.010960676 0.021123514 -0.018953616 -0.089959405
0000f0 c9 6d 8c bc 0a 8e cb bc 7e 91 eb b9 66 f9 86 bd
       -0.017142193 -0.024848003 -0.00044931093 -0.06590538
000100 1a 8f 20 bc d4 f3 8c 3c 13 d3 7b b8 28 98 0f 3c
       -0.009799743 0.01720611 -6.003964e-05 0.008764304
000110 60 5e a8 ba 86 ae 5b 3b a6 4b c8 3c 03 79 d0 bd
       -0.0012845509 0.0033520772 0.024450134 -0.10179331
000120 6a d4 13 3d 58 df 6c 3c 15 6a 5e bd 03 f0 41 bd
       0.036091246 0.014457546 -0.054300386 -0.047348034
000130 42 57 03 bd 0e cd 80 bd a2 30 99 bd 79 a7 9f 3c
       -0.032065637 -0.06289111 -0.07479979 0.019489037
000140 fd 57 8a bd cc b0 e0 bc be b8 b0 3d f3 e6 ca bc
       -0.06755064 -0.027428053 0.08628987 -0.024768328
000150 dc 6a bf bd 57 5c 6d bd 7f 4c aa 3d af c8 b6 bc
       -0.09346554 -0.05794939 0.08315372 -0.02231249
000160 e4 f4 d8 39 b6 10 ed 39 35 9a 81 3c 38 06 ab bd
       0.00041381188 0.00045216613 0.015820602 -0.083507955
000170 d9 f5 b8 3c 4f 87 3e bd 80 16 08 ba 99 8a 04 bc
       0.022578167 -0.04651576 -0.0005191341 -0.008089685
000180 c3 45 79 3c 28 cc 18 3c 0f 0f 8b bd f5 fa d3 bb
       0.015214386 0.009326018 -0.067899816 -0.0064691254
000190 d8 e5 6b bc 1d 6a b1 bd 06 87 53 3d 64 ba 7b bc
       -0.014398061 -0.086628176 0.05164244 -0.015364263
0001a0 5e fa cc bc fe 8b 82 bd 26 61 18 bd df 7d 49 3d
       -0.025021728 -0.06374358 -0.037202023 0.049192306
0001b0 2b 80 be bd 87 24 e4 3a a0 8c 96 bc da ba 28 bd
       -0.0930179 0.0017405906 -0.018377602 -0.04119382
0001c0 ed 64 43 3c fe 23 11 bd c5 47 be bd ef 86 8b bd
       0.011925918 -0.035434715 -0.09291033 -0.06812846
0001d0 3c b9 14 3d 7c 27 5c 3c fd d4 66 bd 7a 0f c5 bc
       0.036309466 0.013437148 -0.056355465 -0.024055231
0001e0 d9 d7 12 3d 47 93 1b bb 7a 0e e5 bc 7d 50 5e bd
       0.03585038 -0.0023738907 -0.027961005 -0.05427598
0001f0 c8 1f 43 3d b5 ef c8 3c 35 5d 54 bc 5d 68 af 3c
       0.04763773 0.024528364 -0.012961675 0.021412069

advantage.2.weight f4 [3, 128]
000000 84 f0 2c bd 55 fd 87 3d ea 19 a7 bc e6 05 8d 3c
       -0.04222156 0.06640116 -0.020398099 0.017214727
000010 3b 62 55 bd 39 54 d0 3c 89 1c ac 3d 9e 08 de 3c
       -0.052095633 0.025430785 0.0840388 0.027103718
000020 29 64 a4 bc da 5e 0f bc 8f 07 6a 3c 5e f2 98 bd
       -0.020067291 -0.008750642 0.014284029 -0.07468103
000030 a2 17 1f be 89 2f 04 3d 4d 08 35 3d de d9 a4 bd
       -0.15536359 0.032271896 0.04419737 -0.08049367
000040 2e af 27 bc 3b be b1 bb 13 71 80 bd 3d c4 33 3d
       -0.010234637 -0.0054242886 -0.06271567 0.04388832
000050 88 f6 0d 3d 11 b1 83 3d 55 84 80 3d 7a 0b 8a 3c
       0.03465894 0.06430257 0.0627524 0.016851176
000060 1f f0 6b bd dc 83 2f 3c 9a 31 c2 bc a4 75 4c bd
       -0.057602044 0.01071259 -0.023705292 -0.04991688
000070 5b 7f 81 bc a5 79 ce bd 01 4f 2b 3c 97 6c 1e 3d
       -0.015807798 -0.100817956 0.010455848 0.038677778
000080 0f 51 95 3d 98 1c ca 3d 66 be aa 3d ce 0f d4 3c
       0.07290851 0.09868735 0.08337097 0.025886443
000090 42 cf 2a bb 17 ff 15 bb cd c0 85 3d d6 4a a1 3d
       -0.0026063477 -0.002288764 0.065309145 0.07875602
0000a0 7d 0e 94 bc 0b 84 71 bd 9f 94 bf 3b a0 b3 89 3c
       -0.018073315 -0.058963817 0.0058465744 0.016809285
0000b0 88 02 d5 3c 87 ad 2d bd 6e c7 3a bd 2e 9e a4 3d
       0.026002184 -0.042401817 -0.045600347 0.08037983
0000c0 ba b8 4d 3d 26 82 cb bb 95 ca 69 3d 6f 56 ba 3d
       0.050224997 -0.0062105833 0.057077963 0.09098517
0000d0 e5 3d 41 bd 71 21 4c 3b db 60 43 3d e3 6d a3 bb
       -0.047178168 0.0031147862 0.04769979 -0.0049874648
0000e0 40 0c 0f be 06 ad 54 bd fa 19 58 3d 65 0f 25 3d
       -0.13969517 -0.05192282 0.05275915 0.040297884
0000f0 4f ea e5 bd 1e c1 85 bc 75 56 1c bc 90 1f 82 3d
       -0.112263314 -0.016327437 -0.009542097 0.06353676
000100 14 b9 c6 bb d4 a7 ea 3c a5 34 16 bb 7d c9 20 be
       -0.0060645435 0.02864448 -0.0022919562 -0.15701862
000110 13 24 b3 bc e1 96 0a 3d 5f fd 92 bb ab e2 b1 bd
       -0.021867787 0.033835296 -0.0044857706 -0.086858116
000120 44 50 71 3d ff f9 8f bd 97 3b 83 3c 88 9e c6 3b
       0.058914438 -0.07030105 0.016019626 0.006061379
000130 12 5f 41 3d d6 e1 42 bd 31 35 f5 bc 08 62 d7 3c
       0.047209807 -0.047578655 -0.02993259 0.026291862
000140 60 52 89 3c 47 a3 96 3d a0 40 22 3d cf 8d fb bc
       0.016762912 0.073553614 0.039612412 -0.030707268
000150 f1 f6 c0 bc 3c 39 01 3b d5 9c 02 3c 78 1f 66 3d
       -0.02355525 0.0019717952 0.007971962 0.056182355
000160 d3 9a f8 bd bf 7d 0c 3d 2c 63 2b 3d 3c 70 58 bd
       -0.121389054 0.03429961 0.041842625 -0.05284141
000170 ec ae 03 bd 1d 67 e4 3b 8c 07 13 3d 8f f0 3c bb
       -0.03214924 0.0069703 0.03589587 -0.0028829908
000180 2b e4 43 3d 64 59 e7 3c 7e 24 c4 bd 64 f5 42 ba
       0.04782502 0.028240867 -0.09577273 -0.0007437079
000190 8c 1e f3 bc dd 08 e1 3b 01 8d 6a 3c 06 82 4d bd
       -0.029677652 0.0068675117 0.0143158445 -0.05017283
0001a0 7a f2 3f 3d 24 3a 0c 3d 23 e0 90 3d e8 7b 79 bd
       0.046862103 0.034235135 0.07074001 -0.06090918
0001b0 8a 9d dd 3b f3 27 86 3d ef e6 f3 3c 5b 56 5d 3b
       0.006763165 0.065505885 0.029773204 0.0033773396
0001c0 1c 43 7b 3d 81 8f 35 bd 32 8d af bb a9 01 97 3d
       0.061343297 -0.04432631 -0.005357408 0.073733635
0001d0 ce ec f4 bd a3 fd 26 3d 5c 68 4e 3d ba 17 07 be
       -0.119592294 0.04076923 0.050392494 -0.13192645
0001e0 db db 04 bd 62 bb f2 3d 8f 82 b4 3d b5 d8 cc 3c
       -0.032436233 0.11852147 0.088139646 0.025005678
0001f0 59 66 64 3b 96 12 81 bd 10 74 83 bc e9 d8 3d bd
       0.0034851043 -0.06302373 -0.016046554 -0.04634944
000200 3b db 1b 3c 0e 54 93 3d 66 f7 93 bd c7 90 13 3d
       0.009512718 0.071937665 -0.07224922 0.036026742
000210 2d db e3 3d 96 e3 f6 bb ce 3c 86 3d 3a 4b 88 3c
       0.11125789 -0.0075344546 0.06554566 0.016637433
000220 59 45 38 bc 64 f8 28 3e e2 53 30 bd da 44 99 3c
       -0.0112470025 0.16501004 -0.043048747 0.018709589
000230 3d ad f7 3d e1 12 60 3e 92 0a af bd 03 1a a4 3c
       0.120935895 0.21882202 -0.08546938 0.020031935
000240 96 55 2f 3d 91 78 8d b9 bc 3a 99 bd 92 a8 f0 3c
       0.04280623 -0.00026983445 -0.07481906 0.029377256
000250 c2 0d c4 3d 37 8f 32 3d 62 53 2f 3d fd ac 5e bd
       0.095729366 0.04359361 0.04280413 -0.054364193
000260 ee 28 73 bd 84 a7 64 bd a6 8d 85 3c cd a3 96 bd
       -0.059365205 -0.055823818 0.016302895 -0.07355461
000270 9e 15 a0 bc d2 e4 ae bd 65 64 16 3d ff 31 b9 bc
       -0.019541558 -0.08539738 0.036716837 -0.022606848
000280 39 b1 5d 3d a5 b1 1c 3d b4 20 4f 3d 04 6c 15 3d
       0.05412409 0.038255353 0.050568298 0.036479965
000290 e8 11 87 3d be 46 12 bd b8 d5 a3 bd 86 97 c4 3b
       0.06595212 -0.035711996 -0.07999748 0.0059995083
0002a0 aa 17 e9 bd fd ea 2e be 65 49 20 bd 46 cc c2 3d
       -0.11381467 -0.17081828 -0.039132494 0.09511618
0002b0 ca fb 09 3d 6a 98 d8 bd 70 db 0b 3e 74 aa 04 3e
       0.03368739 -0.10575946 0.13657928 0.12955648
0002c0 14 d7 be bd 17 17 de bd 9d f8 5b bd 1e 6d 5f 3d
       -0.09318367 -0.10844248 -0.053703893 0.05454742
0002d0 59 64 b0 3d 5c 3c c9 bd 31 90 9d bd 41 84 1d 3d
       0.0861289 -0.09825966 -0.07693518 0.038456205
0002e0 d5 91 aa 3d 87 e0 8d 3d fb 51 2c bd c3 bd 04 3d
       0.083285965 0.06927591 -0.04207037 0.032407533
0002f0 50 d2 d3 39 55 4e 89 bd 8c 8a 56 bc 22 de 90 3d
       0.0004040175 -0.06704394 -0.013094556 0.070736185
000300 8f 99 a4 bc 0c 27 2d bd a3 98 a5 bd dc 8f 0f 3d
       -0.020092754 -0.042273566 -0.08085754 0.035049304
000310 04 35 a3 bd a6 fe cd bc dd 0d 86 3c 89 91 64 3d
       -0.07969096 -0.02514584 0.016364032 0.055802856
000320 e8 6b 64 bc f8 22 96 3d 53 46 81 3d f8 1c 05 3c
       -0.0139417425 0.073308885 0.063122414 0.0081245825
000330 cb 51 39 3d d0 e4 d4 bd 2d 37 33 3d 97 e4 76 3d
       0.04524402 -0.10395205 0.04375379 0.060276594
000340 a8 4f 52 bd 90 d6 73 3d e1 e4 21 be 82 c6 f4 3c
       -0.051345497 0.059530795 -0.15809967 0.029879812
000350 34 13 9b bc 9f 6b 81 bb 9c df 5c bd d0 65 ca bd
       -0.018930055 -0.003949597 -0.053924188 -0.098827004
000360 ad 52 81 3d e2 a7 3a bd 9e 25 30 3d 03 fe 48 3d
       0.06314597 -0.04557026 0.043004625 0.04907037
000370 7e 12 55 3d ea 7e 40 bd df c0 94 bd 3a b0 f8 bc
       0.05201959 -0.046996035 -0.0726335 -0.030357469
000380 f1 74 7d 3c db 0e b0 bc ff e7 92 3c 13 b4 d4 3c
       0.015469776 -0.021491459 0.01793289 0.025964772
000390 38 ce 44 bd c6 48 79 bc a9 cf a6 3d cd 6b e5 bd
       -0.048048228 -0.015215104 0.08145077 -0.11202202
0003a0 08 8f 20 3e 09 49 d1 3d 1f 48 dd 3d 3e ee 71 bc
       0.15679562 0.102190085 0.10804772 -0.014766274
0003b0 41 18 d3 3c 3b 3e 71 3c 2e 09 86 3d 7c 0d f6 bc
       0.025768401 0.01472431 0.0654472 -0.030035727
0003c0 f9 cd 7b 3d e2 55 a2 3d 34 23 19 3d bc b5 82 bd
       0.061475728 0.07926537 0.037387088 -0.06382319
0003d0 ca fd 71 3d d5 06 7a bd 7c b6 4c bd 76 a7 ec 39
       0.059079923 -0.06104167 -0.04997872 0.00045138196
0003e0 44 54 7e bc d2 fe a1 bc cd 6b 87 3d 46 da 36 3d
       -0.01552302 -0.019774828 0.06612358 0.044641756
0003f0 71 52 b8 bc 96 de a9 3d b8 68 5f 3a d9 f6 0f be
       -0.022500249 0.08294408 0.0008522379 -0.14059009

advantage.2.bias f4 [3]
000000 01 76 d6 3d 64 7c bc bd 58 81 c8 bd
       0.10471726 -0.09203413 -0.09790295
