model/DuelDQN/checkpoint_100.pth (torch, 287029 bytes, 9 tensors)

feature.0.weight f4 [256, 16]
0	0x3ca27aed	0.019834006
1	0x3d697de6	0.05700483
2	0x3e06db3b	0.13169567
3	0x3dab04bd	0.08350513
4	0xbe2ac575	-0.16676886
5	0xbe36fff2	-0.17871073
6	0x3e5cefa6	0.21575794
7	0xbdd59700	-0.104291916
8	0xbdd34874	-0.10316554
9	0x3e608a6c	0.21927804
10	0x3c322d7b	0.010875101
11	0x3e005911	0.12533976
12	0xbe0939ad	-0.13400908
13	0x3d76b103	0.060227405
14	0x3e853b95	0.2602202
15	0xbde96f12	-0.11398138
16	0x3e8d67eb	0.27618346
17	0xbe55ca67	-0.20877992
18	0x3b40f1fe	0.0029441114
19	0x3e503689	0.20333304
20	0xbe710d29	-0.23540176
21	0xbe5bea7f	-0.21476172
22	0x3e411baf	0.18858217
23	0xbd5fb391	-0.054614607
24	0x3e65aa1f	0.22428177
25	0xbc452ee9	-0.01203511
26	0xbe6eaffb	-0.23309319
27	0xbdae850b	-0.0852147
28	0x3e599bbd	0.21250816
29	0xbc2eb7f7	-0.010663978
30	0xbd8d7f50	-0.069090486
31	0xbcc1d201	-0.023659708
32	0x3e0653dc	0.13117927
33	0xbd9ba8e2	-0.07600571
34	0xbe65def5	-0.22448333
35	0x3cacd2c1	0.021096589
36	0xbe65e758	-0.22451532
37	0x3e6eefba	0.23333636
38	0x3d932a23	0.07185771
39	0xbd78f5cf	-0.060781296
40	0x3e1eb0a5	0.15497072
41	0xbd5709b8	-0.052499503
42	0x3d41c3c9	0.047305856
43	0x3e3579d2	0.17722252
44	0x3c1a4bb3	0.009417462
45	0xbdd982f6	-0.10620682
46	0xbd92ddec	-0.071712345
47	0xbd927fa4	-0.07153252
48	0x3c5b6837	0.013391546
49	0xbd6c8fc0	-0.05775428
50	0x3d947400	0.07248688
51	0x3e71324d	0.23554344
52	0x3e21453f	0.15749072
53	0x3e4b8e88	0.1987859
54	0x3e0f2a99	0.13981093
55	0xbca5571e	-0.020183142
56	0x3d556914	0.052102163
57	0x3d696d35	0.056988914
58	0xbe5ef8e0	-0.21774626
59	0x3e01de7b	0.12682526
60	0xbd32d507	-0.04366019
61	0xbdfd516c	-0.123690456
62	0x3c15ff72	0.009155141
63	0xbd6a0bce	-0.057140164
64	0x3e849544	0.2589513
65	0x3e21b001	0.15789796
66	0xbe629286	-0.22126207
67	0x3e323194	0.17401725
68	0xbc9daee0	-0.019248426
69	0xbe06bbc9	-0.13157572
70	0xbe5d5f59	-0.21618403
71	0xbcb26bd8	-0.02177994
72	0x3d7067f5	0.05869289
73	0x3e4cb57b	0.19991104
74	0xbe814f39	-0.25255755
75	0x3d95a029	0.07305939
76	0x3e1dfe12	0.15428951
77	0x3e30123f	0.1719446
78	0xbe3748ce	-0.17898867
79	0x3ce1be94	0.027556695
80	0xbd7e09d0	-0.062021077
81	0xbe362f9a	-0.17791596
82	0x3e60ba3f	0.21946047
83	0xbe1a2242	-0.15052131
84	0xbd2ba494	-0.041905
85	0xbd27fc63	-0.04101218
86	0x3da13ead	0.078732826
87	0xbe30c291	-0.17261721
88	0x3e6454db	0.22297995
89	0xbb90dcb9	-0.0044208434
90	0xbd9b56d5	-0.07584921
91	0xbda5f2af	-0.08102929
92	0xbd070bb5	-0.03297015
93	0xbdecab40	-0.11556101
94	0x3d94bd15	0.07262627
95	0x3e76329b	0.24042742
96	0xbe2ea868	-0.1705643
97	0x3e733088	0.23748982
98	0x3dd9efb2	0.106414214
99	0x3e89c0cc	0.26904905
100	0xbdb5e4d5	-0.08881537
101	0x3b8b5a95	0.0042527416
102	0xbe1f7313	-0.15571241
103	0xbb7b1a1f	-0.003831513
104	0xbcf86f89	-0.030326622
105	0xbe24f4bd	-0.16108985
106	0x3d8c7ae1	0.06859375
107	0xbd3b8d0f	-0.04578882
108	0xbe6e9b2d	-0.23301382
109	0xbe3d3f5c	-0.18481201
110	0x3cdc0471	0.026857587
111	0xbd72599c	-0.05916749
112	0x3e850684	0.25981534
113	0xbb67c585	-0.0035365534
114	0x3e176e5a	0.1478819
115	0xbe72d2eb	-0.23713271
116	0xbe5bd2f7	-0.21467195
117	0xbd8f719e	-0.07004093
118	0x3d301d00	0.042996407
119	0xbdb30724	-0.08741596
120	0x3cb17dae	0.021666374
121	0x3e2bcbef	0.16777013
122	0xbcc6c8e4	-0.024265714
123	0xbdca45d9	-0.09876604
124	0xbd83b7f4	-0.06431571
125	0x3ca19ff4	0.019729592
126	0x3dc3a6eb	0.095533215
127	0x3e1d1405	0.15339668
128	0x3e8a03b9	0.26955965
129	0x3e1df35f	0.1542487
130	0xbd354a45	-0.044260282
131	0xbe4ef0b0	-0.20209002
132	0x3d9721d5	0.073795
133	0xbe84c92f	-0.2593474
134	0x3e0cafce	0.13738939
135	0x3d11a89f	0.0355612
136	0x3d8bde55	0.06829516
137	0x3e489a34	0.19590074
138	0xbde66218	-0.11249179
139	0x3e14d09a	0.145327
140	0x3e5ac6ba	0.2136487
141	0x3e5ae418	0.21376073
142	0x3e4f9300	0.2027092
143	0xbe33d53f	-0.17561816
144	0x3e02c684	0.1277104
145	0x3d2b81b2	0.041871734
146	0xbe1c9bf1	-0.15293862
147	0xbe1e85a7	-0.15480672
148	0xbdb48fd0	-0.088164926
149	0xbe723870	-0.23654342
150	0xbdb468b9	-0.08809037
151	0xbe4d495c	-0.20047516
152	0x3cbf8674	0.023379542
153	0xbc92d351	-0.01792303
154	0x3e059461	0.13044883
155	0xbe77b37f	-0.24189566
156	0xbe7c07c2	-0.24612334
157	0xbc4dd200	-0.012562275
158	0xbe6114a8	-0.21980536
159	0xbe195bb8	-0.14976394
160	0xbdb3a325	-0.08771352
161	0x3cd409a1	0.025883498
162	0xbe67d507	-0.22639857
163	0xbded214c	-0.115786165
164	0xbe92f893	-0.28705272
165	0xbe1c0158	-0.15234888
166	0x3e5550a8	0.20831549
167	0xbe7144c4	-0.23561388
168	0xbc594d57	-0.013263068
169	0xbe4647e0	-0.19363356
170	0x3e2316d2	0.15926674
171	0xbdf9f333	-0.1220459
172	0xbdecd299	-0.11563606
173	0xbe6baf98	-0.23016202
174	0xbe5a6d9e	-0.21330878
175	0x3e3531f0	0.17694831
176	0x3e0b7fbb	0.13622944
177	0xbe55cea2	-0.20879605
178	0x3ca07470	0.019586772
179	0x3d246801	0.04013825
180	0xbe1b4010	-0.15161157
181	0x3e3dda41	0.18540289
182	0x3e35f3e3	0.17768817
183	0x3e08b08f	0.13348602
184	0xbe4ca1a4	-0.19983536
185	0xbe2851fd	-0.16437526
186	0xbe01bc2d	-0.1266944
187	0x3d8ce6d9	0.06879968
188	0x3e1d5cab	0.15367381
189	0x3cf87991	0.030331405
190	0xbe52b95d	-0.20578523
191	0xbe71cdee	-0.23613712
192	0x3cb1936d	0.021676743
193	0x3df4c495	0.119515575
194	0xbe692372	-0.22767428
195	0xbc8b7491	-0.017023357
196	0x3e5863b6	0.21131787
197	0xbd5a292f	-0.053261932
198	0xbe2b0dae	-0.16704437
199	0x3e033bb2	0.1281574
200	0xbdf757a1	-0.12077261
201	0xbe360bb3	-0.177779
202	0xbcb31953	-0.021862661
203	0x3d3ab9af	0.045587238
204	0xbd9c16a6	-0.07621507
205	0xbe0e3752	-0.1388829
206	0x3e68517e	0.22687337
207	0x3e79e509	0.24403776
208	0x3e0556a9	0.1302134
209	0xbdfa5eae	-0.1222509
210	0xbe257a5f	-0.16159962
211	0x3d7c2086	0.061554454
212	0xbd61a29c	-0.055086717
213	0x3bcf8f06	0.0063341884
214	0x3de3c72f	0.11121976
215	0x3e1a11ee	0.15045902
216	0x3e2f2916	0.17105517
217	0xbe883a0b	-0.26606783
218	0x3d040372	0.03222985
219	0x3d0b0d65	0.03394832
220	0xbe136f89	-0.14398016
221	0xbe78f61e	-0.24312636
222	0xbce03f42	-0.027373914
223	0x3e4332f6	0.19062409
224	0x3d59e5af	0.05319756
225	0x3e677c9e	0.22606131
226	0xbc10ef54	-0.008846123
227	0x3de5411c	0.11194059
228	0xbda6452f	-0.081186645
229	0x3e6c3b14	0.23069412
230	0x3e2853fc	0.16438287
231	0xbdeedcef	-0.116632335
232	0x3d80d5eb	0.062908016
233	0x3dc13264	0.094334394
234	0xbe82078a	-0.25396377
235	0x3e2c2585	0.16811188
236	0x3e0a3efa	0.13500586
237	0x3d254595	0.04034956
238	0x3de4d92d	0.111742355
239	0x3e10508c	0.14093226
240	0xbda61171	-0.081087954
241	0x3e204c89	0.15654196
242	0xbe0213ad	-0.12702818
243	0x3ca51072	0.020149443
244	0xbd035b1d	-0.032069314
245	0x3dc2386a	0.094834164
246	0x3e7e2f51	0.24822737
247	0xbe049828	-0.12948668
248	0xbd514603	-0.05109216
249	0xbcd786bf	-0.02630937
250	0xbe6762c5	-0.22596271
251	0xbd3c7ece	-0.046019368
252	0xbe1e128a	-0.1543676
253	0xbc98de94	-0.018660821
254	0xbe3cb569	-0.18428577
255	0x3dd70423	0.10498836

feature.0.bias f4 [256]
0	0xbe18b1ad	-0.14911528
1	0x3cc2c0e6	0.023773622
2	0xbddf9b1b	-0.10918256
3	0x3cb5cc5b	0.02219217
4	0xbe44a140	-0.19202137
5	0x3da73917	0.08165186
6	0xbd9b5b8a	-0.07585819
7	0x3e09641b	0.13417093
8	0x3dc36ffc	0.09542844
9	0x3c7ebea2	0.01554838
10	0x3e7f7379	0.24946393
11	0x3e2df075	0.16986258
12	0xbe276d09	-0.16350187
13	0x3dfd7ced	0.12377343
14	0xbe3cee83	-0.1845036
15	0x3d014141	0.03155637
16	0xbcfc9058	-0.030830547
17	0x3e66c828	0.22537291
18	0xbe7ecf03	-0.24883656
19	0xbdf5820e	-0.119876966
20	0xbdff9aa5	-0.12480668
21	0xbe0b3bbe	-0.13597009
22	0x3d492610	0.049108565
23	0x3dac7238	0.08420223
24	0x3dfa0646	0.12208228
25	0x3e7e3b89	0.24827398
26	0x3e04beb3	0.12963371
27	0xbdfad94f	-0.122484796
28	0xbd10dc25	-0.035366196
29	0xbe570798	-0.2099899
30	0xbd5eee3a	-0.05442641
31	0xbdf51df0	-0.11968601
32	0xbe26a3eb	-0.16273467
33	0xbe4cba0f	-0.1999285
34	0xbe1a1d56	-0.15050253
35	0x3dc628a2	0.09675719
36	0xbdb5f9c6	-0.08885531
37	0x3d89edbb	0.067347966
38	0xbcced55d	-0.025248224
39	0xbe21e4f5	-0.15809996
40	0x3da6d782	0.081465736
41	0xbde1ca53	-0.110249184
42	0x3cabf1e4	0.020989366
43	0x3d27bc38	0.040950984
44	0xbe085472	-0.13313463
45	0x3df45c84	0.119317085
46	0x3e1211e1	0.14264633
47	0x3e505dd5	0.20348294
48	0xbe2f9466	-0.17146453
49	0xbe3ac706	-0.18239984
50	0x3e68ae07	0.22722636
51	0x3d312563	0.043248545
52	0x3a01c9ed	0.0004951049
53	0x3c5a9b96	0.013342759
54	0x3e7a2938	0.24429786
55	0xbe1f6654	-0.15566379
56	0xbbf2750d	-0.0073992074
57	0xbddad259	-0.10684652
58	0xbe51f23a	-0.20502558
59	0x3c1ae818	0.0094547495
60	0x3e22e6d6	0.1590837
61	0x3e38ecea	0.18059126
62	0xbc6d21f7	-0.01447343
63	0xbe3e997e	-0.1861324
64	0x3dd81c8e	0.105523214
65	0x3e658f76	0.22418007
66	0xbdc9a355	-0.09845606
67	0xbc17ca40	-0.009264529
68	0x3dde2f25	0.10848836
69	0x3d11690c	0.03550057
70	0xbdd88bb1	-0.10573519
71	0x3c8129f0	0.015767068
72	0x3e173508	0.14766324
73	0xbd9890b8	-0.07449478
74	0x3d8259de	0.06364797
75	0xbe161043	-0.14654641
76	0xbe164515	-0.1467479
77	0x3d8f98e0	0.070115805
78	0x3dc70791	0.0971824
79	0x3ddc0c83	0.10744574
80	0xbd79ae04	-0.06095697
81	0x3e3eaf74	0.18621618
82	0xbd9eda1c	-0.07756445
83	0x3d0e6a97	0.03476962
84	0x3e5e899d	0.21732183
85	0x3d92fbe7	0.07176953
86	0x3e597e16	0.21239504
87	0x3dc533d1	0.09629024
88	0x3e27885c	0.1636061
89	0x3e4e8a92	0.20170048
90	0xbcfaf3a1	-0.03063375
91	0xbd634c53	-0.05549271
92	0xbd9d61b0	-0.07684648
93	0x3be72956	0.007054488
94	0xbcf636c9	-0.03005542
95	0xbe32abe7	-0.17448388
96	0xbe470ffa	-0.19439688
97	0xbe077c6b	-0.13231055
98	0xbe659205	-0.22418983
99	0xbe1c8daf	-0.15288423
100	0xbe5cf3d6	-0.21577391
101	0xbe2a0878	-0.16604793
102	0xbe346ac6	-0.17618856
103	0x3e36c66f	0.17849134
104	0x3d9765f8	0.07392496
105	0xbd10e032	-0.03537006
106	0xbd810660	-0.06300044
107	0x3e5b253a	0.2140092
108	0xbe13a13d	-0.14416976
109	0xbcfe4cda	-0.031042505
110	0xbe451201	-0.19245149
111	0xbdff6269	-0.12469942
112	0x3daa3f33	0.083128355
113	0x3e006a46	0.1254054
114	0x3e21e708	0.15810788
115	0xbe34d85e	-0.17660663
116	0xbe2d81a0	-0.1694398
117	0xbe10b49c	-0.14131397
118	0xbe17bb62	-0.14817575
119	0xbdbab940	-0.09117365
120	0x3e86c577	0.2632253
121	0x3dbb183e	0.09135483
122	0xbd7760a4	-0.060394898
123	0xbd84c9c0	-0.06483793
124	0x3e65aaa7	0.2242838
125	0x3e117dc7	0.14208136
126	0xbde03aa4	-0.10948685
127	0x3dabb87f	0.08384799
128	0x3e7ed241	0.24884893
129	0xbe3539d1	-0.17697836
130	0xbd766c78	-0.060162038
131	0x3cebaa05	0.028767595
132	0xbd1006ca	-0.035162725
133	0x3d70c2f3	0.058779668
134	0x3d91ca4c	0.07118663
135	0xbe0a1615	-0.13484986
136	0xbd161262	-0.036638625
137	0xbcea2dc7	-0.028586281
138	0xbe44e276	-0.19227013
139	0xbcbdeb17	-0.023183389
140	0x3e32edf3	0.17473583
141	0xbe14c1af	-0.1452701
142	0x3d7e8b14	0.062144354
143	0x3e4ccf1d	0.20000882
144	0x3dcdf57f	0.1005659
145	0xbd357b9f	-0.044307347
146	0x3e7e87a4	0.2485643
147	0x3e515ce1	0.20445587
148	0xbdd618d8	-0.10453957
149	0xbe1896eb	-0.1490132
150	0xbcb7c919	-0.022434758
151	0xbca83d5e	-0.020537075
152	0x3e6729c6	0.22574529
153	0xbe445e24	-0.19176537
154	0x3e576648	0.21035111
155	0xbe1f112b	-0.15533893
156	0x3e441aec	0.19150895
157	0xbcff4aae	-0.03116354
158	0xbdc2de57	-0.09515064
159	0x3e8989b2	0.26862866
160	0xbe46e249	-0.19422258
161	0xbd942c29	-0.072349854
162	0x3e43fc1a	0.19139138
163	0x3e48e641	0.19619085
164	0xbd7dcb83	-0.061961662
165	0x3e80f7da	0.25189096
166	0xbc9b8867	-0.01898594
167	0x3e130f7a	0.14361373
168	0x3e458be8	0.19291651
169	0x3d996df8	0.07491678
170	0xbe56695e	-0.20938632
171	0xbcc5b3db	-0.024133613
172	0xbce167df	-0.02751535
173	0x3d89109a	0.066926196
174	0x3e811525	0.25211444
175	0xbc845238	-0.016152486
176	0xbe293f65	-0.1652809
177	0x3e6751df	0.22589825
178	0xbdbc2985	-0.09187607
179	0x3d0b5349	0.034014974
180	0x3de88cf2	0.11355008
181	0xbe4e0610	-0.201195
182	0xbe33587b	-0.17514221
183	0x3e455eb6	0.1927441
184	0xbe035866	-0.1282669
185	0xbe2fcb01	-0.17167284
186	0xbe656484	-0.22401625
187	0xbe645521	-0.22298099
188	0x3e494df2	0.1965864
189	0xbd9155a8	-0.07096416
190	0xbe3f9349	-0.18708529
191	0x3d447701	0.047965053
192	0x3e687ff4	0.2270506
193	0x3e3e6f3c	0.1859712
194	0xbd6e0645	-0.058111448
195	0xbd44a6a9	-0.048010502
196	0x3bdb5b8e	0.006694264
197	0xbe46f6ba	-0.19430056
198	0x3e308ae4	0.17240483
199	0xbd934305	-0.07190517
200	0x3e1ce97b	0.1532344
201	0x3e5dd85d	0.21664567
202	0xbd7589a5	-0.05994572
203	0xbdca305f	-0.09872507
204	0xbc73b822	-0.014875444
205	0x3dc83854	0.09776369
206	0x3e41bde9	0.18920101
207	0xbd06800d	-0.032836962
208	0xbe00ea22	-0.12589315
209	0x3e51f9de	0.20505473
210	0x3dc32dc4	0.095302135
211	0x3df7d0a8	0.12100345
212	0xbe227738	-0.15865791
213	0x3e77f831	0.24215771
214	0x3da7c90d	0.08192644
215	0xbd703ceb	-0.058651846
216	0x3e6bd6ab	0.23031108
217	0x3e06073c	0.13088697
218	0xbe31b864	-0.17355496
219	0x3e205fc2	0.15661529
220	0x3e2f3b64	0.171125
221	0x3dacf1c9	0.08444554
222	0x3c5fa7b9	0.013650828
223	0x3d4e4082	0.05035449
224	0xbe064901	-0.13113786
225	0xbe346043	-0.17614846
226	0x3e15249a	0.14564744
227	0xbe6571c0	-0.22406673
228	0xbe1a9382	-0.15095332
229	0x3ddb4de4	0.10708216
230	0xbdfe8568	-0.12427789
231	0x3df988a7	0.121842675
232	0xbe200a9c	-0.15629047
233	0x3d80bc2a	0.062858894
234	0x3dcf4412	0.10120405
235	0x3e746fa2	0.2387071
236	0x3e563e28	0.20922148
237	0xbe6236b0	-0.22091174
238	0xbd569a92	-0.052393503
239	0xb9851a4a	-0.00025387324
240	0x3d0cb394	0.034350947
241	0xbdf2fd12	-0.118646756
242	0x3e3e0676	0.18557152
243	0x3c94ca98	0.01816301
244	0x3e334533	0.17506866
245	0x3c00ed7b	0.00786912
246	0x3e54a459	0.20765819
247	0x3e42676c	0.18984765
248	0x3c219916	0.009863159
249	0xbd5d39c4	-0.054010168
250	0x3dfe5abc	0.1241965
251	0x3c7e7fc6	0.015533393
252	0x3db60635	0.08887903
253	0x3e702d07	0.23454677
254	0xbe5289df	-0.20560406
255	0x3d63e1c9	0.055635247

value.0.weight f4 [128, 256]
0	0xbc64619e	-0.013939289
1	0x3cc093fb	0.023508063
2	0xbca6445c	-0.020296268
3	0x3d19947c	0.03749512
4	0xbd30c6ad	-0.043158222
5	0xbdcf0e70	-0.101101756
6	0x3d454f58	0.04817137
7	0xbccd7a82	-0.02508283
8	0x3cd63196	0.026146691
9	0x3d0e8cde	0.03480231
10	0xbc72f572	-0.014829027
11	0xbad032af	-0.0015884246
12	0xbd3489ca	-0.04407672
13	0xba1fe96c	-0.0006100151
14	0x3cda0f92	0.026618753
15	0x3d373679	0.044729684
16	0x3d04b9d5	0.032403786
17	0xbd56b08b	-0.05241446
18	0x3c5e0d24	0.013552938
19	0x3cfdacb1	0.030966135
20	0x3cacabd6	0.021078032
21	0xbd4e5d01	-0.050381664
22	0x3d605a06	0.054773353
23	0xbc09b770	-0.008405551
24	0x3cd40fe9	0.025886493
25	0x3c3b45e9	0.011430242
26	0xbd845aca	-0.06462629
27	0x3b823824	0.0039739776
28	0xbd87414e	-0.06604253
29	0xbcb13c46	-0.021635186
30	0xbd728737	-0.059210982
31	0x3d4421d4	0.047883824
32	0x3d02c61d	0.031927217
33	0xbc4413e5	-0.011967634
34	0xbd9f07c9	-0.07765157
35	0xbd921a44	-0.07133916
36	0x3d826c19	0.06368274
37	0xbccbd6cc	-0.024882697
38	0x3cd00bfc	0.02539634
39	0x3b9e7c03	0.0048365607
40	0x3a8e37a4	0.0010850322
41	0xbd385ac8	-0.04500845
42	0x3c15c81a	0.009141946
43	0xbd79719a	-0.060899355
44	0x3a8b7673	0.0010640159
45	0x3cd453e6	0.025918912
46	0x3d152a7f	0.03641748
47	0x3d18ea29	0.037332688
48	0x3c8f9ab9	0.017529832
49	0x3c25538f	0.010090723
50	0x3d2898cb	0.04116134
51	0x3b7b8f1b	0.0038384858
52	0x3d17493c	0.036935076
53	0xbd695232	-0.056963153
54	0xbad04dc0	-0.0015892312
55	0xbd437c44	-0.04772593
56	0xbd2d9111	-0.042374674
57	0xbd76ba36	-0.06023618
58	0x3d628d2c	0.055310413
59	0x3ceedbd9	0.029157566
60	0xbd3346ec	-0.04376881
61	0xbd114cb2	-0.035473533
62	0x3d49d8e5	0.049279112
63	0xbad7abf4	-0.0016454444
64	0x3d9323cb	0.07184561
65	0xbcbbda50	-0.022931248
66	0x3cab6200	0.020920753
67	0x3d32be52	0.043638535
68	0x3c85dada	0.016339708
69	0x3c4b2fe2	0.012401553
70	0xbb857b0c	-0.004073506
71	0xbc2af24d	-0.010433746
72	0x3c06a108	0.008217104
73	0x3d194278	0.037416905
74	0x3d805324	0.06265858
75	0xbd417ba8	-0.04723707
76	0x3a76ca4f	0.00094143016
77	0x3b33955b	0.0027402255
78	0xbd40d038	-0.047073573
79	0x3d52999e	0.051416032
80	0x3d2a1242	0.04152132
81	0xbc4f703e	-0.012661038
82	0x3caee032	0.021347139
83	0xbd34b10f	-0.04411417
84	0xbcc33198	-0.02382736
85	0xbd460a50	-0.04834968
86	0x3d7332cd	0.05937462
87	0x3c8d561f	0.01725298
88	0x3d63b54c	0.05559282
89	0x3c282fdf	0.01026532
90	0x3ccee775	0.025256852
91	0x3d867bf3	0.0656661
92	0xb918d000	-0.00014573336
93	0xbde88cde	-0.11354993
94	0xbd3141ca	-0.043275632
95	0xbd0ae381	-0.03390837
96	0x3c896c7a	0.016775358
97	0xbd68b9a0	-0.05681765
98	0x3d61d02b	0.055130165
99	0xbd91ed53	-0.07125344
100	0xbccb33b5	-0.02480493
101	0x3ca42f85	0.02004219
102	0x3c82ddc5	0.015974889
103	0xbc184b92	-0.009295361
104	0xbcd9bde0	-0.026579797
105	0x3d400975	0.04688402
106	0x3cb2d08c	0.021827959
107	0x3d8233c1	0.063575275
108	0xbd802674	-0.06257334
109	0xbd4b8208	-0.049684554
110	0x3c519bcb	0.012793492
111	0x3d4e6ba6	0.05039563
112	0x3c7bf7bb	0.015378888
113	0xbcd62f91	-0.026145728
114	0xbd6fa32b	-0.05850522
115	0xbca1c569	-0.019747453
116	0xbd54f95c	-0.05199562
117	0xbd99e03d	-0.07513473
118	0xbd2e531e	-0.042559735
119	0xbccafdc9	-0.024779217
120	0xbccd7204	-0.025078781
121	0xbce57c56	-0.02801339
122	0x3c1ba080	0.009498715
123	0xbce3bdd2	-0.027800474
124	0x3d90f780	0.07078457
125	0x3ce06db6	0.027396064
126	0x3c7504ee	0.014954789
127	0xbb37df82	-0.0028056805
128	0xbe09ce0d	-0.13457508
129	0xbd4909f0	-0.049081743
130	0x3d23e09d	0.04000913
131	0x3c5ad636	0.013356736
132	0x3d640815	0.05567177
133	0x3c45d520	0.012074739
134	0xbdcda85f	-0.1004188
135	0x3d2f97a3	0.04286922
136	0xbbf082fb	-0.007339833
137	0xbd2362ad	-0.039889026
138	0xbd3dd9fa	-0.046350457
139	0xbd258bf9	-0.04041669
140	0xbdcc89e4	-0.09987238
141	0x3d51e607	0.05124476
142	0xbc47a7f6	-0.012186041
143	0xbcb186c5	-0.021670708
144	0xbcaf54c7	-0.02140273
145	0xbd82bde8	-0.06383878
146	0xbce24c1c	-0.027624182
147	0x3ce2d781	0.02769065
148	0x3cf935db	0.030421188
149	0xbb5acb46	-0.003338532
150	0xbddee7d2	-0.1088406
151	0x3c1c738a	0.009549031
152	0x3cafee40	0.021475911
153	0x3c3c4d61	0.011493058
154	0xbd3dd76e	-0.046348028
155	0xbdad9187	-0.08475023
156	0x3d323798	0.04351005
157	0xbcbff938	-0.023434266
158	0xbccf7171	-0.025322648
159	0xbd08cd55	-0.033398945
160	0xbd8a8392	-0.06763376
161	0x3b1069ef	0.0022035798
162	0xba0fa3d8	-0.0005479432
163	0xbc47a29c	-0.012184765
164	0x3bc4f0f3	0.0060101687
165	0xbc9bb71a	-0.019008208
166	0x3c5dc003	0.013534549
167	0xbd3f39e0	-0.046686053
168	0xbb31cbdf	-0.0027129573
169	0x3d1efcaa	0.038815178
170	0x3d0e431e	0.034731977
171	0xbb2429ac	-0.0025049252
172	0x3d98c382	0.07459165
173	0xbd832eb3	-0.064053915
174	0x3d304e14	0.04304321
175	0x3c8f7630	0.01751241
176	0x3d238d5d	0.039929736
177	0x3d3fa516	0.046788298
178	0x3d45a178	0.04824969
179	0xbce01682	-0.027354483
180	0xbc47c528	-0.012193002
181	0xbd268c38	-0.040661067
182	0x3c4ec1da	0.01261946
183	0xbd7c2199	-0.06155548
184	0xbd6db52b	-0.058034103
185	0xbd3a94f2	-0.0455522
186	0x3d18ab25	0.03727259
187	0xbced28dd	-0.02895015
188	0x3d3e60da	0.046479084
189	0x3d6847db	0.05670915
190	0x3c85d960	0.016339004
191	0x3d883f12	0.06652655
192	0x3c817412	0.015802417
193	0xbd8a948f	-0.067666166
194	0xbd23b101	-0.039963726
195	0xbdc86292	-0.09784426
196	0xbcff52c8	-0.031167403
197	0xbc55c903	-0.013048413
198	0x3d0e40a1	0.034729604
199	0xbcf9b827	-0.030483318
200	0x3b302a41	0.0026880654
201	0x3c9129ea	0.017720181
202	0xbd35c849	-0.04438046
203	0xbd049992	-0.03237302
204	0xbd200dbd	-0.0390756
205	0x3cf2abfc	0.029623024
206	0x3d042d01	0.03226948
207	0x394417fc	0.00018700951
208	0x3ce0f933	0.027462577
209	0x3d06ddfa	0.032926537
210	0xbc932bb6	-0.017965179
211	0x3c7b8c57	0.015353284
212	0xb9a203a6	-0.00030901766
213	0xbd44f6e4	-0.048087016
214	0xbd288f19	-0.041152094
215	0xbd1c53b9	-0.03816578
216	0xbdd7977d	-0.10526941
217	0x3d63abff	0.05558395
218	0x3c87718c	0.016533636
219	0x3c83ca7e	0.016087767
220	0x3d2ef65d	0.04271542
221	0xbbdd9684	-0.0067623276
222	0x3d633859	0.05547366
223	0xbd70d8e6	-0.0588006
224	0xbb3af487	-0.0028527097
225	0xbd1711c1	-0.036882166
226	0xbdb656e0	-0.08903289
227	0xbc672428	-0.014107741
228	0xbdd32eb2	-0.10311641
229	0x3d8428da	0.06453104
230	0xbdc6597a	-0.09685035
231	0x3d632b73	0.05546136
232	0xbd026142	-0.031831034
233	0xbb46be96	-0.0030326
234	0xbd8c616e	-0.06854521
235	0x3d1f459f	0.038884755
236	0x3ca486b7	0.020083768
237	0xbd56a00e	-0.052398734
238	0x3c281409	0.010258683
239	0xbc31f52d	-0.010861677
240	0xbd1c3e65	-0.03814544
241	0x3d0b63ae	0.03403061
242	0xbd9083d5	-0.07056395
243	0x3c0fbaa7	0.008772529
244	0xbdaad975	-0.08342258
245	0xbd3df049	-0.046371732
246	0x3d5eae1a	0.054365255
247	0x3d8f94af	0.07010781
248	0xbdc9bf51	-0.09850944
249	0x3c1f18c9	0.009710499
250	0xbcf065b1	-0.029345365
251	0xbda70c9e	-0.081567034
252	0x3d761e0f	0.06008726
253	0x3bf17a27	0.007369298
254	0xbcc18636	-0.023623567
255	0x3bc79a31	0.006091379

value.0.bias f4 [128]
0	0x3bc133d1	0.0058960696
1	0xbb7d2346	-0.003862576
2	0x3bc6d94f	0.0060683857
3	0xbc6b1620	-0.014348537
4	0x3d9b6d66	0.075892255
5	0xbd1a6cb0	-0.03770131
6	0xbc572c84	-0.013133172
7	0xbc14e5de	-0.009088008
8	0xbd7ad778	-0.061240643
9	0xbc7a3e0c	-0.015273582
10	0x3d4734f4	0.048634484
11	0x3b9a1cf0	0.0047031567
12	0xbc0cf123	-0.008602413
13	0x3c5fe3ad	0.013665122
14	0xbc953930	-0.018215746
15	0xbc823635	-0.015894989
16	0x3d16961f	0.03676426
17	0x3dbce501	0.092233665
18	0x3c1ec7a7	0.0096911555
19	0x3b8b4c10	0.0042510107
20	0xbd5d275a	-0.053992607
21	0x3c4534d4	0.012036521
22	0x3d0deabf	0.0346477
23	0x3db49021	0.08816553
24	0xbc080767	-0.008302546
25	0x3ca76458	0.02043359
26	0xbce222d2	-0.027604494
27	0x3c6a68cd	0.014307213
28	0x3dbe0c68	0.0927971
29	0x3c726f7d	0.014797089
30	0x3d8e34ca	0.069436625
31	0x3ca192fa	0.019723404
32	0x3c8564cc	0.016283415
33	0xbc917dda	-0.017760206
34	0xbcbf677c	-0.023364775
35	0xbd802876	-0.06257717
36	0x3ce7e372	0.028306697
37	0x3a5414c2	0.00080902514
38	0xbcaba14f	-0.020950941
39	0xbcfaa7f5	-0.030597666
40	0xbce4fbd9	-0.027952122
41	0xbd372750	-0.044715226
42	0x3c8a276f	0.016864507
43	0x3d0b16c0	0.033957243
44	0x3b27c2ac	0.0025598211
45	0x3d3d2006	0.046173118
46	0x3d048ca4	0.032360688
47	0x3a0126ba	0.000492673
48	0xbc246e2f	-0.010036035
49	0xbc5e0641	-0.013551296
50	0xbd6cbec0	-0.0577991
51	0x3d36d040	0.044632196
52	0x3c20de94	0.009818692
53	0x3dab704b	0.083710276
54	0xbd298131	-0.041382972
55	0x3b6f569e	0.0036520134
56	0xbd47021d	-0.048586
57	0x3ce512e5	0.027963111
58	0xbd1231cf	-0.035692032
59	0x3d79c534	0.060979083
60	0xbd1214b6	-0.035664283
61	0x3d3cfc10	0.046138823
62	0xbc8e0b65	-0.017339418
63	0x3d83ad8d	0.064295866
64	0xbc94561a	-0.018107463
65	0xbd2c1173	-0.04200883
66	0x3c86af5f	0.016441045
67	0xbc801020	-0.015632689
68	0xbcdf49cc	-0.027256869
69	0x3d3f2ca5	0.046673436
70	0xbccc7faf	-0.024963228
71	0x3d45e670	0.048315465
72	0x3c5af9e8	0.013365246
73	0x3c508a66	0.012728309
74	0xbd1a5ffa	-0.037689187
75	0x3d020ea1	0.031752232
76	0x3d90cc66	0.07070236
77	0x3d10435f	0.0352205
78	0x3be2fa86	0.0069268374
79	0x3c4082e7	0.01174996
80	0xbbf05f4d	-0.0073355795
81	0xbc653c53	-0.013991433
82	0xbd32218b	-0.04348902
83	0xbc74aa2b	-0.014933149
84	0x3d00169c	0.031271562
85	0xbcffc5d9	-0.03122227
86	0xbd5b5adb	-0.053553443
87	0xbd31ff41	-0.04345632
88	0x3d483a74	0.04888387
89	0x3d82d04c	0.06387386
90	0x3da81d90	0.082087636
91	0xbcd6049b	-0.026125243
92	0xbc491267	-0.012272454
93	0xbd792008	-0.060821563
94	0x3c90f2a4	0.017693825
95	0x3b221384	0.002473087
96	0x3da9bf9f	0.08288502
97	0xbc2f4417	-0.010697386
98	0x3d31f080	0.04344225
99	0xbd8c4082	-0.068482414
100	0x3cb18b2a	0.021672804
101	0xbc5a43e1	-0.013321848
102	0x3da3ebf7	0.08003991
103	0x3d8b90f7	0.06814759
104	0xbc185f9b	-0.009300138
105	0x3c2c7035	0.010524799
106	0x3cb79b7c	0.022413008
107	0xbcaffb2b	-0.02148207
108	0x3bc914ac	0.0061364975
109	0xbd903f04	-0.07043269
110	0x3cad8570	0.021181792
111	0xbd83fa1f	-0.06444191
112	0x3d297baf	0.04137772
113	0x3d71f82b	0.059074562
114	0x3ba30aa0	0.004975632
115	0xbd41b85b	-0.047294956
116	0xbc554a5d	-0.013018218
117	0x3db84b80	0.089987755
118	0xbd2fa225	-0.042879242
119	0x3d85576f	0.06510817
120	0x3c9e6714	0.01933626
121	0x3d863217	0.06552523
122	0x3cf5880f	0.029972104
123	0xbd2f0370	-0.042727888
124	0xbd384d96	-0.044995867
125	0xbbeff97e	-0.007323443
126	0x3d3acb71	0.045604173
127	0xbb812f5b	-0.003942413

value.2.weight f4 [1, 128]
0	0x3d8367f4	0.06416312
1	0x3d6d6c32	0.05796451
2	0xbc011143	-0.007877651
3	0xbd4ed492	-0.05049569
4	0x3df9fcc6	0.12206416
5	0xbdb29c28	-0.08721191
6	0x3c0bcf0b	0.00853325
7	0xbcfdc40f	-0.030977277
8	0x3d895fda	0.06707735
9	0xbd6c3235	-0.05766507
10	0xbcdb60f4	-0.02677963
11	0xbcd7a9f1	-0.026326152
12	0xbd8b3b40	-0.067984104
13	0xbd96d0d3	-0.07364049
14	0xbde6fd93	-0.11278834
15	0x3cdde2d3	0.027085697
16	0x3d5c9872	0.05385632
17	0x3d6fea2e	0.05857294
18	0xbd79a5f8	-0.060949296
19	0xbd9e37f0	-0.07725513
20	0xbda281f3	-0.07934942
21	0x3db11f9b	0.086486064
22	0xbd107111	-0.03526408
23	0x3d1a7f64	0.037719145
24	0xbda542e8	-0.08069402
25	0xbcefffb8	-0.02929674
26	0xbd1b77b4	-0.037955955
27	0x3df0e304	0.1176205
28	0x3d96bf01	0.0736065
29	0xbd56988e	-0.05239158
30	0x3dd2cfa4	0.102935106
31	0x3d465ab4	0.048426345
32	0xbd1bd808	-0.03804782
33	0x3db0870a	0.08619507
34	0xbc9cc930	-0.019138902
35	0xbcbc453a	-0.022982229
36	0xbd34f3d7	-0.044177856
37	0x3d4e597f	0.05037832
38	0xbdcdba99	-0.10045356
39	0xbd81cbdf	-0.063377135
40	0xbd326d07	-0.043561008
41	0x3d8d3c49	0.06896264
42	0x3d928824	0.07154873
43	0x3ddc83bb	0.10767313
44	0x3d481c39	0.04885504
45	0xbd67b5fe	-0.056570046
46	0xbbcb4792	-0.0062036
47	0xbcf28f56	-0.029609364
48	0x3d7a92d3	0.06117518
49	0xbdc129de	-0.09431814
50	0xbaff10a0	-0.0019459911
51	0x3d5c3aac	0.05376689
52	0xbd9f6a9f	-0.07784008
53	0x3de2834c	0.11060199
54	0xbd99657d	-0.074900605
55	0x3db3f56d	0.08787046
56	0xbdbcb3fe	-0.09214018
57	0x3d545050	0.051834404
58	0xbca35ae9	-0.01994081
59	0x3ddac467	0.10681992
60	0xbdf24d95	-0.11831204
61	0xbd2ca079	-0.042145226
62	0xbcdb093d	-0.026737804
63	0x3d874d92	0.06606592
64	0xbd96e423	-0.073677324
65	0xbcfe4e06	-0.031043064
66	0xbd7c6892	-0.061623164
67	0xbde5a620	-0.112133265
68	0xbdeaac5c	-0.11458656
69	0xbd5ac231	-0.05340785
70	0x3d401128	0.04689136
71	0xbce7676a	-0.028247554
72	0xbd2c37f7	-0.04204556
73	0x3d8583de	0.06519292
74	0xbdbc6129	-0.09198219
75	0xbba22af8	-0.00494897
76	0x3d4e6491	0.050388876
77	0xbcb582db	-0.022157123
78	0x3da51c24	0.08062008
79	0xbd10d233	-0.03535671
80	0xbd01ad8b	-0.031659644
81	0x3d9c86b8	0.07642883
82	0x3da88840	0.082291126
83	0x3d3b16b4	0.04567595
84	0xbd372fd1	-0.044723336
85	0xbd19d739	-0.037558768
86	0x3d972c8f	0.07381546
87	0xbdae758b	-0.08518513
88	0xbdb803f1	-0.08985127
89	0x3de648c3	0.11244347
90	0x3d37e50e	0.044896178
91	0xbcfdc57e	-0.03097796
92	0xbd1249b9	-0.03571484
93	0x3cdfdc73	0.027326798
94	0xbd5105e1	-0.051030997
95	0x3d2eef8b	0.042708915
96	0x3db9ef92	0.090788975
97	0x3d6e41c4	0.058168188
98	0xbcd86043	-0.026413089
99	0x3d928d66	0.07155876
100	0xbd5b4078	-0.05352828
101	0x3d0b74dd	0.034046996
102	0x3d89b238	0.06723446
103	0x3d9000ba	0.070313886
104	0x3dd25f6d	0.10272107
105	0xbd82e6af	-0.06391656
106	0x3d887734	0.06663361
107	0x3d875c1c	0.06609365
108	0x3ba40edc	0.005006654
109	0xbd804d04	-0.062646896
110	0x3d4ab9bc	0.049493536
111	0xbda7e53a	-0.08198018
112	0xbd4a8d2e	-0.049451046
113	0xbd24ace5	-0.040203948
114	0xbd942313	-0.072332524
115	0x3df18b2e	0.117941245
116	0xbd831310	-0.0640012
117	0x3dbc3dd0	0.09191477
118	0xbd9365f9	-0.07197184
119	0x3d52bd30	0.051449955
120	0x3bc8448b	0.0061116866
121	0x3e0aa413	0.13539152
122	0xbd870b76	-0.06593983
123	0xbdbe82c5	-0.09302286
124	0xbd0c10e8	-0.03419581
125	0xbd065227	-0.03279319
126	0xbdebf0ea	-0.1152056
127	0xbd8c0051	-0.06835998

advantage.0.weight f4 [128, 256]
0	0x3d315f98	0.043304056
1	0x3c62da7e	0.013846038
2	0x3c8e9ea8	0.017409638
3	0xbcbee5c6	-0.023302924
4	0xbc23579e	-0.00996962
5	0xbd3dcfa5	-0.046340603
6	0xbd268f7f	-0.040664192
7	0x3d35d624	0.044393674
8	0x3b5fd79f	0.003415562
9	0xbd41831f	-0.047244187
10	0xbd32c302	-0.043643005
11	0x3d901e96	0.07037084
12	0xbc7190a8	-0.014743961
13	0x3c529e34	0.012855101
14	0x3c55e4aa	0.013055006
15	0x3c9a65da	0.018847395
16	0xbca6ecf2	-0.020376656
17	0xbd379930	-0.044823825
18	0x3cc773f0	0.024347275
19	0x3ce2d46f	0.027689187
20	0x3deb8511	0.1149999
21	0x3d37b38d	0.044848967
22	0xbd58a013	-0.052887034
23	0xbc6b1500	-0.0143482685
24	0x3bfb6a72	0.0076726014
25	0x3d58959c	0.052877054
26	0x3c1ef9a2	0.009703072
27	0xbd06111a	-0.032731153
28	0xbd9fc372	-0.0780095
29	0xbd6429ca	-0.055703916
30	0xbcf0157a	-0.029307116
31	0xbd77eeb1	-0.06053037
32	0xbd561e52	-0.05227501
33	0xbcc0fc71	-0.023557873
34	0x3bc53f6b	0.006019523
35	0xbd4858d9	-0.048912857
36	0xbd9555b7	-0.072917394
37	0x3b1fef3a	0.0024404065
38	0xbc933c76	-0.017973166
39	0x3c7ea3c2	0.015541973
40	0x3d218a48	0.039438516
41	0x3ca155d0	0.019694239
42	0x3d2f2778	0.04276225
43	0xbcc64bc0	-0.024206042
44	0xbd2e975b	-0.042624813
45	0x3d082cec	0.033245966
46	0x3d691870	0.05690807
47	0xbd2a0858	-0.041511863
48	0x3d546206	0.051851295
49	0x3d908543	0.07056668
50	0x3d3ff96f	0.046868738
51	0x3d3fc342	0.04681707
52	0x3d4050b7	0.046951976
53	0x3cb70d58	0.02234523
54	0xbc992b36	-0.018697362
55	0xbd203327	-0.039111283
56	0xbd9feb2e	-0.07808529
57	0xbda626e3	-0.08112886
58	0xbd716194	-0.05893095
59	0x3b60522c	0.0034228666
60	0xbd8f062b	-0.06983598
61	0x3d7f35cb	0.06230716
62	0xbda21d12	-0.07915701
63	0xbb9a9c5c	-0.0047183465
64	0x3b6fd3f7	0.0036594847
65	0x3d8238a8	0.063584626
66	0xbd5fa209	-0.05459789
67	0xbd3adbcf	-0.045619782
68	0xbd52ff90	-0.051513255
69	0xbc71603d	-0.014732418
70	0xbd8e00f8	-0.069337785
71	0xbd2ffd06	-0.04296591
72	0x3c86e6b7	0.016467435
73	0x3cfbc003	0.030731207
74	0x3d14f39e	0.036365144
75	0x3d052762	0.03250826
76	0x3c667792	0.014066594
77	0xbd01e643	-0.031713735
78	0xbda0f065	-0.078583516
79	0xbc8d3df7	-0.017241461
80	0x3da58da8	0.080836594
81	0xbcb38d1a	-0.021917868
82	0x3d897f1d	0.06713698
83	0x3d19527f	0.03743219
84	0xbd00a557	-0.03140768
85	0x3ccc8c91	0.024969371
86	0x3bb1fcac	0.005431732
87	0x3d7ddf6f	0.06198066
88	0x3cae91e0	0.021309793
89	0x3d2f6589	0.04282144
90	0x3cddb6c2	0.027064685
91	0xbd83d4bb	-0.064370595
92	0x3c39c8a8	0.011339344
93	0x3c595b2c	0.013266366
94	0x3cbb59c2	0.022869948
95	0x3cb2c8d7	0.021824284
96	0x3bed9b36	0.0072511686
97	0xbd316612	-0.043310232
98	0x3cfbf6f7	0.03075741
99	0x3cca771a	0.024714995
100	0x3ce6c5ae	0.028170433
101	0xbda0b8fe	-0.078477845
102	0xbd3ea7ff	-0.046546932
103	0x3d9931b5	0.07480184
104	0xbb99a5f7	-0.004688974
105	0xbce88117	-0.028381867
106	0x3d856579	0.06513495
107	0xbaed7975	-0.0018117862
108	0xbd4e291d	-0.050332177
109	0xbd498f30	-0.04920882
110	0xbd7c93aa	-0.06166426
111	0x3cf3f11d	0.029778058
112	0x3ca2638b	0.019822856
113	0xbc2d9133	-0.0105937
114	0x3d450584	0.048100963
115	0x3c56fe74	0.01312219
116	0xbd01b907	-0.031670596
117	0xbd70784a	-0.058708467
118	0x3b4cd7db	0.003125659
119	0xbdb061d7	-0.086124115
120	0xbd4b935b	-0.049701076
121	0x3d9c4382	0.076300636
122	0xbd3dbe37	-0.04632398
123	0x3d48a149	0.04898194
124	0xbc9bc0a0	-0.01901275
125	0x3c8751e2	0.016518537
126	0xbd13be6a	-0.036070265
127	0x3d505186	0.050858997
128	0xbdb814fa	-0.08988376
129	0xbc73c581	-0.014878632
130	0xbd0d1ebd	-0.034453142
131	0x3cd9f49d	0.026605899
132	0xbd07018f	-0.03296047
133	0x3aabd594	0.0013109916
134	0xbd4fc8d7	-0.050728645
135	0xbba85640	-0.005137235
136	0x3c2371dc	0.009975877
137	0x3cb8e479	0.022569882
138	0xbd361656	-0.044454895
139	0xbcc36dd5	-0.023856083
140	0xbc388b09	-0.011263617
141	0xbd9f673d	-0.07783363
142	0x3d6c1169	0.05763379
143	0x3d3aeab9	0.045634005
144	0xbda50cff	-0.080591194
145	0xbcf68d62	-0.030096713
146	0xbce1f933	-0.027584648
147	0xbd500778	-0.050788373
148	0x3ddb095d	0.10695145
149	0x3daa4fa2	0.0831597
150	0x3ca2dd61	0.019880952
151	0xbc2d011d	-0.010559347
152	0xbb30930d	-0.0026943118
153	0x3d2074ac	0.039173767
154	0xbcd7aeb1	-0.026328417
155	0x3cd0215a	0.025406528
156	0xbc3ec27e	-0.01164305
157	0x3d485815	0.048912127
158	0xbccda1dc	-0.025101595
159	0x3d648970	0.055795133
160	0xbda53e53	-0.08068528
161	0xbc63a3ab	-0.013894002
162	0x3d33c8d5	0.0438927
163	0x3c9fb632	0.019496057
164	0xbd05a623	-0.032629143
165	0x3d28a8df	0.041176673
166	0xbd4398e5	-0.047753233
167	0xbd132013	-0.03591926
168	0xbd3eda0e	-0.046594672
169	0x3d0f0fa2	0.034927018
170	0x3c69568c	0.014241826
171	0xbae5093d	-0.0017474067
172	0xbc53e103	-0.012932065
173	0x3d686bdd	0.05674349
174	0x3ca93dc8	0.020659342
175	0x3cc54071	0.02407858
176	0xbcdecb4c	-0.027196549
177	0x3cfc1033	0.030769443
178	0xbc97c4a0	-0.018526375
179	0xbcc69865	-0.02424259
180	0xbd3314ab	-0.043720882
181	0xbd625209	-0.055254016
182	0xbd8b730e	-0.06809054
183	0x3d301813	0.04299171
184	0x3e0153e9	0.12629665
185	0xbd44a219	-0.04800615
186	0xbcf380ed	-0.029724563
187	0x3bc802a6	0.0061038313
188	0x3cee0ddd	0.029059345
189	0xbc151317	-0.00909879
190	0x3c7731ce	0.015087558
191	0x3c97f5ea	0.018549878
192	0xbda7d30d	-0.081945516
193	0xbc8552a9	-0.016274767
194	0x3d66e6ac	0.05637233
195	0xbd9f40e8	-0.07776052
196	0xbc2d6165	-0.010582303
197	0xbd4bf81e	-0.04979717
198	0x3d90b90e	0.070665464
199	0x3d305df5	0.043058354
200	0xbd207151	-0.039170567
201	0xbd13cba9	-0.036082897
202	0x3cf312ce	0.029672053
203	0xbca372c2	-0.019952182
204	0xbd795fe6	-0.06088247
205	0xbcc0f23a	-0.023553003
206	0xbd6b39a7	-0.05742803
207	0xbbbb1e61	-0.0057104086
208	0xbd070106	-0.03295996
209	0x3d03ed68	0.03220883
210	0x3d3c5b00	0.045985222
211	0xbd09f9f8	-0.033685654
212	0x3d47e8ec	0.048806116
213	0x3d2f76fc	0.04283808
214	0x3d36d19b	0.04463349
215	0xbd22bb6b	-0.039729517
216	0xbd8590cc	-0.065217584
217	0x3d1cfef8	0.038329095
218	0xbd3de5b5	-0.046361644
219	0x3c10e231	0.008842991
220	0xbd00b504	-0.03142263
221	0x3d0f1f55	0.03494199
222	0xbd700f27	-0.0586082
223	0xbdae19b7	-0.085009985
224	0xbd145c19	-0.036220644
225	0x3ce8e224	0.028428145
226	0x3dc467e1	0.09590126
227	0xbd69480d	-0.05695348
228	0x3d59af1a	0.053145505
229	0x3c9bc4b1	0.019014688
230	0x3afdc6bc	0.0019361596
231	0x3cec399d	0.028836066
232	0xbd83844a	-0.064217165
233	0xbd6c7424	-0.057727948
234	0x3d167151	0.03672916
235	0xbc9db956	-0.019253414
236	0x3cc96d41	0.02458823
237	0xbcaf3d14	-0.021391429
238	0xbd2c13a2	-0.04201091
239	0x3cdc3e7f	0.02688527
240	0xbd9d6b5c	-0.07686493
241	0xbdb3d23f	-0.08780336
242	0x3bf273ed	0.0073990733
243	0xbd36f3bd	-0.04466604
244	0x3d08919a	0.03334198
245	0xbb765060	-0.0037584528
246	0xbd5c4644	-0.053777948
247	0x3c9ad943	0.018902427
248	0x3b1b74a5	0.0023720649
249	0x3d68d77c	0.056846127
250	0xbd015bbe	-0.031581633
251	0xbbadfafd	-0.005309461
252	0xbd540877	-0.051765885
253	0x3d0e9d51	0.034817997
254	0x3cba912e	0.022774305
255	0x3d0d2c09	0.034465823

advantage.0.bias f4 [128]
0	0xbcc0d05e	-0.023536857
1	0xbd29d0ac	-0.04145877
2	0x3cd9aeb6	0.026572566
3	0x3d0bb4d5	0.034108
4	0x3d56d0cb	0.052445214
5	0x3d06e736	0.032935344
6	0xbc8585e6	-0.0162992
7	0x3d5e9b7a	0.054347493
8	0xbb952650	-0.0045516863
9	0xbb095514	-0.0020955252
10	0xbd510144	-0.051026598
11	0x3d09814f	0.033570584
12	0xbbd4ba6f	-0.006491951
13	0xbd40343b	-0.04692481
14	0xbd3cd64b	-0.046102803
15	0x3b963735	0.004584218
16	0xbd3cb984	-0.04607536
17	0xbcb14111	-0.021637471
18	0x3beb8330	0.0071872696
19	0x3cadb851	0.021206053
20	0x3c6e9a76	0.014563194
21	0x3ce9f31c	0.028558306
22	0x3d63e212	0.05563552
23	0x3d8076a7	0.06272631
24	0xbca3b184	-0.019982107
25	0xbc4ff0f7	-0.012691728
26	0x3bf1825e	0.0073702773
27	0x3cb7f750	0.022456795
28	0x3d8bda7c	0.06828782
29	0xbc05c429	-0.008164444
30	0x3d2564a0	0.040379167
31	0x3ccff87f	0.025387047
32	0xbd3d5428	-0.046222836
33	0x3d5d9e5f	0.054106113
34	0x3d4e4c14	0.050365523
35	0xbd68ea72	-0.05686421
36	0x3c7c37b1	0.015394137
37	0x3d401c19	0.046901796
38	0x3d37a3a4	0.044833794
39	0x3d266804	0.04062654
40	0x3c9c88f7	0.019108279
41	0xbc3f12fc	-0.011662241
42	0xbd4ee169	-0.050507937
43	0xbd013226	-0.031541966
44	0x3c9f3ca6	0.0194381
45	0x3d7e3c0c	0.062068984
46	0xbc827101	-0.015923025
47	0xbc80ef00	-0.015738964
48	0x3cc182c2	0.02362192
49	0xbc9ab230	-0.018883795
50	0x3d0f51d6	0.034990154
51	0xbd4cc73c	-0.049994692
52	0xbd0747dd	-0.03302752
53	0x3d645153	0.05574162
54	0xbcd76fc5	-0.026298413
55	0x3d17e2e6	0.03708162
56	0x3c1738a4	0.009229813
57	0x3d7fc707	0.062445667
58	0x3cb53e71	0.022124501
59	0xbd5f7245	-0.054552335
60	0xbcc62813	-0.02418903
61	0xbbce583e	-0.0062971404
62	0xb9eb917e	-0.00044931093
63	0xbd2c5348	-0.04207161
64	0x3c26f9d5	0.010191401
65	0x3ca634a4	0.020288773
66	0xb87bd313	-6.003964e-05
67	0xbb39f553	-0.0028374984
68	0x3c5f16b2	0.013616251
69	0x3d3fd5c6	0.04683473
70	0x3cf9fdf6	0.030516606
71	0xbd67e72d	-0.05661695
72	0xbc38d5ee	-0.011281474
73	0x3baaa7dc	0.0052079987
74	0xbd5e6a15	-0.054300386
75	0xbd306b76	-0.043071233
76	0x3bc18bf2	0.0059065754
77	0xbd3b8a6b	-0.045786303
78	0xbcbe9d32	-0.023268316
79	0x3d4a7ee0	0.049437404
80	0xbd8a57fd	-0.06755064
81	0xbcc266e1	-0.023730697
82	0x3d6b6247	0.05746677
83	0xbcb0e187	-0.021591915
84	0xbd679eb8	-0.05654785
85	0xbca689dc	-0.020329408
86	0x3d87bbaf	0.06627595
87	0xbbf7bcf0	-0.007560365
88	0x3d205d46	0.039151452
89	0x3d28005c	0.041015968
90	0x3d02db05	0.031947155
91	0xbcf3d53b	-0.029764762
92	0x3cecf57d	0.028925652
93	0xbd31852f	-0.043339904
94	0xba081680	-0.0005191341
95	0xbb21bb65	-0.0024678346
96	0x3d546e04	0.05186273
97	0x3d29a1c1	0.041414026
98	0xbcd02874	-0.025409915
99	0x3cc09420	0.023508132
100	0xbc6be5d8	-0.014398061
101	0xbd3e00c7	-0.04638746
102	0x3d46ea4b	0.048563283
103	0x3be572d5	0.0070022144
104	0xbc2f041a	-0.01068213
105	0xbd00187a	-0.031273343
106	0xbafd918e	-0.0019345747
107	0x3d53203f	0.051544424
108	0xbd5c60ef	-0.05380338
109	0x3c1110bd	0.008854088
110	0x3b8da21e	0.0043223044
111	0xbd1432c1	-0.036181215
112	0xbce00af1	-0.027348967
113	0xbcf36d29	-0.029715138
114	0xbd5742ad	-0.05255382
115	0xbd82a6a9	-0.06379444
116	0x3d6c02d5	0.05761989
117	0x3d3feb20	0.046855092
118	0xbd179505	-0.03700735
119	0xbc8402ef	-0.01611468
120	0x3d12d7d9	0.03585038
121	0xbd22f852	-0.039787598
122	0xbcc7a239	-0.024369346
123	0xbcd26e59	-0.025687383
124	0x3d848672	0.06470956
125	0x3d37501c	0.044754133
126	0xbcc3288d	-0.023823047
127	0x3d5b2d4d	0.05351

advantage.2.weight f4 [3, 128]
0	0xbd5cbd22	-0.05389131
1	0x3d8e4ff3	0.06948843
2	0xbd7ca31c	-0.06167899
3	0xbc97481e	-0.018467005
4	0xbd3080a4	-0.04309143
5	0xbc03c698	-0.008042954
6	0x3d86fc29	0.065910645
7	0x3d010403	0.031497966
8	0x3d5d3903	0.05400945
9	0x3c6d19a5	0.014471446
10	0x3d86d67b	0.06583878
11	0xbe0bdd7b	-0.13658707
12	0xbdfe4cf6	-0.12417023
13	0x3da8994f	0.08232366
14	0x3d35084d	0.04419737
15	0xbdb30b8a	-0.08742435
16	0xbc1ded18	-0.009639047
17	0xbc82e3d7	-0.015977783
18	0xbd91b4da	-0.07114573
19	0x3d33c43d	0.04388832
20	0x3d3f61f3	0.04672427
21	0x3ddf1fe5	0.10894755
22	0x3dc5b3d3	0.096534394
23	0x3cd15f35	0.025558094
24	0xbd3d1ef2	-0.04617209
25	0x3d375efa	0.04476831
26	0xbd3e69b9	-0.046487544
27	0xbd4c75a4	-0.04991688
28	0x3d015060	0.031570792
29	0xbdb781f3	-0.08960333
30	0x3d470e9b	0.048597913
31	0x3d2e570b	0.04256348
32	0x3d95510f	0.07290851
33	0x3da26a20	0.07930398
34	0x3ddb68fa	0.10713382
35	0x3d4ee50f	0.050511416
36	0xbda0c2d2	-0.07849659
37	0xbda3f2f4	-0.08005324
38	0x3dbe34fa	0.09287448
39	0x3dcfa12f	0.10138165
40	0xbd295673	-0.04134221
41	0xbd86d0a2	-0.06582762
42	0x3da007e3	0.07814004
43	0xbd445b34	-0.04793854
44	0xbb42f748	-0.0029749442
45	0xbdddceb1	-0.10830439
46	0xbc8b68a2	-0.017017666
47	0x3dbedcc9	0.09319455
48	0x3d4fe0c1	0.05075145
49	0xbdf885cb	-0.12134894
50	0x3d62f337	0.05540773
51	0x3cb9d87c	0.022686236
52	0xbd94fe0a	-0.072750166
53	0x3cb51c97	0.02210836
54	0x3d4fe4a3	0.050755154
55	0x3d2f0027	0.042724755
56	0xbe01b20b	-0.12665574
57	0xbcc1d942	-0.023663167
58	0x3d8029ab	0.062579475
59	0xbc85e87b	-0.016346207
60	0xbd147359	-0.036242817
61	0x3c2477f9	0.010038369
62	0xbc1c5675	-0.009542097
63	0x3dba8947	0.09108215
64	0x3dad4b86	0.084616706
65	0x3cd189a8	0.025578335
66	0xbb1634a5	-0.0022919562
67	0xbdaa23c8	-0.08307606
68	0x3c4335d1	0.011914686
69	0x3cb9577d	0.022624725
70	0xbc9beef6	-0.019034844
71	0xbdac963c	-0.084270924
72	0x3db46bc9	0.08809621
73	0xbdf63f8e	-0.12023841
74	0x3c833b97	0.016019626
75	0x3c252b7d	0.010081169
76	0x3b4e8bb6	0.003151638
77	0xbc16c792	-0.009202855
78	0xbdd41f82	-0.10357572
79	0x3dcf204d	0.10113583
80	0x3c895260	0.016762912
81	0x3d9909af	0.0747255
82	0x3bd9f84d	0.006651914
83	0xbce19034	-0.027534582
84	0xbd389a0d	-0.04506879
85	0xbd0376fd	-0.032095898
86	0xbd29c4f8	-0.04144761
87	0x3daaf3dd	0.083472945
88	0xbdf2d498	-0.11856955
89	0xbca437ed	-0.020046199
90	0x3d079edb	0.03311048
91	0xbda3cffc	-0.07998654
92	0xbd07c41d	-0.033146013
93	0x3b7c9f9c	0.0038547283
94	0x3d13078c	0.03589587
95	0xbc00714c	-0.007839512
96	0x3d11886a	0.035530485
97	0x3d0fbd57	0.035092678
98	0xbdf48ca1	-0.11940885
99	0xbcfc1c3c	-0.030775182
100	0xbcf31e8c	-0.029677652
101	0xbcae82d6	-0.021302622
102	0xbc62c642	-0.013841214
103	0xbd4ff55e	-0.05077111
104	0x3c4949e1	0.0122856805
105	0x3c148fa7	0.0090674525
106	0x3db4384a	0.08799799
107	0xbdbce8cb	-0.09224089
108	0xbc8f077e	-0.017459627
109	0x3cedcfef	0.029029815
110	0x3da9a6df	0.08283781
111	0x3c9eadca	0.019369978
112	0x3d88d368	0.066809475
113	0xbd344a85	-0.04401638
114	0xbd1c643a	-0.03818152
115	0x3da0671f	0.07832169
116	0xbde5a274	-0.11212626
117	0x3d90156b	0.07035335
118	0x3d409779	0.047019456
119	0xbd7bc765	-0.061469454
120	0xbd04dbdb	-0.032436233
121	0x3d82defe	0.06390189
122	0x3daf18f8	0.08549684
123	0x3ddda410	0.10822308
124	0x3da55810	0.08073437
125	0xbca8f673	-0.020625329
126	0xbdb2694d	-0.08711491
127	0xbd64a52b	-0.05582158
128	0x3cc06dd9	0.02348988
129	0x3d8d2dbd	0.068934895
130	0xbd9cb6a8	-0.076520264
131	0x3c21a752	0.009866552
132	0x3d9e274d	0.0772234
133	0xbd05c5f7	-0.032659497
134	0x3d9d03b0	0.07666719
135	0x3d00f036	0.031479083
136	0xbd86604c	-0.06561336
137	0x3d90ec3d	0.07076309
138	0xbdb54e67	-0.08852845
139	0x3bec8426	0.0072179018
140	0x3d9fad2c	0.07796702
141	0x3d4a6ee3	0.049422156
142	0xbdaf0a92	-0.08546938
143	0xbc8c81b9	-0.0171517
144	0x3d1df55a	0.038564064
145	0xbcaddacd	-0.021222496
146	0xbdc3fe12	-0.095699444
147	0x3cf0a892	0.029377256
148	0x3db01ac3	0.085988544
149	0x3c2bcbe4	0.010485623
150	0xb9999d97	-0.00029299848
151	0xbdce1f38	-0.10064548
152	0xbd8badbf	-0.06820249
153	0xbdae9c85	-0.085259475
154	0x3d30f688	0.04320386
155	0xbd96a3cd	-0.07355461
156	0xbd4c0cd2	-0.049816914
157	0xbdb1d5a8	-0.0868333
158	0xbc9fd3e2	-0.019510213
159	0xbcd9eb13	-0.02660135
160	0x3d5db139	0.05412409
161	0x3d84ac4a	0.06478174
162	0x3ca0c337	0.019624336
163	0x3c30b3b1	0.010785029
164	0x3dbbe4f6	0.0917453
165	0xbdad19ba	-0.084521726
166	0xbdce2a15	-0.1006662
167	0xbc697d13	-0.014251011
168	0xbde5e408	-0.11225134
169	0xbde6f978	-0.11278051
170	0xbdf2dc60	-0.118584394
171	0x3dd3532c	0.10318598
172	0x3d833ef4	0.06408492
173	0xbdbaacbf	-0.0911498
174	0x3d9572c0	0.072972775
175	0x3dbfb7b7	0.09361213
176	0xbdca93f2	-0.098914996
177	0xbdbfc1f6	-0.09363167
178	0xbca90dd3	-0.020636475
179	0x3dd01faf	0.10162293
180	0x3d847e8d	0.0646945
181	0xbdc7b42b	-0.09751161
182	0xbd974e52	-0.07387985
183	0x3d07ce6c	0.033155844
184	0x3dbe028f	0.09277832
185	0x3d2c11c1	0.04200912
186	0xbcce13b0	-0.025155872
187	0x3d5dad83	0.05412055
188	0xbd685ce3	-0.05672921
189	0xbdbca32c	-0.0921081
190	0xbc568a8c	-0.013094556
191	0x3d61b570	0.055104673
192	0xbdc998e1	-0.098436125
193	0xbd39b622	-0.04533971
194	0xbda598a3	-0.08085754
195	0x3a021788	0.0004962613
196	0xbdd9c522	-0.10633303
197	0xbd4a1717	-0.049338426
198	0x3cddd9d1	0.027081402
199	0x3d8f1a2e	0.06987415
200	0xbd56d457	-0.052448597
201	0x3d6f376d	0.058402468
202	0x3d814653	0.063122414
203	0x3b870ac4	0.0041211564
204	0x3c88a614	0.016680755
205	0xbda347c4	-0.079726726
206	0x3db4d357	0.088293724
207	0xbc3efa1e	-0.011656312
208	0xbd524fa8	-0.051345497
209	0x3d85febc	0.06542727
210	0xbcc4d11e	-0.024025496
211	0x3d076294	0.033052996
212	0xbd016230	-0.03158778
213	0x3cf33f37	0.02969323
214	0xbd50aea0	-0.050947785
215	0xbdfd4d8f	-0.12368309
216	0xbcb39024	-0.021919318
217	0xbd9e4309	-0.0772763
218	0x3d4925f4	0.04910846
219	0x3d32aa6c	0.04361956
220	0x3cecda19	0.02891259
221	0xbd4d5d5a	-0.050137855
222	0xbd94c0df	-0.0726335
223	0xbde8e7d1	-0.113723405
224	0xbc864bc6	-0.016393553
225	0xbd01fda0	-0.031736016
226	0xbd0150e0	-0.03157127
227	0xbcb8b483	-0.022547012
228	0xbd44ce38	-0.048048228
229	0xbda1fd45	-0.079096355
230	0x3dd044ee	0.10169397
231	0xbdc630d5	-0.09677283
232	0x3dca4e3d	0.09878204
233	0x3dd17cca	0.1022888
234	0x3db79696	0.08964269
235	0xbd0a30bd	-0.033737887
236	0x3d0a27b1	0.03372926
237	0x3cf8454d	0.030306483
238	0x3cc6e7f4	0.024280526
239	0xbd62118e	-0.055192523
240	0x3ccbd7b3	0.024883127
241	0x3d7fc59a	0.062444307
242	0x3d2494a9	0.040180836
243	0xbd82df7d	-0.06390283
244	0x3cbbe526	0.022936415
245	0xbdbd090b	-0.092302404
246	0xbde95e13	-0.11394896
247	0x3b6c0204	0.0036011944
248	0xbc7e5444	-0.01552302
249	0x3c05b750	0.008161381
250	0x3d8fbbfa	0.070182756
251	0xbcdcc0ed	-0.026947463
252	0xbdc76ae8	-0.097371876
253	0x3d28ff94	0.041259363
254	0xbc694354	-0.014237244
255	0xbd9eb58c	-0.07749471

advantage.2.bias f4 [3]
0	0x3ca7bf25	0.020476887
1	0xbd613e26	-0.05499091
2	0xbd320d6a	-0.043469824
