model/DuelDQN/checkpoint_1100.pth (torch, 287045 bytes, 9 tensors)

feature.0.weight f4 [256, 16]
000000 55 22 ab bc cf 47 af bd 89 74 99 3b e5 10 dd 3d
       -0.020890394 -0.08558618 0.0046830815 0.10794238
000010 7e f1 a5 bd a8 03 c4 3c 94 17 29 be eb bc a2 bd
       -0.081027016 0.023927525 -0.165129 -0.079461895
000020 69 f0 63 bc f1 c4 16 bd 72 02 72 be f9 90 ac be
       -0.013912299 -0.03680891 -0.23633745 -0.33704355
000030 b8 ef bf bd 28 40 b2 bd b0 91 2e bd 78 e8 4b be
       -0.093718946 -0.08703643 -0.042619407 -0.19912899
000040 33 76 27 3e 09 a2 ab bd d3 f2 d0 be 8a 73 59 3e
       0.16353683 -0.08380515 -0.4081026 0.21235481
000050 98 6d ca be 03 db 1f bf bf 65 5c be 82 56 1c bf
       -0.39536738 -0.6244356 -0.21523188 -0.610695
000060 6c 42 47 be ec 8c 8d 3a f8 2b c1 be 08 02 c8 be
       -0.19458932 0.0010799444 -0.37728858 -0.3906405
000070 72 03 74 3d 68 c6 b1 bd 00 d1 cc bd d8 59 78 3c
       0.0595736 -0.08680421 -0.10000801 0.015158139
000080 aa 55 50 3d f9 be 67 be 22 c3 01 be f3 0c 9e be
       0.050862946 -0.22631444 -0.12672094 -0.30869254
000090 25 74 8f 3d fb 2b 90 be 51 84 a4 3d fe 5c b8 bd
       0.07004575 -0.28158554 0.0803305 -0.09002112
0000a0 24 99 d6 bc 6b cd 68 bd de 4c 3c be b0 b4 f4 3a
       -0.02619607 -0.056836527 -0.18388698 0.0018669572
0000b0 04 73 78 3d 92 63 98 be 38 73 a1 bd 71 6d 5c bd
       0.060656562 -0.29763466 -0.07883304 -0.05381531
0000c0 dc c2 4b be 54 cd 9b 3d 04 ee 5a be 47 a8 7b 3d
       -0.19898552 0.076075226 -0.21379858 0.06143978
0000d0 e4 9b 90 be 1c d8 87 be 37 cf 2c bc 4a 69 4d be
       -0.28243935 -0.26532066 -0.010547451 -0.20059696
0000e0 75 3d 45 be 1c 75 58 be d3 41 cc 3c 7c 98 ad be
       -0.19261725 -0.21138424 0.024933731 -0.339054
0000f0 db 32 75 bd a5 3b 10 3d ee 7a 5e 3e 8f ab c9 3b
       -0.059862953 0.03521313 0.21726581 0.0061544846
000100 78 60 a6 be cf 30 29 be 4e df a4 be f5 df f0 3d
       -0.32495475 -0.16522525 -0.32201618 0.117614664
000110 92 73 b9 be 19 ad 06 bd be 2d 6a bd 8d 28 16 bf
       -0.36220986 -0.032879923 -0.05717253 -0.58655626
000120 af 60 6a be 5e 3b 0d be c7 ec 1e be a0 f5 3e be
       -0.22888444 -0.13792178 -0.15520011 -0.18648386
000130 fb a5 8a be 4a 22 b5 3e 53 dd 0f be 62 4d 59 bd
       -0.27079758 0.35377723 -0.14049272 -0.053052314
000140 19 73 38 3d ea 28 e1 3d 83 d4 4f bc 15 3d a8 be
       0.04503164 0.10994132 -0.012684944 -0.32859102
000150 3b 9c dd bd 5f 3b bd bd ef d5 da bd 3b ef 96 3d
       -0.10820814 -0.0923984 -0.10685336 0.07369848
000160 04 84 25 be 9a 77 8d bc d9 cc aa bd dd ae 47 bd
       -0.16163641 -0.017268945 -0.08339853 -0.048750747
000170 a3 62 88 be f5 68 15 bc c9 e7 13 3e 3d b7 76 3e
       -0.26637754 -0.009119262 0.14443888 0.24093337
000180 8b 44 1a bf e7 45 42 3e 79 29 3c 3e 18 39 e3 be
       -0.6026084 0.18971978 0.18375196 -0.44379497
000190 35 e5 b3 be 20 8d 0f be 9d 94 2c be 61 91 62 be
       -0.3513581 -0.14018679 -0.16853566 -0.2212577
0001a0 f7 ea bc be f2 87 65 be 44 86 97 3c 20 23 7b be
       -0.36898014 -0.2241514 0.01849664 -0.24525118
0001b0 a5 1a af bd cb b3 d7 3d 7e e9 7e be c8 99 8c be
       -0.08550004 0.1053234 -0.24893758 -0.27461076
0001c0 70 9d 9d be 1b aa 89 3e f1 15 d5 3d 51 a6 1a 3e
       -0.30784178 0.26887593 0.104045756 0.15102507
0001d0 0f cf cb be da 76 47 be 77 87 ec be 92 09 46 bf
       -0.3980641 -0.19478932 -0.461971 -0.77358353
0001e0 ad c4 a0 be b6 20 a6 be 3d a3 d8 bd 66 99 37 be
       -0.31400052 -0.3244683 -0.1057801 -0.1792961
0001f0 d6 33 4c bd bd 47 8b 3d d2 fe 2b 3e 51 48 04 3e
       -0.049854122 0.06800792 0.16796425 0.12918212
000200 24 62 32 bd 11 6c 6d 3d 85 15 26 bd 2a c4 a2 bd
       -0.043550625 0.05796439 -0.040547866 -0.079475716
000210 c5 17 76 be 6a dc a8 be 9b 5e a4 be 5b 05 c9 bd
       -0.24032505 -0.32980663 -0.32103428 -0.098154746
000220 19 61 a9 bd fb d1 bd be 1d d6 01 bf 6f 37 46 bd
       -0.08270473 -0.37074265 -0.50717336 -0.04839271
000230 29 2d 68 3d b6 c8 2c be 74 36 9b be b1 4e 8f 3b
       0.056683693 -0.1687344 -0.30314982 0.0043733944
000240 a4 39 0c 3e 9d 30 ea 3d dc a4 19 3d 76 4b c5 3d
       0.13693863 0.114350535 0.037510738 0.09633534
000250 6e 04 a7 be 1c d4 9a be a8 65 c0 be d2 de 76 be
       -0.32620567 -0.30239952 -0.37577558 -0.24108437
000260 ec d7 11 bd 98 2e 43 bd 52 03 2b bf 70 06 29 be
       -0.03560631 -0.047651857 -0.6680194 -0.16506362
000270 53 dd 11 be f2 82 d8 be df d7 7f be de db 11 3e
       -0.14244585 -0.42287403 -0.24984692 0.14244029
000280 b0 d4 89 3d 32 c1 39 bf 16 54 f4 3e ec 64 cb bd
       0.0673002 -0.7256042 0.47720402 -0.09931359
000290 0a 33 1a be 3a 37 fa be 41 ed be bd 76 f6 04 bf
       -0.15058532 -0.4887026 -0.09322596 -0.5193857
0002a0 0a 3f 5a 3c 31 9c 1e 3e a1 4f c4 be 9c 41 98 be
       0.013320694 0.1548927 -0.38342002 -0.29737556
0002b0 45 ad d7 3d 7c 6f 83 bd ba 3c 90 be 96 32 23 bd
       0.105310954 -0.06417748 -0.2817133 -0.039843164
0002c0 46 24 05 be 08 35 a2 3b 98 e4 b6 bc 89 07 af bd
       -0.13002118 0.0049501695 -0.022325799 -0.08546359
0002d0 c8 3b 5a be ca 5f 0a be 26 e3 3a be 40 31 85 bd
       -0.21311867 -0.13513103 -0.18250713 -0.06503534
0002e0 79 52 e9 3d b8 5e 8b 3d 53 28 85 3d 2c b4 3e be
       0.113926835 0.068051755 0.06501832 -0.18623418
0002f0 6f 47 d1 3c dc ac 92 bd a8 80 56 3d 8a be 3b 3e
       0.025546758 -0.071618766 0.05236879 0.18334404
000300 58 7e 05 bf 38 a6 75 3e d2 a6 42 3e 40 6a 08 bf
       -0.5214591 0.23989189 0.1900895 -0.53287125
000310 89 b4 16 bf cb fd 8f 3e 7d 0e 62 3e 35 cc 78 bf
       -0.58869225 0.28123316 0.2207584 -0.97186595
000320 0b a7 5d bf 54 6f b5 3d d6 8f 87 3e 6d bf a5 bd
       -0.8658301 0.08859125 0.26476926 -0.08093152
000330 69 13 4b bd 24 58 00 bd ca 44 23 3b cf 2b 32 3d
       -0.049579058 -0.031334057 0.0024912828 0.04349881
000340 f1 e3 ef 3e d5 f2 d9 3e 15 10 79 bf 8b 90 e9 be
       0.46853593 0.4256808 -0.97290164 -0.4561809
000350 fa f8 90 be ba d3 c4 bd d5 97 fc bd 5e d4 ca be
       -0.28314954 -0.09610696 -0.12333647 -0.39615148
000360 6f 7c b2 be 36 b3 0a 3e 6c 51 a9 bd 94 4e 86 be
       -0.3486056 0.13544926 -0.08267483 -0.26231825
000370 c1 f8 0e bd 4e 96 82 3e be a9 8d bd 17 31 91 bd
       -0.0349052 0.25505298 -0.069171414 -0.07089441
000380 45 b8 51 3d 3b 0d f1 3d 80 f1 37 bf 76 e6 7c bd
       0.051201124 0.11770102 -0.71852875 -0.061743222
000390 f5 53 81 3b 35 32 e7 be 31 f6 3e 3f f5 f4 1f bf
       0.003946776 -0.45155492 0.7459441 -0.6248315
0003a0 2f c0 4b 3e 68 b1 de 3e 5a 2e 9c be f2 49 da bc
       0.19897531 0.43494725 -0.30504113 -0.026646588
0003b0 7f 9c 29 3e 79 38 45 3e 7b f5 a9 3e 65 d0 03 3f
       0.16563605 0.19259824 0.331951 0.5148986
0003c0 ed 39 0e 3d 27 18 3c bd ad f2 bc 3d 99 76 fe bd
       0.03472321 -0.04592147 0.09225974 -0.124249645
0003d0 8e 60 25 be 60 93 05 be d4 c0 e4 bd 35 bc 9b 3d
       -0.16150114 -0.130445 -0.111695915 0.07604257
0003e0 56 4b 40 be 2f 08 7c be b2 30 7d bc bd c0 a2 bd
       -0.18778738 -0.24612497 -0.015453504 -0.07946918
0003f0 16 d9 05 bd 50 dd f7 bd 60 49 f8 bd 64 31 74 bd
       -0.032677732 -0.12102759 -0.1212337 -0.059617415

feature.0.bias f4 [256]
000000 07 16 24 be b7 78 be be be b5 3e be d3 82 62 be
       -0.16024028 -0.37201473 -0.18624017 -0.22120218
000010 db 0b 44 be b3 0d ca be 7c 1c 9e be 05 d3 08 bf
       -0.19145148 -0.39463577 -0.30881107 -0.5344699
000020 cc 2c eb bc 4a 6c bc be 04 67 29 bf 5f 5f 99 be
       -0.028707884 -0.36801368 -0.66172814 -0.29955575
000030 d2 ba 9a bd a1 e7 14 bf 07 8a 1a be 2e db d0 bd
       -0.075551644 -0.5816594 -0.15091716 -0.10198055
000040 62 bf b3 be 98 eb b0 be 91 73 03 bf 34 5c b2 be
       -0.3510695 -0.34554744 -0.51348215 -0.3483597
000050 e9 c2 d4 bd ea 65 5b be 24 df ae 3e 1b b4 00 bd
       -0.10388739 -0.21425596 0.34154618 -0.031421762
000060 d1 06 89 be 72 bc f2 bd 71 86 66 be 6d 16 ef bd
       -0.26763013 -0.11852349 -0.22512223 -0.11674199
000070 55 de cb 3e 91 cb c0 be d2 22 b5 be 07 db ba be
       0.39818063 -0.3765531 -0.35378128 -0.3649523
000080 ea 84 cd be a9 a9 98 be ce 9c a2 be 59 de ea be
       -0.40140468 -0.2981694 -0.31760257 -0.45872763
000090 5d f5 4e be b9 bc e4 be cf 65 81 be dd c8 d4 3c
       -0.20210786 -0.44675234 -0.25272986 0.025974685
0000a0 94 73 c6 be 8e ff 81 be 94 e9 46 bf 71 a9 a7 be
       -0.38760054 -0.25390285 -0.7770016 -0.3274646
0000b0 40 85 86 be b1 50 7f bd 5a 92 ba bd e5 83 14 be
       -0.26273537 -0.062332813 -0.091099456 -0.14503439
0000c0 6f 1c e8 be 42 2e e2 bd 41 1c ac be 21 a4 ed bd
       -0.45334193 -0.11043979 -0.33615306 -0.11603571
0000d0 cc 61 16 3d a9 d1 99 be 28 64 bb be 7e 70 f4 be
       0.03671436 -0.3004277 -0.3659985 -0.47742075
0000e0 0f 01 57 be 33 6c cb be 0f 4e 0e bd 7d c4 bb be
       -0.20996498 -0.39730987 -0.03474241 -0.36673346
0000f0 b8 d2 65 be 29 8f 01 be 7c bb f1 be 59 08 d6 be
       -0.22443664 -0.12652268 -0.47213352 -0.41803244
000100 54 c1 8f 3e 69 37 ca bd 3a 27 3b 3f cc 03 e0 3d
       0.28077185 -0.0987385 0.7310673 0.10938224
000110 fc 65 3c bf 17 d4 53 bf b0 a4 4e bd eb 8a 2b bd
       -0.73593116 -0.827455 -0.050450027 -0.04188053
000120 3e e4 a8 be 00 c1 c6 be 7a 9e 6a 3d 52 00 02 bf
       -0.32986635 -0.38819122 0.05728004 -0.5078174
000130 97 04 2c be fb 68 15 bf 93 dd 04 3d f3 03 de be
       -0.16798626 -0.5836331 0.032437872 -0.43362388
000140 41 61 e8 be 8d fa 01 be dc 49 d6 be ae 7d f0 be
       -0.453867 -0.12693234 -0.41853225 -0.46970886
000150 89 ad 90 be c9 20 9c bd 1a 30 1e be b3 ed e1 be
       -0.28257397 -0.07623441 -0.15448037 -0.44126663
000160 5d 6e c7 be f5 9a 9b be 17 a1 f0 be 7a 49 40 bd
       -0.38951388 -0.3039166 -0.46997902 -0.046945073
000170 5e a8 14 bf bf ab a9 be 2d 35 a2 be 0d 4a 88 be
       -0.5806941 -0.33138844 -0.31681195 -0.26618996
000180 67 05 04 bf bb 31 99 be 73 55 a6 be 16 39 e9 be
       -0.51570743 -0.29920754 -0.32487068 -0.45551366
000190 5e ee 89 be 3e c0 a3 be fb e8 38 bf 3c 1a 12 3e
       -0.26939672 -0.31982607 -0.722305 0.1426782
0001a0 7d 04 da be b1 86 6c be 19 74 50 bf 79 2b f7 be
       -0.4258155 -0.23098256 -0.8142715 -0.48275355
0001b0 dd 39 7e be 1f ae 0d be 4a 28 ed be 33 ac fd bd
       -0.2482676 -0.13835953 -0.463198 -0.1238636
0001c0 53 63 dd bd e2 f0 a7 be 47 b1 bc be 9d d8 60 be
       -0.1080996 -0.32800967 -0.36854002 -0.21957631
0001d0 92 b0 f4 bd b3 d9 12 be 0a f4 95 be 7a 69 63 be
       -0.119477406 -0.14340858 -0.2928775 -0.22208205
0001e0 99 83 90 be fc ba a3 be 72 98 0d be 83 df 2f 3d
       -0.282254 -0.31978595 -0.13827685 0.042937767
0001f0 50 2d 2a 3e 7d 88 0c be 65 ee ca bd 8b ed da be
       0.16618848 -0.13723941 -0.099087514 -0.42759356
000200 10 d3 62 bf c3 25 7b be 6b e9 b0 be bd ce 97 be
       -0.88603306 -0.24526124 -0.34553084 -0.29649916
000210 8f 0c b3 be 68 88 13 bf 03 ea 85 be f6 4a 85 be
       -0.3497052 -0.57630014 -0.261551 -0.26033753
000220 d4 b8 b5 be d9 0d ae be 6c 46 9b be ea d0 12 be
       -0.35492575 -0.3399494 -0.30327165 -0.14337507
000230 2b a4 25 3e 73 85 a1 3e 6f 4d 03 be 53 1e 98 bd
       0.16175906 0.31547126 -0.12822507 -0.07427659
000240 26 b7 85 be 45 e6 e7 be 88 7d 3f be e0 99 75 be
       -0.26116294 -0.4529287 -0.1870023 -0.2398448
000250 47 6b 59 bd 39 b3 8c be 59 10 af be d8 9d 51 be
       -0.053080823 -0.27480486 -0.3419216 -0.20470369
000260 c3 5a c9 be e1 60 04 bf f5 cc 66 be e0 cf 19 be
       -0.39327058 -0.51710325 -0.22539122 -0.15020704
000270 e8 41 e4 be 97 ef 6d bc 65 d4 86 3e 6e b4 ae 3e
       -0.44581532 -0.014522455 0.2633392 0.34122032
000280 a7 d6 6e 3e a2 fd dc be 99 27 57 be ad da d3 3d
       0.23324071 -0.43162256 -0.21011199 0.103444435
000290 4e dd 42 be e0 d5 d4 be 6c 24 11 be fe 8c d0 be
       -0.19029734 -0.41569424 -0.1417405 -0.40732569
0002a0 b4 1f 85 bc be b7 d6 bd ce 23 d1 be 24 9f df 3a
       -0.016250469 -0.10484265 -0.4084763 0.0017060977
0002b0 d7 07 84 bc 18 14 a1 be a4 8a bb bd 96 3d 6c be
       -0.01611702 -0.31460643 -0.09157303 -0.23070368
0002c0 f9 b7 79 be 65 24 1b bc 95 9b 58 bd 5c 21 8c be
       -0.24386586 -0.009469126 -0.05288275 -0.273692
0002d0 ae 16 23 bf 1f 25 cb be a5 61 a1 be 89 0e 07 be
       -0.6370648 -0.3967676 -0.3151981 -0.13189138
0002e0 2e e6 d4 bc 7b 3c 41 bd b6 75 3c be a4 49 b5 be
       -0.025988664 -0.04717682 -0.18404278 -0.35407746
0002f0 bd 40 15 be 56 b2 96 bd 2b 2e 90 be 2d 17 db be
       -0.14575477 -0.07358234 -0.28160223 -0.4279112
000300 41 b6 06 be be 8c 8f be ea 4d c8 be 56 2a 07 be
       -0.13155462 -0.28037065 -0.39121944 -0.13199744
000310 db 7d 9e be 6a 29 bd be 66 40 a6 be d6 33 08 be
       -0.30955395 -0.3694566 -0.32471007 -0.13301024
000320 a7 ba a9 be c0 ac 00 bf eb 76 91 be 43 14 a3 be
       -0.33150217 -0.50263596 -0.2841104 -0.31851396
000330 b5 67 b2 3e 31 75 3d be 51 00 4b 3e 29 c8 4c be
       0.34844747 -0.18501736 0.1982434 -0.1999823
000340 99 ea 6e be 80 76 55 be a3 fd f8 bd b8 18 8a be
       -0.2333168 -0.20845985 -0.12157752 -0.26971984
000350 36 57 49 be e8 0b 29 be 94 43 24 be 73 af 22 3e
       -0.19662175 -0.16508448 -0.16041404 0.15887241
000360 17 d6 60 bf 7c a4 5a be 36 13 7b be 5b 95 e6 bd
       -0.87826675 -0.21351808 -0.24519047 -0.11258956
000370 39 71 5e bf aa 58 0f bf ff f1 17 3f 3f 02 34 be
       -0.86891514 -0.55994666 0.5935363 -0.17578982
000380 18 35 72 be cf 34 86 be 3f e5 3d bf 2f b1 31 be
       -0.23653066 -0.26212165 -0.74177927 -0.17352746
000390 49 4a 38 be c4 4d ee be a0 33 ec be c9 eb 7b be
       -0.17997088 -0.46543705 -0.46133137 -0.24601664
0003a0 ee a4 a9 be 0f b9 2c be d1 d9 a4 bd cf e7 ee be
       -0.33133644 -0.16867469 -0.08049358 -0.4666123
0003b0 d7 70 6d 3e 9e 58 fc bd 9a c1 15 bd 4c 96 85 be
       0.23187576 -0.1232159 -0.036561586 -0.2609123
0003c0 6f 4c 53 be b3 ea 49 be 4e c5 af be f7 70 b2 be
       -0.20634626 -0.19718437 -0.3433022 -0.3485181
0003d0 7d 61 22 bf 16 d8 d3 3c bf 11 81 bc ea f0 1c bf
       -0.63430005 0.025859874 -0.015755532 -0.61305106
0003e0 45 ba 9c be be 03 6f be 82 ab 92 be 0f 41 ce be
       -0.30610862 -0.23341271 -0.28646475 -0.4028401
0003f0 87 b5 ab be 84 8c 5b be c8 2b 12 be dc 6e e3 be
       -0.33536932 -0.21440321 -0.14274514 -0.44420516

value.0.weight f4 [128, 256]
000000 17 69 23 bd f1 37 fc bc 9a 9b bc ba 56 1f 60 3c
       -0.039895143 -0.030788394 -0.0014389635 0.013679346
000010 38 81 9e 3c 66 ad 24 bd e7 d6 27 3d e8 13 0f 3d
       0.019348726 -0.040204428 0.04097643 0.034931093
000020 17 a7 ee 3c 57 a1 20 bd 42 65 a4 bd 3d dc 78 3d
       0.029132409 -0.039216366 -0.08027126 0.06075691
000030 c5 2d f3 bc 96 9a 7a bd e0 4a b7 3c b2 32 04 bc
       -0.02968491 -0.06118258 0.02237457 -0.008068727
000040 56 bf d3 bc 92 5e 2b 3d 8b 0d 18 3d 61 a5 5c bc
       -0.025848072 0.041838236 0.03712229 -0.013467164
000050 23 d6 e8 bc 73 b7 15 3d c7 fa 0d bb 02 09 9f bd
       -0.02842242 0.036551904 -0.0021664368 -0.0776539
000060 9d bd 7e bd 00 0e 44 3c 91 2f 49 bd b2 39 ee bc
       -0.062192548 0.0119662285 -0.04911763 -0.029080246
000070 5e cb 4b bd 86 3e 22 3d 76 f3 6f 3c 35 15 a1 3c
       -0.049754493 0.03961041 0.014645448 0.019663433
000080 22 9b da 3b ea fd af 3c e5 f0 2b 3d 69 1f 28 bc
       0.0066713253 0.02148338 0.04197778 -0.010261395
000090 d4 dc 19 bd a5 0e 2a bd 79 31 63 bd 2a 38 b7 bd
       -0.037564114 -0.041517872 -0.055467103 -0.08946259
0000a0 3b 08 93 bc e6 c8 56 bd 10 39 09 bd f5 fb f6 bc
       -0.01794826 -0.052437685 -0.033501685 -0.03014944
0000b0 c2 3a 12 3d 3f 0b 3b 3d 71 f9 89 bc b8 67 e2 bb
       0.035700567 0.045665022 -0.016842576 -0.006909337
0000c0 af 5e 2a bd 32 03 36 bd c7 82 f2 bc 59 34 67 bd
       -0.041594204 -0.04443664 -0.029603375 -0.056446407
0000d0 b6 34 3a bb a9 3d 6d bd e1 79 3b bd c2 79 08 bb
       -0.0028412766 -0.05792013 -0.04577053 -0.0020824526
0000e0 bf 0e 6b bc 31 99 fd bc d0 8a 5c 3d c1 d6 4a 3c
       -0.014346777 -0.030956836 0.05384332 0.012380303
0000f0 88 14 01 bd 39 fb 41 bd 29 4d 5b bc 0e 51 5b bd
       -0.03151372 -0.047358725 -0.013385096 -0.053544097
000100 fe 00 bb 3c ed 58 6d bd 7a c7 c5 bd 3b 83 93 3c
       0.022827622 -0.057946134 -0.09657188 0.018006912
000110 fa 88 01 bc ef d4 02 bd b7 7b 53 bd 35 22 93 bd
       -0.007906193 -0.03194135 -0.051631656 -0.07184259
000120 66 3a 60 bd 6b 82 34 bd 71 6b a4 bd 29 9f 87 3c
       -0.054743193 -0.04406969 -0.08028305 0.016555386
000130 cc 83 3a 3d d1 5e 1b bd 37 b9 b3 3c 97 3b 68 bd
       0.045535848 -0.03793222 0.021938903 -0.056697454
000140 47 51 50 3c fc f8 83 bd da 33 63 ba b7 e4 81 bd
       0.0127146905 -0.064439744 -0.0008667089 -0.06342452
000150 78 42 d2 3c 62 03 c9 bd 25 85 2e 3d 21 46 44 bd
       0.02566646 -0.09815098 0.042607445 -0.047918443
000160 88 15 12 bd 7d 97 53 bc 50 b1 3e bc 3c 16 6b 3c
       -0.035665065 -0.012914536 -0.011638954 0.014348563
000170 ca dd 4d bd b9 fc cb bd 26 f6 44 bc c8 d5 ff 3c
       -0.050260343 -0.099603124 -0.012021577 0.031229869
000180 bd 9f 42 bc 20 dd 6c 3d b6 7a 62 bc 2d 94 6c bd
       -0.011878905 0.05782807 -0.013823202 -0.0577585
000190 b4 fd 9b bc 78 6a 10 3c 0e 43 23 bd 0e 89 77 3c
       -0.019041874 0.008814447 -0.03985887 0.01510836
0001a0 8f cc 10 3b 3c b6 8b bd a0 04 13 3c d0 12 bf 3b
       0.0022094583 -0.06821868 0.008973271 0.0058311
0001b0 ee e8 af bc 06 19 94 3b 16 83 13 3d c5 20 dd bd
       -0.021473374 0.0045195846 0.036013685 -0.10797266
0001c0 78 09 46 3d 82 32 e6 bd 45 47 b4 3c 7a 39 f9 3b
       0.048348874 -0.11240102 0.02200664 0.0076057287
0001d0 6c 3c 4b bc 70 bc b6 3b a0 30 03 3c 12 1e a5 ba
       -0.012404542 0.0055766627 0.008007199 -0.0012597463
0001e0 d2 60 60 bd 43 06 3e b9 fe 45 3d 3d 8c ad 1f bd
       -0.054779835 -0.00018122145 0.046209328 -0.038983867
0001f0 58 8c 23 bd 1b 29 96 bd 0a f8 30 3d 66 a4 9b bd
       -0.039928764 -0.07332059 0.0432053 -0.07599716
000200 3b 82 ba 39 59 5f f1 bd 4d 00 80 bd ce 79 41 3d
       0.00035573714 -0.11785764 -0.06250057 0.047235303
000210 28 b8 12 3d da 31 3c bc c6 7f f8 bc 1f 5f 22 bd
       0.035820156 -0.011486495 -0.030334365 -0.039641496
000220 b4 db 62 bd da 92 2a 3c f4 28 4d bc df 96 41 bd
       -0.055385306 0.010410989 -0.012521971 -0.047263023
000230 2e 6a 81 3c 21 d6 05 bd 30 99 5e bc 0c b7 9e 3b
       0.0157977 -0.032674912 -0.013586327 0.004843598
000240 47 f2 8b bc 37 d7 2e 3d 99 5e 86 bc 7a 42 8e bd
       -0.0170833 0.042685714 -0.01640253 -0.06946273
000250 cf c5 2f bd 68 81 e6 3c 45 97 f0 bc 0d 24 80 bc
       -0.042913254 0.028137878 -0.029369006 -0.01564219
000260 72 e0 38 bd b8 27 df bc 3f 8f 9f bd ab 93 7c bd
       -0.045135923 -0.027240619 -0.07790994 -0.061664265
000270 dd 69 67 bd 76 81 14 3d da d9 86 bd 50 e5 ee bc
       -0.056497443 0.036256276 -0.06584521 -0.02916208
000280 c0 86 e9 3c e0 6c 1a bd 92 1e 5d bd 22 b7 75 bd
       0.028506637 -0.037701488 -0.053984232 -0.059989102
000290 87 15 9a bd 33 14 29 bd df 7a bc 3c 7d 4b 4e bd
       -0.07523637 -0.04127903 0.023007808 -0.05036496
0002a0 31 de b0 bd 38 63 84 3c e2 6f c7 bc f4 a4 11 bd
       -0.0863613 0.016160592 -0.024345342 -0.035557702
0002b0 d0 a5 91 bc a6 97 83 bd 90 ea c3 3a 69 2a cd ba
       -0.01777926 -0.06425409 0.0014947224 -0.0015652898
0002c0 dc 31 8f bb c4 50 ab 3c cd 24 df bc 1f db fe ba
       -0.0043699574 0.020912535 -0.027239228 -0.0019443965
0002d0 46 b0 0f 3d 0b 90 4f bd 6e 1d e8 bc 80 e3 95 3a
       0.035080217 -0.05067448 -0.028334346 0.0011435598
0002e0 f0 71 f4 ba 2e e6 aa bd 87 da d3 3c fc 51 af 3c
       -0.0018649679 -0.083446845 0.025861038 0.021401398
0002f0 00 cb c8 bc 5f e3 08 bd 72 37 7d 3c dd 2e 8a bd
       -0.02451086 -0.033419963 0.015455114 -0.0674722
000300 8c a1 1e bd 3c ee 6d bd b4 c1 32 bb 33 95 59 bd
       -0.03872828 -0.058088526 -0.00272761 -0.053120803
000310 99 c8 83 bd 63 52 23 bd ba 9b 48 bd 16 1d d2 3b
       -0.06434745 -0.039873492 -0.048976637 0.0064121587
000320 09 d8 23 bd 3a e7 f3 bb f8 aa 05 bd ae e0 1a bd
       -0.04000095 -0.007443336 -0.03263375 -0.037811927
000330 de 5f 22 bc c3 c7 a3 bd 7a 30 98 bd d0 da 64 bd
       -0.009910552 -0.07997086 -0.07431121 -0.05587274
000340 4e 39 72 bd d7 9d 3d bd a5 8c 41 3c 28 86 67 3d
       -0.05913668 -0.046293106 0.011813317 0.056524426
000350 d3 3c f0 bb e2 ce cf bc 0a 76 6d 3b 26 89 30 3d
       -0.0073314696 -0.025367204 0.0036233687 0.043099545
000360 04 65 17 bd 67 14 54 bd 2e 52 65 bd e0 43 41 3b
       -0.03696157 -0.05177727 -0.055986576 0.002948992
000370 55 54 80 bd 0d 5c 61 3d 5a 10 3b bd dd 8c b9 bd
       -0.06266085 0.055019427 -0.04566989 -0.09060071
000380 b7 3e b5 3c c8 f1 fc bc 6d ff d4 3d 8e 37 a1 3c
       0.022124631 -0.030877009 0.10400281 0.01967981
000390 92 73 29 bd 1a 97 b2 3c e8 d3 e0 bc 19 0a 0e 3c
       -0.041369982 0.021800566 -0.027444795 0.0086694
0003a0 ae 67 4c bc 6a 1c 44 3d 0e 65 09 bb 83 91 71 bb
       -0.012475891 0.04787866 -0.0020964774 -0.0036860413
0003b0 9b 6f 92 bd 4d a7 40 3d bd 61 f6 bc dd 70 e2 ba
       -0.07150193 0.04703455 -0.030075902 -0.0017276068
0003c0 45 1c 8c bc c3 d9 1c ba 8e bc 37 bc 54 f7 c1 3c
       -0.017103324 -0.0005983377 -0.011214389 0.023677506
0003d0 06 82 31 bd 9e 7d 3e bd e2 31 99 bd c8 11 05 3c
       -0.04333689 -0.046506517 -0.074802175 0.008121915
0003e0 da ea 2b bd 12 29 c8 3c 01 02 04 bd 70 96 38 3d
       -0.04197202 0.024433646 -0.032228474 0.045065343
0003f0 71 5f 6a 3d 5f b8 8e bd 1c af 9b bc 10 ad 85 bb
       0.057219926 -0.0696876 -0.019004397 -0.0040794685

value.0.bias f4 [128]
000000 46 56 a6 bd f4 28 d7 be 04 84 98 bd 6a b0 3f be
       -0.08121924 -0.42023432 -0.07447055 -0.1871964
000010 13 2a 8b bd ec 85 e6 bd 83 3c 0c be 69 32 97 be
       -0.067951344 -0.11256012 -0.13694958 -0.29530647
000020 15 28 07 be d2 2c 3b be 85 c7 98 be 1f 09 db bd
       -0.13198884 -0.18278816 -0.2983972 -0.10695099
000030 62 22 67 be 5c 79 f7 bd a2 e3 f8 bd 09 49 ff bd
       -0.2257171 -0.12083694 -0.121527925 -0.12465102
000040 1e 0a 54 be 51 77 12 be be 21 1c be ea 11 06 be
       -0.20706984 -0.14303328 -0.15247247 -0.13092771
000050 d0 fe 93 bd 3e 07 06 be 17 1f af bd 29 21 f7 bd
       -0.07226336 -0.130887 -0.08550852 -0.12066872
000060 05 18 06 be a4 8e 2c be 09 50 9e bd ab ce e8 bd
       -0.130951 -0.16851288 -0.07730109 -0.11367544
000070 41 26 f2 bd ad f0 ee bd 26 30 36 3d 36 c7 9e bd
       -0.118237026 -0.11666999 0.04447951 -0.0775284
000080 17 cf fe bd 18 a5 6c bd a3 3f 3f be b5 6f d8 bb
       -0.12441843 -0.057774633 -0.18676619 -0.0066051134
000090 80 05 a8 bd 2f fe a3 be 7c 7a 66 bd 9f ef 5a bd
       -0.08204174 -0.32029864 -0.056269154 -0.053451177
0000a0 17 cd b0 bd ef cf a2 bd 69 2b 7d bd 30 4b a7 be
       -0.08632868 -0.079498164 -0.061808977 -0.3267455
0000b0 71 70 e6 bd e6 b4 71 bd ef 87 40 bd 87 95 fa 3e
       -0.11251915 -0.05901041 -0.047004636 0.48942205
0000c0 2d f2 5b be b1 57 80 be e7 f4 c4 bd c0 18 af be
       -0.21479101 -0.25066903 -0.09617024 -0.3419857
0000d0 9a 17 6e be e1 f5 c3 bd 67 78 f2 bc 07 f8 d2 bd
       -0.23251191 -0.09568382 -0.029598428 -0.10301214
0000e0 24 e3 05 be d9 bd bd bd d5 80 47 bd 8e bf ab bd
       -0.13074929 -0.09264726 -0.04870685 -0.083861455
0000f0 e8 5d 3d bd ba 2c 0f be 12 d8 b3 bd 70 bd 52 bd
       -0.046232134 -0.13981906 -0.087814465 -0.051450193
000100 37 1a 2c be 84 4e c4 bd e3 f9 8c bd cd 57 a9 bd
       -0.16806875 -0.09585288 -0.068835996 -0.082687
000110 fb da cf bd 8f 34 36 be 79 e6 db bd f7 28 94 bd
       -0.10149189 -0.17793487 -0.107373185 -0.07234376
000120 25 1c 59 be 4c bf 06 be e9 35 94 bd a6 bb 15 be
       -0.21202143 -0.13158911 -0.07236845 -0.14622363
000130 eb ed d9 bd a2 48 05 be e3 e5 6b bd 30 61 0a be
       -0.106410824 -0.13015988 -0.057592284 -0.13513637
000140 cc a9 0d be 0a f2 2a be 6e 2d ee be 39 42 70 bd
       -0.13834304 -0.16693893 -0.46519035 -0.058656905
000150 73 98 c9 bd 1b a4 a4 be 7a d7 0f be 11 ca d7 bd
       -0.098435305 -0.32156453 -0.14047042 -0.10536588
000160 71 fa cd bd fd c6 4d be 60 55 bc bd e0 de c6 bd
       -0.100575335 -0.2009544 -0.091959715 -0.09710479
000170 d7 3f 97 bd 1f 57 4f 3f f9 91 9b be 7a c4 f7 bd
       -0.07385223 0.8099231 -0.30384806 -0.12098022
000180 f7 7f 8c bd f5 8f cd bd 7f 93 2a bd e5 6d af 3c
       -0.06860345 -0.10037223 -0.04164457 0.021414706
000190 50 28 c2 be 57 f6 1c be 26 bc f6 bd 62 3c 1a be
       -0.3792138 -0.15328346 -0.12047605 -0.15062097
0001a0 30 48 43 be 47 ca a1 bd 56 1b 36 bd 5f ed 58 bd
       -0.19070506 -0.078999095 -0.044459663 -0.05296075
0001b0 b4 7b ae bd 1c 10 a1 be 15 df d1 bd e6 c2 fd bd
       -0.08519688 -0.31457603 -0.10247628 -0.123906896
0001c0 05 84 d6 bd cc ee 1f be 8f c7 ea bd c3 bc 06 be
       -0.104743995 -0.15618438 -0.11463844 -0.13157944
0001d0 68 97 fe bd bb 16 f1 bd 31 46 9c be 20 e6 53 be
       -0.12431222 -0.117719136 -0.30522302 -0.20693254
0001e0 dc c9 d5 bd 08 ff 52 be c5 08 74 be 86 ed 49 bd
       -0.10438892 -0.20605099 -0.2383147 -0.049298786
0001f0 92 1c 83 bd 83 1e b3 bd 04 61 8e bd 4b f2 7b bd
       -0.06401934 -0.08746054 -0.06952098 -0.061510365

value.2.weight f4 [1, 128]
000000 25 ae db 3c bd 38 dc 3c be 54 87 bc b8 19 83 bb
       0.026816437 0.026882524 -0.0165199 -0.0040008686
000010 22 89 13 3d 05 17 35 bb 64 75 e9 bc b5 f0 32 3e
       0.036019452 -0.002763213 -0.028498359 0.17474635
000020 92 cf 4b bc a4 cd 3d bf 24 41 ae bb 42 64 95 3b
       -0.012439625 -0.7414191 -0.005317824 0.004559071
000030 5b c5 4e be 79 0e 9f bc 87 02 97 bc c8 a7 8c 3b
       -0.20192473 -0.01941608 -0.018433822 0.004292462
000040 df bc f2 be a6 33 32 3c 6e b0 51 bb 07 e9 83 bb
       -0.47409722 0.010876572 -0.003199603 -0.0040255818
000050 64 f5 90 bc 7c 5b 3b 3c ec 6a ba 3c 66 4c 1d bd
       -0.017695136 0.011435386 0.022756062 -0.038402937
000060 fc e0 8f 3a ed b5 ed 3b 00 2a b6 bb a7 18 bd 3c
       0.0010977085 0.0072543533 -0.005559206 0.023083044
000070 5a 82 50 bb 64 51 27 bd 43 18 3b bd f1 16 57 bc
       -0.0031815977 -0.040849105 -0.045677435 -0.013128028
000080 de cf c5 bc 68 78 bc bc 24 03 32 3c be d6 f4 bd
       -0.02414697 -0.023006633 0.010865007 -0.11955021
000090 a7 b4 a0 bc 3e a1 86 3d 4a 3f d4 bc e3 83 71 bb
       -0.019617392 0.06573723 -0.025909085 -0.0036852292
0000a0 1a 29 ff bc c0 f1 c7 bb 57 02 a1 bc 62 87 99 be
       -0.031147528 -0.006101817 -0.019654436 -0.299861
0000b0 69 55 48 bc 88 e3 97 3a 0b 6b f3 bc 93 c0 09 3e
       -0.012227395 0.0011588195 -0.029714128 0.13452367
0000c0 aa 9f 1c bf 17 f6 f0 be 14 ab 7e 3c 80 26 0d 3d
       -0.6118113 -0.47062752 0.015543718 0.034460545
0000d0 1b ac 4b be 7a bd da 3c 57 1e fd bd 6e c1 1c bc
       -0.19889872 0.026701678 -0.123593025 -0.009567602
0000e0 04 4d c5 bd ab 5d 12 3a 38 46 f0 bc 2d bc 98 bc
       -0.0963383 0.00055834156 -0.029330358 -0.018644417
0000f0 4f cd 8a bd 64 15 46 3d a3 e2 bb 38 57 19 68 bc
       -0.06777441 0.048360243 8.959069e-05 -0.014166198
000100 80 18 85 bc 50 cd b5 bb 51 fa 1b 3c 52 22 c0 3c
       -0.016247034 -0.005548157 0.009520129 0.023453865
000110 c2 df e8 bc c5 e2 6f be 72 2b 1e 3c 11 6b 1a 3c
       -0.028427009 -0.2342635 0.009653913 0.009424941
000120 65 d7 b9 bb be c8 16 ba 12 51 a7 bb 02 fd 9f bb
       -0.005671429 -0.0005751959 -0.0051061 -0.004882456
000130 23 5b f9 3b 56 bf 35 bc 7a 66 11 3c c9 10 12 bc
       0.0076097413 -0.011092981 0.00887453 -0.008915135
000140 28 21 df bc 21 2e 9c 3c f2 98 8f bc 7d c4 79 bc
       -0.02723749 0.019064965 -0.017528985 -0.0152446
000150 9f 0d ab bc b5 e3 6c be 8e 17 ad 3c 0b ed 54 bc
       -0.020880518 -0.23133738 0.021129396 -0.012995969
000160 cf f1 ba bc 19 c8 6d bc d7 41 69 3c aa 40 a6 bc
       -0.022820381 -0.014513039 0.014236889 -0.020294506
000170 ad f5 00 3c c5 50 62 be 04 10 fa be 94 45 ed bc
       0.007871074 -0.22101124 -0.48840344 -0.028963841
000180 c6 69 14 bf 94 c6 ca bb 88 44 63 bc d4 f7 02 bb
       -0.579739 -0.006188223 -0.01387132 -0.0019984143
000190 3e dd ae bb 0f 4f 49 3c fb 7f c8 3c d2 61 0d bc
       -0.0053364327 0.012286915 0.024475088 -0.008629279
0001a0 a3 a0 d4 be 21 e5 6e bb 6b e1 da 3b bb e4 43 be
       -0.41528806 -0.003645249 0.006679704 -0.19130222
0001b0 a7 63 42 bb 6f ee da 3c 4d 7d 5e bb 95 28 b8 b9
       -0.0029661448 0.026725022 -0.0033949197 -0.0003512545
0001c0 60 7d 44 3c c2 bc 5f bb bc 5a f2 bc 9a 1d 38 bc
       0.011992782 -0.0034139608 -0.029584281 -0.011237526
0001d0 84 38 28 3d cd 61 f9 3b 57 cb 2f bd 0f b5 b8 bc
       0.041069523 0.0076105357 -0.04291853 -0.022547273
0001e0 62 50 a4 3c ca 1a 7c be 4a 39 96 bc 98 7e 3a 3c
       0.02005786 -0.24619594 -0.018337864 0.011382721
0001f0 ff 84 af bc 8f 3e 9c 3c 3b f8 d6 3c 90 77 e3 3c
       -0.021425722 0.019072799 0.026241412 0.027766973

advantage.0.weight f4 [128, 256]
000000 c4 4e 87 bc 37 d1 05 bd 52 66 51 3c 8a 77 0e bc
       -0.01651705 -0.032670226 0.012780743 -0.0086954925
000010 f0 cf 85 bc 94 96 ba 3c 59 b6 86 bd 7f ad f3 3b
       -0.016334504 0.02277688 -0.06577749 0.007436454
000020 44 21 74 bd a7 26 45 bd 27 04 99 3c 30 8a 6a 3d
       -0.059602037 -0.048132565 0.018678738 0.057260692
000030 f2 f3 0d 3b 05 85 e6 3c 64 e6 f1 bc 19 ff 99 bd
       0.0021660295 0.0281396 -0.029528804 -0.07519359
000040 1d 68 cc 3c 50 7e dd 3b 24 87 9f bc 0b 82 7a bd
       0.024951989 0.0067594424 -0.01947362 -0.061159175
000050 3d df d6 bc 02 a7 1d 3d a2 41 8a 3b a1 c5 88 3c
       -0.026229495 0.03848935 0.00421925 0.0166958
000060 8e 4f 20 bd aa 9a 5d bd b8 a9 75 bc 73 9b d0 bc
       -0.03913837 -0.054102577 -0.014994077 -0.025464749
000070 50 f8 18 bd fd 62 ee bc 7a 02 03 3d 12 55 4a bd
       -0.037346184 -0.029099936 0.031984784 -0.049397536
000080 8c 45 b3 bd ce 78 20 3d 23 72 55 bd 5a 84 a4 bd
       -0.087534994 0.03917771 -0.052110802 -0.080330566
000090 38 4c 23 bd 38 89 5e bc 08 52 5c bd 51 ec 9a bd
       -0.03986761 -0.01358252 -0.05378917 -0.07564605
0000a0 b2 52 04 bd d7 0c 57 bd b4 71 c8 bc 14 a4 47 3d
       -0.032305427 -0.05250248 -0.02446828 0.04874046
0000b0 f0 6c ec bc 92 f1 50 bd f6 88 ec bc 85 eb c4 bb
       -0.02886054 -0.05101163 -0.028873902 -0.0060095214
0000c0 00 d7 6b 3d 0f 6f 51 bd 50 ee 98 bc 44 ce aa 3c
       0.057578087 -0.051131304 -0.018668324 0.020850308
0000d0 ea 86 65 bd d0 da 0f 3c 99 0b 3d bc a0 60 8a bc
       -0.056036867 0.008780196 -0.01153841 -0.016891778
0000e0 9a bb 28 3d 94 cd 52 3d 6d 4f cf bc 16 10 d1 3c
       0.041194536 0.051465586 -0.025306428 0.025520366
0000f0 c0 d6 d1 bb 3c 1c 6a bd 44 b8 85 3b fc 98 43 3d
       -0.006403774 -0.057155833 0.004080804 0.04775332
000100 93 5a 0f bd 13 03 4a bd af 59 c8 bd 81 82 e0 bc
       -0.034998488 -0.049319338 -0.09782731 -0.02740598
000110 04 90 12 bc b2 0e 7b bd e2 3a 7f 3c 12 08 2f 3d
       -0.008945469 -0.06129331 0.015578004 0.042732306
000120 ca ac 8a bd ca df 0a bd 79 a3 6d bd 10 5c 0d 3c
       -0.06771238 -0.033904828 -0.058017228 0.008627906
000130 ef 03 10 3c 37 92 71 3d 65 51 50 bd 83 67 b5 bc
       0.00879 0.058977332 -0.050858874 -0.022144085
000140 ae e6 15 bd 5b 32 e7 bb 2c 07 5b 3d 8a 1e 9a 3d
       -0.036596946 -0.0070555634 0.053473637 0.07525356
000150 89 60 f0 bc fe ae 43 bc 8c 78 ec 3c 71 ee 4b 3b
       -0.029342907 -0.011943577 0.028866075 0.0031117464
000160 87 52 ce 3c 36 4a 01 3d 1a 17 4d bd f6 9b 1a 3c
       0.025185836 0.031564914 -0.05007086 0.009436598
000170 64 ea 6e bd f8 01 81 bc 60 64 38 bd 50 d9 2d bd
       -0.058329 -0.01574801 -0.0450176 -0.042443573
000180 fc b0 da bc 30 41 90 3b 1c f8 2d bd 41 76 65 bb
       -0.02669572 0.004402302 -0.042472944 -0.0035013112
000190 5b 35 85 3c 52 f5 a3 3d ad 97 e1 bc a9 99 20 bc
       0.016260793 0.080057755 -0.027538145 -0.00980226
0001a0 45 50 5f bd 09 3f 97 bd 5d c6 3d 3c c6 6e 45 3d
       -0.05451991 -0.0738507 0.011582938 0.048201345
0001b0 19 46 fe bc 00 e1 d5 bb f0 9a 50 3d e0 50 bd 3b
       -0.031039285 -0.006527066 0.05092901 0.0057774633
0001c0 c8 37 16 bc ae 5e 51 bd 55 d3 28 3d d8 3b ac bc
       -0.009168573 -0.051115684 0.041217167 -0.02102463
0001d0 fb e3 63 bc d8 c6 52 bc 34 35 6c bd 27 53 43 bd
       -0.013909335 -0.012864791 -0.057667926 -0.047686722
0001e0 04 9d 88 3b 42 1b 0f bd ea 8a 51 bb e0 be dd 3c
       0.0041691083 -0.034938104 -0.0031973668 0.027068555
0001f0 ee 24 59 bc 68 ec 55 bc c4 0e 1f 3d 79 1c d4 bd
       -0.013253434 -0.013056852 0.03883244 -0.10356993
000200 9f bb 64 bd 25 8c 9c bc 9d 8e 4a bc 68 75 50 bc
       -0.055842992 -0.019109795 -0.012363103 -0.012723304
000210 b5 18 c9 bc 6f 1b 11 3c 08 23 be bc c0 d8 87 bb
       -0.024547914 0.008856638 -0.023210064 -0.0041457117
000220 fd c4 a7 3c 6c dc 48 bd 69 87 d5 bc 8b 86 2a bd
       0.020479674 -0.049038336 -0.026065545 -0.041632216
000230 35 2b 7e bd 93 49 08 3d c0 06 d5 3b 7d 38 3a 3d
       -0.062052924 0.03327329 0.006501049 0.045464028
000240 ee 41 7d bd b2 78 88 bd 38 4d 96 bc b4 fd aa bd
       -0.061830454 -0.06663646 -0.018347368 -0.08349171
000250 95 55 5d bc 70 12 03 3d 00 88 5a 3a e4 c3 bc bb
       -0.013509174 0.032000005 0.00083363056 -0.0057606567
000260 9e a4 df bc 85 dd 30 bb aa 23 d0 bd 44 a6 29 3d
       -0.027300175 -0.0026987505 -0.101630524 0.04141833
000270 86 56 5d bd 3f ed bb bb 38 08 11 bd 48 d5 51 bd
       -0.054037593 -0.005735069 -0.03540823 -0.05122879
000280 35 8e 9c bd 8e f9 e8 bc ce 98 1d bc 55 45 a2 bc
       -0.07644311 -0.02843931 -0.009618951 -0.01980845
000290 60 58 ff bb c8 04 2c 3c 3c ea e4 3b 03 c2 2b bd
       -0.0077925175 0.010499187 0.0069859307 -0.04193307
0002a0 c0 d1 39 3d 96 6c 50 bd a2 c0 87 bd f8 b3 cd bd
       0.04536605 -0.050884806 -0.06628539 -0.10044092
0002b0 5c 77 bb bc ec 69 25 3d 13 cf 33 38 88 a1 8f 3c
       -0.022884063 0.040384218 4.286978e-05 0.017533079
0002c0 b0 15 e7 3b 00 56 6c 3c a9 33 f3 3c f7 26 25 bd
       0.007052146 0.014424801 0.02968772 -0.040320363
0002d0 ac 19 1c bd 0d eb b9 bc 7a 23 13 bc d1 a9 42 bd
       -0.03811042 -0.022695089 -0.008980626 -0.04752523
0002e0 e1 75 f1 3c 74 6a 8d bd 28 71 0e bc 8c b5 59 bd
       0.029475154 -0.0690507 -0.008693971 -0.053151652
0002f0 d8 f3 1a bc e8 5c b0 3c ee fa 6e bc 92 89 03 3d
       -0.009457551 0.021528676 -0.0145861935 0.03211362
000300 4e d4 6c bb 6c bd 4a 3d 60 b1 6f 3c 2d 4b 6b 3b
       -0.0036137286 0.049497053 0.014629692 0.0035902963
000310 6c e8 31 3d 2c c6 25 bb 65 0a a0 bd a8 b8 8d bd
       0.043434545 -0.0025295122 -0.078144826 -0.06919986
000320 20 e4 ab 3d e3 1f ac bb bf 2b e1 3b be 81 2f 3d
       0.08393121 -0.0052528246 0.00687167 0.04284834
000330 d7 69 07 bd f8 f0 3d bd 08 8f 50 bd 45 e4 78 bc
       -0.03305992 -0.046372384 -0.050917655 -0.015191142
000340 cc 5c a7 3c 62 51 55 bd 00 86 33 bb 96 08 cb 3c
       0.020429991 -0.052079566 -0.0027393103 0.024784368
000350 db 35 86 3d 52 e1 dd bd 70 56 a0 3c 80 d0 2e bc
       0.06553241 -0.10833992 0.019572467 -0.010669827
000360 b0 ca d6 bd 2e 8e 8b bc b6 43 e3 3b 5e 68 03 bd
       -0.10487878 -0.01703557 0.006935562 -0.032081954
000370 6a ab 8e bd 7b ab 02 bd cc f5 f2 bd 31 ca 6f 3c
       -0.069662884 -0.031901818 -0.11863288 0.0146356085
000380 12 00 96 3c 46 5d d9 3b 15 65 73 bc d4 70 10 3d
       0.01831058 0.0066334335 -0.014855643 0.03526385
000390 18 06 2c bd 30 ce 04 bd be ad 3a 3d 8a a7 77 bd
       -0.041998 -0.0324232 0.04557585 -0.060462512
0003a0 94 ce 29 3d 1f ac ea 3c c9 ce b3 bc 10 61 2a bd
       0.041456774 0.028646527 -0.021949189 -0.041596472
0003b0 4b 61 7d bd d2 99 a6 3d fb aa 8b bd 68 d0 fc bc
       -0.061860364 0.08134808 -0.06819721 -0.030861095
0003c0 2a 60 65 bd 32 4c 1d 3d 52 94 4f 3c b0 b5 ff 3b
       -0.055999912 0.038402744 0.01266964 0.0078036413
0003d0 0b 5e 5d bd 88 b0 4c 3c 56 12 4b 3b db 3f 15 3d
       -0.054044764 0.01249326 0.003098627 0.03643785
0003e0 50 f4 ab 3b 54 8b 20 3d 9c 90 80 bc 0e 70 28 3d
       0.00524763 0.039195374 -0.015693955 0.04112249
0003f0 7e ac 67 bc 74 d8 51 3d a5 41 96 3c 20 5a 58 3c
       -0.014140246 0.051231816 0.018341849 0.013205081

advantage.0.bias f4 [128]
000000 f5 5c d4 bd 80 a0 74 bd 48 cf 53 be 17 02 30 3e
       -0.10369293 -0.059723377 -0.2068454 0.17188297
000010 b0 6c a2 bc 1f 67 e9 bd fe 08 34 bd a9 18 99 bd
       -0.019827217 -0.11396622 -0.043953888 -0.07475407
000020 eb c0 2c be 93 66 be bd 53 39 ac be 85 ef 41 be
       -0.16870467 -0.09296908 -0.33637485 -0.18939026
000030 dc b6 e9 bd 8a c5 ec bd 80 01 30 be 22 e1 58 bd
       -0.11411831 -0.11561115 -0.17188072 -0.05294908
000040 58 9d 0b be 67 f0 30 be a1 cb 12 be 28 7f b8 3e
       -0.1363424 -0.17279206 -0.14335491 0.36034513
000050 2e 50 f0 bd 2c a4 d1 be 25 28 0a be 64 12 d2 bd
       -0.11734043 -0.40945566 -0.13491876 -0.10257414
000060 2b 75 b2 bd ba 01 bf 3b 98 50 aa be 4f cb af be
       -0.08713754 0.0058290632 -0.33264613 -0.343348
000070 72 bf 08 be 7f e4 ae be 56 f9 bc bd 38 5d 4c 3d
       -0.1335428 -0.34158704 -0.092272446 0.049893588
000080 4a f5 b0 bd 0c 61 bb be e0 c7 c7 bd 0e ba 75 be
       -0.08640535 -0.36597478 -0.0975492 -0.23996755
000090 87 56 b8 bd 6b 4e b5 bd ed 99 26 be 96 4e 4c be
       -0.09000879 -0.08852848 -0.16269656 -0.19951853
0000a0 58 d6 e3 bd f7 cb bc bd ac 73 1f be e7 27 a3 bd
       -0.11124867 -0.09218591 -0.15571469 -0.07966595
0000b0 53 2d 0c bf b7 87 1a bd 05 01 5b be d8 3b 89 3c
       -0.5475666 -0.037727084 -0.21387108 0.016752169
0000c0 d1 ed a7 be 6a 4f ff bd a4 82 c6 bd 40 28 dd bd
       -0.32798627 -0.12466319 -0.096928865 -0.10798693
0000d0 6b 7a 92 be 31 b4 ff bd 2b 6e 22 bc 57 21 3c be
       -0.28609022 -0.12485541 -0.009913961 -0.18372093
0000e0 2c b7 ad be cb 9f cb bd 20 a4 15 be 37 7a c2 bd
       -0.33928812 -0.099425875 -0.1461339 -0.09495967
0000f0 a7 41 c0 bd 95 ff 65 be 98 7f 48 bd af aa 02 be
       -0.09387522 -0.22460778 -0.048949808 -0.12760423
000100 f5 ba 5a bd 32 83 9b bd ff f1 77 3e 8c e8 67 bd
       -0.053400952 -0.07593383 0.24213408 -0.05661826
000110 f4 ca d0 bd 04 cc fc bd 58 06 f4 be 95 46 dd bd
       -0.1019496 -0.123436004 -0.4766109 -0.10804478
000120 11 66 9d bd a7 83 88 bd 08 ac 49 be 6c 11 06 be
       -0.07685483 -0.06665736 -0.19694531 -0.13092583
000130 e7 34 89 be 34 b2 32 be e6 31 e3 bd f6 62 2e be
       -0.26798174 -0.17450792 -0.11093502 -0.17029938
000140 55 f6 27 be f8 19 89 be 19 9f ca bd 26 88 13 be
       -0.16402562 -0.26777625 -0.09893627 -0.14407405
000150 fd 33 28 be c1 20 82 be 7b 04 32 be 74 cf 6c bd
       -0.16426082 -0.25415614 -0.17384522 -0.05781503
000160 bd b3 d9 bd f7 41 97 be 52 84 df bd 3c 7c 09 be
       -0.106299855 -0.29542515 -0.1091391 -0.13426298
000170 83 e0 00 be d8 b6 0f be 0a d6 32 be ec 6c 74 bd
       -0.12585644 -0.14034593 -0.17464462 -0.05967419
000180 1c 37 28 be 9f f6 02 be 86 5b 00 be 24 1e 2a be
       -0.16427273 -0.12789391 -0.12534913 -0.1661306
000190 09 8d 04 be e1 97 fe be 30 f7 90 be 52 8c c9 bd
       -0.12944426 -0.4972525 -0.2831359 -0.09841217
0001a0 9b da f6 bc 0b 00 47 be 90 ec de bd 88 9c dc bd
       -0.030133536 -0.1943361 -0.108849645 -0.107720435
0001b0 48 d9 04 be b3 4c aa bd ad 6e 7e bd b2 76 c2 bd
       -0.12973511 -0.083154105 -0.062117267 -0.094952956
0001c0 c7 e4 ed bd 9b 20 99 bd e6 24 00 be 1e 77 b0 bd
       -0.116159014 -0.07476922 -0.12514076 -0.0861647
0001d0 1e 5c c7 3e 99 a4 92 bd a3 2f 49 bd 98 95 e2 be
       0.38937467 -0.07160301 -0.049117696 -0.44254756
0001e0 55 e8 d1 be bd 6e 84 be c9 79 67 be f8 6d e2 bd
       -0.40997568 -0.25865737 -0.22605051 -0.11056131
0001f0 f6 89 ce be ec 62 37 bd c2 a3 27 be aa df 92 bd
       -0.4033963 -0.044772074 -0.16371062 -0.07171567

advantage.2.weight f4 [3, 128]
000000 f5 3c 47 3d 11 22 27 3c 47 51 07 3d 76 c8 62 bc
       0.048642118 0.010200993 0.033036496 -0.013841739
000010 ff a2 89 3d 34 f3 35 bd 93 33 8e bd df 33 aa 3c
       0.06720542 -0.04442139 -0.06943431 0.020776687
000020 6c c5 41 3d 43 e1 5e 3d d8 db c2 3c 78 a9 12 3d
       0.047307417 0.054414045 0.02378647 0.03580615
000030 cc 70 19 3d 37 42 ac 3d ff 74 77 3c e5 b1 c3 3c
       0.037461087 0.08411067 0.015103578 0.023888538
000040 27 16 23 be 44 ed 1d bd 0a 2b dc bd b2 b2 c5 3d
       -0.15926419 -0.038556352 -0.107503965 0.09653224
000050 00 41 40 3d 85 e5 91 bd bc 62 04 bd 7c aa a0 3d
       0.04693699 -0.071238555 -0.032320723 0.07845017
000060 50 06 00 be 76 44 0c 3e df 37 c5 3c e6 11 db 3c
       -0.12502408 0.13697991 0.024074493 0.026741933
000070 00 48 ff bc 8b 09 0b 3f 0d 3f 77 3c 91 8f 0d 3e
       -0.031162262 0.54311436 0.015090716 0.13824297
000080 63 08 5d bd 27 fb c3 3c c7 66 81 bd 19 07 1e 3d
       -0.053963076 0.02392347 -0.06318431 0.038580988
000090 3f 89 d5 3d fd 71 3d bb 0c 45 79 3d ea 79 11 3e
       0.10426568 -0.0028907054 0.060856864 0.14206663
0000a0 fc dd 62 3c 28 83 24 bd ae e6 f1 3d cc 9d dd bc
       0.0138468705 -0.040164143 0.11811577 -0.027052782
0000b0 9e bd ea 3d 85 2d 24 3c d6 4d 3b bd 27 9e 10 3d
       0.11461948 0.010020618 -0.045728527 0.035307076
0000c0 e2 d4 22 3e 6e f1 ff bb 23 e1 86 bb 92 40 3a bd
       0.15901521 -0.007810763 -0.004116194 -0.045471735
0000d0 02 bb c7 3d e3 0c 24 bd 8d 26 ec 39 8f 64 02 bd
       0.09752466 -0.040051352 0.0004504215 -0.03183418
0000e0 4d 83 cc 3c 4e 89 00 3e 01 79 ab 3d b9 90 b7 bc
       0.024964953 0.12552378 0.08372689 -0.022407876
0000f0 4a 9e fc 3c bb 59 8b 3e e6 3c 4e 3d 91 7b 91 bd
       0.030837197 0.27216896 0.050351046 -0.071036465
000100 e0 1d d4 3b 4f 57 b9 3c 80 35 e5 bd d0 ad c6 bc
       0.006473288 0.02262464 -0.11191845 -0.024252802
000110 45 19 b3 bd 0a 59 98 3d a7 7d 5d 3d b9 e6 a7 ba
       -0.08745054 0.07438858 0.05407491 -0.001280985
000120 83 ab 8f 3c a8 85 fe bb 69 79 a0 3d 19 53 ad b9
       0.017537838 -0.007767398 0.07835657 -0.00033059044
000130 ba 8c 84 3d 88 59 c0 3b 48 9e 9d 3b 8d 75 32 bd
       0.06472154 0.005870048 0.0048101284 -0.043569136
000140 0b 6a 4d 3d 24 ed 57 3e 90 3a df bd d4 cf f9 3b
       0.05014996 0.21086556 -0.10899842 0.007623652
000150 f4 9d af 3c 4a f6 f5 3c c6 94 50 3d fe 51 fc bc
       0.021437623 0.030024666 0.05092313 -0.030800816
000160 70 16 5a 3d 8b 82 22 3d 88 07 b4 3d 64 01 44 bd
       0.053244054 0.039675277 0.08790499 -0.04785289
000170 f2 99 c2 bc 72 5e 92 3d 12 ab 94 bd c7 51 44 bd
       -0.023755047 0.0714692 -0.072591916 -0.04792955
000180 41 a0 03 bc 05 5e 29 3d fa 83 1f bd 9a 55 00 3d
       -0.008033813 0.04134943 -0.038944222 0.031331636
000190 7a 26 67 3c 8b 47 fb 3d f0 de c2 3d 81 28 ab 3c
       0.014108295 0.12269505 0.09515178 0.020893337
0001a0 80 4d c7 3c 69 3b 85 3d 68 2d 20 bc 7e 61 a4 3c
       0.024328947 0.06505472 -0.009776451 0.02006602
0001b0 45 8c a2 bb 83 84 f6 3b b5 ae 7d bc 5b fb e8 bc
       -0.004960569 0.007523121 -0.015483548 -0.028440168
0001c0 8b a3 e3 ba 74 60 1d 3e 3a 0d 60 bc 20 96 a4 bc
       -0.0017367465 0.15368825 -0.013675028 -0.020091116
0001d0 52 44 2c be 1e 6e 81 3d 68 8c f1 bc b8 17 a4 3d
       -0.16822937 0.06319831 -0.029485896 0.080123365
0001e0 8f 61 e0 bd 7e ec 60 3d 50 01 4d 3d 77 8b 0c 3c
       -0.10956108 0.054913037 0.05005008 0.008578173
0001f0 0d e7 fe 3e 78 b5 07 3d ec 3e bd 3d e9 58 08 bd
       0.49785653 0.033132046 0.09240517 -0.033287916
000200 8c bb ca 3d 95 3e 92 3c e3 c8 f3 3c 03 08 07 be
       0.09899053 0.017852107 0.029758876 -0.1318665
000210 ed dd dc 3d b2 37 23 3d fc 9c dc bc 9c 26 10 3c
       0.107845165 0.039848037 -0.026930325 0.008798268
000220 12 00 e1 bc 81 d1 14 bd df 41 d8 bc b4 20 b7 bb
       -0.027465854 -0.03633261 -0.026398597 -0.0055886153
000230 ae ff 49 3d 54 20 0b bd 06 cd 86 3d 4c 3f b8 3d
       0.0493161 -0.033966377 0.06582074 0.08996448
000240 59 82 5a bd 4b b0 46 3c 74 d3 9a bd 20 82 ea bd
       -0.053346965 0.012126992 -0.07559863 -0.114506006
000250 c0 93 38 bd 6f 1e ee bd d9 4c 7f 3d 83 44 5c 3d
       -0.04506278 -0.116268985 0.062329147 0.053776275
000260 1d 66 5b bd e3 4a 72 be 53 6e 62 bd 62 38 a9 bc
       -0.05356418 -0.2366138 -0.055280995 -0.020656768
000270 71 60 96 3c ca 32 6f bd 70 57 02 3d 2c 76 6e be
       0.018356534 -0.058398046 0.03182167 -0.23287266
000280 3a 0d 87 bd 7b 21 c5 3b de d0 68 bd 35 cd 86 3c
       -0.0659432 0.006015954 -0.056839816 0.016455272
000290 af 16 2a 3d 3d db 01 3d c3 2c 29 3d 15 e8 83 3d
       0.04152554 0.031703223 0.041302454 0.064407505
0002a0 80 5a ca bc 13 66 85 3c 7f 0f b8 3c bd 1d 80 3c
       -0.024701357 0.016284024 0.022468327 0.01563918
0002b0 91 48 21 3d 7c e3 5b 3c 3c a4 fc 3b 69 85 b3 3e
       0.039375845 0.013420936 0.007710008 0.3506272
0002c0 64 ae 51 3e c7 48 05 3c 1a 46 f1 3b 0c f8 0c 3d
       0.20476681 0.008135027 0.007363093 0.034416243
0002d0 a2 8c 52 3e 2d 51 71 bd e4 a0 be 3b 27 5c 0e bd
       0.2056146 -0.058915306 0.0058175195 -0.034755852
0002e0 59 44 d5 3c 92 24 09 3e f0 da 95 3c 41 a4 89 bd
       0.026033567 0.13392857 0.018292874 -0.06720782
0002f0 f2 88 45 3d 1e 3e ad bd d9 b9 cc 3c e7 1f cd 3e
       0.048226304 -0.084591135 0.024990963 0.40063402
000300 1a 9a 28 3c a6 46 78 3d 8c d1 72 3e 68 1e 5a bd
       0.010290647 0.06061425 0.23712748 -0.053251654
000310 4f be 9b bc f6 35 0b 3d 41 2d 99 3d aa 31 88 3c
       -0.019011645 0.033987008 0.074793346 0.016625244
000320 ff f1 a7 3d 88 c2 78 bd 47 46 d2 bc ae 55 9c 3d
       0.08200454 -0.060732394 -0.025668276 0.076335296
000330 aa 0a ec 3d 1e c9 22 bd f7 43 5d bc e2 3a 6c bc
       0.115254715 -0.03974258 -0.013504974 -0.014418336
000340 0b 12 a3 bc f7 1b 11 3e a7 fc e5 bc e3 63 2a bd
       -0.019906064 0.14170824 -0.028074576 -0.041599166
000350 2c c0 bf 3c 36 ba a7 3d 5c f2 44 3d 90 42 ae bc
       0.023407064 0.08189814 0.048082694 -0.021271974
000360 23 b1 10 3c 78 a0 cf 3c 0d 16 80 3d ae ef 33 bc
       0.008831295 0.025345072 0.06254206 -0.010982437
000370 91 49 a9 bb c1 dc 58 3d 62 7d 2a bd f9 bd 3f bd
       -0.0051662405 0.052944902 -0.04162348 -0.04681203
000380 d4 d6 80 3d ba b5 bf 3d 2c 85 c0 bc cd 75 0d 3d
       0.06290975 0.093608335 -0.023501001 0.03453617
000390 36 7d 6a bd 3d 59 90 3d f3 b9 cb 3d ae 4c c1 bc
       -0.057248317 0.07048271 0.099475764 -0.023596134
0003a0 c0 fd 16 3d 3d 2d 8e bc 15 74 26 bb e9 7e 13 bd
       0.03686309 -0.017355556 -0.002539878 -0.036009703
0003b0 2a 87 5c 3b 0d 49 78 3c 65 6e a1 bb c3 1e 8e 3d
       0.00336499 0.015154135 -0.00492649 0.06939461
0003c0 04 66 c0 3c 20 db 26 3d e9 e2 bc 3c 37 af 85 3d
       0.023486145 0.040736318 0.023057418 0.0652756
0003d0 c6 f4 1c 3e 42 82 75 3d 4f a0 80 bb 87 28 96 3d
       0.15327749 0.059938677 -0.0039253603 0.07331949
0003e0 22 3a 65 bd e8 5b 2a 3d e4 ef c9 3d ee 84 a1 3b
       -0.055963643 0.041591555 0.09860209 0.0049291765
0003f0 35 34 2e bd 3b 1c a7 3e b6 74 8b 3d 87 cb a8 b8
       -0.042530257 0.32638726 0.0680937 -8.048774e-05

advantage.2.bias f4 [3]
000000 a9 d5 15 3e 86 c1 99 bd 81 b5 07 be
       0.14632286 -0.07507615 -0.13252832
