model/DuelDQN/checkpoint_1900.pth (torch, 287045 bytes, 9 tensors)

feature.0.weight f4 [256, 16]
00000000: e767 31bd 7503 a1bd 9bf5 f93d ae04 a13d
00000010: 90bc 8ebe 3214 5bbe 6b02 223e 3e27 e0bd
00000020: a7e1 59be f5b7 473e 13db e1bd 7e04 ab3d
00000030: 0157 0fbe f86c 8a3d 3c82 683e 02ce 15bd
00000040: 12fb a03e 5777 e9be 38d5 2e3e 6838 2a3e
00000050: 7248 90be 3a0b c5bd 1808 043e a522 70bd
00000060: 6bd5 353e a9c5 0bbc 90c1 acbe 62f4 86bd
00000070: 7cd2 da3d 1314 8b3d d848 813c 6d04 dbbc
00000080: 84d0 343e 8490 81bc ceb9 acbe dd9e 653d
00000090: 822c 8cbe 4bb7 553e 0770 3c3d 2968 66bd
000000a0: 6ee5 033e 69ed 26be 84d5 38bb f517 103e
000000b0: d145 b8ba bf07 a7bb 7cb0 6bbd 70b4 d4bd
000000c0: 0910 553c 4652 05be 58c9 da3d dbf6 8d3e
000000d0: b9d4 763e 4adb 713e be4d 393e da0b 17bc
000000e0: 8513 8a3d 3ad2 693d ba10 5fbe bc1c 2b3e
000000f0: 4452 f8bd 25be debd 303f 56bd 2fc3 23bd
00000100: 48e3 5e3e d6f9 d13d d748 acbd e033 8c3d
00000110: c7ab cdbd 2427 cdbb 86c0 5fbe 4351 a7bd
00000120: 4df1 39bd e5ce d33d 1535 93be 7dc6 a83c
00000130: bb49 a23e 6429 6a3e c432 20be 71fa 16be
00000140: 98c5 d9bc 06eb a1be 6ee1 9d3e 98c9 2bbe
00000150: c850 77bd 13c1 6eb8 cf9c e13d 7120 94bd
00000160: 9cf9 0f3e 7321 09bd 9827 4dbe f2d6 90bd
00000170: 87af 773d b2d1 503b 8ce0 e83d 695e a13e
00000180: 35f9 4bbe 782c 9b3e f6da 0e3e c899 4d3e
00000190: 877a a1b8 daca cdbc d9e8 b63b c76a 93bc
000001a0: a30e ed3c 159a 2abe 39d5 29bb 1211 1abd
000001b0: 1493 95be dec6 0bbe d39c d9bd d700 e6bd
000001c0: 6a5c 483e dd11 763d d113 273e 01c1 94be
000001d0: 6db8 97be ff4f 52be 2e18 2bbe ceb0 13be
000001e0: c665 9bbd e1ec 853d 2ddc 3fbd ee46 87bd
000001f0: 37b8 b9bb ad7c 853c b79b 9a3c 6e9c 713e
00000200: 817b 9d3d 7e5e d53d d2ce 4fbc f131 b2be
00000210: dd93 38bb f0d3 b1be d144 b43d edcc 88bc
00000220: d9b9 edbd c289 a63d 9556 6cbe da86 6d3d
00000230: 122c d73d 021a 483e 9469 753d e598 abbd
00000240: 0b37 853e 18b6 563d 3343 a4bd 94e8 7abe
00000250: 783f 18be 72d9 8bbd f579 dfbd 2fe1 0bbe
00000260: cf34 e03b 9934 55bd 9bb2 003e 1cb4 9dbe
00000270: c207 7cbe a4c2 99bb 5d77 6fbe 9f26 2dbe
00000280: d567 83bd d1c8 473d 778f 7dbe ff23 96bd
00000290: c891 9dbe 6e80 3cbe 6a57 433e 88a7 9cbe
000002a0: 25bc c1bd b0f6 89be c1ad 193e 483a 1bbe
000002b0: dc62 77bd aecb 2fbe d125 03bd fd19 1a3e
000002c0: e9f6 333e c354 74be ef8b 7e3d a7f7 c63d
000002d0: 769e 8fbd 0801 673e 3abb 833e 5cb5 063e
000002e0: 8a41 52be 5f35 1fbe 87eb ecbd dae9 d43d
000002f0: a612 033e f352 633d 7ebf 33be 5cfd 17be
00000300: 1572 973d abd6 bf3d edd3 56be 5b97 bc3c
00000310: 37f2 e63d e7c7 dbbd 3582 36bd a9a5 013e
00000320: f616 bbbd 4fcd 1dbe aa2a 46bc edb4 6d3d
00000330: a517 6dbe 6cee a4be 82f7 673e 0034 c33e
00000340: 9e6d 453e 21be d7bd bd94 11be 2035 8f3d
00000350: ce74 053d 8b42 283d d8a7 2f3e f5eb 2f3e
00000360: d84b 343e effe 98be bc90 ae3c 7e15 693d
00000370: 319b d7bd 2d0e b0bd 6e90 82bc 50f2 653e
00000380: db98 233e f7de 613e a19e d23d 6652 fcbc
00000390: bf36 f2bd b2b2 39bc 55d4 a33d 3862 2dbe
000003a0: e7c7 93bc 6d61 e9bc 874a 2bbe bf90 023e
000003b0: fec5 af3d b93f cabb 2f9d e73b b244 ba3d
000003c0: 1209 8abd fc2d 7f3e 69a0 7abd 4fe5 cc3d
000003d0: 8f4b 4fbd 01bc 203e 2634 963e d639 f1bd
000003e0: a991 d7bd 1518 a4bd 17ac 82be 4d63 863b
000003f0: dfaa 0cbe 95be 2c3d d827 07be 0420 9f3d
-0.04331198 -0.078619875 0.12205049 0.07862221 -0.27878237 -0.21394423 0.15821235 -0.10944985
-0.21277486 0.19503768 -0.11028113 0.08350466 -0.13998033 0.067590654 0.2270593 -0.036573417
0.3144155 -0.45598862 0.17073524 0.1662308 -0.2818027 -0.09621282 0.12893713 -0.05862679
0.17757194 -0.008531013 -0.33741426 -0.06589581 0.10684678 0.06790938 0.015781805 -0.026735509
0.17657667 -0.01581598 -0.33735508 0.056059707 -0.27377707 0.20870702 0.046005275 -0.05625168
0.12880489 -0.16301502 -0.0028203437 0.14071639 -0.0014058893 -0.005097359 -0.057541355 -0.10385978
0.013004311 -0.13019666 0.106829345 0.27727398 0.24104585 0.23618808 0.18096063 -0.009219134
0.06742004 0.057085253 -0.21783724 0.1671018 -0.12125066 -0.10876111 -0.052306354 -0.039981063
0.21766388 0.102527305 -0.084123306 0.06845832 -0.100425296 -0.0062607694 -0.21850786 -0.08169796
-0.045396138 0.103421964 -0.28751436 0.02060246 0.31696877 0.22867352 -0.15644366 -0.14743973
-0.026583478 -0.3162462 0.30836052 -0.1677612 -0.060379773 -5.6923436e-05 0.11016237 -0.0723275
0.14060062 -0.033479165 -0.20034635 -0.070722476 0.06047013 0.003186327 0.11370954 0.31517342
-0.19919284 0.30307364 0.13950714 0.20078194 -7.699901e-05 -0.025121141 0.005581957 -0.017995251
0.028937643 -0.1666034 -0.0025914444 -0.037613936 -0.29213774 -0.1365008 -0.10625615 -0.11230629
0.19566503 0.06007563 0.16316153 -0.290535 -0.29632893 -0.20538329 -0.16708443 -0.14422914
-0.07587771 0.06539322 -0.046840835 -0.06605326 -0.005667712 0.016294802 0.018873079 0.2359483
0.07689572 0.104184136 -0.012683587 -0.34803727 -0.0028164305 -0.34732008 0.08802188 -0.016699279
-0.11607713 0.08131744 -0.23079903 0.057989933 0.105064526 0.19541171 0.05991514 -0.08378772
0.26018557 0.052419752 -0.0802063 -0.24502784 -0.14867961 -0.06828584 -0.10911933 -0.1366012
0.006842233 -0.052052114 0.12568133 -0.30801475 -0.24612334 -0.0046923924 -0.23385377 -0.16909264
-0.06416289 0.048775498 -0.24761759 -0.073310845 -0.30775285 -0.18408367 0.19076315 -0.30596566
-0.09459714 -0.2694602 0.15007688 -0.15158951 -0.060397014 -0.17167541 -0.032018486 0.15048976
0.17574657 -0.23860459 0.06214517 0.09715205 -0.07012646 0.22558987 0.2572878 0.1315512
-0.20532814 -0.15547703 -0.11568361 0.10396166 0.12800083 0.05549903 -0.17553517 -0.14842743
0.07394806 0.093671165 -0.20979281 0.02302139 0.112766676 -0.10731488 -0.04455777 0.1266085
-0.09135239 -0.1541035 -0.012095133 0.058033872 -0.23153551 -0.3221315 0.2265301 0.3812561
0.19280097 -0.10534311 -0.14216895 0.06992555 0.032582097 0.041079085 0.17153871 0.17179854
0.17607057 -0.29882 0.02130925 0.056905262 -0.10527647 -0.08596454 -0.01593801 0.22455716
0.15976278 0.2205771 0.10284162 -0.03080101 -0.11826848 -0.011334108 0.079994835 -0.16931999
-0.018039657 -0.028488839 -0.16727649 0.12750529 0.08582686 -0.006172147 0.0070682983 0.09095134
-0.06740011 0.24919885 -0.061188135 0.10004675 -0.050609168 0.15696718 0.2933666 -0.117786095
-0.10525829 -0.08012406 -0.2552192 0.004101193 -0.13737057 0.04217394 -0.13198793 0.07769778

feature.0.bias f4 [256]
00000000: c9b3 77be 4552 c43c 7e31 01be 727b f83d
00000010: dc55 9fbe 771d ac3d 3ec3 dbbd 66e8 89bd
00000020: ea0a 60bd 1367 1bbb 2642 5c3e 5357 8e3e
00000030: f889 31be a6dd 593e 8678 c9be 1682 bf3d
00000040: e072 b5bb e4d7 873e 9604 87be 0001 36be
00000050: 6569 25be 70ba f3bd cb70 443d 8157 8fbd
00000060: 8452 d63c a989 ac3e f596 87bd 302d 82be
00000070: ce72 c1bd 9cf0 c1be d55c b6bd d9e2 f1bd
00000080: 9ebe d5bd 483a 81be e7a9 56be fd6c 99bd
00000090: b8d6 20be 98b4 c0bd 1499 103e 940a 64be
000000a0: 6dc7 4b3e bb63 1fbe 835d 063e 8e3a fdbb
000000b0: 90bf 39be 28ae d93d 310c 4e3e c955 903e
000000c0: 80ea fcbd f1be 9cbe e240 913e 740d d8bd
000000d0: 030c c73c 02b3 f0bc e2b4 bf3e 2a64 4fbe
000000e0: 33fa 65be 78a8 a6be 3522 50be 0b6b 76bd
000000f0: e3ad 293d e144 2e3e 958d ebbc 2eeb 47be
00000100: 6611 373e 8815 933e e4c3 38be c67a 23be
00000110: cb6a 513e 4b93 0a3e cbde 2abd d2bc f73d
00000120: 4be3 5b3e 3544 c7bc 4d91 2dbe 362f acbe
00000130: f04c 91be 1754 ec3d e432 6d3e eb63 69bd
00000140: 4c59 9abe e152 9b3e 4ddb a0bd 3364 28be
00000150: 7403 a73e c78d 963d ff75 7d3e 737b 083e
00000160: 7be0 943e 7ee2 973e f82a 9abe 5e4d a5bd
00000170: 1ae1 60bd 2811 d0bd 7181 8bbd fe61 73be
00000180: 825a 3bbe 3bf1 3bbe 66a1 40be a0bd 19be
00000190: 9193 55be 758d 74be b9a8 94bd f1cf 323e
000001a0: c4c7 573e 87b4 70bc 4df5 dcbd 9aa4 b63e
000001b0: c7a7 a1be 40f8 34be 598d bdbe 011b a9be
000001c0: aeaf eabc 8913 4a3e 7e4f 9abd 7443 55be
000001d0: d16e 42be 9e10 3bbe fc33 6fbe c525 f6bd
000001e0: 108e a83e 35dc c9bd 27f9 45be 6123 b9bd
000001f0: ddac a93e 7478 863e a37c 19be 3db8 f63d
00000200: be50 bc3e 434d 26be 8fe7 82bd 25ae 59be
00000210: 2923 66be 16e6 f93d 8f8d 1dbd 5aa0 9ebd
00000220: aed0 dcbd bd0e 13be 159a 68be d0ba 85be
00000230: 20af 1d3e 3103 dfbd 070c 54bd 8f38 5f3e
00000240: 37e9 3d3d 3714 64be 3014 d23e 6c9b 923e
00000250: efa2 82bd f8d6 b4be 34fe 8dbd 5462 d43b
00000260: b26e b53e d95a d0be e1ec b63e 1fe6 5ebe
00000270: fa1b 9c3e d258 72bd 4882 8ebd cfc5 ca3e
00000280: cacf 9abe 59b9 1ebe 5a97 a13e e46a 0b3e
00000290: f58c dfbd 42d8 b63e 7fdb 14bd afa0 353e
000002a0: cde1 b73e c046 323d 0dca 3abe 7fe2 d0bd
000002b0: a70e 41bc ad1e 2b3c 15cd b83e 4ce7 1e3d
000002c0: 95c4 59be 7209 a23e 6721 49be ba24 dc3d
000002d0: 55a0 2d3e a9f8 31be 6415 a4be 9444 8d3e
000002e0: b8b3 7dbd f386 cebe be0a 73be 7c6f 89be
000002f0: 3f8f 9f3e 2be9 07be 34e9 14be 3906 98bd
00000300: 2053 a23e 2722 5e3d 8624 d4bc 4b42 4bbe
00000310: 43e8 fb3c b2b2 dbbe 7132 933e b89d 51be
00000320: b4fa 9c3e 8cf6 e73d 732b 48be 6a07 88be
00000330: a245 13be 24ee dc3d d406 8d3e c8c7 4f3b
00000340: 5d16 b3bd a3e1 d23d e4b7 f13d 9a8f 0e3e
00000350: 9de8 8dbe 2fa8 b23e 1c26 b83d c383 28be
00000360: 343c 9d3e 13ec 3a3e 349e 2cbe 5ec5 e63d
00000370: 8e86 0d3e db9d 6dbd d676 243d bce2 a0bc
00000380: 7853 4bbe 388e 82be 801a ea3d 4f5f 6abe
00000390: d1c7 a5be 4417 0abe d0b7 1bbe 7fc2 ec3d
000003a0: 925b 49be df7a 403e 991a cbbd 54e0 b53e
000003b0: faab 7f3e b036 62be 6ebb 82bd ec0f 2fbe
000003c0: 13a4 61bd 55bd 53be 70db 343e 4b62 21be
000003d0: 6dfe df3c f07e 7ebe 12b9 a03e 3cc7 883e
000003e0: 5e2e 64bc 6d81 1fbe cbb6 383e 0987 4fbd
000003f0: d74f ad3d f0af a93e f4d3 3abe df3d a1bd
-0.24189676 0.02396501 -0.12616536 0.1213292 -0.31120193 0.084040575 -0.10730599 -0.067337796
-0.05469791 -0.002371256 0.21509609 0.27800998 -0.17337787 0.21275958 -0.39349765 0.09350984
-0.005537376 0.265319 -0.26370686 -0.17773819 -0.16153486 -0.119007945 0.04795913 -0.06999112
0.026162393 0.33698776 -0.0662059 -0.254251 -0.094457254 -0.37878883 -0.08904425 -0.11810846
-0.10436748 -0.25239778 -0.2096325 -0.07491491 -0.15706909 -0.094094455 0.14120895 -0.2226966
0.19900294 -0.15565388 0.1312161 -0.0077279275 -0.18139482 0.10628921 0.20121838 0.2819045
-0.12349415 -0.30614427 0.28369814 -0.10549441 0.02429772 -0.029382233 0.3744269 -0.20253053
-0.22458725 -0.32550406 -0.20325549 -0.060160678 0.041425597 0.17018463 -0.028754035 -0.19523308
0.1787773 0.28727365 -0.18043476 -0.15964803 0.20450895 0.1353275 -0.04171638 0.120965615
0.21473424 -0.024324516 -0.16949959 -0.3362977 -0.2837901 0.11539476 0.23163944 -0.056980055
-0.30146253 0.3033667 -0.07854328 -0.16444473 0.32619822 0.07351261 0.24752043 0.13328342
0.29077515 0.29664987 -0.30110908 -0.08071397 -0.054902174 -0.10159522 -0.06811798 -0.2376785
-0.18296245 -0.18353741 -0.18811569 -0.15013742 -0.20857073 -0.23882087 -0.07258744 0.17462136
0.21072298 -0.014691479 -0.10788975 0.35672456 -0.31573316 -0.17672825 -0.37021902 -0.33028415
-0.028648224 0.19734015 -0.07534693 -0.20826513 -0.18987586 -0.18268058 -0.23359674 -0.12018923
0.32920885 -0.09856454 -0.19333325 -0.09039951 0.33139697 0.26263773 -0.14988951 0.120468594
0.3678035 -0.1624041 -0.063918225 -0.21257837 -0.2247435 0.122020885 -0.03846508 -0.077454284
-0.1078199 -0.14361091 -0.22715028 -0.2611909 0.15398836 -0.108892806 -0.051769283 0.21798919
0.04636499 -0.22273336 0.41031027 0.28634202 -0.06378733 -0.35320258 -0.06933251 0.006481448
0.35436016 -0.4069431 0.357276 -0.21767472 0.30490094 -0.059166737 -0.06958443 0.3960404
-0.30236655 -0.15500392 0.31560785 0.13614994 -0.10915557 0.35711867 -0.03634214 0.17737077
0.3591446 0.043524504 -0.18241139 -0.10199451 -0.011783279 0.010444325 0.36093965 0.0387948
-0.21266396 0.3164783 -0.19641648 0.107491925 0.16955693 -0.17380013 -0.3204757 0.27591383
-0.06193897 -0.40337333 -0.23734567 -0.26842868 0.31163976 -0.1327254 -0.14542085 -0.07423062
0.31704044 0.05423179 -0.025896322 -0.19849508 0.0307504 -0.4290977 0.2874942 -0.20470321
0.3066002 0.11326322 -0.19547825 -0.26568156 -0.14382032 0.10787609 0.27544272 0.0031704772
-0.087445 0.10296943 0.118026525 0.13921967 -0.27716532 0.3489394 0.08991644 -0.16456513
0.30709994 0.18254118 -0.16857225 0.112681136 0.1382086 -0.05801187 0.040152393 -0.019639365
-0.1985606 -0.2549913 0.11430836 -0.2288792 -0.3237901 -0.13485438 -0.15206838 0.11560535
-0.19663838 0.18796872 -0.099171825 0.3552271 0.24967948 -0.22091174 -0.063834056 -0.17095917
-0.055088114 -0.20677693 0.17661834 -0.15760152 0.027343 -0.2485311 0.31391197 0.26714504
-0.01392707 -0.15576716 0.1803848 -0.05066589 0.08462494 0.33142042 -0.18244916 -0.07873129

value.0.weight f4 [128, 256]
00000000: e45a b53b 9bc1 e83c 311e 37bd 5c2f 113d
00000010: 016a c5bd 654d b7bd 9425 493c 811a 8d3c
00000020: ec7c 293b 59be 1e3d d54f 39be e635 4cba
00000030: 2886 0cbe a2ed 21bb 79d9 7a3d 7157 673d
00000040: c623 bc3b cb3f 90bd 4814 9a3c 1587 f3ba
00000050: dc8f 723d b84e 6dbd 7496 e23b 4acc 05bd
00000060: f93a eebc 31f5 b8bc 55d0 e9bc 83ec 003b
00000070: 5dd1 9abd 60d9 26bc 572a 39bd 6015 4b3d
00000080: f2a5 4f3d 834e e83c 6f0e a1bd b98c c7bd
00000090: 9e8c 813d ef5b 8abd 3538 b9bc 31f9 d2bc
000000a0: 013e 0ebd 811d 63bd 3ee2 96bc 8c03 f3bd
000000b0: 3fc6 34bd 0d30 3d3d d487 be3c 8953 e73c
000000c0: f232 7ebc d1e1 f53c 8173 a53c 20c2 823c
000000d0: 50d1 ae3c 1ca7 50be 10ba aa3b 71ca 46bd
000000e0: 9842 76bd 6d55 39bd 2c8d 623d eacb 563d
000000f0: 4572 10be 4f8a a4bd ff78 243d 6c74 513d
00000100: fba7 7b3d 0ef7 20bd 068c bc3c 1572 a13c
00000110: 94ce 00bc 8c8e 9e3b 0a8a 76bd 760f 42bd
00000120: 4cd5 adbd 82c7 9c3c 44cf 803d 8132 44bd
00000130: ce31 5abc 842e 8abc 87de acbd 3a6b e03c
00000140: 9efc a23d 64f8 12bd f462 91bb 6c9c 43bd
00000150: 3dee 94bd a2c4 59bd c941 673d 99d1 2ebd
00000160: ddac cd3c f809 76bc d96f 063d adb1 473d
00000170: 7fb8 abbc 875d 04be 8f32 25bd d13a 1d3c
00000180: fc5c 8abd ecc8 2cbd 7919 4c3d aff9 95bd
00000190: 72ab 78bc d4d7 d73a 0741 e9bc a7b5 20bd
000001a0: 6971 56bd 8c7f e5bd 5d82 febb 2a5d 583d
000001b0: fac6 c2bd 99d1 8abd efa4 c03a 5ba3 5b3d
000001c0: 6972 b8bd 5a33 bdbc 03de f2bd 1df4 02bd
000001d0: 26f1 d9bd b56c 9bbd 6c10 cebc 9f65 45bd
000001e0: a4e2 8dbd b361 64bd 1e8c 9e3c 675a 0bbd
000001f0: 6ad7 4f3d 44a4 dcba 1fd9 643d 7158 7cbd
00000200: 26b8 54be 1503 e6bd 519f 2c3d 585e 46bd
00000210: 6f72 1e3d c422 aebc 71bb dbbd faef 9d3d
00000220: 56cd 5ebd 373b 70bd 7332 eebd c8d2 87bd
00000230: ccaa 19be 2d5b b43d ec97 98bb 7fe3 88bd
00000240: 384c c4bc 95d0 6cbd 89d0 6fbd 7c98 58bb
00000250: 739b 853d d525 b0bd 5401 06be 7761 82bc
00000260: 54ee 57bb a505 023d c44a 8dbd 3982 afbd
00000270: 791e a83c 2dce 9ebc 11b9 09bd 043b 8fbd
00000280: 095f 96bd f5ed c4bc bf0b d9bc 652a 67bc
00000290: 2982 263c bc4a 2fbd 235e f1bc e3a2 dfbd
000002a0: 271b 02bd 05f2 b03b 59f7 963d 923f 50bd
000002b0: 4ea0 053e 384c 2ebd 323a 273c 444c 073d
000002c0: 838b 24bc bc9e 043d 0a05 a53c 7c7e 18bd
000002d0: 9361 b7bd d357 30bc caf5 cc3c 6c11 cbbd
000002e0: 0869 0dbe 4f00 aabd 4208 073d 4a36 f9bc
000002f0: 90fd f03c beff 9a3d 08e2 fbbc 1bb3 ac3b
00000300: 5f0d 91bb d165 d1bd 1a6b 07be f154 1ebe
00000310: 876c 5ebd 4965 e9bc 83ed 8b3a 2d92 49bd
00000320: e286 b43b 254c 21bd a2bb b6bd 10d7 1c3d
00000330: 39a9 9bbd ee25 08bd 0928 cb3b 3223 1bbc
00000340: b923 c43b f176 45bc 5a17 93bd c9ed c1bc
00000350: b5de 3cbd 96cc 99bd c266 b6bd 429c 45bd
00000360: bb5a fdbd df95 453d 184b d23c b822 6dbc
00000370: 4736 fe3c f939 56bd 5f49 a83c c01e a5bd
00000380: deac 84bb 2d1e 3abd 6008 c5bd 97cd 83bd
00000390: 561e 26be d543 bb3d 9357 7cbd b64e 7d3d
000003a0: 2946 b8bc 0bbe b4bc f149 ffbd 5382 ca3b
000003b0: 5c38 0e3d 0ea0 56bd 4a0c 8e3c 6798 083d
000003c0: 7471 173d 5e6f 3a3d f214 b1bd 47d3 8abc
000003d0: e239 d6bd 8d2d 54bd d535 503d 76bc 663d
000003e0: 8fbd 8abe 2819 503c 5ef4 7ebd d0c2 29be
000003f0: ebc7 f43c b31b 1dbd 8662 76bd 2a4d 82bc
0.0055345166 0.02841263 -0.044706527 0.035445556 -0.09639359 -0.08950309 0.012277026 0.017224552
0.0025861813 0.03875575 -0.1809686 -0.0007790014 -0.13723052 -0.002470829 0.061242554 0.056479875
0.005741569 -0.070434175 0.018808499 -0.0018579686 0.059219226 -0.0579364 0.006914908 -0.03266553
-0.029080855 -0.022577854 -0.028541723 0.0019672222 -0.07559464 -0.010183662 -0.045206394 0.04958093
0.050695367 0.02835775 -0.07864081 -0.097436376 0.06325649 -0.06755816 -0.02260981 -0.02575359
-0.0347271 -0.05544806 -0.018418428 -0.11865911 -0.044134375 0.046188403 0.023258127 0.028238075
-0.015515076 0.030014904 0.020196678 0.015961707 0.021340042 -0.20376247 0.0052101687 -0.048532907
-0.060122102 -0.045247484 0.055310413 0.05244056 -0.1410609 -0.08034193 0.040154453 0.05113642
0.061439496 -0.03929811 0.023015987 0.019707719 -0.007861752 0.0048387703 -0.060190238 -0.047378026
-0.08487949 0.019138101 0.06289533 -0.047899727 -0.013317538 -0.016867884 -0.08440881 0.02739488
0.07958339 -0.035881415 -0.004436845 -0.047756597 -0.07272003 -0.05316604 0.056459222 -0.042680357
0.025106842 -0.015017025 0.03282151 0.04875343 -0.020961998 -0.12926303 -0.04033142 0.009596542
-0.067560166 -0.0421838 0.04982898 -0.07323014 -0.0151775945 0.001646752 -0.02847339 -0.039235737
-0.05235425 -0.11205968 -0.0077670054 0.052823223 -0.09510608 -0.06778259 0.0014697592 0.053622585
-0.09006197 -0.023095775 -0.118587516 -0.031971086 -0.106416985 -0.075890936 -0.025154315 -0.048192617
-0.06927994 -0.055757236 0.019353922 -0.03402176 0.050742544 -0.0016833623 0.055871125 -0.06160778
-0.20773372 -0.112310566 0.042144123 -0.048429817 0.03868335 -0.021256812 -0.10729111 0.077117875
-0.054395042 -0.05865022 -0.11630716 -0.06632 -0.1500656 0.08806453 -0.0046567824 -0.066840164
-0.023962125 -0.057816107 -0.058548484 -0.0033049872 0.0652379 -0.08600966 -0.13086444 -0.015915615
-0.003294845 0.031743664 -0.06899026 -0.0856976 0.020522343 -0.019385422 -0.03362376 -0.06993678
-0.07342345 -0.024039248 -0.026494859 -0.014109229 0.010162869 -0.04279588 -0.029463833 -0.1091974
-0.031764176 0.0053999447 0.073713966 -0.050841875 0.13049433 -0.042553157 0.010206746 0.033031717
-0.010043028 0.032377943 0.020144004 -0.03723 -0.08954158 -0.010763126 0.025019545 -0.09915432
-0.13809597 -0.0830084 0.03296686 -0.030421395 0.029417783 0.0756831 -0.030747429 0.0052703745
-0.004426643 -0.10224498 -0.1322445 -0.1546209 -0.05430272 -0.02849068 0.0010675642 -0.04921167
0.0055092433 -0.039379258 -0.08922507 0.038291037 -0.07600636 -0.033239298 0.006199841 -0.00946884
0.005985704 -0.012052284 -0.07182188 -0.023672955 -0.046110827 -0.07509725 -0.08906318 -0.048244722
-0.12370821 0.04823863 0.025670573 -0.01447361 0.03103174 -0.05230138 0.020542799 -0.08062506
-0.0040489277 -0.045438934 -0.09620738 -0.064356975 -0.1622251 0.09143797 -0.061606955 0.061842643
-0.022494392 -0.022063276 -0.12465275 0.0061800866 0.034721717 -0.052398734 0.017339844 0.033348467
0.03697343 0.045516364 -0.08646573 -0.016946448 -0.10460259 -0.051801253 0.05083259 0.056332074
-0.27097747 0.01270131 -0.062244765 -0.16578221 0.029880485 -0.038356494 -0.060152553 -0.015905935

value.0.bias f4 [128]
00000000: 975e 0cbb 4623 7dbb 8fcd ffbc 64b0 dcbc
00000010: 895d 883e bfdb 77bd 842c 57bc 6960 13bd
00000020: 78d7 7abd 34a5 6cbd 54eb a8bb 025e 2ebd
00000030: ce4b b9bc d289 44bc c0a4 2cbd 3536 82bc
00000040: 1f96 163d 1095 873e 8bf4 e4bc 77b9 49bc
00000050: e0bd 92bd 0388 453e d8f8 c83c 37d3 7a3e
00000060: 8ae6 3dbd 84e0 cabc 3148 48bd 15d2 3c3e
00000070: 0487 8b3e 214f b2bc 9369 833e 57c5 403e
00000080: 4eef c7bc 74ef 273e 056c d9bc 7628 80bd
00000090: 01de 42bc a00e fa3d fe3e 9bbd aa3f 96bd
000000a0: b2a2 90bd 5027 37bd db24 06bb 9b6d 603e
000000b0: d36f b3bb 556d 213c 6211 10bc b54d 30bd
000000c0: a37b 263e 78da 77bd 7b96 aebd 849b 553e
000000d0: 43de 5fbc 3ac3 8a3e 0c76 71bd 8be1 54bb
000000e0: 67c3 b2bd 83a9 463e 1796 babd 0246 7e3e
000000f0: f1ed 93bd c251 c63c 226d 80bd cb13 763e
00000100: 4ecd 7ebd 7311 2cbd ee5e e7bc d8c0 81bd
00000110: da3e 94bd 6b48 a43c f941 0e3e 23ac d43a
00000120: 0aef 263c 668a 503c 7360 85bd a10e 023d
00000130: 361d 753e 5f86 f2bb fad7 403e 7606 86bb
00000140: 3ef8 f1bc 3553 293e 444e 7fbd 95ec 2fbc
00000150: e022 9e3c 6d6d 84bd 6c5d 68bd 1ae2 95bd
00000160: 65db 9d39 ce2f 813e 441a 7e3e 4b38 95bd
00000170: cf3a 3cbd 0820 79bd dd3c cebc 0ac1 213e
00000180: 0aa1 883e 2b4e 63bc 1538 bc3c 8240 8cbd
00000190: 616f 90bb 2ef0 d03c df0d 843e b0be 7a3e
000001a0: 3930 353e 3628 f33b 7c9b b73c ea3a 1b3e
000001b0: ac14 c93b dc8e d7bd ace6 383e 1f76 a1bd
000001c0: ef2d b43c b221 8d3c a66e c5bc 0e04 f33d
000001d0: ee1d e3bc b198 8c3e 25a2 2fbd 04cb 6e3e
000001e0: 5bf1 653c 84c0 823e 74a1 93bc 2137 acbd
000001f0: 61bc b3bd 35d2 49bd a6a3 a6bb 5b2f 81bb
-0.0021418685 -0.003862576 -0.031225948 -0.026939578 0.26633862 -0.0605123 -0.013133172 -0.035980616
-0.061240643 -0.057774737 -0.0051550064 -0.04257012 -0.022619154 -0.01199575 -0.042149305 -0.015894989
0.03676426 0.26480913 -0.027948638 -0.012312285 -0.07165122 0.19290166 0.02453272 0.24494635
-0.046362437 -0.02476526 -0.048896972 0.18439515 0.27251446 -0.021766247 0.25666484 0.18825279
-0.024406102 0.16399938 -0.026540766 -0.06257717 -0.01189375 0.12209821 -0.07580374 -0.07336362
-0.07062282 -0.044715226 -0.0020468745 0.21916811 -0.005475977 0.009852727 -0.008793207 -0.043042857
0.16258101 -0.060511082 -0.085247956 0.20860106 -0.013663831 0.2710207 -0.05895047 -0.0032483067
-0.08728676 0.19400601 -0.091106586 0.24831393 -0.07223118 0.024208907 -0.062708154 0.24030988
-0.062207513 -0.04200883 -0.028243508 -0.0633561 -0.072385505 0.020054063 0.13892354 0.0016225617
0.010188827 0.012728309 -0.06512537 0.031752232 0.23936924 -0.007401272 0.18832389 -0.0040901257
-0.029537316 0.16535647 -0.0623305 -0.010737558 0.01930374 -0.06466184 -0.05672972 -0.07318516
0.00030108835 0.25231785 0.24814707 -0.07286128 -0.04595452 -0.060821563 -0.025175506 0.15796295
0.26685363 -0.013873617 0.02297596 -0.068482414 -0.0044078087 0.025505152 0.25791833 0.24486804
0.17694177 0.007420565 0.022413008 0.15159193 0.0061364975 -0.10525295 0.18056744 -0.07883858
0.02199456 0.017227981 -0.024100613 0.11866008 -0.027724233 0.27460244 -0.042879242 0.23319632
0.014034594 0.25537503 -0.018021323 -0.084089525 -0.08776165 -0.049272735 -0.0050854264 -0.003942413

value.2.weight f4 [1, 128]
00000000: 43d7 3639 326c 6d3d 9b6b edbe 9bf3 02bd
00000010: 479c 253e 1756 babd 0bcf 0b3c 8ce0 f439
00000020: da5f 893d 2b9e 07bf c913 fabe 8f49 f1be
00000030: 6fb7 22bd 3fa5 08bd 9bc7 c3bd d3e2 dd3c
00000040: 7298 5c3d 462d bb3d d725 16bf c164 8bbd
00000050: f434 02be 4421 e43d 969a b7bc 840f 773d
00000060: d6f3 06bf 8f2e dabe 667a c5bc 0d53 d23d
00000070: db37 e63d c68c 12bf 0af2 123e 4ca2 ab3d
00000080: b52b 00bf 0186 ed3d e4c5 82bc 3a45 bcbc
00000090: 623a 09bf 97a5 6a3c cf70 d4be 39c4 fcbe
000000a0: f775 06bf 493c 8d3d f8c9 723d a7fa 013e
000000b0: 2c9b 283d 8da8 b5be ece4 05bf c7de dcbe
000000c0: 3955 b33d ae2c 0abf ed5a a5bd 0e21 8b3d
000000d0: 9f78 76bd cbd4 0f3e 05e9 afbd 54c4 8838
000000e0: 0aca dbbe e6cd 893d 11e5 e0be de7b 133e
000000f0: 4e57 8cbe 4246 60be cebd c5be c782 c93d
00000100: 4dbc 16bf 064e febc e28e 07bf 21fa bcbe
00000110: 28f9 07bf 4099 8abc 46c7 903d 35ab b4be
00000120: 8035 1fbd de83 853d 0383 a6bd f82a a2bb
00000130: 1fe0 a83d 859d 09bf 3dba f03d 2575 79bd
00000140: 9185 3abe eddd e03d 81ee 513d 487a f43d
00000150: 09fd 8abd 7a40 d8bd 1eac 903d 8b93 e4be
00000160: 7cc7 b3be bb87 183e 1175 9b3d ccf2 e8be
00000170: e846 f2be 73dc df3c f875 c3be 0bca 583d
00000180: a96a 033e 2c40 613d edab 98bc 668d 923d
00000190: b4db b4be 2356 4dbc d78a de3d 7801 ca3d
000001a0: d7af 0b3e 4875 77bd 3477 883d 3df0 b33d
000001b0: dc0e a43b 6e37 debe 116e 5e3d 4b59 bdbd
000001c0: 1e19 70bd b7df ebbe 37bc 1fbe 63fe c13d
000001d0: d2d5 15bd 43ac 063e f965 93bd f8e6 9f3d
000001e0: 7a11 303a bd7a 193e 6927 0fbf c186 0cbf
000001f0: c4bb b6be 1729 07bf 7fae 03bf 5100 8cbd
0.00017437064 0.05796451 -0.4637116 -0.0319706 0.16172896 -0.090984516 0.00853325 0.00046706607
0.06707735 -0.5297572 -0.4884322 -0.47126433 -0.039725717 -0.033360716 -0.09559556 0.027085697
0.05385632 0.091394946 -0.5865149 -0.06806327 -0.12715513 0.111391574 -0.02241258 0.06031753
-0.52715814 -0.42613646 -0.024106216 0.10269747 0.11241122 -0.57246053 0.14350143 0.08380565
-0.5006669 0.11597825 -0.015963502 -0.022982229 -0.5360471 0.014321706 -0.41492316 -0.49368456
-0.5252375 0.06896264 0.059274644 0.12693273 0.04116361 -0.35480157 -0.5230243 -0.43138716
0.08756489 -0.53974426 -0.08073983 0.06793414 -0.060173627 0.14046018 -0.08589367 6.521554e-05
-0.4292758 0.06728725 -0.43924764 0.1440272 -0.27410358 -0.21901801 -0.38621372 0.09839397
-0.58881074 -0.031043064 -0.52952397 -0.36909583 -0.5311456 -0.016918778 0.070692584 -0.3528687
-0.03886938 0.06519292 -0.08130457 -0.00494897 0.08245873 -0.5375598 0.11754272 -0.060902733
-0.18215014 0.10979829 0.051252846 0.11937386 -0.06786544 -0.10559173 0.07064079 -0.44643816
-0.35113132 0.14895527 0.07590688 -0.4549774 -0.47319722 0.027326798 -0.3817594 0.05292706
0.12833656 0.05499284 -0.018636668 0.07155876 -0.3532387 -0.012532744 0.10866325 0.098635614
0.13641296 -0.060414582 0.06663361 0.08786056 0.005006654 -0.43401664 0.054304186 -0.09245547
-0.058617704 -0.46069118 -0.15599142 0.094723485 -0.036580868 0.1315165 -0.07197184 0.07807726
0.00067164714 0.14988227 -0.5591951 -0.5489312 -0.3569013 -0.52797073 -0.51438135 -0.06835998

advantage.0.weight f4 [128, 256]
00000000: 7081 f23c 9e7a 4cbc 1246 8f3d b419 23bd
00000010: 75bf 143c fa41 43be 5a43 debd cc2f e1bc
00000020: aa6b c0bc 6d03 5cbd f87b 4dbd c617 df3d
00000030: f0c9 803b 80ae eb3c 26b9 77bd ac84 02bd
00000040: 61a6 afbd ee4d 05bd f073 c73c 5f55 5a3c
00000050: 9d1a 003e bde7 a33d b8ef a9bd 63bc f3bc
00000060: ed5e b8bd a957 b63d 2af6 89bc 46f7 053d
00000070: aa19 c7bd 204f 98bd 224b 13be 1594 21be
00000080: eb9f 2cbd 05cf cabd 90a1 45bc bd52 86bd
00000090: 5c7b 24be c9b0 e13d 9dc6 37bd 4637 24bd
000000a0: b114 c13c 46fb 7a3d eaa5 963d 7947 c23d
000000b0: 5cfd 21bd a9a3 0c3e 0cb3 9d3d 36da d8bd
000000c0: 313e f53d bbe8 18bc e96d 7f3d f61c 973d
000000d0: d799 2d3d 0a8a 113d 41d2 6bbd 29bb d43c
000000e0: 1944 5ebd 617d bcbd 7952 7ebd 9ff2 e23c
000000f0: d5c1 acbd 269f 883d c0ec c3bd 3c86 91bc
00000100: a5c6 fa3b 5dd3 023e 53d3 83bd 4070 0fbe
00000110: fb3f 03be c57d 5f3c e8c5 7cbd 25c0 26bd
00000120: 60a4 b5b7 9e86 1cbd c8ff 973c 62d7 383d
00000130: cad7 b63d c610 173d 9efe 2ebe b054 bfbd
00000140: 7f57 913d db25 513c 973d c83d bdb8 783d
00000150: 4ab8 383c fdfc 043d b50a e03c 99da cb3c
00000160: 2bc1 3a3d 87cb 513d c88a b63c 4619 edbd
00000170: f823 59bc b2cc dcbc ed38 3abd 5fb9 25bc
00000180: c1fa 193e 4204 86bd 69c8 053d ad0d 3f3d
00000190: d6e0 82bd b1a4 78bd 804a 06be 975a d33d
000001a0: 8875 df3c 7bbe 0fbe 63ab c83d 5bac 713c
000001b0: bc58 2ebd 4a9b 1dbe 04ff 20bd da70 e83d
000001c0: 1edc 70bc 5390 053d b12e 6d3d 0015 f43d
000001d0: 8c94 02be 3fb0 82bd 22e6 013c 0051 0bbe
000001e0: f1d2 65bd 9e9c fd3d 7537 3abd 3cea 4e3d
000001f0: 4bf4 09bb 3e24 2d3d 8507 90bd 491e 793d
00000200: 2fc8 6ebe 42ce 1fbd 7921 8fbd 31e7 103d
00000210: 8e0d 58bd 59f4 bc3c d8a4 45bd af9c 52bc
00000220: 9af9 fc3c add9 d3bc 8849 263c 7011 82bd
00000230: 020f e5bc 71d7 a8bd 21af f33d f8e8 bc3d
00000240: 8cb7 1bbe 7195 d5bd 6436 bbbd 1e76 5ebd
00000250: 2eb7 533e d42e 493e 93aa 9abd 6f76 b2bd
00000260: 08dc 1f3d 857a 233d 8123 4bbd 7a73 0bbd
00000270: 2408 9f3c 41a3 c83d acdb 7bbc 08df 963d
00000280: 4bef 20be e99e e93c fbb2 b63c 7da4 dc3c
00000290: f793 b9bc 2bd9 703d 9529 89bd adca 85bd
000002a0: c1fc 90bd 73d1 15bd a8c7 01bd f8db 83bd
000002b0: 6e9e 15bd a526 c83d 8cca c03b 2186 27bd
000002c0: a952 d4bd f059 5bbc eaa6 563d d171 9abd
000002d0: 840c 9abd f22b 53bd 7de4 08be 64ea a03b
000002e0: fc98 473e 4c6e 08bd a391 23bd a34d ff3c
000002f0: 0e62 4a3d dcd1 31bc 9b78 f9bc 1c92 d93d
00000300: 7865 c9bd 0d96 263c e1a7 b13d 92d6 75bd
00000310: e8da 2ebd a271 d6bd df2f d73d b21a b43d
00000320: 7b46 23bd 0aa5 1c3d f5cf 1cbd 1bf6 f0bd
00000330: 54c5 bfbd 879c 86bd 30e0 88bd 8137 bfbc
00000340: 6068 afbd 72d7 ec3d 5b94 b63d 69d3 26bd
00000350: 94de 12bc ddef b73c 2214 053b 2617 80bc
00000360: 228a 8abd 9a31 233d c119 17be c308 15be
00000370: c47d 37bd d900 d0bc 3d2f 73bd 1de6 12be
00000380: 7f1c 173d a083 21bd be18 063e 65ea 8a3d
00000390: 28c5 17bc 470a 833d 1185 a8bc 6d24 153e
000003a0: f22f 57bd 898e debd 95ae 4abd 4d27 65bd
000003b0: 450c f73c 143d afbc af11 23be d0c2 9abc
000003c0: 72e7 2abe 3ab9 07be f40d bd3c b467 f9bd
000003d0: dffa b33c da97 5c3d ebda c6bd 6219 f4bb
000003e0: 5da9 713c 9a1f 993d 22cf acbd 4109 47be
000003f0: b8a7 ebbd 52d8 183d c234 933d 98b5 6abc
0.029602736 -0.012480406 0.06995787 -0.039819434 0.00907885 -0.19068137 -0.1085269 -0.027488612
-0.023488838 -0.053714205 -0.050167054 0.10893206 0.003930323 0.028769732 -0.060479306 -0.031864807
-0.08576656 -0.032545023 0.024347275 0.013326018 0.12510152 0.08003185 -0.08297676 -0.029752916
-0.09002481 0.089034386 -0.016841013 0.03270652 -0.09721692 -0.07436967 -0.1438413 -0.15779145
-0.042144697 -0.09902767 -0.012062445 -0.0655875 -0.16062683 0.11020047 -0.044867147 -0.040091775
0.023569437 0.06127479 0.07355864 0.094862886 -0.039548263 0.13734306 0.07700166 -0.105884954
0.11974753 -0.009332831 0.062360678 0.07378571 0.04238304 0.035532035 -0.05757356 0.025968151
-0.05426416 -0.09203602 -0.06209037 0.027703581 -0.08435408 0.0667098 -0.09566641 -0.017764203
0.007653075 0.12775941 -0.06436791 -0.14007664 -0.12817375 0.013640826 -0.061712176 -0.040710587
-2.1653424e-05 -0.03821432 0.018554583 0.04512728 0.08927877 0.03688123 -0.17089316 -0.09342325
0.07096767 0.012765373 0.09777372 0.060723055 0.011274407 0.03246783 0.027348856 0.024884509
0.045594376 0.05121949 0.022282973 -0.11577086 -0.0132532045 -0.026953075 -0.045464445 -0.010114997
0.15037061 -0.06543781 0.03266183 0.0466439 -0.0639054 -0.060703937 -0.13114357 0.10320013
0.027277723 -0.14037506 0.097983144 0.014750565 -0.042565092 -0.1539127 -0.0393057 0.1134965
-0.0147009175 0.03260834 0.057905857 0.11918068 -0.12751979 -0.063812725 0.007928403 -0.13605118
-0.056109373 0.12383388 -0.045463044 0.050516352 -0.002105015 0.04227089 -0.07032684 0.060819898
-0.23318551 -0.039015062 -0.06988806 0.03537673 -0.0527473 0.023065733 -0.04825291 -0.012854739
0.030880738 -0.025860632 0.010149367 -0.06350982 -0.027961258 -0.08244217 0.118986376 0.09224123
-0.15206736 -0.10428894 -0.091412336 -0.054311864 0.20675346 0.1964677 -0.07552066 -0.08713996
0.039028198 0.039911766 -0.049594406 -0.034045674 0.019413061 0.09796763 -0.015372198 0.073667586
-0.15716283 0.028518157 0.022302141 0.026933903 -0.022653563 0.058800858 -0.06697384 -0.06532798
-0.07079459 -0.0365767 -0.031684548 -0.0643844 -0.036528043 0.09772996 0.0058835205 -0.0408994
-0.10367329 -0.013388142 0.052405275 -0.0754124 -0.075219184 -0.05155558 -0.13368411 0.004910754
0.19491953 -0.033308312 -0.039933812 0.03116495 0.04940992 -0.010853257 -0.030453017 0.10623571
-0.09833807 0.010167611 0.086745985 -0.060019083 -0.042689234 -0.104708925 0.105071776 0.08794154
-0.039862137 0.03824333 -0.03828426 -0.11765691 -0.09363809 -0.06572824 -0.06683385 -0.023341896
-0.0856483 0.115645304 0.08915015 -0.04072896 -0.0089642 0.022453243 0.002030619 -0.015636038
-0.06764628 0.039842226 -0.14755918 -0.14554124 -0.044797674 -0.02539103 -0.05937122 -0.14345594
0.03689241 -0.039432168 0.13095376 0.067829885 -0.009263314 0.063984446 -0.020571264 0.14564677
-0.05253596 -0.1086703 -0.0494829 -0.055945683 0.030157218 -0.021391429 -0.15924715 -0.018891722
-0.16689852 -0.13254252 0.023077942 -0.12177983 0.02197021 0.053855754 -0.09709724 -0.007449315
0.014749852 0.07476731 -0.08437945 -0.19437124 -0.11506599 0.037315674 0.07187797 -0.014325522

advantage.0.bias f4 [128]
00000000: f24c babc 44d2 36bd c47b 14bc 0e9c 4fbc
00000010: 34a7 883d 7426 07bc bfb2 47bd 59a0 c83c
00000020: 2ef4 18bd a6e6 40bc 8412 8cbd 9a7c d13c
00000030: ef8f 853b 8219 2cbd 4bd6 3cbd 08ea 0d38
00000040: 2a4c 42bd 7060 e8bc 9b41 12bd 51b8 ad3c
00000050: 6c8f 2abc 77e3 f2bb d5a3 263d d2d7 f23c
00000060: 5f07 c7bc 3840 f8bc 4d08 ffbc 50f7 b73c
00000070: 062e 393d 9b50 3bbd 130a af3b d5a6 b23c
00000080: a096 3cbd 03cc 873d 7366 a43c 5f4e a4bd
00000090: e5e4 50bc a1b6 323d 70e8 cf3d ebb7 173c
000000a0: f9a6 fc3c a1a8 c13b 05b3 9bbd 2bf3 adbc
000000b0: 554b 25bd 6aa7 8e3d bea1 3fbd 65ee 023d
000000c0: 57eb 923d bc39 193b 6582 f53c c276 bdbd
000000d0: 3376 abbd e2fd a63d 5d73 f1bc a0d3 fb3b
000000e0: bc8a 1c3c 380b ad3c 9d44 9bbc a33c b8bd
000000f0: ab02 73bc c450 0ebc 7e91 ebb9 66f9 86bd
00000100: 1a8f 20bc d4f3 8c3c 9b0d 54bb f875 36bb
00000110: dfc3 413b 86ae 5b3b a64b c83c 43dd d6bd
00000120: aac0 57bb 0300 c13b 156a 5ebd 03f0 41bd
00000130: 4257 03bd 3560 8cbd a230 99bd 79a7 9f3c
00000140: fd57 8abd ccb0 e0bc 82c2 a33d f3e6 cabc
00000150: dc6a bfbd 575c 6dbd 5d9c 9b3d afc8 b6bc
00000160: e4f4 d839 404d 32bb 359a 813c 3806 abbd
00000170: 4e72 843c 4f87 3ebd 8016 08ba 1961 ffbb
00000180: c345 793c 28cc 183c c712 8dbd 8cfb d3bb
00000190: d8e5 6bbc 1d6a b1bd 6b36 493d 64ba 7bbc
000001a0: a27e e2bc 0058 99bd 2661 18bd d773 423d
000001b0: 2b80 bebd 211c 96bc a08c 96bc daba 28bd
000001c0: da4a 813c 797a 80bd c547 bebd ef86 8bbd
000001d0: cfb5 0a3d 7c27 5c3c fdd4 66bd 3688 b2bb
000001e0: d9d7 123d c728 86bb 7a0e e5bc 0ad7 5abd
000001f0: c81f 433d 9208 6c3c 3530 c6bb 5d68 af3c
-0.022741769 -0.04463412 -0.009062711 -0.012671484 0.066725165 -0.008248914 -0.04875445 0.024490522
-0.037342243 -0.011773741 -0.06839469 0.02557211 0.004075996 -0.042016514 -0.046102803 3.383498e-05
-0.047435917 -0.028366297 -0.035707098 0.021206053 -0.010410171 -0.00741237 0.040683586 0.029643927
-0.024295507 -0.03030406 -0.031131888 0.022456795 0.045209907 -0.04573117 0.005341777 0.021808067
-0.046042085 0.06630709 0.020068383 -0.080227606 -0.012749885 0.0436312 0.10151756 0.009260158
0.030841338 0.0059099947 -0.07602505 -0.021234116 -0.040355045 0.069655254 -0.04678511 0.031965632
0.07173794 0.002338036 0.029969404 -0.09251167 -0.08372154 0.08153893 -0.029473955 0.00768514
0.009554561 0.021123514 -0.018953616 -0.089959405 -0.014832179 -0.008686248 -0.00044931093 -0.06590538
-0.009799743 0.01720611 -0.0032356742 -0.002784131 0.002956621 0.0033520772 0.024450134 -0.10491421
-0.0032921233 0.005889894 -0.054300386 -0.047348034 -0.032065637 -0.068542875 -0.07479979 0.019489037
-0.06755064 -0.027428053 0.07996084 -0.024768328 -0.09346554 -0.05794939 0.07598183 -0.02231249
0.00041381188 -0.002720669 0.015820602 -0.083507955 0.016167786 -0.04651576 -0.0005191341 -0.0077935574
0.015214386 0.009326018 -0.06888347 -0.0064691957 -0.014398061 -0.086628176 0.049124163 -0.015364263
-0.027648274 -0.07487488 -0.037202023 0.047473755 -0.0930179 -0.01832396 -0.018377602 -0.04119382
0.015782762 -0.0627336 -0.09291033 -0.06812846 0.033864792 0.013437148 -0.056355465 -0.0054483665
0.03585038 -0.0040942165 -0.027961005 -0.053427733 0.04763773 0.01440634 -0.006048227 0.021412069

advantage.2.weight f4 [3, 128]
00000000: d552 82bc 55fd 873d ea19 a7bc 0005 663c
00000010: d0a7 d0bc 3954 d03c 891c ac3d 9e08 de3c
00000020: 265f 8abc afbe ad3c 8f07 6a3c 296d 5bbd
00000030: a18c 0dbe 7c3b 933c 4d08 353d 3c18 8fbd
00000040: 2eaf 27bc 3bbe b1bb 1371 80bd 3dc4 333d
00000050: 65de 493d 11b1 833d 5584 803d 7a0b 8a3c
00000060: 1ff0 6bbd dc83 2f3c 9a31 c2bc a475 4cbd
00000070: f155 9ebc a579 cebd 014f 2b3c 976c 1e3d
00000080: dd5b 903d ce84 a13d b267 933d ce0f d43c
00000090: 56fd 9c3c c24f a33b 45f9 733d d64a a13d
000000a0: c483 59bc 30a5 5cbd 9f94 bf3b 7dc4 8a3c
000000b0: 8802 d53c f1a5 6abd 7e05 c5bc 9c29 b33d
000000c0: 18a5 283d 6b56 4cbc 9b43 953d 6f56 ba3d
000000d0: e53d 41bd e808 b339 db60 433d e36d a3bb
000000e0: 41b1 dabd 06ad 54bd fa19 583d 650f 253d
000000f0: 25cf bcbd 7038 263b 7556 1cbc 901f 823d
00000100: 14b9 c6bb d4a7 ea3c 353c b2bb 77d2 09be
00000110: a1fb d23c e196 0a3d 5ffd 92bb c983 acbd
00000120: b652 2e3d d20b 84bd 973b 833c 889e c63b
00000130: 125f 413d 8ad9 2abd 3135 f5bc 0862 d73c
00000140: 6052 893c 47a3 963d 2d32 273d cf8d fbbc
00000150: f1f6 c0bc 3c39 013b c1cc c83b 781f 663d
00000160: d39a f8bd f312 ff3c 2c63 2b3d 3c70 58bd
00000170: fe7d 18bc 1d67 e43b 8c07 133d e80d 65ba
00000180: 2be4 433d 6459 e73c 3967 c4bd 1037 3fba
00000190: 8c1e f3bc dd08 e13b 867d 873c 0682 4dbd
000001a0: 1ab0 943d 9302 253d 23e0 903d 2993 54bd
000001b0: 8a9d dd3b 4937 5c3d efe6 f33c 5b56 5d3b
000001c0: 0cc3 803d b184 a1bc 328d afbb a901 973d
000001d0: a6f4 f6bd a3fd 263d 5c68 4e3d f990 03be
000001e0: dbdb 04bd ff28 f93d 8f82 b43d 1b8f d33c
000001f0: 5966 643b 7303 4fbd 2bad 58bc e9d8 3dbd
00000200: b313 603c 0e54 933d 66f7 93bd 1c8f 063d
00000210: e06f d33d 96e3 f6bb ce3c 863d 3a4b 883c
00000220: df4d 6cbc b01b 213e e253 30bd e6fd a33c
00000230: 53d1 e83d 8891 683e 920a afbd f011 7c3c
00000240: 9655 2f3d 9178 8db9 bc3a 99bd 92a8 f03c
00000250: 83a3 a53d 378f 323d 6253 2f3d fdac 5ebd
00000260: ee28 73bd 84a7 64bd a68d 853c cda3 96bd
00000270: ab34 6bbc d2e4 aebd 6564 163d ff31 b9bc
00000280: d25a 483d 598e 593d 890a 5f3d 046c 153d
00000290: 4bba 403d 137a 28bd ddaa 8dbd 8697 c43b
000002a0: 8c05 e3bd 1a18 3bbe 6549 20bd e110 c03d
000002b0: cafb 093d 02e1 92bd 5315 053e 924e fe3d
000002c0: 0786 a1bd a058 c6bd 031b 49bd 1e6d 5f3d
000002d0: 5964 b03d 0f81 a7bd 3190 9dbd 4184 1d3d
000002e0: 0f76 993d 87e0 8d3d fb51 2cbd c3bd 043d
000002f0: ba02 e8b8 34e3 5ebd 8c8a 56bc 22de 903d
00000300: 8f99 a4bc 0c27 2dbd bd0a acbd f1f2 133d
00000310: 4b7e f3bd a6fe cdbc dd0d 863c f9cc 583d
00000320: fe39 e33b 5886 993d 5346 813d f81c 053c
00000330: cb51 393d 46e0 c8bd 2d37 333d 97e4 763d
00000340: a84f 52bd 90d6 733d 059e 20be 82c6 f43c
00000350: 3413 9bbc 9f6b 81bb 653a ebbc d065 cabd
00000360: ad52 813d 219c 47bd 9e25 303d 03fe 483d
00000370: 1b18 163d ea7e 40bd dfc0 94bd badc dbbc
00000380: f174 7d3c db0e b0bc f9dc 913c 0ea5 d43c
00000390: 38ce 44bd c648 79bc e55c 983d cd6b e5bd
000003a0: fac5 193e ea6b c23d 1f48 dd3d 3718 29bc
000003b0: 4118 d33c d57f 0d3d 2e09 863d 7c0d f6bc
000003c0: 6f6d 793d aff2 8e3d 3423 193d bcb5 82bd
000003d0: f8ba 463d d506 7abd 7cb6 4cbd 165d 3cbc
000003e0: 4454 7ebc 3b88 b6bc cd6b 873d 3e75 333d
000003f0: 7152 b8bc 7346 973d 598d 293c d9f6 0fbe
-0.015908638 0.06640116 -0.020398099 0.014039278 -0.025470644 0.025430785 0.0840388 0.027103718
-0.016891073 0.02120909 0.014284029 -0.0535709 -0.13823177 0.0179727 0.04419737 -0.06987044
-0.010234637 -0.0054242886 -0.06271567 0.04388832 0.049284358 0.06430257 0.0627524 0.016851176
-0.057602044 0.01071259 -0.023705292 -0.04991688 -0.01932809 -0.100817956 0.010455848 0.038677778
0.070487715 0.078866586 0.07197513 0.025886443 0.019163769 0.004983873 0.059563894 0.07875602
-0.013276044 -0.053868473 0.0058465744 0.016939396 0.026002184 -0.05728716 -0.02405047 0.08748171
0.04117307 -0.0124717755 0.07288285 0.09098517 -0.047178168 0.00034148176 0.04769979 -0.0049874648
-0.1067834 -0.05192282 0.05275915 0.040297884 -0.09219197 0.002536323 -0.009542097 0.06353676
-0.0060645435 0.02864448 -0.005439306 -0.13459192 0.025754752 0.033835296 -0.0044857706 -0.084235735
0.042559348 -0.06447567 0.016019626 0.006061379 0.047209807 -0.041711368 -0.02993259 0.026291862
0.016762912 0.073553614 0.040819336 -0.030707268 -0.02355525 0.0019717952 0.006127924 0.056182355
-0.121389054 0.031136965 0.041842625 -0.05284141 -0.009307383 0.0069703 0.03589587 -0.0008737729
0.04782502 0.028240867 -0.09590001 -0.0007294277 -0.029677652 0.0068675117 0.016539346 -0.05017283
0.07260151 0.040285658 0.07074001 -0.051898155 0.006763165 0.05376366 0.029773204 0.0033773396
0.06287202 -0.019716593 -0.005357408 0.073733635 -0.12058382 0.04076923 0.050392494 -0.12848271
-0.032436233 0.121660225 0.088139646 0.025825074 0.0034851043 -0.0505404 -0.01322488 -0.04634944
0.013676572 0.071937665 -0.07224922 0.032851323 0.10324073 -0.0075344546 0.06554566 0.016637433
-0.014422863 0.15733218 -0.043048747 0.02001853 0.113680504 0.22711766 -0.08546938 0.015385136
0.04280623 -0.00026983445 -0.07481906 0.029377256 0.08087828 0.04359361 0.04280413 -0.054364193
-0.059365205 -0.055823818 0.016302895 -0.07355461 -0.014355819 -0.08539738 0.036716837 -0.022606848
0.048914738 0.05311427 0.054453406 0.036479965 0.047052663 -0.041132044 -0.06917355 0.0059995083
-0.11085042 -0.18270913 -0.039132494 0.093782194 0.03368739 -0.07171823 0.12996416 0.1241733
-0.07886892 -0.096848726 -0.049098026 0.05454742 0.0861289 -0.08178913 -0.07693518 0.038456205
0.07493221 0.06927591 -0.04207037 0.032407533 -0.0001106313 -0.054415897 -0.013094556 0.070736185
-0.020092754 -0.042273566 -0.08400486 0.03612036 -0.11889323 -0.02514584 0.016364032 0.052929852
0.0069344034 0.07496327 0.063122414 0.0081245825 0.04524402 -0.09808402 0.04375379 0.060276594
-0.051345497 0.059530795 -0.1568528 0.029879812 -0.018930055 -0.003949597 -0.028714368 -0.098827004
0.06314597 -0.04873288 0.043004625 0.04907037 0.036644083 -0.046996035 -0.0726335 -0.026838649
0.015469776 -0.021491459 0.017805563 0.02595761 -0.048048228 -0.015215104 0.07439593 -0.11202202
0.15016928 0.09493239 0.10804772 -0.010320715 0.025768401 0.03454574 0.0654472 -0.030035727
0.06089538 0.06979882 0.037387088 -0.06382319 0.04851815 -0.06104167 -0.04997872 -0.011496803
-0.01552302 -0.022281757 0.06612358 0.043812983 -0.022500249 0.07386484 0.010348641 -0.14059009

advantage.2.bias f4 [3]
00000000: a615 cf3d ac7f acbd 42d6 c9bd
0.10111551 -0.08422789 -0.098553196
