model/DQN/checkpoint_100.pth (torch, 23075 bytes, 4 tensors)

linear1.weight f4 [256, 16]
00000000: 2ef8 81be 4a15 133d 7685 563e a658 613e
00000010: aac2 1d3d fee9 49be 8523 283e b68a 603e
00000020: c142 093e 8f90 603e c2a7 203e e209 77bd
00000030: 20a0 3fbe 314e 13be e597 81be d9f0 35bd
00000040: bc39 253b 3a50 863e 7ef9 a5bd ffa5 7ebe
00000050: 2157 373e 405d babd 20f6 d83d 3024 8fbe
00000060: d28f e6bd 09d7 d63d 8936 42bd ccca 653d
00000070: aee7 c33d 2fb2 f43d 8e4c 16bc 1038 d1bd
00000080: 485a bfbd 3514 7b3a fff6 28be 785a 68be
00000090: 142d 003d 96dc 6fbd 2110 923e 033c 8e3e
000000a0: 6b03 aa3d 9650 b4be 09b5 94be ed53 3cbe
000000b0: 2d6f 3e3e 9837 6cbd 5a92 b83d c0e5 963d
000000c0: cb36 fbbc 7a93 0dbe 6b78 24be 136f 6a3e
000000d0: 4bf5 1b3e 1627 913e 7dca 89be e3cc 19be
000000e0: 6419 b5bd 0788 7fbe cdda d93e 9e5c 4cbe
000000f0: afc1 35bd 4857 103d 8e88 af3d a093 693c
00000100: 5e8a 113e 518c 8abb c2ea 8ebe d95a 54bd
00000110: 72e5 623e 98f7 b33d 47ae 3dbe 991a 9f3d
00000120: c11e 9abe be04 893e 9bed d6bd b585 39be
00000130: a729 dbbd 9fae 833e e8b2 75be c01d d13d
00000140: 86b2 36be 5ccc b1bd 2c70 e83e 99d0 f13b
00000150: 6883 453e e0de ebbc 83bc f3bd 0fca 373e
00000160: f810 4e3e c756 b9bc 9159 b9be 72cd 2c3e
00000170: 7886 87be b1b5 493e db89 5f3e 60c1 91bd
00000180: b006 bf3e 8716 133e 6a33 21bd 4318 b13d
00000190: 65ff 633e 200e a83e b489 58be 7829 5abd
000001a0: c6cb 44be ba34 683e 5034 b43e a245 27bd
000001b0: 4747 913e 7652 493e adac 5b3e 372e 18be
000001c0: 7f27 9f3e 9e85 b2be 11a5 a9be 9484 993e
000001d0: 6885 bd3d fcd7 80bc c8e1 73be 0cf0 b43c
000001e0: 0593 ed3d 8de3 5abe 300c c2be f888 843d
000001f0: b836 ffbd ce62 783e 2d66 f5bd d81e bebd
00000200: b1e7 303e 13e0 8e3e 777c 8cbe 04e2 583d
00000210: 10f5 52bd de6a 773e 41ea c63d d0ae 273e
00000220: a42a 82be 5a91 163d cc3f e73d a894 5cbd
00000230: d3fe 3d3a a6cf c0bd 4729 973e bdd1 3f3e
00000240: 67f7 b73e 5333 40bd 9e0c 313e 00dd 163e
00000250: f48a f53d 2947 883e ed16 563e c6b1 8abd
00000260: 533a e83c 0b59 f8bd 9c20 b8bd d207 5abe
00000270: 37b9 58bc cb0e 2fbe 13f8 88be 5ecc 10be
00000280: 5553 e23d 9da1 6b3d 4418 db3d 9add 543e
00000290: 4c99 5e3e b48e b93d 162c 04be 7ab2 843e
000002a0: dc2e 29be 53cd cc3e fbf5 683e 9fd3 5abd
000002b0: 0830 febd 1bfc c239 7573 96bc e737 ebbd
000002c0: f5d7 a73d 8a47 b23e ff49 52bd 6ecd 5dbe
000002d0: 5387 1abe bfea 093d 307c 2bbe c3aa 573e
000002e0: 606e d43d 2064 9b3e a4e5 ae3c 62b8 a33e
000002f0: 7ac7 0b39 9248 513e 3f20 0b3e 5987 f63d
00000300: eb61 10be 83f0 053e a446 9d3d a4a4 1abe
00000310: c628 e3bc 03a7 c2bd c472 ce3d dae6 a63e
00000320: ba1c 02bd 4ca7 853e 100d ce3e 80ce 6e3e
00000330: 029d 213d b2b0 603d 1a0b 693d 4719 3b3b
00000340: 58fd 49bd 8a96 2c3e 04b4 9fbe 7c02 8fbd
00000350: ffd1 ffbc 0e40 84bd 7cc6 76bd 714c ebbd
00000360: a835 f63d c90b 9c3e 042e 8b3e e856 a2bb
00000370: 2416 4abd d962 123d 4501 573e d6b2 533e
00000380: 5295 ca3e 454d 0bbd a02b 42be 0589 7bbe
00000390: 52b4 c6bc 6c15 6e3d 6c74 1a3d f124 4f3e
000003a0: 27f8 54bd 5b08 ee3d 8265 5f3e b2de 653e
000003b0: 3edd 17be 409e 4abe 7766 643e b917 27be
000003c0: d35a e63d 4a71 db3c 28b1 6e3e aa87 65be
000003d0: 299b 10be 2963 7b3e 248f 62be bcec 3bbe
000003e0: 37fd 883c 2d33 b3be 85e5 c8be 91e3 a53d
000003f0: 8aec 753e f56e df3d 707e 71be 9c31 87bc
-0.2538466 0.035908975 0.20949349 0.22006473 0.038515724 -0.19718167 0.164198 0.21927914
0.13404371 0.21930145 0.15688995 -0.06031216 -0.18713427 -0.14385296 -0.253112 -0.044419143
0.0025211414 0.26233083 -0.081042275 -0.2486801 0.17904331 -0.09099817 0.105938196 -0.27957296
-0.112579 0.104902335 -0.04741529 0.056101605 0.09565674 0.11948048 -0.0091735255 -0.10215771
-0.09343392 0.0009577901 -0.16500472 -0.22690761 0.03129299 -0.058559977 0.2852793 0.2778016
0.08301433 -0.35217732 -0.2904437 -0.1839139 0.18597098 -0.057670206 0.09012289 0.0736804
-0.030665776 -0.13825789 -0.16061561 0.22893934 0.1523029 0.28350133 -0.269123 -0.15019564
-0.088427335 -0.24954234 0.42549744 -0.19957206 -0.044374164 0.035239488 0.085709676 0.014256388
0.14212939 -0.004228153 -0.2791348 -0.05184445 0.22157839 0.08787459 -0.18523513 0.07768745
-0.30101588 0.2676143 -0.104945384 -0.18117411 -0.10701304 0.25719163 -0.23994029 0.102107525
-0.17841539 -0.086815566 0.4539808 0.007379603 0.19288409 -0.028792799 -0.1190119 0.17948173
0.2012366 -0.022624386 -0.36201146 0.16875246 -0.2646978 0.19698216 0.21829931 -0.071169615
0.3730979 0.14364062 -0.039355673 0.08647206 0.22265394 0.32823277 -0.2114628 -0.053262204
-0.19218358 0.22676364 0.3519616 -0.04083789 0.28374693 0.19660363 0.2145259 -0.1486138
0.3108482 -0.34867567 -0.33133748 0.29983962 0.09253961 -0.01572799 -0.23816597 0.02208712
0.116003074 -0.21375866 -0.37899923 0.06471437 -0.12461609 0.24256441 -0.11982379 -0.09283227
0.17275883 0.2790533 -0.2743871 0.05294992 -0.05150324 0.2416186 0.09712649 0.1637528
-0.25423157 0.03675971 0.11291465 -0.053852707 0.00072477496 -0.09414606 0.2952368 0.18732353
0.3593094 -0.046923947 0.1728997 0.14732742 0.11989394 0.2661679 0.20907183 -0.06772189
0.028348124 -0.121263586 -0.08990595 -0.21292046 -0.013227752 -0.17095487 -0.26751766 -0.1414046
0.110510506 0.057527173 0.10697988 0.2078766 0.21738166 0.090604216 -0.12907442 0.25917417
-0.16521782 0.400004 0.22750084 -0.053424474 -0.12411505 0.00037190397 -0.018365601 -0.11485272
0.081954874 0.34820205 -0.0513401 -0.21660396 -0.15090685 0.033671137 -0.16746593 0.21061234
0.10372615 0.30349827 0.021349736 0.3197661 0.00013330384 0.2043784 0.1358652 0.12037534
-0.14099853 0.13080029 0.07679489 -0.15101868 -0.027729403 -0.09504511 0.100804836 0.32598
-0.031765677 0.261042 0.4024434 0.23320961 0.039456375 0.05485601 0.056895353 0.0028549002
-0.049313873 0.16854301 -0.3119203 -0.06982896 -0.031228064 -0.0645753 -0.060247883 -0.114891894
0.12021953 0.3047774 0.27183545 -0.0049542077 -0.04933752 0.0357388 0.20996578 0.20673689
0.39567047 -0.034009237 -0.18961954 -0.24563988 -0.024255905 0.0581259 0.037708685 0.20228936
-0.05199447 0.116226874 0.21816066 0.22448233 -0.14830491 -0.1978693 0.22304712 -0.16317643
0.11247792 0.026787419 0.23309767 -0.22415033 -0.14121689 0.24549545 -0.22124916 -0.18352026
0.016722305 -0.34999982 -0.3923761 0.081000455 0.24016014 0.10909835 -0.23583388 -0.016503148

linear1.bias f4 [256]
00000000: 3092 8e3e 0718 8b3d 3d9e a2bd a4f6 283d
00000010: 27a3 8b3d 0fad 32bd d8c3 15bd 548a 233e
00000020: 23e5 8b3e f7b9 4d3c e82b 463d a525 123e
00000030: 36ec 7cbd ffde 943e 2ca4 5f3d 7feb c6bd
00000040: 7fe7 833e 6cf9 343e affe 9f3d d3ac 143e
00000050: 3730 06be d395 303e 2dd4 cbbd ebd0 f9bd
00000060: 02c0 353e 59ab 07be 7d53 0f3e 041d 16be
00000070: 39c7 043e 93e4 9abe beec 0ebe 6f63 b6bd
00000080: e194 bf3c bff6 263e ddcf 86bd fb93 903d
00000090: 9a1f e13d 0f8e 42bd 631d dbbc 0928 023e
000000a0: 892d 52bd cc37 2f3e 76a1 55be 66cb b0bd
000000b0: e139 2cbd a067 61bd 1de6 5e3d 16ef a0bd
000000c0: 176d 153e 1a6b 183e 58c0 9c3d c444 8e3d
000000d0: 2ac8 6cbe e490 583e a8fc 313e 2e3f 57be
000000e0: 6a00 5bbe 1514 133e 9bbc 66bd 8a58 21be
000000f0: d58f 193e 497d 603e 505b 4bbd d107 0fbe
00000100: 4b93 473d f699 7c3e c364 aebc e4d4 52be
00000110: 3239 f8bd 77a6 393e 7c95 70be b1bb 493e
00000120: ac8c cf3d e0d1 6ebe 7b2b 4d3d d77f 8cbe
00000130: d120 b8bd 50e2 2dbe 88d4 6f3e 63b7 65be
00000140: 1d6a da3c ac7f d83d dd49 833e 525f 84be
00000150: 9094 523e b6fb f73a 213e a23d 553a 783e
00000160: 0b86 4bbe dd8c f73d 444e 7e3e 003e 8eba
00000170: f383 db3d 2123 4ebb ac41 f1bd efad b3bd
00000180: 7b2e 013e 349f 10be 857a a4bc 388e 2b3e
00000190: 1b7c eabd b55e cebd ad87 ec3d 7bba b03e
000001a0: 3285 44be 0055 163c b071 d93d bdea ff3d
000001b0: 397e 86be 9139 15be a321 eebc 1c40 173e
000001c0: 19a3 e33d 910e f73d 4295 d93c 602e 90be
000001d0: 1f56 41bd 695f 16be 6b09 e2bd 2461 04bd
000001e0: 14cd 4ebd 9358 8a3d 79ba 523e 5d7e 38be
000001f0: 5279 bcbc ad4c 6fbe 47eb b13d 4f7d 603e
00000200: fe23 153d 3bfc d23d 8666 3bbe bffc efbd
00000210: ce98 963d d06d 413e e66a 6a3b 7365 823d
00000220: b234 fd3d de70 b53d aa33 1dbe 5090 eb3c
00000230: 57a8 2b3e 2800 6b3d 679d a53c 4281 84be
00000240: 34de b93b 91db 4bbd 1ef7 de3d 0ee7 d4bb
00000250: eb46 6e3d e7db 17bd aa46 d1bd 7ebb 51be
00000260: b01a 74be ceff b53c c1f4 bb3d 046c 58be
00000270: 0265 dbbd d5e7 d9bb 67e2 e53e be23 d33d
00000280: e6e2 4fbe 8164 06be 0f85 3bbe 9f4c 2fbe
00000290: 26d5 8cbc 07bd fdbd 0522 a83d 37a8 1b3e
000002a0: 1bc7 9cbd 460d acbc 7709 023d 4577 1dbd
000002b0: cf45 14bd 6edd 17bd a67a 56be a78f 0bbc
000002c0: a66f bb3c 30c6 873e 12bb a73d 847f 35be
000002d0: dd91 a03e 92af 4f3e 9289 8d3e 99f8 e53d
000002e0: e906 2ebe 015a 02be 6dc2 083d ae5d 3fbd
000002f0: 0ae2 83bc d6fe d33c 33fa a7bd f88d 003e
00000300: 936c a33e e8d5 38be 2b27 13be 5977 bd3d
00000310: 956a 973d 76f6 013d 8228 12be 9ecd 033d
00000320: b9e2 cbbd 3f68 34bd 56a2 943e 57b1 273e
00000330: 7c80 b13d c252 e13d 6577 4e3d c391 16be
00000340: cfe5 883c 4db2 f43d 61f4 8b3e 4cab 2ebe
00000350: 6efb f8bd b9b9 b1bd 997a babd e126 873a
00000360: 15eb 97be 767e c8bc df41 eebc c8bf b33d
00000370: 1d6e d1bd 936b 5f3d 8c92 b3bd 70cc 563e
00000380: 4ae0 16be e33a 8bbd 33b0 c7bd 62ac a9bd
00000390: 75ef a43d 1948 2dbd 7f16 4d3d 3da7 cf3d
000003a0: c986 4f3e fbd8 163d 5ee0 30bb 472b 82be
000003b0: e3c3 bf3d 4c0f 0d3e 61f0 3abd e1a9 ecbd
000003c0: 89d6 ff3d 6253 0b3e 388b 2a3d ac61 6bbe
000003d0: 90b7 68bd e488 d53c e298 37bd 6006 1bbd
000003e0: 4807 adbd 08b3 193e 75c4 953b ed3c 873d
000003f0: c317 2dbe a15b 1bbe e49e 083e 0614 ff3c
0.27845907 0.06791692 -0.07940338 0.04125084 0.06818228 -0.043622073 -0.036563724 0.15970737
0.27323255 0.0125565445 0.048381716 0.14272173 -0.061748706 0.29076383 0.054599926 -0.09712886
0.25762555 0.17673272 0.07812249 0.14519052 -0.1310433 0.17244653 -0.09952579 -0.12198051
0.17749026 -0.13248958 0.13996692 -0.14659506 0.12966622 -0.30252513 -0.13957497 -0.08905684
0.02338642 0.16305064 -0.065826155 0.07059475 0.10992356 -0.04749876 -0.026747411 0.12710585
-0.051312957 0.17111129 -0.20862374 -0.08632545 -0.042047385 -0.055030465 0.054418672 -0.07858102
0.14592396 0.14884606 0.07653874 0.0694671 -0.23123232 0.21149021 0.17381537 -0.21020195
-0.21386877 0.1436313 -0.056332212 -0.15756431 0.14996274 0.21922792 -0.04964763 -0.13967825
0.048724454 0.24668106 -0.021288281 -0.20589024 -0.12120284 0.18129908 -0.23494524 0.19700505
0.10134253 -0.23322248 0.050090294 -0.27441284 -0.08990634 -0.16980863 0.23420918 -0.22433238
0.026661927 0.105712265 0.2564229 -0.25853974 0.20564485 0.001891962 0.079220064 0.24241002
-0.19875352 0.120874144 0.24834543 -0.0010852218 0.10718527 -0.0031454044 -0.11780104 -0.087734096
0.12615387 -0.14123231 -0.020077953 0.16753471 -0.114494525 -0.10076658 0.115493156 0.34517273
-0.19191435 0.009175539 0.10617387 0.12495945 -0.26268175 -0.14572741 -0.029068774 0.1477055
0.11115093 0.12063325 0.02656043 -0.2816038 -0.047201272 -0.14684834 -0.110369526 -0.032319203
-0.050488546 0.067551754 0.20578946 -0.18016954 -0.023007069 -0.23369093 0.08687454 0.21922801
0.036411278 0.103020154 -0.18300828 -0.11718129 0.07353364 0.18889546 0.0035769283 0.06367006
0.123635665 0.08859418 -0.1535174 0.028755337 0.16763435 0.057373196 0.020216657 -0.25879866
0.0056722406 -0.04976994 0.108869776 -0.0064972704 0.0581731 -0.03707495 -0.10218556 -0.20481679
-0.23838305 0.022216704 0.091775425 -0.21134955 -0.10712625 -0.006649951 0.44899294 0.10309552
-0.20301399 -0.13124277 -0.18312477 -0.17119072 -0.01719148 -0.1238957 0.08209614 0.15200888
-0.07655164 -0.021002423 0.031747308 -0.038443822 -0.036199387 -0.037076406 -0.20945224 -0.008518136
0.022880387 0.26518393 0.08189978 -0.17724425 0.31361285 0.20281819 0.2764402 0.11229057
-0.16994824 -0.12729646 0.033388544 -0.0467202 -0.016098995 0.025878351 -0.082020186 0.12554157
0.31918773 -0.18050349 -0.1437041 0.092512794 0.07393376 0.031729184 -0.14273265 0.032178514
-0.09955353 -0.04404473 0.29030102 0.16376244 0.086670846 0.11002113 0.050406832 -0.14704041
0.016711144 0.11948071 0.27334884 -0.17057532 -0.121573314 -0.08678002 -0.09105415 0.001031127
-0.2967154 -0.024474364 -0.029084144 0.08776814 -0.102260806 0.05454595 -0.08768186 0.20976424
-0.14733997 -0.06798341 -0.09750404 -0.082848325 0.08053485 -0.042305086 0.050070282 0.1013932
0.2026626 0.036828022 -0.0026989202 -0.25423643 0.09363534 0.13775367 -0.0456394 -0.11555839
0.12492091 0.13606027 0.041636676 -0.22986478 -0.056815684 0.026066251 -0.044823535 -0.037847877
-0.084486544 0.15009701 0.0045705386 0.066034175 -0.16903596 -0.15171672 0.13341862 0.031137478

linear2.weight f4 [3, 256]
00000000: e897 5a3d ef01 aa3d a772 b8be 615c d4be
00000010: ed7e 18bc eb0c 323e 4680 abbe 3f03 723e
00000020: 6fe1 bebd 2a84 6f3d 2db4 aabd 9df1 10be
00000030: 6e2c c4bd 6771 a1bd afdf 72be aef2 a2bd
00000040: c448 333d 9520 7c3e 52dd efbd b1f9 66be
00000050: b95d 1abd 2938 7e3e 04e1 e6be 644b e1bc
00000060: dcb7 2f3e f6a3 92be ac10 a43e 646d 29be
00000070: 27d5 c9bd daa0 163c 83fd 9e3e afa7 d63c
00000080: 65a8 d9bd 66fa 05be 2495 8abe 3d1b 213e
00000090: 532b 9f3d 323c 843e a193 e3bd 8ded f43d
000000a0: 3a67 f73d f507 41be a63e a33c 138e 4e3e
000000b0: 6c69 893e 2802 853e e721 53be 031c ba3d
000000c0: 7af2 753d 1653 80bd 9ebc 7bbd 0c54 5ebe
000000d0: 6da1 5bbd 9057 103e 6616 ccbb 4d01 783d
000000e0: 7765 6ebe e3bd 38bd 255a c5be 2255 87bc
000000f0: df8b 603e ba13 c03e f980 303e d05b eb3c
00000100: d2d8 ffbd ab21 7f3e dd94 8dbe 5234 2c3c
00000110: 550d 2f3e c6e2 b13e 34bf e6bc 0857 8d3d
00000120: 80a6 1e3e a4a0 debc a5c2 05be d633 1fbd
00000130: 342e ce3d 8fbe 8ebe 4699 a8bd e4b5 4a3e
00000140: 1ce9 d7be d9d8 36bd 475a 98bc bbb1 67bd
00000150: 5b60 1d3d 22bb b73e 35f1 4dbd 29fc b23c
00000160: c5f8 6cbe 869a 633e b68c 903e 0ed9 47be
00000170: b756 20be ff6f 51be ca67 31be 8788 22be
00000180: 3af7 4dbe 7940 8c3c 2980 75bd dd68 c5bd
00000190: fd64 8b3e 68b7 5c3e c9da 85be ff52 113d
000001a0: b56a 3d3d f8b3 323d f9e2 8cbd 236b ab3b
000001b0: 5604 773c c254 50be 27ef 45be a081 7cbe
000001c0: 85d4 e6bd ac61 433e d14d 4fbe 5a30 8a3c
000001d0: 7fcc 13bd 7eda b0bd ae36 cd3d 6240 07be
000001e0: f437 6fbe e867 13be 57db 363e 0bf9 33be
000001f0: ff1a 8fbd 7406 a43e 9b52 c33d 58b0 cdbd
00000200: 7f14 33be e2c8 a73d cb2b 3dbe 3eb1 c5bd
00000210: 2612 d73d b4d0 1fbe 3915 4bbd f51c fbbd
00000220: a865 383e 4f1b abbd cc15 063d 2e8a a6bd
00000230: 5763 023d 6181 dabc a51c d3be 005b 8b3b
00000240: de34 bfbe abdd c1be 4ca1 35be 4d6d ccbd
00000250: 7ff8 c4bd 2149 fdbc 2f2a 4d3c 64eb 4cbd
00000260: 5de2 31be cd32 78be d495 30bd e489 51be
00000270: e58f 953e 3f64 72be dd1e 033e a28f 6c3e
00000280: 0aaf babb 8904 ca3e 8ec8 143e 7d35 58be
00000290: 66bf 7ebe a272 5abe 10b2 51be b720 ccbd
000002a0: 387a 1fbe 7b41 c6be ccaf ffbd d6f0 b7be
000002b0: 41ab 63be e296 25be b21f 6dbb a9c1 20bc
000002c0: 8761 a8bd 3675 f33c 6c02 133c 12d3 86bd
000002d0: 7255 033e ce63 143e 7fdb 0e3e 703a 9d3e
000002e0: 9e18 62be f4ea 19be a5bf 06be 440e 36be
000002f0: b022 9cbd b643 203e d09e e9bd a046 48be
00000300: 6b85 083e 490b ccbd 6150 63be a925 79be
00000310: 6f63 413e 5b84 2b3e a366 23be 96fc 20bf
00000320: 11b5 03be 6c7d c6be 9596 f63e eace 8dbe
00000330: 9199 3ebd 389f d0bd 0922 ebbc 46b1 113c
00000340: f530 a3bd 0376 163e a26c 473d ae33 81be
00000350: ecd8 e9bd cb72 bcbe 6ec2 203e 6e0d c53d
00000360: bb79 23bd 865a 1a3d 258c e6bd 35e9 d2bd
00000370: ad2f e1bd 0589 86bd fc65 b5be 6db0 a43e
00000380: 40d5 1bbe 3943 e63a a9bf ca3d 53e5 23be
00000390: 570f 8c3d 0e94 46bc c94f a5be 270c e8bd
000003a0: eed7 2d3e 8839 f4bd 31a2 cd3d c54c 18b9
000003b0: 0b0c b0be 2867 193e f3d8 1cbe 2c9d 8cbe
000003c0: 66fc 89be a184 403e 2318 74be 772b 0abe
000003d0: 14f2 a4be d30a 36be 1caf 1abf 81dc 36be
000003e0: cb26 a93e 5cca 7b3e 9a1b 4dbe 5e38 5b3d
000003f0: 5a21 c13e dbaf 043e 15a2 ec3d e32a 9abe
0.053367525 0.0830115 -0.36024973 -0.4147673 -0.009307605 0.1738774 -0.33496302 0.23634051
-0.09320342 0.05847565 -0.08335147 -0.14154668 -0.09578787 -0.07882958 -0.23718141 -0.07956444
0.043770567 0.24621804 -0.117121354 -0.22556187 -0.037687037 0.24826111 -0.45093548 -0.02750177
0.1715998 -0.28640717 0.3204397 -0.16545635 -0.09855109 0.009193623 0.3105279 0.026203005
-0.10627822 -0.130838 -0.2706691 0.15733047 0.07771935 0.25827175 -0.11112142 0.11959372
0.12080236 -0.18850692 0.019927334 0.20171385 0.26838243 0.25978208 -0.20618401 0.09087374
0.060045697 -0.062658474 -0.061459176 -0.21711749 -0.053620744 0.14095902 -0.006228256 0.060548116
-0.23280893 -0.045102965 -0.38545337 -0.016520087 0.21928357 0.3751505 0.17236699 0.028730303
-0.12492527 0.24915187 -0.27652636 0.010510521 0.1709493 0.34743327 -0.028167345 0.069013655
0.15493202 -0.027176209 -0.13062532 -0.038867794 0.10067406 -0.2787976 -0.082323596 0.19795948
-0.42170036 -0.044640396 -0.018597735 -0.05656598 0.03842197 0.35884959 -0.05027886 0.021848755
-0.23141773 0.22226915 0.28232354 -0.19516394 -0.15658079 -0.2045288 -0.17324749 -0.15872394
-0.2011384 0.017120587 -0.059936676 -0.09639142 0.27225485 0.21554339 -0.26143482 0.035479542
0.046244342 0.043628663 -0.06879229 0.0052312776 0.015076717 -0.20344833 -0.1932951 -0.24658823
-0.11271004 0.19080228 -0.20244528 0.016868759 -0.036083695 -0.08635424 0.10020195 -0.13208154
-0.23361188 -0.14395106 0.17857109 -0.17575471 -0.06987571 0.32036173 0.0953724 -0.100434005
-0.17488287 0.08192612 -0.18473737 -0.09652947 0.105015084 -0.15606958 -0.049580786 -0.122613825
0.18007529 -0.08354818 0.03273563 -0.081318244 0.03183302 -0.02667302 -0.41232792 0.0042527914
-0.37345022 -0.37864432 -0.17737311 -0.09981785 -0.09617709 -0.03091866 0.012522264 -0.050029173
-0.17371507 -0.24238129 -0.043111637 -0.20462757 0.29211345 -0.23671053 0.12804742 0.23101667
-0.005697136 0.39456585 0.1452963 -0.21114154 -0.248777 -0.21332791 -0.20478082 -0.09967177
-0.15573967 -0.38721833 -0.124847025 -0.3592593 -0.22233297 -0.16170838 -0.0036182222 -0.009811797
-0.08221727 0.029718976 0.008972745 -0.06583227 0.12825564 0.14491197 0.13950919 0.30708647
-0.22079703 -0.15031034 -0.13159044 -0.1777888 -0.076238036 0.1565083 -0.11407244 -0.19558191
0.13332145 -0.0996309 -0.22198631 -0.24330772 0.18885587 0.16749708 -0.15957122 -0.62885416
-0.1286204 -0.38767564 0.4816176 -0.27696925 -0.04653317 -0.101866186 -0.028702753 0.008892363
-0.07968322 0.14693455 0.048687585 -0.2523474 -0.11418328 -0.3680633 0.15699169 0.09621702
-0.039911013 0.037683986 -0.11257199 -0.10298387 -0.109954216 -0.06569103 -0.3542937 0.32165852
-0.15218067 0.0017567641 0.098998375 -0.16005449 0.06838863 -0.01212026 -0.32287434 -0.11330443
0.16976902 -0.11925036 0.10040701 -0.00014524448 -0.34384188 0.14980757 -0.15317135 -0.27463663
-0.26950377 0.18800594 -0.23837332 -0.13493143 -0.3221594 -0.17777567 -0.60423446 -0.17857553
0.3303741 0.24588913 -0.2003006 0.053520553 0.37720758 0.12957709 0.11554352 -0.30110845

linear2.bias f4 [3]
00000000: 7fba 8e3c 6300 c1bd b35f 59bd
0.017422913 -0.09423902 -0.05306978
