model/DQN/checkpoint_1100.pth (torch, 23085 bytes, 4 tensors)

linear1.weight f4 [256, 16]
00000000: 5a67 173e 1e9e 60bd 4423 613c 4063 023e
00000010: c8e6 3abe bc0f 37be 20f9 3cbe 881d 17be
00000020: 95c5 6cbd d100 5dbd c4fc d0bd 7708 5cbe
00000030: 90d3 0fbd 2c98 a4bd 141c 85bd fa2a 68be
00000040: 63fa 5dbd 339c 803e 3e02 40be e1e3 1bbd
00000050: c5cb fb3c 2a23 853e f2fb 893b c4d7 acbe
00000060: f0b3 fcbe 045b 283e 9325 783e 2c71 8f3d
00000070: dc7e b53d cf94 6a3c b21e 83bc 0161 a73b
00000080: 4a5a 263e 1b1a 2a3f e976 fc3d fe7e 5a3e
00000090: 8800 ae3d 35be 6ebd 4428 c5bd fc16 87bd
000000a0: 2e19 c63d c0fb d03c c7f9 3d3e 6655 35be
000000b0: 3b9a 1cbc fcde 643e 91f0 5cbc ace2 1b3c
000000c0: 6d8c fb3c 59b8 13be 0ec0 073f 4c90 913e
000000d0: 69bd 253e 5136 48bc 41fb 1abe 449a 483e
000000e0: 5de5 933e 35f1 e33a c14d b5bd f74f 2ebe
000000f0: 8d76 bbbd f99d 933e cb07 d8bb af91 ffbd
00000100: 5ae5 adbc 4fb9 12be 74b0 7dbe 06ec a43e
00000110: 55d6 bd3e e59e aa3e 0f68 983e 6ab5 2dbe
00000120: f95d 6f3e 42e1 eabd e4b5 a63d e220 5b3c
00000130: 034b 5ebe b352 b1bc 1b29 293e a8d7 9c3d
00000140: e406 d13c f588 6cbd a547 e9bc 0ffe 4a3e
00000150: a808 313b 34c8 333e db8c 113d f59c bc3e
00000160: ff98 b03e deaa 08bf e493 66be 7223 683d
00000170: 65b1 a93d 2410 163e 1bd5 8ebc 828e cb3d
00000180: 5545 713e 352d 8f3d 3631 5dbe 76f1 883e
00000190: c2ad bd3e 1694 223e 6f30 b73b b3b4 413d
000001a0: e18b 583e 0943 f6bc a8c7 9a3d 9ed0 a53d
000001b0: c69e 58be 4cef f63b d470 08be d12c e53d
000001c0: 8042 813c ce78 2dbe 4899 50bd e21c 68be
000001d0: c26f 6bbe 987c 2fbd c004 cabd a238 0b3e
000001e0: e0a6 683d c08b ec3c d46f c7bd 80e7 8dbd
000001f0: 2407 a4bd 3abe 24be 6e99 10be a0c5 1e3c
00000200: 1ce5 213d da23 7b3e e983 8cbd 9dc1 983e
00000210: 3679 aa3e c15a a63d f6a7 093d e6e1 2abd
00000220: 2890 19bd b8bc 1d3e b919 313d c756 b13e
00000230: 5ad6 d2bd aba6 313e 03f1 6fbe faca 5cbe
00000240: e3cd b0bd de22 a1be d250 903d f780 22bc
00000250: c77a ae3e 8fb5 9bbd 63ce 573d 7ebf 08be
00000260: 3252 bb3d 8bbb 913d ef9e 83bb f7d0 4d3e
00000270: fd54 1d3e b647 61bd d710 593d 44b4 11be
00000280: 82ed d13d 87db b6be b473 d1bd 9b8f 953d
00000290: 091f 3b3e 05ad 21bd 0537 74bd d436 0f3e
000002a0: 9490 f13d d2fd 5d3c 90c0 e23d b7a9 923e
000002b0: 307c b6bd 3965 593e ad68 1fbe f9a2 483e
000002c0: 94e6 363e 20df 7fbc 3a2d 63bd 6621 973e
000002d0: 0aa9 3a3e 12b2 8e3e a0c6 863e 9476 4ebe
000002e0: e4f9 5f3e 02d8 c43d c591 4e3e 0b51 9e3e
000002f0: f471 7dbc 6e25 89bb abd8 00bd d3d9 abbd
00000300: 9160 62be df34 b63d 67a8 b6bc a1d2 a7bd
00000310: 0c43 58be 451f 533e 6250 663e ccea ebbc
00000320: 5c76 073e 596a c3be 4b80 ab3d 4349 843e
00000330: 5f7d 4d3e b15a 29be 31ec 853c 173c e23d
00000340: cbe8 093e 01f1 703d cf53 89be fcb8 763d
00000350: bc2d bebb c794 acbd 0a3d 013e 38f0 42be
00000360: 0088 46be 91e0 613a bf20 81be 2f07 bfbd
00000370: 6854 34be c9ea 6fbe a51b 0ebe d447 13be
00000380: 8cc1 e0bd 0833 763e e40d 913d e2ae 30be
00000390: ea13 a13e e633 8abe c141 383e 7374 d7be
000003a0: 7aa1 b93d 44f0 81be 5e0d a8be 743c 23be
000003b0: b42d 333e ea36 e43d 8cff 173d f576 063e
000003c0: 2f84 a73d f1d0 f33d 87dd 31be e4ba ab3e
000003d0: aca9 4d3e 6e4a 843e 69b7 f93d e1c4 8f3e
000003e0: 56cb 9e3d 9676 3e3e f1df 8b3e c2a1 493e
000003f0: cfa9 473e 2542 9bbd dcef 373e 2df5 6bbd
0.14785519 -0.054838292 0.013741318 0.12733173 -0.18252099 -0.17877096 -0.18454409 -0.14757359
-0.057805616 -0.053955857 -0.10204461 -0.21487604 -0.03511387 -0.08036837 -0.06499496 -0.22672644
-0.054193866 0.2511917 -0.18750855 -0.03805912 0.030736813 0.2600339 0.0042109424 -0.33758366
-0.4935603 0.1644097 0.24233083 0.07004008 0.08862087 0.014317705 -0.016005848 0.0051079993
0.1624538 0.66446084 0.12327368 0.21337506 0.08496195 -0.058286864 -0.09626821 -0.06596181
0.096727714 0.025510669 0.18552314 -0.17708358 -0.009558256 0.22350687 -0.01348509 0.009514492
0.030706609 -0.14425792 0.5302743 0.28430402 0.16185535 -0.012219981 -0.15134908 0.19590098
0.28885928 0.0017390611 -0.08852721 -0.17022692 -0.09153471 0.2883146 -0.006592726 -0.12478959
-0.021227527 -0.14328502 -0.24774343 0.32211322 0.37077585 0.33324352 0.2976689 -0.16963735
0.23375691 -0.11468746 0.08140162 0.013374539 -0.21708302 -0.02164588 0.16519587 0.07658321
0.025515981 -0.0577478 -0.028476546 0.19823478 0.0027013216 0.1755684 0.03553472 0.368385
0.34491727 -0.5338572 -0.22517353 0.05667443 0.082857884 0.14654595 -0.017435601 0.099392906
0.23561604 0.069910444 -0.21600804 0.2674672 0.3704663 0.15876803 0.0055904905 0.04729147
0.2114711 -0.030061262 0.07557613 0.08096431 -0.21154317 0.0075358506 -0.1332429 0.11190189
0.01577878 -0.16940615 -0.05092743 -0.22667268 -0.22991851 -0.04284343 -0.09864187 0.13595822
0.05679977 0.028875232 -0.097381264 -0.06928921 -0.080091745 -0.1608819 -0.14121029 0.009690672
0.039525136 0.24525395 -0.06861097 0.29835215 0.33295602 0.08122779 0.033607446 -0.04171934
-0.037490994 0.15404022 0.04323742 0.34636518 -0.102947906 0.17348735 -0.23431782 -0.21561804
-0.0863302 -0.31471914 0.07046665 -0.009918443 0.34078047 -0.07602989 0.05268706 -0.13354298
0.09146537 0.07115849 -0.004016749 0.20099245 0.15364452 -0.05500003 0.052994575 -0.14228922
0.10250379 -0.3571436 -0.10227147 0.07302781 0.18273558 -0.039471645 -0.059622783 0.13985759
0.11795154 0.013549285 0.11071885 0.28645107 -0.08910406 0.2123002 -0.15567274 0.19593419
0.17861396 -0.015617162 -0.055463053 0.29517668 0.18228546 0.27870232 0.26323414 -0.20162421
0.2187267 0.09611513 0.20172794 0.30921206 -0.015469063 -0.00418537 -0.03145663 -0.08391156
-0.2210715 0.08896803 -0.022297097 -0.08194471 -0.21119326 0.20617397 0.22491601 -0.028798483
0.13228744 -0.38167074 0.08374079 0.25837144 0.20067357 -0.16538502 0.016347976 0.110466175
0.1346771 0.05882359 -0.26821753 0.06023501 -0.005803792 -0.084268145 0.12620941 -0.19036949
-0.19387817 0.0008616532 -0.25220296 -0.09327542 -0.17610323 -0.23429407 -0.13877733 -0.14382869
-0.10974416 0.24042904 0.070827276 -0.17254212 0.31460506 -0.2699272 0.17993833 -0.4208103
0.09064002 -0.2537862 -0.32822698 -0.1594103 0.17497903 0.111432865 0.037108943 0.13131316
0.08179509 0.11905087 -0.17369662 0.33541024 0.20084256 0.25838035 0.12193186 0.28079894
0.07753627 0.18599924 0.2731929 0.19690612 0.1949837 -0.075809754 0.17962593 -0.057606865

linear1.bias f4 [256]
00000000: 8ee7 64be 1abd b13d 66f6 91be 447a 0bbe
00000010: 2846 0d3f 33d8 393d ce46 f13e 6897 73be
00000020: 392b ea3e 8823 ee3e fab8 973e f6d9 d93e
00000030: ae29 843e bf16 723e 600b cabc c332 e93e
00000040: aa32 793e e67c 023f c52b ca3e 9430 e7bd
00000050: 6b39 0e3f b38a b03e 1ccf 09bd 1647 3a3e
00000060: 7e5f 71bd 8a49 ad3e e9a5 f23e 218b a33e
00000070: 1013 8ebd 4f5e e3bc f21c fe3d 47e8 743d
00000080: 6c30 263e 1ac9 cd3c 8d41 b8bb 66b6 ef3e
00000090: b033 3d3e f086 253d e703 a53e a688 0e3f
000000a0: 1908 40be e863 37be fbc8 013f d4bc c13e
000000b0: d902 183f 3843 bb3e 9897 963e f99d 963e
000000c0: 0329 68bc 6a08 633e ccc3 853e dd2e 4ebe
000000d0: 2431 72be 6d98 dabd 7172 bfbd a018 19be
000000e0: d9b0 b53e 31da 303d 75b9 f73d d21e e3bd
000000f0: 7f6b 123f 5ea5 913e 85c2 56be 4925 dabd
00000100: ab11 97bd 8014 3dbe 339b 8f3e 0d9e d0bc
00000110: 4d66 b1be 62e5 f63e 7e6f 433d 5f53 113f
00000120: 2ec9 1f3e 97c8 093e 5905 fa3d 438a a2be
00000130: 9da1 f33e ca9d 60be 1549 e63e 3f6a d73e
00000140: 354c a33e eb03 0c3f 6c07 65be ef44 94bd
00000150: c404 2f3e c229 ee3d 4515 0a3f 5bbb 4b3e
00000160: d5bb 153d d060 923e 073b 0a3f cc4b 9b3c
00000170: 8ad6 913e 5a76 f73e 3501 fd3e 64ac 003e
00000180: 531f d6bd da87 d73c e353 b13e 969f 473e
00000190: ab41 233e 999b fc3d 042c 32bd 30c0 943e
000001a0: c4f0 d13e 7729 b23e 7902 14be 7871 6c3e
000001b0: bd1a 3d3e bd97 073f 54a2 2d3e 5f8a 18be
000001c0: 5864 6fbd 9a4f b9be 48ba d8bd 37dd 023f
000001d0: 3aba 3e3c d77e b43d c65b cbbd 462f a73e
000001e0: af7e aabe 37dd e63d a8ed 053f 1c31 12be
000001f0: 52f3 c13e a36b 26be 3920 6d3e ea40 c93e
00000200: 3939 d93e 76ea f93e 5af5 aa3d 7ccd f33c
00000210: 3c53 da3e f031 823d b670 0c3f 238f 08be
00000220: 87e0 c43e 761a d7ba 304a d63e 7add b33e
00000230: 266b 0a3d 0325 bfbd 8e45 9d3e 5e38 89be
00000240: a46a aa3e 5a52 bbbc 3c17 6cbe f38e 00be
00000250: 7317 863e 7ab8 e93e 5b9d e5bc 959d 113d
00000260: ab75 fb3e bc87 833d 01bf 1fbe 7f16 b53e
00000270: 81f4 873e 435f 14be 3f1e 1e3d 7fbe 59bd
00000280: 8bd2 173e 6a90 ba3e 7cd6 b43e 7638 3e3e
00000290: 927f 8fbe 70f6 dbbc 281f 943e 787b 46be
000002a0: d10a 25be 642b 0d3d 2b4f 9d3d f849 743d
000002b0: 9ff2 c93e 80ea 1ebe 1404 2d3e 145e 1a3e
000002c0: 6386 68bd a627 d13e 2f01 353e 2ad5 d4bd
000002d0: 0c76 c93c c42f 85be f595 853e 4b7d e23d
000002e0: 0eca 173f 66e5 c53e 76d6 5abd 8d11 883e
000002f0: c987 dbbd ba9b b83e 07d5 0b3f d524 0f3d
00000300: f86a b83d 6da5 863a 11f0 a0bd 09e4 0abd
00000310: 889b cb3e e084 4b3e b6fe b53e df22 23be
00000320: 38d7 9d3d f1fb 523e 933b c03e 0fe7 ca3e
00000330: 1279 4ebe ec06 84bd 5adb ed3e 8e9d ec3e
00000340: 9a81 933c 7c85 c6bd c8c8 853d 2214 59bd
00000350: 6879 933e 83db 8f3b a364 cc3d b86b 20be
00000360: 86f8 afbc b298 8c3d 86d6 4cbe bdd2 16be
00000370: 1307 55be e10d cc3e 5425 c0bd 683b e03d
00000380: 8946 be3e 738e 9b3e 4297 5abe bc8c 133e
00000390: 7adf 703d ada6 243e 7691 07bd 4a84 9f3e
000003a0: 957c 913e 9aec ab3d 7beb eb3e aded 51be
000003b0: ba0b d93e 0a44 f93e af25 893d 1b9d b6bd
000003c0: 792c 05be 0732 8bbd 3497 e5bd c0b8 323d
000003d0: acdd 803d d178 e93e 6d84 36bb 5aad 0a3f
000003e0: 73cb 98be 9d4f c83e dca0 bd3d f2f6 d33e
000003f0: 5724 83bd 66f7 05bd 9cb3 4a3e 0719 6abd
-0.22353956 0.086786464 -0.285083 -0.1362086 0.55185175 0.0453722 0.47124332 -0.23788226
0.457361 0.46511483 0.29633313 0.42549103 0.2581305 0.2364149 -0.024663627 0.4554654
0.24335733 0.5097183 0.39486519 -0.112885624 0.5555636 0.3448082 -0.03364478 0.1819118
-0.05892896 0.33845168 0.47392204 0.31942084 -0.0693723 -0.02775493 0.12407865 0.05979183
0.16229409 0.025120307 -0.0056230486 0.46818846 0.18476748 0.04041189 0.3222954 0.5567726
-0.18753089 -0.17909205 0.50697297 0.37839377 0.59379345 0.3657472 0.29412532 0.294174
-0.014169934 0.22171178 0.26125944 -0.20135064 -0.23651558 -0.10673604 -0.09348 -0.149508
0.35486487 0.043176834 0.1209592 -0.11089863 0.57195276 0.28446478 -0.20972641 -0.10651643
-0.07376417 -0.18464851 0.28048095 -0.02546599 -0.34648362 0.4822188 0.04771375 0.5676784
0.15604088 0.13455425 0.12208051 -0.3174611 0.4758424 -0.21935192 0.44977632 0.42073247
0.3189408 0.5469348 -0.22366112 -0.072397105 0.17091662 0.116290584 0.53938705 0.19895689
0.036556084 0.28589487 0.5399632 0.018957041 0.28483993 0.48332483 0.49414983 0.12565762
-0.10455193 0.026309896 0.34634313 0.19494471 0.15943019 0.123343654 -0.043499008 0.29052877
0.41004002 0.3479726 -0.14454068 0.2309016 0.18467231 0.5296591 0.16956455 -0.14896534
-0.058445305 -0.36193544 -0.10582405 0.511188 0.01164108 0.08813255 -0.09929614 0.32653254
-0.33299777 0.11272662 0.5231576 -0.14276546 0.3788095 -0.16251998 0.23156823 0.39307338
0.4242647 0.48811692 0.08347578 0.029761069 0.42641628 0.06357181 0.54859483 -0.13335852
0.3845255 -0.0016411084 0.41853476 0.3512991 0.03379359 -0.09333231 0.3071713 -0.26800817
0.33284485 -0.022866417 -0.23055738 -0.12554531 0.26189765 0.45648557 -0.028029134 0.035550673
0.4911321 0.06422374 -0.15600206 0.35368726 0.2655373 -0.14489464 0.038603064 -0.053160187
0.1482641 0.36438304 0.3531989 0.18576226 -0.28027016 -0.026850909 0.2893002 -0.19383037
-0.16117407 0.03446521 0.07681116 0.059640855 0.39442918 -0.15519142 0.16896087 0.1507495
-0.056768786 0.40850562 0.17676233 -0.1039222 0.024592422 -0.26013005 0.2609097 0.11059054
0.59292686 0.3865158 -0.053427182 0.2657589 -0.10719258 0.3605631 0.5462193 0.034947235
0.09004778 0.0010272689 -0.07858289 -0.033908878 0.39767098 0.19874907 0.35545892 -0.15931271
0.07707065 0.2060392 0.37545452 0.3962941 -0.20163372 -0.06446633 0.46456414 0.46213955
0.018006135 -0.09693429 0.065324366 -0.052997716 0.28803563 0.0043901815 0.099801324 -0.15666091
-0.02148081 0.06865062 -0.20003709 -0.14728828 -0.2080348 0.3985434 -0.0938212 0.10948831
0.3716319 0.30382118 -0.21346763 0.14409155 0.058806874 0.16079207 -0.033097707 0.31155616
0.2841536 0.083947375 0.46078095 -0.20500822 0.4239176 0.48684722 0.06696641 -0.08916684
-0.13005246 -0.06796651 -0.1121048 0.043633223 0.062922806 0.45599988 -0.0027849928 0.54170763
-0.2984272 0.3912324 0.09259197 0.41399342 -0.06403416 -0.03270664 0.19795078 -0.057152774

linear2.weight f4 [3, 256]
00000000: 0add e33c cc1e 8e3e ab81 91bd 77bd fc3d
00000010: 68e9 823e 4e78 693e b1db fe3d 002c f43a
00000020: f53f 2f3e 097b ff3d a585 933d 1028 2e3e
00000030: 0784 dd3d 92f4 4cbd 7bdf 3e3e 7db8 d33d
00000040: 6fa0 3e3d 8e18 813e c504 4f3e 69be 923c
00000050: f803 1a3e 3813 493e 0605 733c 89cc 803e
00000060: 0d6d 353d aa8c 9a3e cb86 323e 9da0 e63d
00000070: e8e0 3dbd 3ef6 a33e 10b1 783e 5fca 96bd
00000080: 8ca8 ce3c e36f 0abe d5c7 8d3d 17f3 943e
00000090: 317d 473e 31cc b9bd 102a 903e 2e62 9f3e
000000a0: 2551 28bc 2b01 4ebc 020e 723e e765 293e
000000b0: 5cac 783e a88f 5b3e 2f31 ed3d 4184 533e
000000c0: 200e 483e 5a49 a03e eb28 873e bd13 8cbe
000000d0: 2ed8 91be 27cc f3bd b18f 66be 892c 143d
000000e0: b89a 173e 5dc8 913c b924 90bd db68 ac3e
000000f0: f21a 553e 0be1 153e 7931 70be bbd7 26be
00000100: 9124 853c 60bf 9b3d fe55 743e ef5d b7bd
00000110: 77d5 1bbd c594 4a3e 94f2 2d3e ce68 513e
00000120: d27f 953e 1f9b ed3d 8f81 073e 4069 003d
00000130: be1a 5c3e 0c26 78be 9f22 543e ab33 ca3d
00000140: e421 3f3e 13d8 453e f447 953c d7ac 0fbb
00000150: 1cdc 563e 8105 673e 6c50 173e d94a 313e
00000160: 3bc0 9e3d 3e25 343e b43c 963e b8a5 b83c
00000170: a1e7 163e a357 673e e914 2b3e af8c 883e
00000180: c983 80be 425f 073e dd6e 323e 34ad f73d
00000190: f46e a43b 92c2 563e 7db0 573e a2a6 023e
000001a0: f733 543e 2cb7 e23d 99c7 0ebd 5ff4 9a3e
000001b0: 2131 783d b3a3 623e 978d 1e3e 567f 763d
000001c0: 1c03 653d 40bf f4bd a7f7 103e 9e62 163e
000001d0: 55ab 87bd 38d2 1d3e b003 243e 2a9f cd3d
000001e0: 5861 1ebb de75 9e3c 72ad 3c3e 64ef 00bd
000001f0: 94ed 233e 0e6e e4be b88e 5b3e d830 4f3e
00000200: d748 283e 7f95 0b3e 9c28 9f3d aa40 99be
00000210: 4bc0 2c3e 1dce 983d 4aa5 203e 86eb 8c39
00000220: 9930 323e 895c 5c3e d217 8d3d 4199 2f3e
00000230: ee64 7f3e 7ac7 1dbe 0581 663e 6def 47bd
00000240: 55f2 d63d e017 c0bd e809 71be 7c4c a63d
00000250: 91ea 103e 04e5 043e efb5 b83c fb64 97bd
00000260: 0349 993e 6ad9 fcbd 75c3 85be d789 4b3e
00000270: 6e59 853e 1cc2 193e f70d 833e cabd 2fbe
00000280: d4b6 54bd 886c 983e 2dda 313e d726 993e
00000290: 6449 e6be da93 e5bd 84a8 163e 62fa 233c
000002a0: 8340 5b3e e5ba 6bbd 3caf 673e d6e4 b73c
000002b0: 6882 eb3d 4d5c 6c3e 22ba 813e b812 853d
000002c0: 5ed7 a33d a4d6 9f3d 27a2 a23c 4b0a 0fbe
000002d0: 02be 923e 4d80 01be c4ad 443e 1e14 3d3e
000002e0: dc02 803e f536 963e c549 243e a58c ad3d
000002f0: a941 1d3c 21d1 2f3e a63f 933e 8ada 863e
00000300: f2d9 9a3e 6cc6 02bd 9572 2c3e a18c 5c3e
00000310: f00b 783e 5273 133e f58b 153e 6a6e 123d
00000320: 880b 193d e534 823e ca42 873e bddd 823d
00000330: 0080 57be 4897 a6be b3b5 493e ffeb 623e
00000340: 3bdc fcbd f85e 153c c634 1d3e 8ea1 0a3e
00000350: a162 153e 51c2 ba3d 4987 2e3e 0a2e b33d
00000360: 4e5f 3b3c 9ef9 e23c 7615 48be 4f8c abbc
00000370: 93f4 a43d 9e4c b33d e4f0 c63d 5177 303e
00000380: a332 163e 57a3 8c3d 547d 3abc 2744 683e
00000390: 6e7b cb3d 7cbd c53b a558 883e d5d3 333e
000003a0: fe50 1a3e 053d da3c a8f1 853e 420b 69be
000003b0: 9e5a 243e 68a8 9b3e 94af c7bd 4c2f 6fbd
000003c0: eb24 2bbe 5c2c c93d 6c04 5d3e f548 443e
000003d0: e0da 1e3e 5f22 4b3e b6f3 4f3e 62a5 543e
000003e0: 89b1 ff3d c39a 4a3e 6735 733e e247 553e
000003f0: 19d8 80bc 0ff9 9bbd aa71 563e 5046 84be
0.02781536 0.2775787 -0.0710481 0.12340825 0.255687 0.22799799 0.124442466 0.0018628836
0.17114241 0.12474639 0.07203225 0.1700747 0.10816198 -0.050037928 0.18639939 0.10337923
0.04653972 0.25214046 0.20216663 0.01791306 0.15040576 0.19636238 0.014832741 0.25156048
0.044293452 0.30185443 0.17434232 0.11261103 -0.046357065 0.32023805 0.24286294 -0.07362818
0.025226854 -0.13519244 0.069228806 0.29091713 0.1948135 -0.090721495 0.2815709 0.31129593
-0.010273253 -0.012573521 0.23638156 0.16542779 0.242845 0.2144152 0.11581647 0.2065592
0.19536638 0.31305963 0.26398405 -0.2735881 -0.28485245 -0.11904173 -0.22515751 0.036175285
0.14805114 0.017795736 -0.07038254 0.33673748 0.2081106 0.14636628 -0.23456372 -0.16293232
0.016252788 0.07604861 0.23860928 -0.08953463 -0.038045373 0.19783314 0.16987067 0.20450136
0.29199082 0.116018526 0.13233016 0.031350374 0.21494576 -0.24233264 0.20716332 0.09873136
0.18665272 0.19320707 0.018222786 -0.002192309 0.20982403 0.22560693 0.14776772 0.17313708
0.07751509 0.17592332 0.29343188 0.022539958 0.14736797 0.22592025 0.16707195 0.26669833
-0.25100544 0.13219932 0.17425103 0.12093583 0.0050181095 0.2097266 0.21063419 0.12758878
0.20722948 0.110700935 -0.03485832 0.30264565 0.060593728 0.22132759 0.154837 0.06018003
0.05591117 -0.119505405 0.14156972 0.14686057 -0.06624476 0.15412223 0.16017032 0.10040124
-0.0024166908 0.019343313 0.18425539 -0.0314783 0.16008598 -0.44615215 0.21441162 0.20233476
0.16434036 0.13631247 0.077714175 -0.29932147 0.16870229 0.07461188 0.15688053 0.0002687836
0.17401351 0.21519674 0.06889309 0.17148305 0.24940845 -0.15408126 0.22510155 -0.04881232
0.1049544 -0.09379554 -0.23538935 0.08120057 0.1415198 0.12977988 0.02254769 -0.07392307
0.29938516 -0.12346156 -0.26125684 0.198768 0.26044792 0.15015453 0.25596592 -0.17162243
-0.05193217 0.29770303 0.17368384 0.29912445 -0.44977868 -0.11209841 0.14712721 0.010008426
0.21411328 -0.057551283 0.2262544 0.022447985 0.114994824 0.23082085 0.2533732 0.06497711
0.080000624 0.07804611 0.01985271 -0.1396877 0.2866059 -0.12646599 0.19206911 0.18464705
0.25002182 0.29338804 0.16043766 0.084740914 0.009598174 0.1716962 0.28759497 0.26338607
0.30244404 -0.03192751 0.16840585 0.2153802 0.24223304 0.1439946 0.1460417 0.03574983
0.037364513 0.2543098 0.26418144 0.063899495 -0.21044922 -0.32537293 0.19698219 0.22160338
-0.12346693 0.009116881 0.15352163 0.1353819 0.14588405 0.09119094 0.17043795 0.08749016
0.011436297 0.027706917 -0.19539437 -0.020940928 0.08054461 0.08754848 0.09713915 0.17233016
0.14667754 0.06867092 -0.01138242 0.22682248 0.09935652 0.006034551 0.2663013 0.17561276
0.15069959 0.026640425 0.26160932 -0.22758201 0.16050193 0.3040192 -0.09750286 -0.058394715
-0.16713302 0.09822914 0.21583718 0.19168456 0.15513182 0.1983733 0.20307812 0.20766214
0.12485034 0.197856 0.2375084 0.20828202 -0.015728043 -0.076158635 0.20941797 -0.25834894

linear2.bias f4 [3]
00000000: 4940 6f3e d661 163e 6ed7 6c3e
0.23364367 0.14685759 0.23129055
