model/DQN/checkpoint_2300.pth (torch, 23085 bytes, 4 tensors)

linear1.weight f4 [256, 16]
0.28641602 -0.1761376 -0.15121782 0.60095954 -0.8431255 -0.8642908 0.73100364 0.17865121
0.30864626 0.21069247 -0.22996598 0.2784129 -1.282785 0.6490212 0.67572135 -1.1565
-0.1606447 0.075506054 0.2701387 -1.4256927 0.54658014 0.38794672 -1.1172491 -0.33911005
0.110613495 -0.44593 -0.48903126 0.07790091 -0.7662709 1.5624005 -0.96541184 -0.6606489
0.0818749 0.69566596 0.12879744 0.013678702 0.29163998 -0.91082835 -0.330941 -0.17596596
-0.124625504 -0.0789713 -0.6227232 -0.37743792 0.20123287 0.52819055 0.3186925 -0.38496605
0.21814686 -0.112793684 -0.14205955 -0.056262046 -0.78184557 0.5025699 -0.2953239 -0.60300595
-0.040096864 -0.22642384 0.28029788 -0.033428773 -0.8387539 0.34455952 -0.6758268 0.49778447
-0.108855814 -0.0017055004 0.51554227 -0.7851621 0.5175297 0.4232323 -0.092335045 -0.24219169
0.14480329 0.15623021 0.50983113 -0.43646157 -0.90309817 0.7278151 0.14001034 0.86003155
-0.13526171 0.46212018 0.30438858 0.48633423 0.49459678 -0.6549847 -0.6549768 0.50377953
0.4557104 -0.50599873 -0.5047354 -0.017737547 0.68363243 0.8613738 -0.78529096 -1.0483791
0.26476818 0.06659284 0.62998605 -0.210048 0.07132589 -0.063379474 -0.060660947 0.22800833
0.14243776 0.11543282 0.07072723 -0.7272634 1.2210721 1.1047728 1.0919752 1.3623468
0.7661597 0.097091146 0.08953696 0.3147149 0.6868888 -1.0333201 -0.70732254 -0.25453606
-0.60148615 0.5328171 0.56393075 -0.14075439 -0.29825503 -0.8467019 1.0643228 0.59897757
-0.4552503 -0.116916426 0.36959743 -0.17878519 0.30122986 -0.5656895 0.7144917 0.10495823
0.12669703 -0.101667985 0.028310807 -0.3076431 1.0818231 0.5660361 -1.2082065 0.70610946
0.28179902 -0.1084861 -0.004316272 -1.2876601 -0.6359932 0.96257913 0.40202704 0.37482068
0.31310484 -0.41125575 -0.29294136 0.2035761 1.2018683 0.682464 -1.140352 -0.46989867
0.026072973 0.026482584 -0.026405776 0.5900022 -0.7014613 0.79964983 -0.34903008 -0.47725567
0.11201149 -0.8514461 0.24018487 0.062157907 -0.981738 0.33041385 -0.94215703 -0.022066703
0.29644808 -0.8174929 -0.021335877 -0.07442839 -0.6340115 0.2650596 -0.026974816 -0.5566315
-0.58109456 -0.07543629 -0.4034431 -0.18114303 0.81446666 0.47725266 -0.3093829 -0.4431532
-0.14347415 -0.4947435 -0.042793274 0.57805175 -0.07029669 -0.61132795 -0.17867918 0.036502298
-0.20054369 0.104384124 -0.085102014 0.04249806 -0.7472827 0.4884125 0.7013531 -0.15120481
0.10511188 0.25068644 -0.07814705 -0.20623372 -0.058101196 0.0040859585 -0.29529822 0.3852359
0.086271636 0.1383273 0.5169093 0.7582709 -0.8825566 -1.5091784 -1.4237843 -0.6723983
-0.050256018 0.050553326 -0.010370989 0.40595287 -1.8762045 -0.009079029 -0.4232039 -0.7026853
0.14611228 0.37843564 0.5850165 -0.20538858 1.7838796 -0.6247614 -1.7232734 -1.522323
-0.09666929 -0.20822014 -0.12218432 -0.49543005 0.39592424 0.44304794 -0.523635 -0.3308738
-0.8801401 -0.31406823 0.43297377 0.028807743 -0.81076044 -1.2414786 -0.7664529 0.9168772
00000000: 1fa5 923e 6a5d 34be d8d8 1abe 7cd8 193f
00000010: 13d7 57bf 2942 5dbf 0e23 3b3f 58f0 363e
00000020: e206 9e3e c4bf 573e 347c 6bbe 238c 8e3e
00000030: 4d32 a4bf 4126 263f 13fc 2c3f 3108 94bf
00000040: 0b80 24be eba2 9a3d 9f4f 8a3e 197d b6bf
00000050: adec 0b3f f4a0 c63e 0502 8fbf d59f adbe
00000060: 5489 e23d f050 e4be 4e62 fabe 838a 9f3d
00000070: 542a 44bf bdfc c73f 3b25 77bf 4920 29bf
00000080: 07ae a73d 2a17 323f 7ae3 033e a21c 603c
00000090: d651 953e 0c2c 69bf 1971 a9be 6c30 34be
000000a0: a83b ffbd b4bb a1bd ca6a 1fbf 8b3f c1be
000000b0: fd0f 4e3e 7f37 073f aa2b a33e 451a c5be
000000c0: e461 5f3e 6000 e7bd 0f78 11be 0873 66bd
000000d0: 0827 48bf 6ca8 003f b234 97be 995e 1abf
000000e0: 9c3c 24bd a7db 67be 3483 8f3e 9cec 08bd
000000f0: 93b8 56bf 1b6a b03e fc02 2dbf 9bdd fe3e
00000100: ccef debd 198b dfba 94fa 033f 6200 49bf
00000110: d47c 043f e7b1 d83e 281a bdbd 1901 78be
00000120: 5047 143e d0fa 1f3e 4b84 023f e477 dfbe
00000130: 7131 67bf 1752 3a3f df5e 0f3e 072b 5c3f
00000140: 0c82 0abe 049b ec3e d2d8 9b3e cd00 f93e
00000150: ca3b fd3e 14ad 27bf 8fac 27bf b2f7 003f
00000160: e052 e93e 2289 01bf 5736 01bf 554e 91bc
00000170: 8902 2f3f fe82 5c3f d408 49bf 4931 86bf
00000180: b28f 873e d461 883d c446 213f d316 57be
00000190: 4f13 923d 19cd 81bd 9d77 78bd 047b 693e
000001a0: 34db 113e 0b68 ec3d 70d9 903d ef2d 3abf
000001b0: 174c 9c3f 3269 8d3f d8c5 8b3f 6161 ae3f
000001c0: 0b23 443f b9d7 c63d 275f b73d 5022 a13e
000001d0: f2d7 2f3f d543 84bf 1713 35bf 8d52 82be
000001e0: fffa 19bf b466 083f c45d 103f eb21 10be
000001f0: e2b4 98be 75c1 58bf bb3b 883f 9856 193f
00000200: 9116 e9be e171 efbd e03b bd3e 7713 37be
00000210: cd3a 9a3e 07d1 10bf eee8 363f 57f4 d63d
00000220: debc 013e 4e37 d0bd 11ec e73c 6583 9dbe
00000230: 2e79 8a3f bee7 103f 83a6 9abf 97c3 343f
00000240: f647 903e f62d debd 846f 8dbb 0cd2 a4bf
00000250: 73d0 22bf 966b 763f 7dd6 cd3e 7fe8 bf3e
00000260: 474f a03e 1d90 d2be 69fc 95be 4176 503e
00000270: d2d6 993f f6b5 2e3f 0ef7 91bf 8f96 f0be
00000280: fd96 d53c 01f2 d83c ed50 d8bc 620a 173f
00000290: f892 33bf dab5 4c3f 12b4 b2be db5a f4be
000002a0: 4866 e53d 5ff8 59bf 06f3 753e 4a99 7e3d
000002b0: 2e53 7bbf 012c a93e 3431 71bf 3bc5 b4bc
000002c0: 0bc8 973e 3747 51bf 94c8 aebc e96d 98bd
000002d0: 944e 22bf e4b5 873e 4afa dcbc 677f 0ebf
000002e0: 9dc2 14bf 577e 9abd 1890 cebe 8f7d 39be
000002f0: e380 503f 765a f43e 6f67 9ebe fae4 e2be
00000300: e3ea 12be 054f fdbe 0048 2fbd 33fb 133f
00000310: b6f7 8fbd fd7f 1cbf adf7 36be 6f83 153d
00000320: 535b 4dbe 58c7 d53d f749 aebd 7212 2e3d
00000330: eb4d 3fbf 3411 fa3e e08b 333f 6fd5 1abe
00000340: e644 d73d f959 803e 900b a0bd ef2e 53be
00000350: 85fb 6dbd 81e3 853b 5431 97be a43d c53e
00000360: 2faf b03d aca5 0d3e 2b54 043f 0b1e 423f
00000370: 3bef 61bf c22c c1bf 903e b6bf 4c22 2cbf
00000380: 41d9 4dbd 0111 4f3d 15eb 29bc 0ed9 cf3e
00000390: 7827 f0bf 35c0 14bc 2eae d8be 2fe3 33bf
000003a0: 759e 153e 51c2 c13e a4c3 153f 6251 52be
000003b0: 2b56 e43f 5df0 1fbf 3994 dcbf 7bdb c2bf
000003c0: 8cfa c5bd a937 55be c63b fabd 02a9 fdbe
000003d0: 95b6 ca3e 2ed7 e23e f20c 06bf 4a68 a9be
000003e0: dd50 61bf 8dcd a0be bdae dd3e 37fe eb3c
000003f0: ff8d 4fbf c5e8 9ebf 4236 44bf 77b8 6a3f

linear1.bias f4 [256]
-0.16714352 0.039061558 -0.22956577 -0.30230722 0.021098081 0.08541492 -0.6644021 -0.19635786
0.40598765 -0.13567802 -0.2562547 -0.10548221 -0.4102302 -0.047693916 -0.5232447 -0.008994478
0.045919064 0.569012 0.3612237 0.39419743 0.16885448 -0.17775473 0.32339254 -0.23494402
-0.2533578 0.30797482 -0.24550873 -0.034500897 0.22286735 0.1964972 1.882865 0.10721839
0.019077942 1.1368835 -0.26564085 -0.5656382 -0.34113067 0.85755336 0.063499555 -0.54242015
-0.019359156 -0.07652093 -0.39245418 -0.44586226 0.37018746 -0.12001902 -0.54553306 -0.2736822
-0.5560339 -0.10958817 -0.30244574 2.2266853 0.5543282 -0.21442237 -0.31449667 -0.9285219
0.2598394 -0.12363193 0.06368425 0.33191484 1.9629865 0.093776174 -0.34293133 -0.07726312
-0.1929716 -0.123962246 -0.7535803 -0.39989617 -0.312543 -0.12858863 -0.0021274542 1.1993339
-0.1890348 -0.061106436 -0.2913651 0.31162402 -0.38205504 0.042082943 0.10779164 -0.24373133
0.09391913 0.02201424 1.3474876 -0.4175759 0.13953365 -0.647685 0.42333576 -0.30594423
-0.4185189 0.2442143 -0.25780174 -0.12765606 0.045444123 -0.31498733 -0.3201284 -0.17865264
-0.5120903 -0.48076943 -0.3533763 -0.00059323525 -0.51077306 0.035626248 0.06454439 -0.18921016
0.18656385 -0.31143227 1.559972 0.46227285 -0.6735038 -0.8578998 -0.10456361 0.056697253
-0.08674594 0.14777878 1.7080386 -0.13896623 -0.31840837 -0.047429357 0.5085099 0.0901667
-0.094500765 -0.25590956 0.2622983 0.21755324 -0.14591204 -0.28214172 1.1285617 -0.38619125
-0.5632336 -0.20510985 -0.11482444 0.36447385 -0.23850669 0.16627343 0.10405492 -0.38256812
0.3161465 0.3706415 -0.20878671 -0.056210883 0.18380766 -0.2939659 -0.5737357 0.83136535
-0.11714105 -0.05328524 -0.27060184 -0.17997497 2.0844996 0.20728134 -0.2863326 -0.37910497
-0.44686902 0.2757159 -0.7637671 -0.0059758294 -0.16099498 -0.7852524 -0.15432528 -0.54883766
-0.19412331 -0.1728793 -0.2058626 0.08762782 0.013458709 0.26123077 -0.03198604 -0.40020984
0.26421902 -0.29431608 -0.12643059 -0.044152055 0.13879326 -0.6970475 -0.2005001 -0.45231417
-0.7177732 0.03423072 -0.012391727 -0.34131396 -0.25656506 -0.120654665 -0.01428683 0.42983416
-0.06635038 -0.13884836 -0.25158107 0.47366223 -0.6612095 -0.1239383 -0.07602644 -0.04708382
0.049549107 -0.29868215 0.11171352 -0.30838895 -0.22218314 -0.64893264 -0.5523711 -0.5860025
-0.023047818 0.39157546 1.6008389 -0.36493182 -0.1289384 -0.6394218 -0.1588129 -0.24312656
-0.4706973 -0.6921583 0.096786276 0.29491434 0.06446 -0.23364973 0.25173447 -0.14879793
-0.8565056 0.12226591 -0.6494063 0.95191056 -0.5788498 -0.1388295 -0.35317346 3.162217
-0.30198905 -0.23391022 -0.35430178 -0.3460828 -0.2607913 0.065659635 -0.12585759 -0.14669576
-0.64996797 -0.3137396 -0.074534684 -0.32317165 -0.30723822 -0.2937478 -0.6159708 -0.24900511
-0.7903365 -0.30521297 0.26573372 -0.15414597 -0.16733985 -0.42914754 -0.6935663 0.06207871
-0.65571094 -0.71512216 -0.11396527 -0.16736236 -0.5581337 -0.7412654 -0.102392755 0.043318555
00000000: ac27 2bbe 03ff 1f3d 4a13 6bbe 03c8 9abe
00000010: e2d5 ac3c 04ee ae3d 4216 2abf 0912 49be
00000020: 9ddd cf3e 2eef 0abe d133 83be 0f07 d8bd
00000030: b109 d2be b25a 43bd 5df3 05bf 935d 13bc
00000040: a115 3c3d c5aa 113f 50f2 b83e 3fd4 c93e
00000050: 30e8 2c3e 5605 36be b593 a53e 2a95 70be
00000060: 1db8 81be e0ae 9d3e a466 7bbe d050 0dbd
00000070: 5737 643e 9036 493e b801 f13f 5195 db3d
00000080: 5849 9c3c 6685 913f 1402 88be aacd 10bf
00000090: aea8 aebe 9e88 5b3f 0e0c 823d 0cdc 0abf
000000a0: 1897 9ebc 01b7 9cbd c1ef c8be 0f48 e4be
000000b0: 3689 bd3e 88cc f5bd 0ea8 0bbf 1320 8cbe
000000c0: 3d58 0ebf c36f e0bd 2bda 9abe 0382 0e40
000000d0: 74e8 0d3f 8a91 5bbe b505 a1be 9cb3 6dbf
000000e0: ab09 853e bd32 fdbd e36c 823d bef0 a93e
000000f0: 2443 fb3f b90d c03d b294 afbe 203c 9ebd
00000100: 599a 45be ebdf fdbd a3ea 40bf 31bf ccbe
00000110: a305 a0be bdac 03be c26c 0bbb c683 993f
00000120: 5792 41be be4a 7abd ce2d 95be 2f8d 9f3e
00000130: b89c c3be 2a5f 2c3d ddc1 dc3d b594 79be
00000140: ac58 c03d 3557 b43c 797a ac3f 82cc d5be
00000150: e9e1 0e3e afce 25bf 77bf d83e b9a4 9cbe
00000160: 1c48 d6be 5013 7a3e 97fe 83be 45b8 02be
00000170: 9e23 3a3d 0546 a1be dfe7 a3be b8f0 36be
00000180: 5a18 03bf 6927 f6be bded b4be 5883 1bba
00000190: 06c2 02bf d4ec 113d d92f 843d 4fc0 41be
000001a0: 980a 3f3e 0d74 9fbe 2aad c73f 07af ec3e
000001b0: bf6a 2cbf 529f 5bbf 7225 d6bd 613b 683d
000001c0: dba7 b1bd 5253 173e 02a1 da3f 2a4d 0ebe
000001d0: 6c06 a3be 4945 42bd b42d 023f 52a9 b83d
000001e0: 9e89 c1bd 9406 83be f64b 863e 47c6 5e3e
000001f0: f769 15be e174 90be b674 903f dcba c5be
00000200: 1430 10bf 5108 52be 1329 ebbd 519c ba3e
00000210: 193b 74be 9543 2a3e bf1a d53d f8df c3be
00000220: f4dd a13e b9c4 bd3e 2fcc 55be 623d 66bd
00000230: 1338 3c3e b382 96be 58e0 12bf 5cd4 543f
00000240: a6e7 efbd a041 5abd 538c 8abe 5c4b 38be
00000250: 7168 0540 8f41 543e 309a 92be 0c1a c2be
00000260: 04cc e4be a22a 8d3e 3e86 43bf e4d0 c3bb
00000270: dedb 24be 4d06 49bf 7207 1ebe a080 0cbf
00000280: 43c8 46be 4507 31be a5cd 52be 3776 b33d
00000290: eb81 5c3c 0ac0 853e cb03 03bd 4ee8 ccbe
000002a0: b747 873e 99b0 96be 0577 01be c9d8 34bd
000002b0: d21f 0e3e b471 32bf e64f 4dbe b995 e7be
000002c0: fcbf 37bf 8335 0c3d ac06 4bbc b4c0 aebe
000002d0: 7f5c 83be cb19 f7bd 4f13 6abc 3913 dc3e
000002e0: b5e2 87bd 442e 0ebe 3ccf 80be db83 f23e
000002f0: 0745 29bf 5dd3 fdbd c0b3 9bbd f7da 40bd
00000300: 01f4 4a3d deec 98be 0fca e43d 28e5 9dbe
00000310: fa83 63be 7320 26bf 3168 0dbf 4304 16bf
00000320: c7ce bcbc 947c c83e 4ae8 cc3f 58d8 babe
00000330: 6e08 04be 26b1 23bf d99f 22be 2bf6 78be
00000340: 3dff f0be 4931 31bf e237 c63d 03ff 963e
00000350: 9b03 843d e041 6fbe 57e3 803e 7c5e 18be
00000360: f343 5bbf 8d66 fa3d 7e3f 26bf 69b0 733f
00000370: 802f 14bf 5229 0ebe 27d3 b4be c361 4a40
00000380: 4f9e 9abe 2986 6fbe 0b67 b5be c431 b1be
00000390: 7086 85be 8f78 863d d0e0 00be 6a37 16be
000003a0: 4d64 26bf 7aa2 a0be a4a5 98bd c176 a5be
000003b0: 544e 9dbe 1d66 96be 43b0 1dbf 32fb 7ebe
000003c0: 7e53 4abf e044 9cbe 400e 883e 71d8 1dbe
000003d0: 235b 2bbe 3ab9 dbbe 908d 31bf 3f46 7e3d
000003e0: acdc 27bf 3f12 37bf a066 e9bd 0a61 2bbe
000003f0: dae1 0ebf 92c3 3dbf 4bb3 d1bd cc6e 313d

linear2.weight f4 [3, 256]
-1.4944453 1.0187302 0.26870778 -0.28729832 0.34506536 0.7073627 -0.53110474 -1.4776094
0.51938695 -0.9665277 -0.56904167 0.12266121 0.049699377 -0.7754496 1.6930351 -1.1607362
0.066538155 0.47898075 1.2870202 0.49802932 1.6893649 -0.49686313 0.8746056 -0.023839986
-0.727429 0.3245007 -0.038786642 0.6050545 0.44712564 1.0885515 0.47748423 0.6092319
-3.194547 0.41663578 -0.66923624 -0.27784577 0.14085266 0.8108652 0.5761247 0.077091135
-0.95250386 0.059466638 -0.9290946 0.71901286 0.42816496 -0.8461779 -0.4168071 0.04631173
-0.04162952 -0.9440621 0.1296298 0.5043973 0.30131006 0.9586333 -0.009749964 -0.12851228
0.1759053 -0.25522697 0.5456526 0.27801332 0.5615943 0.6957766 0.06434659 0.12530388
0.18231551 0.06692897 -1.2407267 -0.03224453 0.30583948 -0.7804951 0.5204213 0.28734523
0.597054 1.1165329 0.74336344 0.51910084 -0.46917117 0.20575957 0.63600415 0.04004406
0.1676876 0.24894819 0.40426084 -0.5968969 0.17491765 0.05634929 0.51575434 -0.5576787
-1.7974521 1.7799911 -0.69314396 -1.1664777 0.6810133 0.04397087 0.0011480253 0.20302382
0.09727287 -0.1525085 -0.8470719 -0.95194125 -0.04072245 0.4856016 0.52432716 -0.31053737
0.79841906 -0.58091205 0.5143038 0.87888813 -0.8626665 -0.03877829 -0.8050951 -1.1947925
0.035042156 1.1083446 0.38826567 -0.5532108 -1.2020947 0.92821 0.76936495 -0.121411234
1.1530125 -2.133121 0.071598664 0.34195873 0.074525714 0.2182082 0.36070663 0.040052667
-0.58147836 -0.34668913 0.8045764 0.48856184 -2.1872206 0.54105985 0.7268094 0.08755887
0.5523603 1.757907 -1.2663333 -0.30372053 1.4597278 -1.5513871 -0.28762683 0.8645509
-0.006566835 -0.07265133 -0.534394 0.22945127 0.6242141 1.1956728 -0.7597744 0.12140466
0.15775442 -0.46090692 -0.77614874 -0.8004404 0.16633447 -1.0620067 0.77204025 -0.17238039
-0.9747007 0.58739376 0.1342439 0.37105942 -0.59930414 0.8608933 -1.0181073 -1.0930697
0.1030972 -0.14440756 0.071009874 -0.80786175 -1.7651228 -1.1120033 -1.2193425 -0.10776399
0.047513776 -1.9103705 0.29080144 0.21022493 -1.1186574 -0.54967344 0.21658269 0.7507236
-1.4185759 0.03595171 0.027366262 0.6746861 -0.71882606 0.04465536 0.31855345 -0.02286176
-0.15659194 -1.5094336 0.5865894 0.60111886 -1.225238 -0.300744 -0.59905183 0.0130681135
0.45087647 0.77978265 0.47256616 -0.02490473 0.19011906 0.07603666 0.0023149466 0.028789667
0.20428437 -0.43548188 0.607399 0.9282785 0.09260369 -1.4739517 0.8971818 -0.49047232
0.010716058 0.44052368 -0.4884882 0.36078066 0.13995032 0.6041861 0.14495872 0.68215233
-0.27815256 -0.9599756 -0.40342036 -0.19366793 0.070344046 0.66804916 -0.9244782 -1.4044889
-0.31304386 0.3010596 -0.29407385 -0.01407992 0.43888876 0.020976346 -0.20707434 -0.04886402
-0.32355472 0.0062837005 0.92645603 0.77415544 0.13250592 0.047076963 -0.41240212 0.61375475
0.09155595 0.05279605 0.4358798 -0.9119117 -0.23754914 0.036694307 1.0199951 -0.62111086
00000000: fc49 bfbf c065 823f 1194 893e c418 93be
00000010: 68ac b03e b915 353f 7bf6 07bf 4e22 bdbf
00000020: 8bf6 043f 5c6e 77bf b7ac 11bf cd35 fb3d
00000030: 9391 4b3d dd83 46bf 60b5 d83f 0193 94bf
00000040: 2845 883d f73c f53e 14bd a43f b3fd fe3e
00000050: 1c3d d83f d864 febe 27e6 5f3f 134c c3bc
00000060: c938 3abf f524 a63e bede 1ebd dae4 1a3f
00000070: a7ed e43e a855 8b3f d078 f43e 9ff6 1b3f
00000080: 7573 4cc0 4951 d53e 1153 2bbf cd41 8ebe
00000090: ae3b 103e dd94 4f3f e97c 133f f5e1 9d3d
000000a0: 4bd7 73bf 4a93 733d 25d9 6dbf 3a11 383f
000000b0: 7038 db3e 1d9f 58bf bd67 d5be 5eb1 3d3d
000000c0: b783 2abd 0eae 71bf adbd 043e 2e20 013f
000000d0: 5045 9a3e fe68 753f 50be 1fbc b998 03be
000000e0: 8520 343e 1cad 82be e4af 0b3f c357 8e3e
000000f0: a5c4 0f3f 6a1e 323f 25c8 833d a94f 003e
00000100: ebb0 3a3e 0e12 893d 22d0 9ebf d712 04bd
00000110: fe96 9c3e 87ce 47bf 553a 053f ea1e 933e
00000120: 88d8 183f 8dea 8e3f 114d 3e3f cbe3 043f
00000130: 3437 f0be a3b2 523e 2bd1 223f 3e05 243d
00000140: 4cb6 2b3e 46ec 7e3e 47fb ce3e 3cce 18bf
00000150: 9d1d 333e 83ce 663d 7a08 043f 08c4 0ebf
00000160: e912 e6bf c0d6 e33f e271 31bf 244f 95bf
00000170: e356 2e3f cd1a 343d 5679 963a 7ae5 4f3e
00000180: 0037 c73d 302b 1cbe b4d9 58bf 6cb2 73bf
00000190: 95cc 26bd c6a0 f83e 4e3a 063f c1fe 9ebe
000001a0: 3165 4c3f a7b6 14bf 6aa9 033f d0fe 603f
000001b0: b6d7 5cbf fcd5 1ebd b61a 4ebf f6ee 98bf
000001c0: 5d88 0f3d 3cde 8d3f c2ca c63e 399f 0dbf
000001d0: 3dde 99bf 2c9f 6d3f 1af5 443f 74a6 f8bd
000001e0: ea95 933f 0e85 08c0 52a2 923d 3715 af3e
000001f0: f0a0 983d f871 5f3e 8aae b83e 440e 243d
00000200: c4db 14bf 3d81 b1be b8f8 4d3f c724 fa3e
00000210: 6cfb 0bc0 e682 0a3f 2e10 3a3f 1152 b33d
00000220: 7c67 0d3f 1903 e13f 3617 a2bf 4281 9bbe
00000230: 5cd8 ba3f da93 c6bf d343 93be 3553 5d3f
00000240: 9b2e d7bb 38ca 94bd 0cce 08bf 46f5 6a3e
00000250: 7fcc 1f3f ce0b 993f 9380 42bf 02a3 f83d
00000260: 608a 213e fefb ebbe afb1 46bf a9e9 4cbf
00000270: 9553 2a3e d6ef 87bf 6ea4 453f 7c84 30be
00000280: fc85 79bf 705f 163f 3c77 093e 80fb bd3e
00000290: ff6b 19bf 8163 5c3f 5751 82bf b5e9 8bbf
000002a0: a024 d33d 93df 13be a06d 913d 07d0 4ebf
000002b0: 8bef e1bf 2056 8ebf 6a13 9cbf 5eb3 dcbd
000002c0: ce9d 423d 0587 f4bf ede3 943e 3445 573e
000002d0: 2a30 8fbf 66b7 0cbf dac7 5d3e 6c2f 403f
000002e0: e593 b5bf 1a42 133d 362f e03c 3ab8 2c3f
000002f0: fc04 38bf 8ae8 363d 7019 a33e 9648 bbbc
00000300: a359 20be 1f35 c1bf b92a 163f ede2 193f
00000310: 99d4 9cbf 1efb 99be 765b 19bf a41b 563c
00000320: 48d9 e63e d69f 473f 31f4 f13e 0105 ccbc
00000330: 92ae 423e 1cb9 9b3d 5cb6 173b 4fd8 eb3c
00000340: ec2f 513e 7bf7 debe 807e 1b3f a9a3 6d3f
00000350: 01a7 bd3d 73aa bcbf b5ad 653f 301f fbbe
00000360: 6892 2f3c 528c e13e 201b fabe 3eb8 b83e
00000370: 234f 0f3e f1ab 1a3f 0f70 143e 89a1 2e3f
00000380: 036a 8ebe f6c0 75bf 1d8d cebe e350 46be
00000390: 8a10 903d 4505 2b3f 9aaa 6cbf 4bc6 b3bf
000003a0: 4947 a0be 7c24 9a3e d990 96be 77af 66bc
000003b0: 07b6 e03e 96d6 ab3c 4c0b 54be a325 48bd
000003c0: f7a8 a5be 80e7 cd3b 392c 6d3f 0d2f 463f
000003d0: a2af 073e c6d3 403d 5f26 d3be 081f 1d3f
000003e0: b081 bb3d ac40 583d a32b df3e 0c73 69bf
000003f0: 1540 73be c54c 163d 338f 823f 1f01 1fbf

linear2.bias f4 [3]
0.57610804 0.23767732 0.36048934
00000000: d17b 133f af61 733e 0f92 b83e
