model/DQN/checkpoint_1300.pth (torch, 23085 bytes, 4 tensors)

linear1.weight f4 [256, 16]
0.14785519 -0.054838292 0.013741318 0.12733173 -0.18252099 -0.17877096 -0.18454409 -0.14757359
-0.057805616 -0.053955857 -0.10204461 -0.21487604 -0.03511387 -0.08036837 -0.06499496 -0.22672644
-0.04589136 0.27472523 -0.20471524 -0.04664121 0.0029030512 0.2724252 0.0038007225 -0.35014638
-0.4948955 0.15602556 0.24516784 0.0595612 0.073921606 -0.004996708 -0.031894498 -0.008974167
0.17729862 0.77064204 0.11640298 0.22770758 0.055837486 -0.03075097 -0.11847269 -0.028685836
0.09236195 0.02032622 0.18515866 -0.19139017 0.01076528 0.20020704 -0.0022119158 -0.022266252
0.036913503 -0.12325432 0.64632297 0.2675274 0.14840059 0.005725472 -0.12920463 0.1791322
0.28698605 -0.01635975 -0.088000394 -0.1738483 -0.10001014 0.28354603 -0.020340977 -0.11317813
-0.031164108 -0.15857312 -0.2691959 0.32368627 0.37385768 0.335583 0.29661423 -0.17408556
0.24155731 -0.11710478 0.0827402 -0.003683954 -0.2202961 -0.021998757 0.16622335 0.070219606
0.039424136 -0.08464243 -0.0585052 0.20606677 -0.0029769652 0.18346512 0.037163656 0.37410617
0.345407 -0.51651424 -0.23315127 0.04974132 0.08476936 0.1353712 0.0006542367 0.08075301
0.23677212 0.05613929 -0.25345048 0.26751062 0.37122494 0.16000505 0.005405013 0.041172523
0.21958855 -0.031437863 0.07737427 0.062367205 -0.21333438 0.010388477 -0.12968552 0.10764838
0.01577878 -0.16940615 -0.05092743 -0.22667268 -0.22991851 -0.04284343 -0.09864187 0.13595822
0.05679977 0.028875232 -0.097381264 -0.06928921 -0.080091745 -0.1608819 -0.14121029 0.009690672
0.027714808 0.24572977 -0.10667328 0.29666623 0.33575767 0.08470959 0.03205498 -0.050542064
-0.030966848 0.14935648 0.04418439 0.32566914 -0.10791977 0.17569672 -0.2324421 -0.22318022
-0.10083169 -0.3545261 0.055346753 -0.010711983 0.34037688 -0.07349424 0.04662492 -0.14070532
0.09816278 0.06823537 -0.0054704994 0.18190402 0.15154949 -0.057597704 0.054334085 -0.1488254
0.10334607 -0.41828156 -0.120384105 0.07349663 0.18025687 -0.04529485 -0.06428936 0.13442598
0.12345963 0.00771747 0.10878099 0.26584882 -0.09158568 0.20994511 -0.15532523 0.19215998
0.17627513 -0.03209965 -0.086544655 0.2964529 0.18452866 0.27997994 0.2618119 -0.20666824
0.22717662 0.0943575 0.2034391 0.2911077 -0.018818855 -0.0027017929 -0.029565036 -0.08885884
-0.2080957 0.095753066 -0.050890088 -0.070910476 -0.2146252 0.2139277 0.21888739 -0.029569857
0.13596457 -0.37148833 0.08367406 0.23577301 0.19002983 -0.17733446 0.021325292 0.08868828
0.17685157 0.07098244 -0.2561729 0.11064221 0.005924674 -0.12273692 0.12714723 -0.18800604
-0.16916838 0.031367812 -0.24434963 -0.10725591 -0.15485781 -0.23087917 -0.1503591 -0.11040234
-0.13825183 0.22099619 0.08586312 -0.17462666 0.3399868 -0.28900367 0.1515086 -0.43550652
0.107524075 -0.25202674 -0.3223283 -0.15949054 0.13768347 0.12406997 0.042897444 0.105195686
0.08317908 0.09949106 -0.20743759 0.33503628 0.20206387 0.25837296 0.11985608 0.27376023
0.08640981 0.18383817 0.27409154 0.1772593 0.19142227 -0.073693156 0.18119995 -0.06159319
00000000: 5a67 173e 1e9e 60bd 4423 613c 4063 023e
00000010: c8e6 3abe bc0f 37be 20f9 3cbe 881d 17be
00000020: 95c5 6cbd d100 5dbd c4fc d0bd 7708 5cbe
00000030: 90d3 0fbd 2c98 a4bd 141c 85bd fa2a 68be
00000040: 94f8 3bbd c9a8 8c3e dfa0 51be da0a 3fbd
00000050: 1e41 3e3b 517b 8b3e 8b15 793b 6346 b3be
00000060: f162 fdbe 2ac5 1f3e 470d 7b3e 72f6 733d
00000070: 3664 973d 6dbb a3bb cea3 02bd 6208 13bc
00000080: c58d 353e cc48 453f b064 ee3d 2d2c 693e
00000090: d9b5 643d 75e9 fbbc cfa1 f2bd 8ffe eabc
000000a0: 4328 bd3d 2c83 a63c 3b9a 3d3e c9fb 43be
000000b0: db60 303c 1303 4d3e caf5 10bb b767 b6bc
000000c0: 9d32 173d c36c fcbd 6c75 253f 5af9 883e
000000d0: 53f6 173e bd9c bb3b 384e 04be 6e6e 373e
000000e0: d6ef 923e e204 86bc 8d39 b4bd 4a05 32be
000000f0: 1ed2 ccbd f22c 913e 1fa2 a6bc efc9 e7bd
00000100: df4b ffbc fe60 22be 0cd4 89be 35ba a53e
00000110: 466a bf3e 89d1 ab3e d2dd 973e 7c43 32be
00000120: cd5a 773e a2d4 efbd b273 a93d 7e6e 71bb
00000130: 4d95 61be bd36 b4bc 7436 2a3e 4ccf 8f3d
00000140: 347b 213d 0359 adbd 26a3 6fbd 2b03 533e
00000150: 3019 43bb 48de 3b3e eb38 183d d88a bf3e
00000160: 30d9 b03e 473a 04bf 35bf 6ebe 8ebd 4b3d
00000170: 8f9b ad3d bf9e 0a3e 1581 2b3a d661 a53d
00000180: 6474 723e 50f2 653d 43c4 81be 27f7 883e
00000190: 3211 be3e 5dd8 233e 891c b13b 85a4 283d
000001a0: d2db 603e fdc4 00bd 6776 9e3d c174 7f3d
000001b0: 5474 5abe 6e34 2a3c 48cc 04be c176 dc3d
000001c0: 8042 813c ce78 2dbe 4899 50bd e21c 68be
000001d0: c26f 6bbe 987c 2fbd c004 cabd a238 0b3e
000001e0: e0a6 683d c08b ec3c d46f c7bd 80e7 8dbd
000001f0: 2407 a4bd 3abe 24be 6e99 10be a0c5 1e3c
00000200: 2a0a e33c 96a0 7b3e 8577 dabd a3e4 973e
00000210: 6ee8 ab3e 397c ad3d 154c 033d 3205 4fbd
00000220: 30ae fdbc e8f0 183e b1fa 343d 1bbe a63e
00000230: 0a05 ddbd d7e9 333e 4d05 6ebe 5b89 64be
00000240: d880 cebd 7284 b5be 47b3 623d 5081 2fbc
00000250: e145 ae3e 2684 96bd c6f9 3e3d 0e15 10be
00000260: 9109 c93d fcbe 8b3d e041 b3bb 0c45 3a3e
00000270: ca2f 1b3e 92eb 6bbd 6b8d 5e3d b065 18be
00000280: 1ba7 d33d 0029 d6be f18b f6bd 6785 963d
00000290: 4295 383e 1887 39bd 24aa 83bd f7a6 093e
000002a0: 67d8 fc3d d5e2 fc3b 91c8 de3d 561d 883e
000002b0: 4691 bbbd dafb 563e 940d 1fbe 96c5 443e
000002c0: 7881 343e ec7a 03bd 533e b1bd adc8 973e
000002d0: 15f5 3c3e 8859 8f3e 360c 863e d7a0 53be
000002e0: fda0 683e 813e c13d 5752 503e 120c 953e
000002f0: 002a 9abc 9010 31bb 6032 f2bc a0fb b5bd
00000300: 0a17 55be 2f1a c43d 2072 50bd 8339 91bd
00000310: b5c6 5bbe dd0f 5b3e 0424 603e 7c3c f2bc
00000320: 4c3a 0b3e b833 bebe 4e5d ab3d 7b6e 713e
00000330: 2e97 423e 2a97 35be 61b2 ae3c 33a2 b53d
00000340: 9418 353e 3e5f 913d 1829 83be 6298 e23d
00000350: c523 c23b 7f5d fbbd e232 023e a884 40be
00000360: 7a3a 2dbe 897b 003d ca36 7abe fda8 dbbd
00000370: 0c93 1ebe 976b 6cbe bcf7 19be 9f1a e2bd
00000380: e391 0dbe d34c 623e 01d9 af3d 55d1 32be
00000390: c012 ae3e 4af8 93be 1225 1b3e b6fa debe
000003a0: 9535 dc3d a609 81be 3708 a5be 7d51 23be
000003b0: e5fc 0c3e 6518 fe3d 3bb5 2f3d d670 d73d
000003c0: cb59 aa3d f8c1 cb3d 856a 54be e089 ab3e
000003d0: d5e9 4e3e 7649 843e 1b77 f53d 4d2a 8c3e
000003e0: a0f7 b03d 1340 3c3e ba55 8c3e 7683 353e
000003f0: 3304 443e 70ec 96bd 7b8c 393e 2449 7cbd

linear1.bias f4 [256]
-0.22353956 0.08040178 -0.29797107 -0.14954688 0.5523434 0.048907172 0.46999693 -0.23788226
0.45593446 0.46051452 0.28780684 0.42491296 0.26015744 0.24807088 -0.013399763 0.45264238
0.24343479 0.509473 0.3930102 -0.101601735 0.5584736 0.3302947 -0.033485297 0.18271397
-0.06885107 0.32671964 0.4752068 0.31419587 -0.08442026 -0.016539998 0.1230035 0.074062005
0.16645929 0.031857595 -0.029550841 0.46895945 0.18117361 0.047758803 0.31829542 0.5594696
-0.18658416 -0.17383093 0.5066281 0.37552178 0.59406 0.36987987 0.29262802 0.29705378
-0.015478387 0.21579106 0.26685324 -0.22780535 -0.24059403 -0.11210426 -0.08447521 -0.14860183
0.36068583 0.048425417 0.14523423 -0.11444972 0.57044065 0.28332078 -0.20568283 -0.09429805
-0.07860711 -0.17704836 0.28200254 -0.00321659 -0.36985177 0.4802806 0.044203464 0.5694032
0.14528032 0.12940232 0.13981247 -0.3295355 0.4844339 -0.26397052 0.45170364 0.41530222
0.317799 0.54424393 -0.22683714 -0.07211081 0.16362263 0.117256306 0.53880674 0.21290873
0.034237977 0.293719 0.5424248 0.007640022 0.2730828 0.48237002 0.4899713 0.13054079
-0.088560954 0.023514481 0.33512828 0.18074131 0.15823211 0.10593289 -0.041162208 0.29473868
0.4095189 0.34959042 -0.14621063 0.22638094 0.1826433 0.5305863 0.16950628 -0.1626261
-0.05293205 -0.3776713 -0.119454294 0.50927544 0.0046701375 0.09738216 -0.104918 0.3243796
-0.3238294 0.105902165 0.52230895 -0.1600964 0.3772064 -0.16799924 0.24276298 0.39345092
0.4270314 0.4864401 0.09718329 0.0014358566 0.42432246 0.062775075 0.54699916 -0.11801246
0.38622066 -0.019261869 0.41917333 0.34870937 0.026569156 -0.08474753 0.28971395 -0.29991916
0.32630432 -0.022044925 -0.23591125 -0.12570697 0.2628764 0.46314818 -0.03627639 0.044851687
0.48949012 0.064453244 -0.14430426 0.34854448 0.2645819 -0.15712962 0.044300392 -0.031802468
0.15402316 0.37287733 0.3453834 0.19165635 -0.29238436 -0.018127946 0.2868512 -0.20763835
-0.12812161 0.027846932 0.056371216 0.05430991 0.40047696 -0.15305562 0.15626408 0.15009613
-0.046466902 0.40605927 0.1728371 -0.09493511 0.017063702 -0.27504727 0.2597299 0.11374673
0.59313536 0.38983688 -0.05318947 0.26531425 -0.10477804 0.3619719 0.5423429 0.029927285
0.08808482 0.0024051452 -0.084720604 -0.013598624 0.40213063 0.22347678 0.35155886 -0.1582508
0.06322893 0.21276207 0.38059905 0.3926327 -0.21848148 -0.071844704 0.4667011 0.46158728
0.01845122 -0.09693429 0.07329755 -0.07144267 0.2760473 -0.009501067 0.0949122 -0.17925444
-0.028108336 0.053532537 -0.22856571 -0.15570256 -0.22779375 0.3974905 -0.11272169 0.098294534
0.37047258 0.300248 -0.2327115 0.14166898 0.06417372 0.16799514 -0.05247569 0.3161117
0.27875617 0.088502854 0.46081844 -0.2084085 0.42024228 0.48484108 0.08681807 -0.077922046
-0.111048415 -0.074082874 -0.122570775 0.04079782 0.065328136 0.45144683 0.0052026613 0.5412059
-0.29911405 0.38896048 0.09190778 0.42016184 -0.07652264 -0.025943857 0.19936812 -0.046018105
00000000: 8ee7 64be b0a9 a43d aa8f 98be d122 19be
00000010: 6166 0d3f e352 483d 70a3 f03e 6897 73be
00000020: 3e70 e93e 8fc8 eb3e 6b5b 933e 318e d93e
00000030: 5b33 853e 4b06 7e3e ae8a 5bbc bec0 e73e
00000040: f846 793e d36c 023f a238 c93e 9214 d0bd
00000050: 20f8 0e3f 631c a93e e127 09bd 5f19 3b3e
00000060: ca01 8dbd cc47 a73e 4e4e f33e 48de a03e
00000070: 87e4 acbd e47e 87bc 42e9 fb3d d2ad 973d
00000080: 4e74 2a3e 1c7d 023d 9b14 f2bc 741b f03e
00000090: 9385 393e bc9e 433d 9ef7 a23e 6639 0f3f
000000a0: eb0f 3fbe bc00 32be 61b2 013f 6444 c03e
000000b0: 5114 183f e560 bd3e 57d3 953e 6f17 983e
000000c0: 0f99 7dbc 55f8 5c3e fda0 883e ce45 69be
000000d0: 485e 76be eb96 e5bd 5701 adbd 142b 18be
000000e0: d0ab b83e bb59 463d 48b8 143e 9d64 eabd
000000f0: 6608 123f 6c0f 913e 859e 52be 561f c1bd
00000100: c4fc a0bd 2a4c 35be a362 903e 6dcd 52bb
00000110: 365d bdbe 57e7 f53e b10e 353d 68c4 113f
00000120: 5dc4 143e 0b82 043e 002b 0f3e e1b8 a8be
00000130: b807 f83e 2527 87be b345 e73e 7ea2 d43e
00000140: 8db6 a23e 9253 0b3f ff47 68be d5ae 93bd
00000150: b18c 273e 1324 f03d 3def 093f bf04 5a3e
00000160: 1f3d 0c3d 5662 963e 5adc 0a3f 2659 fa3b
00000170: 82d1 8b3e 34f9 f63e 85dd fa3e 7cac 053e
00000180: 725f b5bd 71a1 c03c ef95 ab3e 4014 393e
00000190: 9907 223e 58f3 d83d b499 28bd fde7 963e
000001a0: 76ac d13e 84fd b23e 3db8 15be 68d0 673e
000001b0: d806 3b3e 81d4 073f 0e93 2d3e 7587 26be
000001c0: 47cf 58bd 225e c1be 74a4 f4bd e05f 023f
000001d0: f407 993b 4c70 c73d 40df d6bd 1515 a63e
000001e0: f8cc a5be 3ce3 d83d 0ab6 053f 50f0 23be
000001f0: 3221 c13e fe07 2cbe dc96 783e 6672 c93e
00000200: dca3 da3e ad0e f93e 0808 c73d 5a33 bc3a
00000210: cb40 d93e 3890 803d 2308 0c3f 84b0 f1bd
00000220: b7be c53e 11cb 9dbc e39d d63e 098a b23e
00000230: 8fa7 d93c 1d90 adbd 6355 943e 018f 99be
00000240: 5c11 a73e 8f97 b4bc b892 71be 54b9 00be
00000250: bc97 863e c221 ed3e 8d96 14bd 67b6 373d
00000260: 739e fa3e 1000 843d 7fc4 13be 6c74 b23e
00000270: 4777 873e 96e6 20be 5474 353d 4e43 02bd
00000280: 3fb8 1d3e c7e9 be3e 18d6 b03e 9041 443e
00000290: 67b3 95be 0f81 94bc 29de 923e 269f 54be
000002a0: 5032 03be 401f e43c 81e5 663d 1174 5e3d
000002b0: 510b cd3e 9dba 1cbe b103 203e cdb2 193e
000002c0: 1454 3ebd 00e7 cf3e 35fc 303e 576d c2bd
000002d0: 2dc9 8b3c ffd2 8cbe 51fb 843e 0cf4 e83d
000002e0: b8d7 173f b398 c73e 34dd 59bd 45d7 873e
000002f0: de95 d6bd 6254 b93e fcd6 0a3f 112a f53c
00000300: d065 b43d a49f 1d3b ff81 adbd c3cc 5ebc
00000310: 11e4 cd3e 19d7 643e 86ff b33e 7f0c 22be
00000320: 2b7e 813d 4dde 593e e1dd c23e 2707 c93e
00000330: 9cb9 5fbe 5123 93bd 72f3 ee3e 2b55 ec3e
00000340: 0327 973c 7c85 c6bd 071d 963d 8950 92bd
00000350: 1256 8d3e 5daa 1bbc 5461 c23d 7a8e 37be
00000360: 7443 e6bc ef44 5b3d 210d 6abe 7e70 1fbe
00000370: c442 69be e083 cb3e a1da e6bd a54e c93d
00000380: 95ae bd3e 1bba 993e ec4b 6ebe ac11 113e
00000390: 836d 833d eb06 2c3e c0f0 56bd 65d9 a13e
000003a0: 21b9 8e3e fc40 b53d 65f0 eb3e 0a69 55be
000003b0: ff29 d73e 173d f83e accd b13d 9895 9fbd
000003c0: 5a6d e3bd c3b8 97bd 6306 fbbd 9d1b 273d
000003d0: c2ca 853d 0a24 e73e 167b aa3b 788c 0a3f
000003e0: 7a25 99be d425 c73e 253a bc3d 741f d73e
000003f0: e7b7 9cbd 3688 d4bc 2827 4c3e 7b7d 3cbd

linear2.weight f4 [3, 256]
0.02781536 0.2923343 -0.07342522 0.13421664 0.25636715 0.22709069 0.12050052 0.0018628836
0.16938205 0.121473186 0.060056005 0.16483565 0.11160678 -0.023552755 0.20512573 0.099213384
0.03821588 0.25801408 0.20488526 0.032360945 0.15081477 0.19840324 0.025742285 0.26963642
0.06274517 0.3094578 0.17632203 0.109748356 -0.040474877 0.3292592 0.24954787 0.0078061474
0.012930238 -0.15161906 0.06605776 0.2913772 0.20579025 -0.11686581 0.27964255 0.31597185
0.0017969935 0.01900518 0.2325545 0.16441073 0.239087 0.22270148 0.11593274 0.20497558
0.20030802 0.32224736 0.27392843 -0.3653567 -0.31765202 -0.12735662 -0.25146216 0.033179156
0.1539196 0.0432768 -0.06345499 0.3469301 0.20794639 0.14221023 -0.24998319 -0.21846731
0.012762457 0.11266151 0.25202996 -0.103417195 -0.027191808 0.19759236 0.1880948 0.20084341
0.29645026 0.11251277 0.12906553 0.048683845 0.21565393 -0.31805852 0.20741956 0.09222626
0.19136037 0.19637057 0.015047209 -0.011016504 0.22224833 0.24374093 0.1433175 0.18691055
0.100340664 0.17012963 0.2954034 0.0059338706 0.16089907 0.22738111 0.16342434 0.28638133
-0.31390348 0.1396985 0.17326596 0.11821731 -0.010204788 0.1962334 0.23677093 0.1224883
0.20745867 0.10647031 -0.03843531 0.3077375 0.058906656 0.21889652 0.1540875 0.041681524
0.09299679 -0.17947067 0.13216665 0.14224344 -0.09517697 0.16617292 0.22655864 0.09606577
0.046188578 0.009659606 0.18561918 -0.008159947 0.15783583 -0.56224865 0.22556101 0.20281652
0.16422708 0.13061793 0.07888149 -0.38436607 0.16845222 0.080666535 0.15487717 0.010865535
0.16962922 0.22398224 0.06194695 0.16879366 0.24718764 -0.1932089 0.23023157 -0.039510384
0.09904138 -0.08787135 -0.30445096 0.09225723 0.13887087 0.12578979 0.032160215 -0.029621387
0.30155513 -0.12688813 -0.26438415 0.20143017 0.26201645 0.12284935 0.2648065 -0.18244742
-0.06888411 0.30855465 0.17814268 0.33442295 -0.5587955 -0.12961906 0.14065354 -0.004434866
0.26810625 -0.063878596 0.2236914 0.029237667 0.10756365 0.24667484 0.26316956 0.11099399
0.11096381 0.0736806 0.020878257 -0.17360137 0.29291278 -0.1422035 0.2006718 0.18918018
0.2517244 0.29410386 0.21571577 0.080099575 0.02597409 0.16498332 0.2978908 0.27905425
0.33140612 -0.0474316 0.1726154 0.24034654 0.2406683 0.14331773 0.14439511 0.07258969
0.03147513 0.26204515 0.28136924 0.058428563 -0.22669776 -0.39728338 0.19329222 0.21552417
-0.09622309 0.009116881 0.14248303 0.13499084 0.1345484 0.10197344 0.16943014 0.095318824
0.008017227 0.025075711 -0.23823768 -0.016900135 0.07946435 0.07603731 0.10342089 0.16542888
0.14267942 0.06345968 -0.017357068 0.22710665 0.1101397 -0.0023641074 0.2615264 0.18572958
0.17227735 0.016483089 0.26028508 -0.32747543 0.15978447 0.31367895 -0.09555383 -0.07606475
-0.20108418 0.09854897 0.22715625 0.19525017 0.14703338 0.20017911 0.21642639 0.20634407
0.14281863 0.19593497 0.23438944 0.2120871 -0.0026992112 -0.08179721 0.21286999 -0.26731032
00000000: 0add e33c d7ac 953e f65f 96bd 1670 093e
00000010: 8e42 833e 768a 683e fac8 f63d 002c f43a
00000020: 7d72 2d3e efc6 f83d 49fd 753d adca 283e
00000030: 1892 e43d b5f1 c0bc 7b0c 523e 6330 cb3d
00000040: 4188 1c3d 6c1a 843e 71cd 513e e98c 043d
00000050: 306f 1a3e 382a 4b3e 7ce1 d23c c90d 8a3e
00000060: 8a80 803d 4171 9e3e c38d 343e bfc3 e03d
00000070: fcc8 25bd a994 a83e 7a89 7f3e b6ca ff3b
00000080: 59d9 533c 0742 1bbe 4a49 873d 642f 953e
00000090: aeba 523e 5757 efbd 4f2d 8f3e 10c7 a13e
000000a0: 1989 eb3a c0b0 9b3c c422 6e3e 495b 283e
000000b0: 39d3 743e db0b 643e 256e ed3d 1ee5 513e
000000c0: 8c1d 4d3e 9bfd a43e 5940 8c3e 0910 bbbe
000000d0: 49a3 a2be c669 02be a6bf 80be dee6 073d
000000e0: 1a9d 1d3e 0443 313d b1f4 81bd d2a0 b13e
000000f0: e6ef 543e 8f9f 113e 98fb 7fbe e5b5 5fbe
00000100: a019 513c 14bb e63d 120a 813e 65cc d3bd
00000110: 5bc1 debc a755 4a3e ec9b 403e e5a9 4d3e
00000120: 54c8 973e 186d e63d c129 043e b668 473d
00000130: 62d4 5c3e 91d8 a2be cb65 543e 1fe1 bc3d
00000140: f9f3 433e 5e15 493e 9288 763c 917e 34bc
00000150: 1195 633e 3997 793e d3c1 123e 7b65 3f3e
00000160: 687f cd3d 7636 2e3e 1d3f 973e ea70 c23b
00000170: bac2 243e 98d6 683e b658 273e 93a0 923e
00000180: f5b7 a0be 200d 0f3e a26c 313e eb1b f23d
00000190: fc31 27bc 69f1 483e 1474 723e 25db fa3d
000001a0: 0c70 543e 1b0d da3d 586e 1dbd c58f 9d3e
000001b0: 1b48 713d 6926 603e 1dc9 1d3e 3fba 2a3d
000001c0: 1a75 be3d 29c7 37be b256 073e 44a8 113e
000001d0: 25ec c2bd 3c29 2a3e fdfe 673e 21be c43d
000001e0: 3c30 3d3d 5343 1e3c f412 3e3e 4cb1 05bc
000001f0: b79f 213e 87ef 0fbf 77f9 663e 22af 4f3e
00000200: 252b 283e b5c0 053e 9e8c a13d a1cb c4be
00000210: bd7e 2c3e 7f34 a53d 1f98 1e3e 5b05 323c
00000220: 48b3 2d3e 9a5b 653e 16bc 7d3d 3fd8 2c3e
00000230: c21e 7d3e 8ed8 45be d3c1 6b3e a4d5 21bd
00000240: 35d6 ca3d e5f5 b3bd ffe0 9bbe 5cf1 bc3d
00000250: 2a34 0e3e 0acf 003e 6eba 033d 8da8 f2bc
00000260: 6f65 9a3e f6ee 01be 5c5d 87be b643 4e3e
00000270: 0527 863e 7198 fb3d b894 873e 7fd3 3abe
00000280: 1d13 8dbd e0fa 9d3e 096b 363e 7c39 ab3e
00000290: 390d 0fbf dcba 04be 7b07 103e 5a52 91bb
000002a0: 3945 893e c8d2 82bd 5c0f 653e d583 ef3c
000002b0: 554a dc3d 5498 7c3e 29be 863e d150 e33d
000002c0: fe40 e33d dbe5 963d e108 ab3c 8fc4 31be
000002d0: aaf8 953e cb9d 11be e97c 4d3e 73b8 413e
000002e0: 05e2 803e c894 963e 98e4 5c3e 3f0b a43d
000002f0: 9dc7 d43c 63f1 283e 2585 983e 33e0 8e3e
00000300: 10ae a93e a347 42bd 17c2 303e 671d 763e
00000310: c071 763e e2c1 123e 50dc 133e e7a9 943d
00000320: 11ec 003d c82a 863e a10f 903e ca52 6f3d
00000330: 7523 68be ba68 cbbe 65ee 453e 5eb2 5c3e
00000340: 9d10 c5bd f85e 153c 12e7 113e 0a3b 0a3e
00000350: 0ec7 093e 73d7 d03d 187f 2d3e 8436 c33d
00000360: b05a 033c 946b cd3c 94f4 73be 2772 8abc
00000370: 35be a23d 73b9 9b3d 55ce d33d 3066 293e
00000380: 8e1a 123e 26f7 813d 6930 8ebc a58e 683e
00000390: ec90 e13d 24ef 1abb cae6 853e e52f 3e3e
000003a0: 7969 303e 8b07 873c 1644 853e dcaa a7be
000003b0: 8a9e 233e 879a a03e bab1 c3bd d6c7 9bbd
000003c0: 03e9 4dbe 0bd4 c93d a69b 683e a9ef 473e
000003d0: eb8f 163e c1fb 4c3e e19e 5d3e dc4b 533e
000003e0: 0c3f 123e 2da3 483e c903 703e 5c2d 593e
000003f0: 40e5 30bb 4c85 a7bd 97fa 593e e6dc 88be

linear2.bias f4 [3]
0.2366392 0.14845799 0.23617293
00000000: 8c51 723e 5f05 183e 51d7 713e
