model/DQN/checkpoint_2500.pth (torch, 23085 bytes, 4 tensors)

linear1.weight f4 [256, 16]
00000000: 9a88 723e b1ee cbbe 6d20 c23e 0bc1 8dbe
00000010: 1dc8 8bbe 8a00 32be 9255 29bf 88f8 adbd
00000020: 91fa babd 3570 0b3d 4169 d7bc 8a5a f1be
00000030: 168a 6c3e 285a da3e 54a4 43be ad7d 8dbe
00000040: a966 8a3e 4f33 ab3f 124d c43f 7533 9abe
00000050: aff1 45bf 9e7e 2abf a893 20be eae0 423e
00000060: 0d04 363d c874 003e 6354 7ebc d09f b0bf
00000070: 89f3 45be b94f a3be 7c5d ac3d 4827 66be
00000080: 90f7 3a3e e1b4 173f e3c9 40bf 5e65 49be
00000090: 0424 d3be 5634 5fbd f608 dbbe 4906 a5be
000000a0: 7ebc a1be 3c97 55bf a4d6 c2be 3c76 bbbe
000000b0: 7b7b 783d b73b 6d3e 68b5 a1be 296a c7be
000000c0: 03ad 37bf 2b2f eabe 63af 31bf f2be ccbd
000000d0: c8a6 d8bd a0e3 41bf 3733 79bf 211d 713d
000000e0: a696 92be 9227 2dbf a0a4 abbf 5593 77be
000000f0: 2ca9 99be 3ea8 623e ddf1 dabe 6447 3dbf
00000100: 51b3 25bf fb88 3d3e dfed b9bf 438f 833e
00000110: f24b 563f 814c ae3d 41bb e33f 246f 183e
00000120: c01d 6ebe 9ed5 e2bd 1689 3fbe fdba 81be
00000130: b6b1 a23f d862 013f 783e 8cbf 008d f2be
00000140: 36bd ed3d fe03 8a3e c9dc 5dbd 6b24 56bf
00000150: 7828 bc3f 4701 e73e 6071 1cbf 3646 c63e
00000160: 978f cdbf ae81 d4be ac5f 81bf 245d f6be
00000170: 08ad 0abc 1f35 233d 7256 a13f 9eaf e43e
00000180: 4355 66bf 8432 febe 3c13 12bf 920a d83e
00000190: f326 fb39 15d2 84be 04de 52be 46fd 99bf
000001a0: 4d5b 87bf de8a 04bf 8854 42bf b3ee 863f
000001b0: 409e 28bd f13f f43e b3aa cebc 4480 8bbc
000001c0: 10c4 56be d1c9 033e b68d 833e eaf6 debc
000001d0: 8699 0bbe eb81 a2bd b5b9 c0bb 1990 56be
000001e0: 487f d6bc b3c4 ea3d e7db ef3d 3446 00bf
000001f0: acab 823d f4cc 30bd fa8b b73d 5027 d83d
00000200: be22 34be 5e72 d7bd 2f61 033e 8108 983e
00000210: 3386 5c3e f3b1 a23e 9ae3 d83e b7c6 5abf
00000220: 30d5 50bf 9290 3abf 19ce 18bf ad2b 0d3c
00000230: 25d8 ebbf a533 24c0 64a7 733f 60a7 cb3f
00000240: 5aaf 36be e5f3 63bd 9f44 363d cd2b 45be
00000250: dd79 bb3e 982e 6ebe 96f9 b5be 5376 2c3d
00000260: f5c8 0bbe a15b 583e 1e0d d5be 6ba7 8bbe
00000270: dd26 eb3c 1bc5 e7bc a382 b3bd 84ab 34bd
00000280: e630 e5bd 93b7 19be 9ab5 7abe 0e20 1d3f
00000290: 1ad6 81bf 47ca 79bf ddfd df3d 21a8 00bf
000002a0: 3d09 79bf e997 39bf 60d9 c6bf ba4a 7f3e
000002b0: 2a2c c4be e8f8 8fbc 7dbb a13d 43c8 18bf
000002c0: 8411 d23e 6266 aa3e 1e82 f2be 1968 17be
000002d0: b391 023d 053c 82be 6e11 1e3d f38d 64bd
000002e0: 851c 063b 0116 283d c314 78bb f2ca 06bf
000002f0: 1d5f 223d 93c3 81be f5bf dd3c 377a 70bd
00000300: 73ce c43e fbc7 013e 8537 113e 9f83 86bd
00000310: 905f 7bbe e11d 673d 3817 a1be 1d8c 8fbe
00000320: 47e3 34be f8d5 e9be ec99 373d 3e27 d4be
00000330: b24a a3be 92ef 363e 15bd 06be 7963 103d
00000340: 8d2d f9bd 7bd0 cd3d e997 363e 48b1 d03e
00000350: 8da3 f3be 4787 54bf 9390 10bf 7a69 4fbf
00000360: 2de7 da3e 8c72 5c3e 7ec8 a33d 9a8a 9cbe
00000370: 3c4c 623f b3cd 603e a61b a1bd ee32 aabe
00000380: 5d14 963e da90 45bf e3ab ad3e 93e7 15bd
00000390: e37b aabe 9f2d 86be 4e3f 0fbd a200 05be
000003a0: 05a6 b2be e64d 53be 4504 b9be bd7e e0be
000003b0: 8349 8bbe 73dc cabe d269 973d accd f63e
000003c0: 6bbc b0be d0b8 6ebf 6839 abbd 5f65 bb3f
000003d0: a1be bb3e b39c b93e e7bb 153a 3f7e d7be
000003e0: f7e4 443f 5da2 7b3b 8340 20bd 80ae 70be
000003f0: ba0c 2bbf 23d4 d73f 8fe1 113f eb84 3e3f
0.23684922 -0.39830545 0.37915364 -0.27686343 -0.27301112 -0.17383018 -0.66146195 -0.08494669
-0.09129823 0.034042556 -0.026295306 -0.47139388 0.2309955 0.4264691 -0.19105655 -0.27634946
0.27031448 1.3375033 1.533602 -0.30117384 -0.77321905 -0.6659945 -0.15681326 0.1903111
0.044437457 0.12544549 -0.015523049 -1.3798771 -0.19331183 -0.3189676 0.08416268 -0.22475922
0.182585 0.59260374 -0.75308055 -0.19667575 -0.41238415 -0.05449327 -0.42780274 -0.32231358
-0.3158912 -0.8343389 -0.38054383 -0.36613643 0.060664635 0.2316731 -0.31583714 -0.3894818
-0.7174837 -0.4573911 -0.69408244 -0.099973574 -0.10578686 -0.75737953 -0.9734377 0.05886567
-0.2863056 -0.67638505 -1.3409615 -0.24177296 -0.3001188 0.22134492 -0.42762652 -0.7393706
-0.6472674 0.18509285 -1.4525717 0.25695238 0.83709633 0.08510686 1.779152 0.14886147
-0.23253536 -0.110759005 -0.18704638 -0.25337973 1.2710483 0.5054145 -1.0956564 -0.473732
0.11608355 0.2695617 -0.054165635 -0.8364932 1.469985 0.45118162 -0.61110497 0.38725442
-1.6059445 -0.41505188 -1.0107322 -0.48117936 -0.008464105 0.039845582 1.2604506 0.44665235
-0.8997385 -0.49647915 -0.570606 0.42195565 0.0004790347 -0.2594153 -0.20592505 -1.2030418
-1.0574738 -0.51774395 -0.75910234 1.0541595 -0.041166544 0.47705033 -0.02522788 -0.017028935
-0.2097323 0.12869956 0.25694054 -0.027217347 -0.13632783 -0.07934936 -0.005881513 -0.20953406
-0.02618374 0.11463299 0.11711865 -0.5010712 0.063804 -0.04316421 0.08962245 0.10554373
-0.17591378 -0.10519861 0.12830041 0.29693988 0.21535568 0.3177639 0.42361146 -0.85459465
-0.815753 -0.72876847 -0.5968948 0.00861637 -1.8425337 -2.5656521 0.9517729 1.5910454
-0.17840329 -0.055652518 0.044499036 -0.1925499 0.36616412 -0.23259962 -0.3554198 0.04210503
-0.13650878 0.21128704 -0.4161157 -0.27276167 0.028705055 -0.02829223 -0.08765151 -0.044108883
-0.11190967 -0.15011434 -0.24483338 0.61377037 -1.0143464 -0.97574276 0.109370925 -0.50256544
-0.9727972 -0.7249742 -1.5535088 0.2493085 -0.38314945 -0.017574742 0.07897089 -0.59680575
0.41028988 0.33281237 -0.47364897 -0.14785804 0.03187723 -0.25436416 0.03859084 -0.055799436
0.0020463776 0.04103661 -0.0037854172 -0.5265342 0.03964149 -0.25344524 0.027069071 -0.058710303
0.38438758 0.12673943 0.14181335 -0.065680735 -0.24548173 0.05642498 -0.31463027 -0.28036585
-0.17664824 -0.45671058 0.044824526 -0.4143619 -0.31892926 0.17864826 -0.13158067 0.035251115
-0.12166891 0.1004953 0.17831387 0.40760255 -0.47585717 -0.83018917 -0.564706 -0.8102032
0.42754498 0.21528071 0.07997225 -0.30574495 0.88397574 0.21953468 -0.07866602 -0.3324198
0.2931241 -0.7717415 0.33920202 -0.0365978 -0.33297643 -0.2620668 -0.03497248 -0.12988523
-0.34892288 -0.20635185 -0.3613607 -0.43846694 -0.27204522 -0.39621314 0.073932305 0.4820379
-0.34518752 -0.9325075 -0.08360559 1.4640311 0.36668876 0.36252365 0.00057118986 -0.42088506
0.7691187 0.0038396337 -0.039124023 -0.23504066 -0.66816294 1.6861614 0.569848 0.74421567

linear1.bias f4 [256]
00000000: d4dd eabe b41b 65be a77e c2be ba67 90bd
00000010: ce32 8ebf e6cf 35bf cc12 2740 272e ebbe
00000020: 8401 823f 8a36 28bf 72ac 583f e145 53bf
00000030: 92b2 38bf b23d 54bf 3f0b dcbe 60f8 83bf
00000040: 719c 83be 8798 3ebf 1c2b 67be addb 97be
00000050: 2231 6abe 3077 57bf 7ae3 3fbe fe77 7abf
00000060: b5b6 32bf 2544 adbf 4f23 1c3f 147c 22bf
00000070: 3c0b 90be 4089 21bd 0af5 18bf dd19 963c
00000080: 69e6 09bf d694 b2be 4129 8c3e a19c eabe
00000090: a79b babe 6ed1 b83d e61f aabe 4cde 0cbf
000000a0: e2a1 04bf aded 94be 6b27 2dbf b999 2bbe
000000b0: ffcc 46be 437e 7fbe 8b41 e3bc dc9b 33be
000000c0: 78f1 1bbe a79a 26c0 b503 7bbe b7ab bfbf
000000d0: ecc8 b1be 3bdf 6ebe 45db 613e dac8 62bf
000000e0: f550 9cbe e87c 133e e221 e3be b177 453e
000000f0: decd 1fbe 55ea 4abe 199b 8cbe dad5 95be
00000100: 7058 a4be eeca 0bc0 57bf 96bf bf10 35bf
00000110: e626 d7be 5f7b 2d3e d54f 02bf af61 5ebf
00000120: cf71 06c0 8fa3 cfbf 4e65 423f 5fba 6fbf
00000130: 97b8 8bbe 1e81 5cbf 879f aebd fbd9 96be
00000140: 2d6f 50bf a3c3 5cbf 9f26 21bf 3913 d9be
00000150: d69f a9be 2b55 edbd 454b 3f3f 485b 43be
00000160: 2d3e 54bf 14f6 b3bf 7ec4 373d 29c0 4ebf
00000170: 258e 06bf 9ac2 2abf f5f0 a6be 6d57 ab3c
00000180: f689 913f 70bb 11bf 4cc0 4ebf e5f9 0bbf
00000190: d091 54bf d901 dabd 23c9 09bf 9730 fbbe
000001a0: 6e37 333f d669 7ebd 912d 213e 0704 62be
000001b0: f9eb 88be fb40 a9be 7923 2ebe 3482 a1be
000001c0: f1ba 6dbe 0a99 ef3e 5d16 31bf 8ba1 ddbe
000001d0: 6b2a 2abe 345b 0b3e a23b d3be 2384 b1bd
000001e0: 5458 fbbd 5fce 4fbe 1102 09bf 875b 23be
000001f0: ec5f f7bd 89cd 7abe 227c c6bf 5463 61bf
00000200: 17d5 08bf dd63 19bf e182 3bbf 796f d0bf
00000210: 6041 ccbe 70dd bcbf 6012 38be 5c9d a6bf
00000220: f310 4fbe e274 b4bf 5da2 d6be 6459 21be
00000230: 39d4 2cbf ed7c f1be db1a 3bbf 3010 b4bf
00000240: 9e57 2c3f 798b fabe 23d1 5dbf d352 6f3f
00000250: 9417 92be 457d 82be 0945 a0be 9ecf 46be
00000260: a2e9 91be 0061 b6bf fbf1 a2bf f5a1 6b3f
00000270: 002e 93be d3f9 6abf bb28 9abe 0191 09be
00000280: 2869 a4be 827d 9bbe 0afc 04bf d5e7 71be
00000290: a2b9 b1be e401 23bf 93da 10bf 7239 79bd
000002a0: 4af9 9cbf 269c 76be 9104 40bf dead 2ebf
000002b0: 3685 d63e 1dd5 9fbf 1391 31be 6faa 9fbf
000002c0: a156 e8bf 8b72 aebe ef59 97bf 7824 2f3e
000002d0: 6d9c 79bf 2f7b f7be 967d d3bf 7210 27bf
000002e0: f907 e5bf a6b6 a8bf 03eb e0bd f2fc 86bf
000002f0: 5e7f a83f 404e a3bd 1464 e4be c956 a3bf
00000300: 5f5c d6bd 8825 23bf 608d 393c 8d62 bebe
00000310: aec0 8fbe e7ee 90be 0f6d fe3c 34cd c7be
00000320: 7853 183f 5d25 b1be fe93 7cbe e0a6 9abe
00000330: 80dc 77bf b103 dfbe 7569 a3be e5ad 6fbe
00000340: 04b2 10bf ce88 1ebf 478e 9b3e d693 33bf
00000350: 36e7 b3be a943 62be 8ac0 b3bf 900f cfbe
00000360: 86c2 67bf c221 e53d 4ebd 02be 9a4a 11be
00000370: f2af dfbe 8efa 56be 1566 71bd 389d a0bf
00000380: af85 29bf 9161 34be ee37 33bf c4eb 833f
00000390: 5e2e 82bf 99c3 4dbf c267 3f40 4ffe e03f
000003a0: a9c1 b1be f551 d6bd ca0a ffbd 27d7 8abf
000003b0: 8dca 9abe 9b4f aabe dfc0 c1bf 8af8 28bf
000003c0: 4bc1 1ebf d681 84bf 6e48 c0be f292 2dbf
000003d0: 5854 133f 26ab 68be 0054 0ebf 9177 d6be
000003e0: e4ab b43e ba4a 91bf f516 76bf 098d b8be
000003f0: f58d 4c3e 7b32 64be ecc7 e7be 1289 0abf
-0.45872366 -0.22373849 -0.37987253 -0.07051034 -1.1109254 -0.7102035 2.6105223 -0.4593365
1.0156713 -0.6570822 0.8463813 -0.825285 -0.72147477 -0.8290664 -0.4297733 -1.0310173
-0.25705293 -0.7445149 -0.22575039 -0.29659787 -0.22870305 -0.8416624 -0.18739119 -0.97839344
-0.6981004 -1.3536421 0.60991377 -0.6347058 -0.2813357 -0.039437532 -0.597489 0.01832288
-0.53867203 -0.34879178 0.27375224 -0.45822623 -0.36446878 0.090243205 -0.33227462 -0.550267
-0.51809514 -0.29087582 -0.6763827 -0.1675786 -0.19414137 -0.24950509 -0.027741214 -0.17539924
-0.15228832 -2.6031892 -0.24513133 -1.4974278 -0.34723604 -0.23327343 0.22056301 -0.88587725
-0.30530515 0.14403117 -0.44361788 0.1928394 -0.15605876 -0.19815953 -0.2746208 -0.29264718
-0.32098722 -2.1842608 -1.1777142 -0.7072868 -0.42021865 0.16941594 -0.50903064 -0.86867803
-2.1006963 -1.6221789 0.7593583 -0.93643755 -0.27289268 -0.8613452 -0.08526521 -0.2946318
-0.8141964 -0.8623602 -0.62949556 -0.42397478 -0.33129758 -0.1158851 0.7472423 -0.1907779
-0.8290737 -1.4059472 0.044865124 -0.80761963 -0.52560645 -0.6670319 -0.3260571 0.020915711
1.1370227 -0.5692663 -0.8076217 -0.54678184 -0.8303499 -0.10644884 -0.53822535 -0.4906051
0.70006454 -0.06211265 0.15740038 -0.22071849 -0.26742533 -0.3305739 -0.17005719 -0.3154465
-0.23215844 0.46796447 -0.6917475 -0.4328731 -0.16617744 0.1360901 -0.41256434 -0.08667781
-0.12272707 -0.20293568 -0.5351878 -0.15952884 -0.120788425 -0.24492468 -1.5506632 -0.8804219
-0.5345015 -0.59918004 -0.7324658 -1.6284019 -0.39893627 -1.4755077 -0.1797576 -1.3016772
-0.2022131 -1.409817 -0.41920748 -0.15756756 -0.67511326 -0.47165623 -0.73087853 -1.406744
0.67321193 -0.48934534 -0.8664724 0.93485755 -0.28533614 -0.25486198 -0.3130267 -0.19415137
-0.2849856 -1.4248352 -1.2730097 0.92044 -0.28746033 -0.9178745 -0.301092 -0.13434221
-0.32111478 -0.30369192 -0.5194708 -0.23623593 -0.3471194 -0.6367476 -0.5658352 -0.0608458
-1.2263577 -0.24083003 -0.7500697 -0.6823405 0.41898507 -1.2486912 -0.17340498 -1.2473887
-1.8151437 -0.34071764 -1.182432 0.17103755 -0.9750431 -0.4833617 -1.6522701 -0.6525947
-1.7893058 -1.318074 -0.10982325 -1.0545943 1.3163869 -0.079739094 -0.44607604 -1.276086
-0.10466837 -0.63729143 0.01132521 -0.37184563 -0.2807669 -0.28307268 0.031057863 -0.39023745
0.59502363 -0.34598818 -0.2466583 -0.3020544 -0.9682083 -0.43557504 -0.31916395 -0.23406179
-0.5652163 -0.619275 0.30381986 -0.70147455 -0.35137337 -0.22096123 -1.4043133 -0.4044156
-0.90531194 0.111880794 -0.12767527 -0.14188614 -0.43688923 -0.20994017 -0.058935244 -1.2547979
-0.6621961 -0.17615344 -0.70007217 1.0306325 -1.01704 -0.80376583 2.9907079 1.7577609
-0.34718063 -0.10464851 -0.1245323 -1.0846909 -0.3023266 -0.3326386 -1.5136985 -0.6600424
-0.6201369 -1.0352123 -0.3755526 -0.67802346 0.57550573 -0.22721538 -0.55596924 -0.41888097
0.35287392 -1.135093 -0.9612878 -0.360451 0.19976027 -0.22284882 -0.45269716 -0.541154

linear2.weight f4 [3, 256]
00000000: 0754 0c3d aaaa 3a3e 9250 ed3c 15d9 b33e
00000010: 9a63 80be e0fa 73bf 78c4 1a3f 596a 7ebb
00000020: f6eb 1140 86a3 75bd ab7f b0be 3020 913d
00000030: 1087 f73d 9bd8 a73f 5b9b f2bc a23a 8ebf
00000040: cc96 c13d 4310 3cbf 1854 dd3a b3c3 47bc
00000050: 5453 863d ba23 123e a0ce 183c d9b9 483e
00000060: efc9 3b3e 8d4a 0fbf e67c cebf a12b 48c0
00000070: b5c5 01bc 4703 4dbd 3e3a 9dbe 9eb1 9fbd
00000080: 546f 4bbe f952 e13c 9ffe 05bf 5041 babe
00000090: eed3 66be 06d4 113f 4c88 f6bb ef8a d4bc
000000a0: a291 52bc 8040 82bd 8351 cebe d8ea acbc
000000b0: 58a1 81bc edba 5dbd e035 3f3f dc6a 96bf
000000c0: 2a33 95bd c25f 83bf 3697 f73c eeaa 7dbe
000000d0: b340 a8bf dc29 8cbd f86f 50bf e709 08be
000000e0: b49c 7e3c 5ff9 11be aabd a43a d9e7 0cbd
000000f0: e42f 833c 42d8 b3bc 01a3 1bbf ccaf 103e
00000100: fcf7 0dbd 0c39 44bf a0f1 a4bc ad4a 04bf
00000110: 3cd2 aabd 26d8 6c3e fe32 33bc dab5 b0bd
00000120: 1bd3 97be d62f 39bf fd7a f93f 238c cbbf
00000130: f35b d8bc 5713 f43d 685d b33c 92b7 e7bc
00000140: f8ae 4a3d c8be 80bf 6f1e 5bbf e27e 633b
00000150: e2f6 6bbb 1f59 733e 7bf9 c9bf c5c1 593b
00000160: a214 14be b3d9 c0be a28b 86bf fd74 5e3e
00000170: 01a8 c9bc 62e2 3ebb f088 9d3c a0b4 6d3e
00000180: 9235 2040 ca80 6cbc e25a 9abf e7a7 1c3b
00000190: a363 d93d f4cf ca3c 5ca1 b83c 8175 343b
000001a0: 9250 15bf 3b97 0d3d a267 2f3f 42a2 13bd
000001b0: 5d90 623c 4fd7 84bc db73 4cbc 54e1 85bc
000001c0: 9a18 e5bf 1d38 cc3f c94e 45bc ce74 b7bd
000001d0: e529 4638 d952 103f 662b aebf 26ed 0fbf
000001e0: 1e8b fabd db4c fbba 210d 1f3d f3dd 573c
000001f0: ce51 febb 768c 423d 6783 73be 699f e7bc
00000200: 0890 b23b d111 dbbc 02f8 a3be d7e5 aebe
00000210: 7459 8abc 00bc 46bb 24e1 bf3c 98dc 37be
00000220: 3bc9 273e d456 1dbd 5a70 c83d cb39 6c3e
00000230: 82e2 5abc f27f 4c3c 75f4 f63c 4e0c f3bd
00000240: c2c2 7e3f 4ec8 f13d 08dd 38c0 948c 4840
00000250: 39dc 6dbc c7da a3bc b07c abbd b16f 6a3d
00000260: dd5e 69bc 8abf b0bc 5552 f8bd 7e87 2940
00000270: 1215 1abd 534f 85be 884f eebc ce3d b5be
00000280: 6793 81bd 5188 20bf d534 213b 8268 373e
00000290: 6e30 8f3c ae91 2a3f af21 a6bf 78be 7cbf
000002a0: 04c7 47be e85c d5bc 1ea5 36bf 579a 6abe
000002b0: b9d9 29bf 4089 983e d121 5b3f 5bd8 30be
000002c0: 5922 9bbe f6af 7dbf 8df4 54bf 05ed 10bf
000002d0: 4146 60be 7d6b cbbb 02bc 86be d3a9 593d
000002e0: e831 66be 5f60 a93c 34b9 2dbf 2678 b8bf
000002f0: 9af8 c73f b734 a6bd 90c2 b93c 7756 943e
00000300: b46f c13d 4dca 9a3e cbc3 013c 4318 e6bc
00000310: dcb2 42be 75ef 1aba c5fe f5bb 6b22 a7bd
00000320: ec2d 1340 c1e2 38bb e7f3 5bbd 0593 70bc
00000330: 1856 b9be dc62 92bc 8d5e 84bc 4db8 adbc
00000340: 0385 d3be 6b04 c2bd 3391 aebd 6270 e33c
00000350: ef07 9dbe 8458 f93b 42ed a1bc e5fa 9abc
00000360: 6de6 35bf 13a7 0ebd 7bf3 9bbe 20a5 093e
00000370: 7e39 0c3d 27f7 863f 0c53 a73d 3bfd 3dbf
00000380: b09c 06bf c83a 7bbc 15fd b33c 0c4c f23d
00000390: 140a 91bf d270 95bf 9c3f 553f fe7c fc3e
000003a0: 925f 17be 336c f539 bab5 2c3f ddab 14c0
000003b0: 296c dcba 3eba 2dbe ae2d d83a 536e d83d
000003c0: 66f6 abbf ec1d 553f e526 75be 21b6 553d
000003d0: 173d de3f 702b 0cbc 9465 b4bc 4ffa 31bc
000003e0: a1d1 d43e 1590 eebe a06c d63d 355d 22bc
000003f0: d391 dfbf 9023 51bb 8887 b6bc b218 6dbf
0.034259822 0.18229166 0.028969083 0.35126558 -0.2507599 -0.9530468 0.6045604 -0.0038820712
2.280027 -0.0599704 -0.34472403 0.070862174 0.12086308 1.3112978 -0.029615095 -1.1111643
0.0945259 -0.73462313 0.0016886024 -0.012192654 0.06558862 0.14271441 0.009326607 0.19602145
0.1833875 -0.5597313 -1.6131866 -3.127663 -0.007920672 -0.050051954 -0.30708498 -0.0779755
-0.19866687 0.027505385 -0.52341646 -0.36377954 -0.22541782 0.5696415 -0.007523572 -0.025945155
-0.012852104 -0.06359959 -0.40296564 -0.021108076 -0.015824005 -0.054133344 0.7469158 -1.1751361
-0.072851494 -1.0263598 0.03022347 -0.24772236 -1.3144745 -0.068439215 -0.8142085 -0.13285027
0.015540291 -0.14255284 0.0012568731 -0.034400795 0.016014047 -0.021953706 -0.607956 0.14129561
-0.034660324 -0.76649547 -0.020134747 -0.51676446 -0.0834088 0.23129329 -0.01093745 -0.086284354
-0.29653248 -0.72338617 1.9490658 -1.5902141 -0.026411032 0.11917751 0.021895126 -0.028285775
0.04948327 -1.0058222 -0.8559331 0.003471308 -0.0036005308 0.23764466 -1.577926 0.0033227068
-0.14460996 -0.3766609 -1.0511363 0.21724315 -0.024616243 -0.0029126634 0.019230336 0.23213434
2.5032697 -0.014435003 -1.2058985 0.0023903789 0.10614707 0.024757363 0.02253788 0.0027535858
-0.58326066 0.034568053 0.68517506 -0.036043413 0.013828364 -0.016215948 -0.012478794 -0.016342796
-1.7898133 1.5954624 -0.01204271 -0.089578256 4.7245896e-05 0.56376415 -1.3606994 -0.56221235
-0.12233566 -0.0019172685 0.03883088 0.013175475 -0.0077612167 0.047497235 -0.23780595 -0.028274255
0.005449299 -0.026741894 -0.32025152 -0.3415973 -0.016888358 -0.003032446 0.023422785 -0.17955244
0.16385357 -0.038412884 0.09787054 0.23068921 -0.013359668 0.012481676 0.030145863 -0.11867581
0.99515927 0.11805783 -2.8884907 3.1335802 -0.014517837 -0.020001782 -0.08373392 0.057235423
-0.014243809 -0.021575708 -0.121250786 2.6488948 -0.03761775 -0.26037082 -0.029090658 -0.35398716
-0.06326943 -0.62708 0.002459814 0.1791096 0.017479148 0.6662854 -1.297903 -0.9872813
-0.19509512 -0.026045278 -0.713457 -0.22910438 -0.66347843 0.29792213 0.85598475 -0.17270033
-0.30299643 -0.9909662 -0.83185655 -0.56611663 -0.219018 -0.006207882 -0.26315314 0.053140473
-0.22479975 0.020675836 -0.6786072 -1.4411666 1.5622742 -0.08115523 0.022675782 0.28972217
0.09445134 0.30232468 0.007920216 -0.02808774 -0.19013542 -0.00059103157 -0.0075071775 -0.081608616
2.2996778 -0.0028211328 -0.0536994 -0.01468349 -0.36198497 -0.017869405 -0.016158367 -0.021206046
-0.41312417 -0.09473499 -0.08523788 0.02776355 -0.30670115 0.007609429 -0.019766454 -0.018918464
-0.71054727 -0.034827303 -0.30459198 0.13441896 0.034234516 1.0544175 0.08170137 -0.74214524
-0.52582836 -0.015333839 0.021971265 0.11830911 -1.1331201 -1.1675055 0.83300185 0.4931411
-0.14782551 0.00046810656 0.6746479 -2.3229897 -0.0016816902 -0.16965577 0.0016493106 0.10567918
-1.343457 0.8324878 -0.23940618 0.052175645 1.7362393 -0.008555278 -0.022021092 -0.010862901
0.41566184 -0.465943 0.10469937 -0.009909918 -1.7466377 -0.0031912066 -0.022281423 -0.9261581

linear2.bias f4 [3]
00000000: addc f23f 302f d8be 7346 6ebe
1.8973595 -0.422235 -0.23269062
