model/DQN/checkpoint_2400.pth (torch, 23085 bytes, 4 tensors)

linear1.weight f4 [256, 16]
00000000: 5a67 173e 1e9e 60bd 4423 613c 4063 023e
00000010: c8e6 3abe bc0f 37be 20f9 3cbe 881d 17be
00000020: 95c5 6cbd d100 5dbd c4fc d0bd 7708 5cbe
00000030: 90d3 0fbd 2c98 a4bd 141c 85bd fa2a 68be
00000040: 1a19 1b3c d07a b83e ed8b a2be 6a88 733b
00000050: b581 6e3d 24f0 773e 8cb8 c7bc 68ff afbe
00000060: 885a 10bf 7dfb 1e3e d7ab 843e 1780 eebb
00000070: ae39 d43d 8a39 373c 731c 7fbc 0355 7c3c
00000080: c39f 833e dcaf c43f 08cc a5bb 4fe9 4d3e
00000090: 34d6 bb3c 5684 de3c d297 c8bd 594e ab3c
000000a0: 50b9 cd3d 8459 b63d 1c75 a03d 12bd 09be
000000b0: 5e5f 183d 11c0 213e 3826 cfbc 3e24 37bd
000000c0: e242 c93d 328d 54bd 4dc4 9f3f 7cb7 f73d
000000d0: c82c 2c3e 00d5 983c 9075 a0bd b5fe 1c3e
000000e0: 2a1a 743e 6c27 ca3c 70bf 12be fcd7 33be
000000f0: 2597 cdbc 7d14 393e 9cfe 92bc 622a e8bd
00000100: d6d8 afbd 614c 74be 206b b3be 34b6 aa3e
00000110: 2631 c23e 754e b13e 8ee4 983e a6ab 20be
00000120: ee61 5e3e c45b dcbd eaa9 8e3d 0e53 c3bb
00000130: 06e6 59be dd7c 1abd a201 193e 5123 8d3d
00000140: 4654 9d3c 8d17 14be fade 83bd 7ab4 663e
00000150: 35b7 95bc 4fd8 4d3e 4c72 613d c60b c33e
00000160: 43a6 ad3e be21 03bf d91b 6dbe 54a2 3f3d
00000170: 6459 323d b8bb b13d e3e2 19bd ef48 8c3d
00000180: 8431 393e 1042 19bd 9675 03bf 5480 7e3e
00000190: 2d53 ba3e f67e 193e 35d5 51bb 1171 af3c
000001a0: ad5e 423e d0a8 68bd abe1 7a3d c862 f23c
000001b0: 46c6 5dbe 324a c1bb 81d7 20be 3ac7 d83d
000001c0: 8042 813c ce78 2dbe 4899 50bd e21c 68be
000001d0: c26f 6bbe 987c 2fbd c004 cabd a238 0b3e
000001e0: e0a6 683d c08b ec3c d46f c7bd 80e7 8dbd
000001f0: 2407 a4bd 3abe 24be 6e99 10be a0c5 1e3c
00000200: c376 09be 8f50 5c3e 53bb 9fbe d16f 903e
00000210: 290e ac3e 4dc7 a43d 7374 be3c c66e 86bd
00000220: 75fc 6ebd 4e9d fe3d 366e ee3c 9438 993e
00000230: 7f2a d7bd 2849 253e a0fa 80be f933 67be
00000240: d241 d1bd 7482 ffbe be9b 8a3d 9094 e23b
00000250: 49a4 a43e 88ae 73bd b735 4c3d 851a ecbd
00000260: db0e 813d 3777 783d 5542 3cbb 4259 2e3e
00000270: f7a0 163e 02c7 7cbd f1cb 0d3d bf5b 14be
00000280: 2e7b 3f3e e076 1ebf 0610 17be 27e4 723d
00000290: eac3 143e a78c 85bc 682f 26bd fb6b 063e
000002a0: 119f df3d 64f7 4e3c e5f7 ac3d 65a1 6c3e
000002b0: 0948 bebd 8050 463e 4139 2abe 9e2f 3a3e
000002c0: 604a c83d 42e2 1bbe 8c1a 86be 0423 933e
000002d0: 9884 3b3e 5a7f 8c3e 0a33 823e b580 5fbe
000002e0: 3d5f 4c3e 5b86 963d e7f0 403e 6a4d 883e
000002f0: 8b33 b8bc 4913 9fbc 8dda 4ebd 06d6 c4bd
00000300: df25 88be 2850 e23d 197c 28be 0075 81bd
00000310: 588b 61be 39e7 743e 6438 503e edfd 63bc
00000320: 3c2d 153e f352 aabe 2bf3 2f3d f9da 6f3e
00000330: e95b 313e a15b 2ebe c910 803b f53a ca3d
00000340: 0d41 c73e 993b f43d 42cd c5be 2d93 143e
00000350: 07a1 5dbc 206a 00be e4cb a23d 07b7 58be
00000360: c884 76be 983b 863c b852 5cbe dd29 0ebe
00000370: d945 13be 7d6d d8bd 0b5b 85bd dee2 1ebe
00000380: 49bc 21be f6b1 713e 7b0b 2e3e 5884 28be
00000390: b312 a93e eae6 afbe e08e 2a3e ea22 ddbe
000003a0: 834e a93d 2e72 99be c078 e1be f623 ccbd
000003b0: 1678 b23d ff8d ba3d a0f5 a73d 2735 1b3d
000003c0: 80d4 9b3c 31c0 a0bc 7975 cebe 5254 a03e
000003d0: 035b 493e 6ce8 7b3e 5f61 df3d e09d 7c3e
000003e0: ea91 703d 3189 1e3e 22c3 813e 5848 103e
000003f0: d2f7 3c3e e2fd b9bd 5555 223e 7b6d 8fbd
0.14785519 -0.054838292 0.013741318 0.12733173 -0.18252099 -0.17877096 -0.18454409 -0.14757359
-0.057805616 -0.053955857 -0.10204461 -0.21487604 -0.03511387 -0.08036837 -0.06499496 -0.22672644
0.009466434 0.36031199 -0.3174738 0.0037160167 0.058229167 0.242127 -0.024379991 -0.34374547
-0.5638814 0.15525623 0.25912353 -0.007278453 0.10362564 0.011183152 -0.015570748 0.015401128
0.25707826 1.5366168 -0.005059723 0.20108531 0.022929288 0.027162712 -0.097945824 0.020911383
0.10045111 0.089037925 0.07834837 -0.13451031 0.037200324 0.15795924 -0.025286779 -0.044712298
0.0982721 -0.051892467 1.2481781 0.12095544 0.16813958 0.018656254 -0.07834923 0.15331538
0.23838106 0.024677001 -0.1433084 -0.1756286 -0.025096485 0.18074222 -0.017943673 -0.11336209
-0.0858628 -0.23857261 -0.35042667 0.33342135 0.37928122 0.3463017 0.29861873 -0.15690479
0.21717045 -0.107596904 0.06966002 -0.0059608286 -0.21279153 -0.037716735 0.14942029 0.06891502
0.019205224 -0.14462109 -0.06439014 0.22529784 -0.018275836 0.20102046 0.055040643 0.3809492
0.3391591 -0.5122336 -0.23155154 0.046785668 0.04354228 0.08678383 -0.03756989 0.068498485
0.18085295 -0.037416518 -0.51351297 0.24853641 0.36391583 0.14989838 -0.003201795 0.021416219
0.18981428 -0.056801617 0.06125037 0.029588118 -0.21657667 -0.0058987373 -0.15707208 0.105848745
0.01577878 -0.16940615 -0.05092743 -0.22667268 -0.22991851 -0.04284343 -0.09864187 0.13595822
0.05679977 0.028875232 -0.097381264 -0.06928921 -0.080091745 -0.1608819 -0.14121029 0.009690672
-0.1342421 0.21515106 -0.31197605 0.2821031 0.33604553 0.08045826 0.023248887 -0.06564097
-0.05834623 0.12432347 0.029105287 0.29925978 -0.10506152 0.16141188 -0.25191212 -0.2257842
-0.10217632 -0.49904215 0.06767987 0.0069146827 0.3215659 -0.059492618 0.049855914 -0.11528496
0.063016616 0.060660567 -0.002872606 0.17026237 0.1470984 -0.061713226 0.03461832 -0.14488123
0.18699333 -0.6190014 -0.14752206 0.059299614 0.1452786 -0.01630242 -0.040572554 0.13127129
0.109190114 0.012632225 0.0844572 0.23108442 -0.09291083 0.19366646 -0.16623403 0.18182227
0.09779811 -0.1522303 -0.2619213 0.28737652 0.18312299 0.27440912 0.25429565 -0.21826442
0.19958206 0.07349845 0.18841897 0.26621562 -0.022485515 -0.019418376 -0.050501395 -0.09611134
-0.26591393 0.11050445 -0.1645359 -0.06321144 -0.22025812 0.2391633 0.20334011 -0.013915521
0.14568037 -0.3326641 0.042956512 0.23423375 0.17320217 -0.17027141 0.003908251 0.098745264
0.38916817 0.1192543 -0.38633162 0.14509268 -0.013527161 -0.12540483 0.07949045 -0.2116357
-0.2407409 0.016385838 -0.2151593 -0.13883157 -0.14382114 -0.10567758 -0.06511506 -0.1551623
-0.15794481 0.23603043 0.16996567 -0.16456735 0.3302208 -0.3435586 0.16656065 -0.431907
0.08266928 -0.29969925 -0.44037437 -0.099677965 0.08714311 0.09109115 0.08201146 0.037892487
0.019022226 -0.019622894 -0.40324 0.3131433 0.19663624 0.2460038 0.10907244 0.246696
0.058732904 0.15482022 0.25344187 0.14090097 0.18453911 -0.090816274 0.15852864 -0.070033036

linear1.bias f4 [256]
00000000: 8ee7 64be e1e3 583d faa1 a9be c68d 47be
00000010: 9fae 0d3f e981 533d 3d38 df3e 6897 73be
00000020: b7e9 da3e 022a e93e 1bd7 8c3e 51b6 cd3e
00000030: b542 803e 434f 493e 75dc f0bc 0318 d53e
00000040: bf35 6e3e 981d 013f 6880 c03e ec15 febd
00000050: 6a41 0e3f fc0a a53e 65f6 38bd a8b8 4a3e
00000060: 1147 a8bd 2f29 a03e d24c ec3e d4d9 9e3e
00000070: ef6e 02be a91b b4bc 30c4 db3d f5c9 8b3d
00000080: c69b 143e 4c6e 933d 2801 873a 76a4 f13e
00000090: 4a3d 293e 805f 9f3d d253 9a3e 1e51 123f
000000a0: 9250 34be 7e72 50be 3656 fc3e 230e b23e
000000b0: 3bd7 133f 8f1b bf3e 8997 863e 181f 983e
000000c0: c60a 29bd 270b 363e 9588 843e e389 91be
000000d0: 14a0 57be b775 14be 5f9b d6bd ef92 4abe
000000e0: 64d4 b83e d675 173d df75 293e 2e1e 10be
000000f0: 5db9 103f eb5e 893e abe8 5bbe b42e e1bd
00000100: 6390 a4bd 3d33 dcbd 83e9 703e 2b7f 983c
00000110: 5970 c1be 66cc ec3e bdab 3e3d 88e9 133f
00000120: 0bb1 0a3e ba6b e73d 2254 293e 82fc 99be
00000130: d1bd f93e e616 bbbe d081 df3e 55ea c43e
00000140: 3e5b a03e cb7d 083f ff47 68be 0bd3 10bd
00000150: bcb4 2f3e c997 bc3d 094a 043f 69d7 573e
00000160: dc54 e63c c1c5 973e a79a 0a3f aa23 4cbc
00000170: 281f 5e3e 3eba f13e 8b10 fe3e 4527 093e
00000180: 50bf b4bd 11eb 0c3c 4a8d aa3e f927 373e
00000190: 7cc2 0e3e 37e3 db3d 53d9 46bd 591f 903e
000001a0: 3d58 c83e 659c ae3e 7bf0 14be 04ae 5d3e
000001b0: 853f 223e 7d76 083f f87f 273e c536 5fbe
000001c0: 3eb2 68bd e344 dabe a215 eabd 5c3c f63e
000001d0: fd96 43bb 44e1 b33d d5a2 6ebd 5463 aa3e
000001e0: 80ab b5be 8c98 b13d b84b 003f fac5 52be
000001f0: 5163 b33e 97e5 6cbe 821a 623e e26a ca3e
00000200: 07c1 d63e 0e99 e93e 5212 0f3e 3af9 27bd
00000210: c8f1 c93e 07e3 393d b767 053f 5637 20be
00000220: f8f4 bb3e 3e82 8ebd 4077 db3e 289a ab3e
00000230: a429 6c3d 96ab c2bd 1f10 883e b841 b1be
00000240: 18c8 a23e ae2d f8bc 0ef9 7cbe 812b 32be
00000250: fca4 803e 954c eb3e b95c 6fbd 6fc8 823d
00000260: a56e fc3e 5ed8 7d3d 161b 2ebe 7a61 af3e
00000270: 1187 7b3e bdf8 1cbe d4f7 293d e09d 71bd
00000280: 2ede 2b3e 620c c53e 3fca ae3e 7d76 143e
00000290: c331 b8be fdf1 13bd 89a2 8a3e 0884 1cbe
000002a0: 46fa 04be c4e1 9c3c 5e2f 993d 7f0a c03c
000002b0: c6d1 c73e 7233 34be 96e6 133e 9d0b 163e
000002c0: c427 3fbd c16a cd3e 723f 1b3e c0ea c0bd
000002d0: b18c a13c e2e7 95be 1dcf 813e 8e8f 7b3d
000002e0: 69b7 143f e5b0 cb3e f6a4 b1bd cbeb 863e
000002f0: 059e 3fbe e2bd b33e ce10 0c3f 5d00 213d
00000300: b6e7 f13d a5f3 66bc 54cd babd 6c8d d53b
00000310: bc66 be3e c9db 4d3e 7e40 aa3e 89d5 0cbe
00000320: 64ba 583d 4636 513e d971 bc3e 6d0b b33e
00000330: 06d2 92be d1c0 7bbd d907 ef3e 7eb5 e73e
00000340: fede 093d 7c85 c6bd ffca b93d f7c2 babd
00000350: c569 933e a93a 53bd bef8 b23d f518 32be
00000360: 724c 2dbd 9e00 143d 4305 7bbe 0aea 4fbe
00000370: 52cf 7dbe 8638 c43e 1c11 16be 8dca a43d
00000380: ad46 b13e 85db 893e 8c0b 7bbe c113 0d3e
00000390: 479d 713d bf71 353e 41bc 52bd e4ae a03e
000003a0: 955a 853e 2a3a c63d 227e e83e c698 5fbe
000003b0: 2828 c83e cc8b fa3e 2f52 a43d b188 99bd
000003c0: 6a63 fcbd faf9 dfbd 0da9 09be 946f 0b3d
000003d0: 951c 233d 5517 eb3e 011f 8f3b 7a44 043f
000003e0: 3a45 abbe ef24 b93e 9883 b23d 22b7 cf3e
000003f0: d633 06be 9d23 6cbc bb47 573e 4832 f5bc
-0.22353956 0.052951697 -0.3313139 -0.19487676 0.55344576 0.051637564 0.43597594 -0.23788226
0.42756435 0.45539862 0.27507862 0.4017816 0.25050893 0.19659142 -0.029401997 0.41619882
0.2326269 0.5043578 0.37597966 -0.12406525 0.55568564 0.32234943 -0.045156855 0.19797003
-0.0821668 0.3128142 0.4615236 0.31025565 -0.1273763 -0.021985846 0.10730779 0.068256296
0.14512548 0.07198772 0.0010300027 0.47195786 0.16527286 0.07781887 0.30142075 0.57155025
-0.1760886 -0.20356175 0.49284524 0.3477641 0.5775029 0.37325713 0.26287487 0.29711223
-0.04127004 0.17777692 0.25885454 -0.28425512 -0.21057159 -0.1449803 -0.104788534 -0.19782613
0.3609954 0.03697761 0.1654887 -0.14074013 0.5653284 0.2683023 -0.21475475 -0.10995236
-0.08035352 -0.107519604 0.23526578 0.018615326 -0.37781027 0.46249694 0.0465505 0.57778215
0.13544099 0.11299844 0.16536 -0.3007546 0.4877763 -0.36540908 0.43653727 0.3846003
0.31319612 0.53316945 -0.22683714 -0.035357516 0.17158788 0.09208638 0.5167547 0.21078266
0.028116636 0.29643062 0.5414223 -0.012459675 0.21691573 0.47212404 0.49621996 0.13393886
-0.088255525 0.008600966 0.3331092 0.17886342 0.13941377 0.10736697 -0.0485471 0.28148916
0.3912982 0.34103695 -0.14544861 0.21648413 0.15844543 0.533058 0.1635741 -0.21798237
-0.05681061 -0.4263068 -0.114299074 0.48092926 -0.0029844635 0.087832004 -0.058260757 0.33278906
-0.35482407 0.08671674 0.5011554 -0.20583335 0.3503671 -0.23134457 0.22080424 0.3953467
0.41944143 0.45624584 0.13971832 -0.041009165 0.39442277 0.045382526 0.5211138 -0.15646109
0.36710334 -0.069584355 0.42864418 0.3351605 0.0576569 -0.09505384 0.265748 -0.34620452
0.31793284 -0.03029522 -0.24704382 -0.17399408 0.25125873 0.45956865 -0.058438037 0.06385886
0.49303165 0.061973922 -0.1700252 0.34254056 0.24563242 -0.15329261 0.041496113 -0.058988452
0.16783974 0.3848601 0.34138677 0.14498325 -0.35975465 -0.03611945 0.2707713 -0.15284741
-0.12986097 0.019150622 0.07479738 0.023442505 0.39027232 -0.1759775 0.1444343 0.14652868
-0.046668783 0.4012051 0.15160921 -0.09419775 0.019720407 -0.29278475 0.25353327 0.0614162
0.5809236 0.39783397 -0.08674042 0.2635177 -0.18712623 0.35105807 0.5471314 0.039306987
0.118117735 -0.014096175 -0.091211945 0.006517103 0.37187755 0.20103373 0.3325233 -0.13753332
0.05291213 0.2043086 0.3680561 0.34969655 -0.2867586 -0.06146318 0.46685675 0.45255655
0.033659928 -0.09693429 0.090719216 -0.09119218 0.28791633 -0.051569615 0.0873885 -0.17392333
-0.042309232 0.0361334 -0.24513726 -0.20304123 -0.24786118 0.38324374 -0.14654964 0.08046446
0.34624234 0.26925293 -0.24516124 0.13777067 0.058987882 0.17719172 -0.051449064 0.3138343
0.2604567 0.09679063 0.45408732 -0.21835622 0.39093137 0.48934782 0.08023488 -0.07496775
-0.12323649 -0.10936351 -0.13443394 0.034041956 0.03982218 0.45916238 0.0043677096 0.51666987
-0.33451253 0.3616099 0.08716506 0.40569407 -0.13105711 -0.014412788 0.21023457 -0.029931203

linear2.weight f4 [3, 256]
00000000: 0add e33c fcd9 a63e c5bb 9ebd b959 163e
00000010: 47e1 823e cbf2 5a3e bc89 d53d 002c f43a
00000020: 1135 333e 3cf0 fc3d 95f9 443d 776a 1d3e
00000030: 317d 073e e523 e2bc 72e1 4a3e 51ae ce3d
00000040: 18b6 d23c b227 983e 1ca6 6e3e 1e1b 9b3d
00000050: 5fa7 243e cdc7 4a3e b101 9f3a 5520 be3e
00000060: 02e8 ab3d 501d b83e 5076 393e cd5e d93d
00000070: 811c 79bd 3e6b b93e b9ed 763e 4a2f 71bc
00000080: 090f 6c3c 8e89 6ebe 211e 7a3d e1f7 9a3e
00000090: 571e 843e c1e4 09be 43f5 993e 48b3 ac3e
000000a0: 357c 0f3e f6d1 7f3d 3d77 6b3e 7fcd 2f3e
000000b0: 7eba 723e 197d 6f3e e4f8 bd3d 2db4 523e
000000c0: d776 343e 69aa ab3e f7f7 9d3e 553f 84bf
000000d0: c544 4abf 2556 78bd b430 7bbe e828 553d
000000e0: 10ea 133e 149b 0e3e 3d29 5dbd b110 d23e
000000f0: 01f5 5d3e 121e 073e 97f0 60be e37b 43bf
00000100: e983 8f3d 93c4 a03d fe48 813e 7480 cdbd
00000110: 261b 113c ac9b 6a3e 7a20 8b3e 77ef 533e
00000120: d056 a73e ae20 a93d bee7 f33d 9936 ea3c
00000130: d13a 5f3e b8bc f8be c2f8 683e 8503 b53d
00000140: a50c 553e 6a79 523e 9288 763c 0250 89bc
00000150: 5391 973e 6c87 8a3e 203e 0b3e 0522 563e
00000160: 9be7 f43d 918b 123e 8403 a03e c609 483b
00000170: a0d9 1c3e 8847 7c3e 36f6 1c3e 0c58 933e
00000180: 4ea6 60bf d768 093e 71db 263e 1b24 f13d
00000190: ba23 1cbd 1a85 4f3e 6773 853e ea04 b93d
000001a0: 229d 523e d102 e83d b6a8 b7bc f0e6 983e
000001b0: b6c0 593d bc08 6d3e 81b9 243e 3b75 073b
000001c0: c5c0 be3d 8d96 4abe 5ee9 193e 2b87 0b3e
000001d0: fd3f c1bd c5c4 3e3e fbd6 8e3e 333a 9d3d
000001e0: 8800 bd3d 31d4 f63b 94f8 4c3e 94be 273e
000001f0: f809 2e3e 539d 99bf ebb6 7d3e dbcb 6a3e
00000200: aa2b 323e 9b34 013e 8ad6 9c3d 174f 7ebf
00000210: 3ccf 3a3e cd64 823d baf2 0a3e e8d9 4f3d
00000220: 3c13 2c3e 4f42 5b3e 0866 013d 5386 403e
00000230: a335 823e 59d6 10bf 30f0 7b3e 29cc cfbe
00000240: f00b ec3d 23fb 8fbd ae61 59bf 81ea 2a3e
00000250: 7689 263e 6a97 093e aa2e 303d e63c 3e3d
00000260: ed5f aa3e 8c94 0abd 1ef5 b1be dc78 463e
00000270: 22f3 9c3e aa6e 483e b45b 873e 15d7 09be
00000280: 21b5 e9bd f062 bb3e 18b9 573e a0d3 a13e
00000290: 1167 98bf a2ed 93be f014 133e b0e4 0bbd
000002a0: 2295 cd3e 9432 91bd 20b6 5e3e 20f4 1c3b
000002b0: 50b5 af3d 0b83 9f3e 2968 903e 6c8f 003e
000002c0: 5cce 683e 0efe 8b3d 5b6f e23b 37b8 91be
000002d0: 9b88 a53e ca71 51be a3c9 563e 59c1 3e3e
000002e0: a198 8c3e 9565 9e3e 9372 7f3e 18c1 753d
000002f0: ed8f 893d e277 173e 9ea8 ab3e 7567 bc3e
00000300: 78c1 bf3e 06f4 06be ab29 1c3e 2681 893e
00000310: 1629 743e ee8f 263e 2f7b 133e e98e 903d
00000320: d5ab 893c ee01 823e 9974 953e e4dc 343d
00000330: e7d8 b2be 97c5 87bf 3733 4d3e 26e5 593e
00000340: 61a8 8ebd f85e 153c 936a 013e c714 9e3d
00000350: 23bb eb3d a1d3 0b3e ea28 473e 4f45 0c3e
00000360: ae11 70bc 091f f53c 9188 1bbf 541b cb3d
00000370: 574c d73d 5471 763d f76d 863d ce9e 4c3e
00000380: 5315 0b3e 2598 403d e30f 943c aa74 913e
00000390: 79ca d63d 92a1 9a3c a509 8b3e 0d1b 573e
000003a0: 58e3 a13e 8788 873b 9d08 863e edad 5abf
000003b0: 3898 333e e66f b23e 2817 acbd efb0 a1bd
000003c0: 8b19 c9be 6463 f53d 92ae 693e 50a7 583e
000003d0: 3e45 183e 8c0e 443e 0c30 913e 304f 573e
000003e0: ac2b 673e aa01 593e 63de 6d3e 8b1e 5e3e
000003f0: cc27 efbd 5558 8fbd e467 8e3e dfbb b1be
0.02781536 0.32588184 -0.07750658 0.14682664 0.25562498 0.2138168 0.10426661 0.0018628836
0.17500712 0.123505086 0.048089582 0.15372644 0.1323135 -0.027605006 0.19812563 0.10091842
0.025721595 0.29717785 0.23305553 0.075735316 0.16079472 0.1980278 0.0012131241 0.37134042
0.08393861 0.35959864 0.18111539 0.10613785 -0.0608182 0.36214632 0.24114121 -0.014720747
0.014407882 -0.2329466 0.06106389 0.30267242 0.25804397 -0.13466169 0.30069932 0.3373053
0.14012225 0.062456094 0.22994705 0.17168234 0.23703954 0.23387565 0.09275988 0.20576544
0.17623459 0.3352845 0.30853245 -1.0331827 -0.79011184 -0.06062903 -0.24530298 0.052040964
0.14444757 0.13926345 -0.053994406 0.4102836 0.21675493 0.13195065 -0.21966778 -0.7636091
0.07007582 0.078499936 0.25251 -0.10034266 0.00885657 0.22910947 0.27173215 0.20696817
0.3268342 0.08258186 0.11909436 0.028590487 0.2179978 -0.4858148 0.22751144 0.08838562
0.20805605 0.20554128 0.015047209 -0.016761784 0.2960306 0.27056444 0.13597918 0.20911415
0.11958238 0.14311053 0.31252682 0.0030523404 0.15317392 0.24636662 0.15328297 0.28778112
-0.8775376 0.134189 0.16294648 0.11774465 -0.03812001 0.20265618 0.26064608 0.090341404
0.20567754 0.11328662 -0.022419315 0.2986369 0.0531623 0.23147863 0.16086389 0.002066924
0.093141116 -0.19783993 0.15030429 0.13625781 -0.09436033 0.18629749 0.27898392 0.07677116
0.09228617 0.0075326194 0.200167 0.16381294 0.1699599 -1.2001137 0.24776809 0.22929327
0.17399469 0.12617724 0.076581076 -0.9933943 0.18243116 0.063668825 0.13569155 0.05074492
0.16804212 0.21412013 0.031591445 0.1880124 0.25431547 -0.5657707 0.24603343 -0.4058545
0.115257144 -0.070303224 -0.8491467 0.16691019 0.16263375 0.13436666 0.043013252 0.046444796
0.3327631 -0.03383307 -0.34757322 0.19382042 0.30654246 0.19573465 0.2643715 -0.13460954
-0.11411501 0.3659892 0.21066701 0.3160677 -1.1906453 -0.28892237 0.14363456 -0.03415364
0.40152842 -0.07089725 0.21749163 0.002394922 0.085795045 0.31154665 0.28204468 0.12554711
0.2273497 0.068355665 0.0069102473 -0.28460857 0.32330784 -0.20453563 0.20975356 0.18628444
0.27460197 0.30936876 0.2494605 0.0599986 0.06716905 0.14791825 0.33527082 0.3679768
0.37452292 -0.13179025 0.1525027 0.26856345 0.23843798 0.16265842 0.1440246 0.07058508
0.016805569 0.25392097 0.2919052 0.04415597 -0.34931108 -1.0607175 0.20039068 0.2127882
-0.069657095 0.009116881 0.12638311 0.07718807 0.11510303 0.13654949 0.19449201 0.13698314
-0.014652653 0.029922025 -0.6075526 0.09917322 0.105126075 0.060166672 0.06563943 0.19982454
0.13582353 0.047020096 0.018073982 0.2840932 0.10487837 0.01887587 0.27155796 0.21006413
0.31618762 0.0041361484 0.26178446 -0.8542164 0.17538536 0.34850997 -0.08402854 -0.078950755
-0.392773 0.11981848 0.228205 0.21157575 0.14870164 0.19146174 0.2835697 0.21026301
0.22575253 0.21192041 0.23229365 0.21691339 -0.116775125 -0.0699927 0.27813637 -0.34713647

linear2.bias f4 [3]
00000000: 1bd9 813e 3f21 1d3e c42c 773e
0.2536095 0.15344714 0.2413817
