model/DQN/checkpoint_3000.pth (torch, 23085 bytes, 4 tensors)

linear1.weight f4 [256, 16]
00000000: 9a88 723e b1ee cbbe 6d20 c23e 0bc1 8dbe
00000010: 1dc8 8bbe 8a00 32be 9255 29bf 88f8 adbd
00000020: 91fa babd 3570 0b3d 4169 d7bc 8a5a f1be
00000030: 168a 6c3e 285a da3e 54a4 43be ad7d 8dbe
00000040: 8ec2 2a3e 9b77 a23f 3b4f d83f c0af 65be
00000050: b34d 48bf 5146 19bf dfaa 94be bf02 b43e
00000060: 5ca6 cfbd 7895 8d3e bcab b9bd a2c4 acbf
00000070: add5 8b3c 221e 8bbd c97b 223e 1a3e 1fbe
00000080: 90f7 3a3e e1b4 173f e3c9 40bf 5e65 49be
00000090: 0424 d3be 5634 5fbd f608 dbbe 4906 a5be
000000a0: 7ebc a1be 3c97 55bf a4d6 c2be 3c76 bbbe
000000b0: 7b7b 783d b73b 6d3e 68b5 a1be 296a c7be
000000c0: 03ad 37bf 2b2f eabe 63af 31bf f2be ccbd
000000d0: c8a6 d8bd a0e3 41bf 3733 79bf 211d 713d
000000e0: a696 92be 9227 2dbf a0a4 abbf 5593 77be
000000f0: 2ca9 99be 3ea8 623e ddf1 dabe 6447 3dbf
00000100: 3a90 1cbf 479f 653e a809 d2bf 54ee dd3e
00000110: 62c7 863f 23b9 083e 2f18 f63f 23f4 41bd
00000120: 6709 a3be 7a6b ec3d 4a2f 25bf 345a 9cbe
00000130: bf36 d03f 8546 2f3f fcd3 b3bf bdc6 b2be
00000140: 7529 c33e 0294 433e 4e2d 16bf 5cf3 66bf
00000150: 55b7 d63f 39a2 2b3f 88b5 0bbf 0158 fb3e
00000160: b3a7 ecbf 7c55 d3be fc2d 92bf d968 e9be
00000170: 8bc4 8fbc 4913 a13e 38d3 b43f b980 c33e
00000180: a627 86bf 5eb8 c9be bcad 12bf c766 803e
00000190: 302c 993d 6115 d0be 41e4 78be 71c2 a7bf
000001a0: 6799 63bf 3489 16bf a67a 42bf 1a83 2a3f
000001b0: 32a8 1a3e 9a70 083f 852f 913b 71d9 85bd
000001c0: 10c4 56be d1c9 033e b68d 833e eaf6 debc
000001d0: 8699 0bbe eb81 a2bd b5b9 c0bb 1990 56be
000001e0: 487f d6bc b3c4 ea3d e7db ef3d 3446 00bf
000001f0: acab 823d f4cc 30bd fa8b b73d 5027 d83d
00000200: 378f 753c 0b64 98be 310a 20bd 6ae0 9b3e
00000210: 3f19 813e b838 933e 6ac5 ef3e 78c4 4dbf
00000220: 67b8 7cbf b34e 4fbf b242 69bf b02b 9cbc
00000230: 9708 19c0 5641 26c0 473b 5b3f b58c c63f
00000240: 5aaf 36be e5f3 63bd 9f44 363d cd2b 45be
00000250: dd79 bb3e 982e 6ebe 96f9 b5be 5376 2c3d
00000260: f5c8 0bbe a15b 583e 1e0d d5be 6ba7 8bbe
00000270: dd26 eb3c 1bc5 e7bc a382 b3bd 84ab 34bd
00000280: 744f a7bd 4e4a 7ebe 47b4 adbe 36d9 643f
00000290: 1ad6 81bf fd36 7dbf ecf0 163e 5c94 e5be
000002a0: 4a34 5bbf 4a38 04bf a7cb b4bf 1745 b53e
000002b0: 8a03 e5be 0a67 c4be 234b 9d3e 5000 74bf
000002c0: 8411 d23e 6266 aa3e 1e82 f2be 1968 17be
000002d0: b391 023d 053c 82be 6e11 1e3d f38d 64bd
000002e0: 851c 063b 0116 283d c314 78bb f2ca 06bf
000002f0: 1d5f 223d 93c3 81be f5bf dd3c 377a 70bd
00000300: 73ce c43e fbc7 013e 8537 113e 9f83 86bd
00000310: 905f 7bbe e11d 673d 3817 a1be 1d8c 8fbe
00000320: 47e3 34be f8d5 e9be ec99 373d 3e27 d4be
00000330: b24a a3be 92ef 363e 15bd 06be 7963 103d
00000340: 7f2f 3cbe 14da 883e 7d78 0d3f 3b83 bb3e
00000350: 77b9 31bf e156 57bf 1e1c 3fbe 5a06 87bf
00000360: d38e b53e c4cb 4fbe cd43 7a3d 83e0 a4be
00000370: c818 6d3f fd34 0e3f 9368 e3bd 173e 64be
00000380: 5d14 963e da90 45bf e3ab ad3e 93e7 15bd
00000390: e37b aabe 9f2d 86be 4e3f 0fbd a200 05be
000003a0: 05a6 b2be e64d 53be 4504 b9be bd7e e0be
000003b0: 8349 8bbe 73dc cabe d269 973d accd f63e
000003c0: f7b4 c7be 367e 93bf f444 4dbe 3203 d53f
000003d0: c97d c33e de91 d93e 8e02 513e 94eb 17bf
000003e0: f68d 403f 20f8 703e b7a3 28be 715f 1abf
000003f0: b757 3bbf 8bb3 d43f 747e 5c3f 911c 0d3f
0.23684922 -0.39830545 0.37915364 -0.27686343 -0.27301112 -0.17383018 -0.66146195 -0.08494669
-0.09129823 0.034042556 -0.026295306 -0.47139388 0.2309955 0.4264691 -0.19105655 -0.27634946
0.16675779 1.2692751 1.6899179 -0.22430325 -0.7824356 -0.5987292 -0.29036614 0.35158345
-0.101391524 0.27653098 -0.09065959 -1.3497508 0.017069662 -0.06792857 0.15867533 -0.15551034
0.182585 0.59260374 -0.75308055 -0.19667575 -0.41238415 -0.05449327 -0.42780274 -0.32231358
-0.3158912 -0.8343389 -0.38054383 -0.36613643 0.060664635 0.2316731 -0.31583714 -0.3894818
-0.7174837 -0.4573911 -0.69408244 -0.099973574 -0.10578686 -0.75737953 -0.9734377 0.05886567
-0.2863056 -0.67638505 -1.3409615 -0.24177296 -0.3001188 0.22134492 -0.42762652 -0.7393706
-0.6115757 0.2242404 -1.6409197 0.43345892 1.0529597 0.13351874 1.922613 -0.047351968
-0.3184311 0.11543937 -0.6452528 -0.3053757 1.6266707 0.6846698 -1.4049067 -0.3491725
0.38117567 0.19099429 -0.5866288 -0.90215087 1.6774698 0.6704441 -0.5457387 0.4909058
-1.8488678 -0.41276157 -1.1420283 -0.45587805 -0.017549774 0.31460026 1.4126959 0.38184145
-1.048085 -0.39398474 -0.5729635 0.25078413 0.07479131 -0.4064131 -0.24305822 -1.3106214
-0.8890595 -0.58803105 -0.75968397 0.66606295 0.15103224 0.53296816 0.0044307136 -0.06535614
-0.2097323 0.12869956 0.25694054 -0.027217347 -0.13632783 -0.07934936 -0.005881513 -0.20953406
-0.02618374 0.11463299 0.11711865 -0.5010712 0.063804 -0.04316421 0.08962245 0.10554373
0.014987758 -0.29763827 -0.03907222 0.30444652 0.25214574 0.2875421 0.46830302 -0.8037791
-0.98718876 -0.8097946 -0.91117394 -0.0190638 -2.3911493 -2.5977378 0.85637325 1.551169
-0.17840329 -0.055652518 0.044499036 -0.1925499 0.36616412 -0.23259962 -0.3554198 0.04210503
-0.13650878 0.21128704 -0.4161157 -0.27276167 0.028705055 -0.02829223 -0.08765151 -0.044108883
-0.08169451 -0.24833032 -0.33926603 0.8939394 -1.0143464 -0.9891203 0.14740342 -0.44839752
-0.8562666 -0.5164839 -1.412465 0.35404274 -0.44729263 -0.38359863 0.30721387 -0.95312977
0.41028988 0.33281237 -0.47364897 -0.14785804 0.03187723 -0.25436416 0.03859084 -0.055799436
0.0020463776 0.04103661 -0.0037854172 -0.5265342 0.03964149 -0.25344524 0.027069071 -0.058710303
0.38438758 0.12673943 0.14181335 -0.065680735 -0.24548173 0.05642498 -0.31463027 -0.28036585
-0.17664824 -0.45671058 0.044824526 -0.4143619 -0.31892926 0.17864826 -0.13158067 0.035251115
-0.18377493 0.2672888 0.55261976 0.36623558 -0.6942362 -0.8411694 -0.1866307 -1.0548813
0.3546053 -0.20292574 0.061099816 -0.3220254 0.9261594 0.55549604 -0.1110393 -0.2228931
0.2931241 -0.7717415 0.33920202 -0.0365978 -0.33297643 -0.2620668 -0.03497248 -0.12988523
-0.34892288 -0.20635185 -0.3613607 -0.43846694 -0.27204522 -0.39621314 0.073932305 0.4820379
-0.39005253 -1.1522892 -0.20045835 1.66416 0.38181904 0.424941 0.20411131 -0.5934384
0.75216615 0.23532152 -0.16468702 -0.6030188 -0.7318072 1.6617292 0.8613045 0.55121714

linear1.bias f4 [256]
00000000: d4dd eabe 1ada 33bd a77e c2be ba67 90bd
00000010: 20cc b8bf e54a 30bf a452 2540 272e ebbe
00000020: d6d4 9b3f 8a36 28bf 0268 6d3f e145 53bf
00000030: 92b2 38bf dde9 58bf 3f0b dcbe dfdb cbbf
00000040: 719c 83be 2d36 51bf 1c2b 67be addb 97be
00000050: 2231 6abe e93e 86bf 7ae3 3fbe 0b23 6bbf
00000060: 0c1b 11bf f2de cdbf 5481 8f3e d88f 60bf
00000070: 3c0b 90be 3b6f 34bd b135 6abf 1a29 30bb
00000080: f391 e2be 93f0 a0be a5e6 9b3e 68be 10bf
00000090: 5dfd 27bf c093 663d e61f aabe 4cde 0cbf
000000a0: e2a1 04bf aded 94be 2b64 29bf b999 2bbe
000000b0: ffcc 46be 437e 7fbe d4b4 a83c 89f0 cabe
000000c0: 78f1 1bbe a20e 45c0 41bd e2be 40ce d7bf
000000d0: fd96 ebbe f143 7dbe 3e84 cd3b dac8 62bf
000000e0: f550 9cbe 073c 5c3d e221 e3be 5043 b83e
000000f0: decd 1fbe 55ea 4abe 11be dfbe 7873 09bf
00000100: 7058 a4be 0d41 1dc0 57bf 96bf d57d 4cbf
00000110: e626 d7be e5f3 523d d54f 02bf 47a5 84bf
00000120: 4079 19c0 a1d6 f4bf 8964 843f 449b 97bf
00000130: 97b8 8bbe 1e81 5cbf 879f aebd fbd9 96be
00000140: 2d6f 50bf 794a 77bf fdc4 46bf 3913 d9be
00000150: d69f a9be 471e a6bd 5009 1b3f 485b 43be
00000160: 9b47 83bf 8364 dbbf 1fdf 1bbe 29c0 4ebf
00000170: 258e 06bf 9ac2 2abf f5f0 a6be ddc7 543e
00000180: f413 b03f 70bb 11bf d690 88bf e5f9 0bbf
00000190: d091 54bf 7334 62bc 23c9 09bf 9730 fbbe
000001a0: 3e5c 303f d669 7ebd 3b61 3ebc 0704 62be
000001b0: f9eb 88be fb40 a9be 7923 2ebe 3482 a1be
000001c0: 02a2 96be 9dc8 2d3f 5d16 31bf c7a2 27bf
000001d0: 6b2a 2abe 4d16 383e ad5d 03bf 3bb2 7bbe
000001e0: d500 0bbe 5fce 4fbe 8dac 36bf 875b 23be
000001f0: ec5f f7bd 89cd 7abe dcfe fcbf 5463 61bf
00000200: 17d5 08bf 8efd 54bf d3f7 69bf a411 eabf
00000210: 6041 ccbe d7f2 6dbf 6012 38be 4a8f d4bf
00000220: a4a6 77be 0fb1 bcbf 5da2 d6be 6476 84be
00000230: a2bb f1be ed7c f1be db1a 3bbf 4f6f d4bf
00000240: 37db 723e 798b fabe 4a2d 95bf 94a9 953f
00000250: 9417 92be 457d 82be 6b9b c7be 9ecf 46be
00000260: a2e9 91be 0061 b6bf a78c c2bf 141c 8a3f
00000270: 002e 93be 6ca2 7fbf bb28 9abe 859f debd
00000280: 2869 a4be b6ae 4ebe 0afc 04bf d5e7 71be
00000290: a2b9 b1be f85e 1fbf d7f5 31bf 8018 08be
000002a0: 8b4a c1bf 269c 76be b0c7 86bf f7de 63bf
000002b0: d07a a03e 1dd5 9fbf 41ea 98be e9eb cabf
000002c0: a483 01c0 c093 edbe cc06 b4bf 6838 16be
000002d0: 7acc 96bf 2f7b f7be 95a7 ddbf c4b0 47bf
000002e0: 936d fdbf 0d06 abbf 1e28 b7bd 4366 b1bf
000002f0: c23f a73f 30b1 4ebd 1464 e4be 17f4 a9bf
00000300: 46df 08be 88fe fbbe 608d 393c 8d62 bebe
00000310: aec0 8fbe e7ee 90be 0f6d fe3c 34cd c7be
00000320: 1c95 733f 5d25 b1be dc1a eebe e0a6 9abe
00000330: 45c1 8abf b103 dfbe 7569 a3be e5ad 6fbe
00000340: 4706 48bf 8021 5bbf 4a1b d73e d693 33bf
00000350: 2623 c4be a943 62be 8ac0 b3bf 900f cfbe
00000360: 7f4c 95bf 6233 a33c df8f 3d3e 1110 f8bd
00000370: f2af dfbe f8a2 9dbe 1566 71bd d61d b1bf
00000380: 2621 8fbf 9161 34be ee37 33bf 4020 833f
00000390: 49d4 b5bf 7741 7bbf 7c16 4840 25d2 e73f
000003a0: 3ce6 02bf f551 d6bd 73ef 8b3a 3f55 b3bf
000003b0: 8dca 9abe 9b4f aabe b2ad c9bf e7d5 23bf
000003c0: 5d42 68bf 2352 98bf a638 afbe f292 2dbf
000003d0: 9a9b 4f3f 26ab 68be 0054 0ebf 9177 d6be
000003e0: e3a6 aa3e aad9 9dbf f516 76bf 098d b8be
000003f0: 5a83 643c 7b32 64be ecc7 e7be dcbe 14bf
-0.45872366 -0.04390917 -0.37987253 -0.07051034 -1.4437294 -0.6886428 2.583169 -0.4593365
1.2174327 -0.6570822 0.9273683 -0.825285 -0.72147477 -0.8473185 -0.4297733 -1.5926474
-0.25705293 -0.8172329 -0.22575039 -0.29659787 -0.22870305 -1.0487949 -0.18739119 -0.91850346
-0.56681895 -1.6083663 0.28028357 -0.8771949 -0.2813357 -0.04405139 -0.91488177 -0.0026879967
-0.44251975 -0.31433544 0.30449405 -0.56540537 -0.65620977 0.05629325 -0.33227462 -0.550267
-0.51809514 -0.29087582 -0.6616847 -0.1675786 -0.19414137 -0.24950509 0.020594038 -0.3963664
-0.15228832 -3.079018 -0.44285014 -1.6859818 -0.46013632 -0.24732949 0.006271868 -0.88587725
-0.30530515 0.053768184 -0.44361788 0.35988855 -0.15605876 -0.19815953 -0.43699697 -0.53691816
-0.32098722 -2.4570954 -1.1777142 -0.79879504 -0.42021865 0.051502127 -0.50903064 -1.0362939
-2.3980255 -1.9128 1.0343181 -1.1844258 -0.27289268 -0.8613452 -0.08526521 -0.2946318
-0.8141964 -0.9659801 -0.7764433 -0.42397478 -0.33129758 -0.08111244 0.60561085 -0.1907779
-1.0256227 -1.7140049 -0.15221833 -0.80761963 -0.52560645 -0.6670319 -0.3260571 0.20779367
1.3756089 -0.5692663 -1.06692 -0.54678184 -0.8303499 -0.01380645 -0.53822535 -0.4906051
0.6889075 -0.06211265 -0.011619861 -0.22071849 -0.26742533 -0.3305739 -0.17005719 -0.3154465
-0.29420477 0.67884237 -0.6917475 -0.65482754 -0.16617744 0.17977257 -0.5131481 -0.24579708
-0.13574536 -0.20293568 -0.7135704 -0.15952884 -0.120788425 -0.24492468 -1.9765277 -0.8804219
-0.5345015 -0.83199394 -0.91393775 -1.8286633 -0.39893627 -0.9294867 -0.1797576 -1.6606228
-0.24184662 -1.4741534 -0.41920748 -0.25871575 -0.47213465 -0.47165623 -0.73087853 -1.6596469
0.23716436 -0.48934534 -1.1654446 1.1692376 -0.28533614 -0.25486198 -0.38985762 -0.19415137
-0.2849856 -1.4248352 -1.5199174 1.0789819 -0.28746033 -0.9985721 -0.301092 -0.1087027
-0.32111478 -0.20183834 -0.5194708 -0.23623593 -0.3471194 -0.62254286 -0.69515747 -0.13290596
-1.5100874 -0.24083003 -1.052969 -0.8901209 0.31343699 -1.2486912 -0.29866222 -1.5853244
-2.0236597 -0.46401787 -1.4064574 -0.14669955 -1.1781151 -0.4833617 -1.7316767 -0.780041
-1.9799064 -1.3361222 -0.089431986 -1.3859333 1.3066332 -0.050461948 -0.44607604 -1.3277615
-0.13366422 -0.4921763 0.01132521 -0.37184563 -0.2807669 -0.28307268 0.031057863 -0.39023745
0.951494 -0.34598818 -0.46504867 -0.3020544 -1.0840231 -0.43557504 -0.31916395 -0.23406179
-0.7813458 -0.8559799 0.42013007 -0.70147455 -0.38308066 -0.22096123 -1.4043133 -0.4044156
-1.166397 0.019921962 0.18511914 -0.121124394 -0.43688923 -0.30788398 -0.058935244 -1.383723
-1.1181991 -0.17615344 -0.70007217 1.0244217 -1.4205409 -0.98146766 3.1263723 1.8111006
-0.5113256 -0.10464851 0.001067622 -1.401039 -0.3023266 -0.3326386 -1.5756133 -0.63998264
-0.9072626 -1.1900066 -0.34222907 -0.67802346 0.81096804 -0.22721538 -0.55596924 -0.41888097
0.3333045 -1.2332051 -0.9612878 -0.360451 0.013947332 -0.22284882 -0.45269716 -0.5810373

linear2.weight f4 [3, 256]
00000000: 0754 0c3d 3fdf 193e 9250 ed3c 15d9 b33e
00000010: 04c8 e8be 1a2f adbf a91c 1a3f 596a 7ebb
00000020: 7d62 2640 86a3 75bd aa65 44bf 3020 913d
00000030: 1087 f73d 7ada 9a3f 5b9b f2bc 4ea2 81bf
00000040: cc96 c13d 2d10 6abf 1854 dd3a b3c3 47bc
00000050: 5453 863d 5590 ea3c a0ce 183c 9a63 c53e
00000060: 7d1a 803c 8408 9cbe 361f e3bf c5de 3ac0
00000070: b5c5 01bc 6b2d bcbe 2618 29be a174 363e
00000080: 7d79 14be 465a 8abe 077e 3fbf b349 4dbf
00000090: 62f4 95be 807c 093f 4c88 f6bb ef8a d4bc
000000a0: a291 52bc 8040 82bd 0fa2 ecbe d8ea acbc
000000b0: 58a1 81bc edba 5dbd 3bd1 053f cc72 ccbf
000000c0: 2a33 95bd 7a42 6fbf 91bb fa3c b434 29be
000000d0: 7078 a7bf 7d7c 89be 5494 5dbf e709 08be
000000e0: b49c 7e3c bd14 b5be aabd a43a 0f93 f1be
000000f0: e42f 833c 42d8 b3bc e485 ecbe 6365 673b
00000100: fcf7 0dbd 863d 2fbf a0f1 a4bc 1996 2bbf
00000110: 3cd2 aabd c8ae c23d fe32 33bc 3b4d 7ebe
00000120: 99e7 79be 5619 f5be 6264 0d40 e834 e4bf
00000130: f35b d8bc 5713 f43d 685d b33c 92b7 e7bc
00000140: f8ae 4a3d 10f1 9fbf 00e6 8bbf e27e 633b
00000150: e2f6 6bbb 63cf c83d d49a e8bf c5c1 593b
00000160: 5b84 00be 63ed 27be 19df 58bf fd74 5e3e
00000170: 01a8 c9bc 62e2 3ebb f088 9d3c 8eb5 fe3d
00000180: ef7a 3440 ca80 6cbc 9ea8 afbf e7a7 1c3b
00000190: a363 d93d 7701 f3bd 5ca1 b83c 8175 343b
000001a0: c6af 71bf 3b97 0d3d d5fd c33e 42a2 13bd
000001b0: 5d90 623c 4fd7 84bc db73 4cbc 54e1 85bc
000001c0: ab62 c4bf aaa8 fc3f c94e 45bc 163a f4bc
000001d0: e529 4638 e001 353f 5dc1 c3bf 6079 bfbe
000001e0: 3e96 31be db4c fbba 50a1 9bbc f3dd 573c
000001f0: ce51 febb 768c 423d c5d5 12be 699f e7bc
00000200: 0890 b23b 8b4f d7be b543 38be d2b7 07be
00000210: 7459 8abc 7971 0a3f 24e1 bf3c 9a73 c1bd
00000220: 111c 293d d456 1dbd 5a70 c83d 2d7b e43d
00000230: f10b 49be f27f 4c3c 75f4 f63c 5ca7 94be
00000240: c8ba a83e 4ec8 f13d d98f 49c0 8054 6e40
00000250: 39dc 6dbc c7da a3bc e611 863a b16f 6a3d
00000260: dd5e 69bc 8abf b0bc 6c19 76be 2585 3340
00000270: 1215 1abd b8dd 1dbc 884f eebc 784b d2be
00000280: 6793 81bd e8fd 34bf d534 213b 8268 373e
00000290: 6e30 8f3c c2d1 6b3f 1e4a d7bf 256a 7fbf
000002a0: fa7a 29bc e85c d5bc d34f e0be bede 27bf
000002b0: c4a0 3ebf 4089 983e 16ec 503f 3bed a0bd
000002c0: 0d06 80be 0923 adbf c810 7dbf 956c d4be
000002d0: b989 26be 7d6b cbbb 1d06 f3be 7e12 9c3d
000002e0: 0e80 8fbe 5f60 a93c d6d2 62bf 5185 d7bf
000002f0: 4090 993f c78e 2cbe 90c2 b93c 842d a93e
00000300: a969 7bbc e3d2 d2b9 cbc3 013c 4318 e6bc
00000310: dcb2 42be 75ef 1aba c5fe f5bb 6b22 a7bd
00000320: 4494 2840 c1e2 38bb 15b2 0abe 0593 70bc
00000330: 1e8b e9be dc62 92bc 8d5e 84bc 4db8 adbc
00000340: 34c9 a2be d88c a3bb c227 e4be 6270 e33c
00000350: ef07 9dbe 8458 f93b 42ed a1bc e5fa 9abc
00000360: de5d d8be f53a 2dbe 772a 1abf 560c e13d
00000370: 7e39 0c3d 0d6f 783f 0c53 a73d e424 d4be
00000380: f6d2 b83b c83a 7bbc 15fd b33c c0d1 80bc
00000390: f7b7 67bf c7ac 9fbf 2e14 753f e7a9 0d3f
000003a0: c01c 59be 336c f539 a9c1 083f adab 21c0
000003b0: 296c dcba 3eba 2dbe be55 e93c 4ed5 903e
000003c0: b331 9dbf 9d92 5c3f fbeb 87be 21b6 553d
000003d0: 5279 df3f 702b 0cbc 9465 b4bc 4ffa 31bc
000003e0: 465a b73e 7095 13bf a06c d63d 355d 22bc
000003f0: 7359 d8bf 9023 51bb 8887 b6bc 55dc 83bf
0.034259822 0.15026568 0.028969083 0.35126558 -0.454651 -1.3529999 0.6019998 -0.0038820712
2.5997612 -0.0599704 -0.7671763 0.070862174 0.12086308 1.2097924 -0.029615095 -1.0127656
0.0945259 -0.9143093 0.0016886024 -0.012192654 0.06558862 0.028633276 0.009326607 0.38552552
0.01563763 -0.30475247 -1.77439 -2.9198468 -0.007920672 -0.367534 -0.16513118 0.17817928
-0.14499469 -0.27021998 -0.7480168 -0.8019058 -0.29288012 0.53705597 -0.007523572 -0.025945155
-0.012852104 -0.06359959 -0.4621739 -0.021108076 -0.015824005 -0.054133344 0.52272385 -1.5972533
-0.072851494 -0.9346081 0.030607017 -0.16524011 -1.308363 -0.2685279 -0.86554456 -0.13285027
0.015540291 -0.35367385 0.0012568731 -0.4718251 0.016014047 -0.021953706 -0.461959 0.0035308234
-0.034660324 -0.6845325 -0.020134747 -0.67025906 -0.0834088 0.09505993 -0.01093745 -0.24834149
-0.24404754 -0.47870892 2.2092519 -1.7828646 -0.026411032 0.11917751 0.021895126 -0.028285775
0.04948327 -1.2495441 -1.0929565 0.003471308 -0.0036005308 0.09805181 -1.817225 0.0033227068
-0.1255049 -0.1639915 -0.8471542 0.21724315 -0.024616243 -0.0029126634 0.019230336 0.124369726
2.8200033 -0.014435003 -1.3723333 0.0023903789 0.10614707 -0.11865514 0.02253788 0.0027535858
-0.94408834 0.034568053 0.38279596 -0.036043413 0.013828364 -0.016215948 -0.012478794 -0.016342796
-1.5342611 1.9738972 -0.01204271 -0.029812854 4.7245896e-05 0.70705986 -1.5293385 -0.3739729
-0.17342469 -0.0019172685 -0.018997818 0.013175475 -0.0077612167 0.047497235 -0.14339359 -0.028274255
0.005449299 -0.42052874 -0.17994578 -0.13253716 -0.016888358 0.54079396 0.023422785 -0.094458774
0.04128653 -0.038412884 0.09787054 0.111563064 -0.19633462 0.012481676 0.030145863 -0.29033935
0.32955003 0.11805783 -3.1494048 3.7239075 -0.014517837 -0.020001782 0.0010228723 0.057235423
-0.014243809 -0.021575708 -0.24033135 2.8050015 -0.03761775 -0.009635381 -0.029090658 -0.41073203
-0.06326943 -0.7069993 0.002459814 0.1791096 0.017479148 0.9211694 -1.6819494 -0.9977134
-0.010344261 -0.026045278 -0.438109 -0.6557425 -0.7446406 0.29792213 0.8161024 -0.07857748
-0.25004616 -1.3526317 -0.9885373 -0.41489092 -0.16263475 -0.006207882 -0.47465602 0.076207146
-0.28027385 0.020675836 -0.8860296 -1.683756 1.1997147 -0.1685134 0.022675782 0.33042538
-0.015345016 -0.00040211444 0.007920216 -0.02808774 -0.19013542 -0.00059103157 -0.0075071775 -0.081608616
2.6340494 -0.0028211328 -0.13544495 -0.01468349 -0.4561395 -0.017869405 -0.016158367 -0.021206046
-0.3179413 -0.004991155 -0.44561583 0.02776355 -0.30670115 0.007609429 -0.019766454 -0.018918464
-0.42259115 -0.16917022 -0.60221046 0.10988681 0.034234516 0.9704445 0.08170137 -0.41434395
0.005640383 -0.015333839 0.021971265 -0.015725017 -0.90515083 -1.2474602 0.95733917 0.55337375
-0.21202374 0.00046810656 0.534205 -2.5261033 -0.0016816902 -0.16965577 0.028483268 0.2828774
-1.2280792 0.86161214 -0.26547226 0.052175645 1.7458899 -0.008555278 -0.022021092 -0.010862901
0.3581106 -0.576499 0.10469937 -0.009909918 -1.6902298 -0.0031912066 -0.022281423 -1.0301615

linear2.bias f4 [3]
00000000: 8b2c 1040 6f0b 19bf 389f cabe
2.2527187 -0.5978307 -0.395746
