model/DQN/checkpoint_2700.pth (torch, 23085 bytes, 4 tensors)

linear1.weight f4 [256, 16]
0.31463638 -0.17465024 -0.07691832 0.6227377 -0.9312051 -0.85500234 0.71274763 0.08431174
0.2966186 0.15358487 -0.20165464 0.29509357 -1.3664801 0.68077 0.7158486 -1.2583976
-0.14166161 0.10250838 0.21701351 -1.6273574 0.5862491 0.28962317 -1.0495156 -0.37302458
0.17335017 -0.5330767 -0.45042917 0.061512336 -1.0511736 1.6023948 -1.0853248 -0.9134405
0.11951026 0.68690103 0.16239895 0.027864713 0.454364 -0.92265373 -0.42160323 -0.23472357
0.003485682 -0.12349587 -0.47270757 -0.41834718 0.27189603 0.5707501 0.29907376 -0.40805036
0.17705932 -0.38505706 -0.2033966 -0.02872968 -0.73171324 0.64982253 -0.36860985 -0.8393481
-0.12404374 -0.15286595 0.3188395 -0.05584617 -0.9143962 0.13945661 -0.39363754 0.4649176
-0.2475466 -0.021330867 0.4735896 -0.7315113 0.51726145 0.50736463 -0.20703483 -0.18471897
0.15250154 0.24143012 0.44363773 -0.4231316 -0.73250747 0.80379707 0.14362709 1.0000204
-0.12808637 0.44790626 0.26966977 0.46940508 0.5717535 -0.7200285 -0.5336473 0.47554082
0.5472354 -0.51090366 -0.55523425 0.010882578 0.8422955 0.8840909 -0.8256639 -0.99655664
0.12701954 0.093341306 0.5612813 -0.09292175 -0.09911708 -0.06000667 -0.06506732 0.28889346
0.12181598 0.05905125 0.06350582 -0.84567094 1.3978349 1.1048409 1.0360446 1.2571343
0.8342464 0.0591619 0.10044979 0.37241283 0.6930867 -1.1203434 -0.7050486 -0.2560927
-0.60054344 0.63352764 0.5681647 -0.12718251 -0.2894341 -0.8806065 1.0768621 0.6042413
-0.46009898 -0.25376055 0.35459557 -0.2108311 0.29506832 -0.43423545 0.72425354 0.0422196
0.1748008 -0.18180196 0.09644918 -0.3708708 1.0552696 0.73403686 -1.0877147 0.7426039
0.39258 -0.105920754 -0.019811444 -1.2518693 -0.86211103 1.0103861 0.41371733 0.35879144
0.31417143 -0.4561199 -0.28267208 0.16961761 1.202048 0.7064264 -1.1780638 -0.39725718
0.006182289 -0.12642199 -0.112453334 0.621929 -0.7014613 0.73968655 -0.41058525 -0.451747
0.10628487 -0.95266944 0.251718 0.087199725 -0.9283024 0.19820768 -1.0885904 -0.31795362
0.4587608 -0.9427393 0.051847596 -0.19689307 -0.66572356 0.3267982 -0.04023472 -0.61379933
-0.6186403 -0.03738634 -0.36566854 -0.19460924 0.81242085 0.48768732 -0.4215947 -0.13390449
-0.16425063 -0.40687975 -0.14024457 0.49367508 -0.12807395 -0.4310954 -0.14043444 -0.17678839
-0.15577564 0.04749188 -0.22007704 -0.11561482 -0.8495377 0.43568033 0.5941694 -0.15419763
0.093279295 0.19826111 -0.057147823 -0.26386583 -0.07628419 0.03456473 -0.3584665 0.22709918
0.16696042 0.0847751 0.5235764 0.7490524 -0.9906083 -1.3703412 -1.4591422 -0.6927888
-0.008565933 0.25201645 0.06437791 0.41000065 -2.1099355 0.058075394 -0.4324792 -0.8676588
0.19402434 0.44883353 0.7243674 -0.19127221 1.8986621 -0.65279365 -1.7663894 -1.424028
-0.17357953 -0.33265975 -0.19175155 -0.46124145 0.40014163 0.44857907 -0.4784295 -0.3039346
-1.0082778 -0.37987992 0.44115478 -0.038156405 -1.0830951 -1.2044414 -0.6969777 1.0378075
00000000: 0518 a13e 83d7 32be 5a87 9dbd bd6b 1f3f
00000010: 7563 6ebf 6fe1 5abf a176 363f a2ab ac3d
00000020: 65de 973e 5a45 1d3e 8e7e 4ebe 8116 973e
00000030: d2e8 aebf f146 2e3f db41 373f 2c13 a1bf
00000040: be0f 11be eaef d13d ca38 5e3e 3f4d d0bf
00000050: 6c14 163f 7d49 943e 8756 86bf 14fd bebe
00000060: b582 313e b777 08bf a79e e6be 5cf4 7b3d
00000070: db8c 86bf 461b cd3f eceb 8abf 3dd7 69bf
00000080: ccc1 f43d bfd8 2f3f e94b 263e 8a44 e43c
00000090: 66a2 e83e 0933 6cbf 61dc d7be 605b 70be
000000a0: 0a70 643b 67eb fcbd ba06 f2be 9a31 d6be
000000b0: f535 8b3e ae1c 123f 3220 993e faeb d0be
000000c0: 0a4f 353e 3326 c5be 3347 50be 825a ebbc
000000d0: 8f51 3bbf c55a 263f 6eba bcbe 84df 56bf
000000e0: a50a febd e488 1cbe ee3e a33e f4be 64bd
000000f0: df15 6abf b7cd 0e3e dc8a c9be ae09 ee3e
00000100: db7c 7dbe 12be aebc 567a f23e 5344 3bbf
00000110: 3f6b 043f a6e2 013f f000 54be f826 3dbe
00000120: 5d29 1c3e 7539 773e 7c24 e33e b4a4 d8be
00000130: 9c85 3bbf a5c5 4d3f fb12 133e ab00 803f
00000140: 1329 03be f853 e53e 2812 8a3e dd55 f03e
00000150: 705e 123f ca53 38bf 1c9d 08bf 167a f33e
00000160: 9f17 0c3f 95ca 02bf d523 0ebf d74c 323c
00000170: aea0 573f c853 623f b65e 53bf 561e 7fbf
00000180: 6911 023e ba29 bf3d 22b0 0f3f c24d bebd
00000190: e5fd cabd 8ec9 75bd 0442 85bd d8e9 933e
000001a0: a87a f93d b9df 713d 570f 823d e47d 58bf
000001b0: 41ec b23f 6d6b 8d3f 1c9d 843f c7e9 a03f
000001c0: 2c91 553f c053 723d 9fb8 cd3d e5ac be3e
000001d0: 216e 313f 6a67 8fbf 117e 34bf 951e 83be
000001e0: 37bd 19bf de2e 223f 3e73 113f 223c 02be
000001f0: b530 94be 6d6f 61bf 9ed6 893f 8faf 1a3f
00000200: 1892 ebbe e7ec 81be 8d8d b53e 1ce4 57be
00000210: 3213 973e 1c54 debe ae68 393f 76ee 2c3d
00000220: fbfe 323e 4b2a 3abe 2687 c53d c7e2 bdbe
00000230: 1313 873f d7e9 3b3f 3c3a 8bbf 4a1b 3e3f
00000240: 3f00 c93e fbec d8bd 9c4b a2bc 413d a0bf
00000250: 4fb3 5cbf 5554 813f c2d2 d33e 83b3 b73e
00000260: 14db a03e 8c88 e9be 65ba 90be 3db0 2d3e
00000270: b5dc 993f 5cd8 343f cbca 96bf 4b65 cbbe
00000280: cd94 ca3b c474 01be ef4d e6bd bd36 1f3f
00000290: f892 33bf 195c 3d3f 3b38 d2be 624b e7be
000002a0: e2ab d93d 25e2 73bf 2fe1 803e c595 b23d
000002b0: 3aa5 6dbf f4f6 4a3e ee56 8bbf d1ca a2be
000002c0: b2e2 ea3e 5d57 71bf 255e 543d 569e 49be
000002d0: dc6c 2abf 1852 a73e 29cd 24bd f421 1dbf
000002e0: 365f 1ebf 6b22 19bd e838 bbbe a547 47be
000002f0: d0fa 4f3f 27b2 f93e 43db d7be 421e 09be
00000300: 5131 28be 8b52 d0be 469c 0fbe fbc2 fc3e
00000310: d125 03be 89b8 dcbe 0cce 0fbe 0408 35be
00000320: a683 1fbe d886 423d e05b 61be 76c7 ecbd
00000330: 4d7b 59bf 7e11 df3e 7c1b 183f fce5 1dbe
00000340: 3709 bf3d f604 4b3e d613 6abd 6c19 87be
00000350: e33a 9cbd bf93 0d3d ec88 b7be b08c 683e
00000360: acf7 2a3e 919e ad3d 1a09 063f e6c1 3f3f
00000370: 8198 7dbf 5767 afbf 2cc5 babf 9b5a 31bf
00000380: 2158 0cbc 4d08 813e 91d8 833d 9beb d13e
00000390: 2f09 07c0 77e0 6d3d ea6d ddbe e31e 5ebf
000003a0: 51ae 463e 82cd e53e 2470 393f dddc 43be
000003b0: 5c07 f33f 7c1d 27bf 0c19 e2bf 8d46 b6bf
000003c0: d5be 31be 6152 aabe 855a 44be d727 ecbe
000003d0: 5ddf cc3e 28ac e53e b6f4 f4be 519d 9bbe
000003e0: 3f0f 81bf 9f7f c2be 0adf e13e e449 1cbd
000003f0: dca2 8abf 232b 9abf 216d 32bf e0d6 843f

linear1.bias f4 [256]
-0.21026671 0.014127869 -0.23175018 -0.30160454 0.020021962 0.082552426 -0.7170816 -0.16422872
0.37161398 -0.14643718 -0.25188115 -0.08568491 -0.5408118 -0.18292761 -0.49972698 -0.091598585
-0.00018627194 0.5016856 0.40596136 0.4008214 0.21223281 -0.1768396 0.2864422 -0.23494402
-0.22927162 0.34716526 -0.24550873 -0.08437438 0.18996298 0.1863335 1.9034371 0.14269799
0.04511144 1.2031993 -0.2387323 -0.4772203 -0.43425256 0.8166651 0.07815893 -0.5436044
-0.015183173 -0.095156774 -0.47163814 -0.45264655 0.2986047 -0.24220549 -0.7436294 -0.3022771
-0.6951574 -0.11028213 -0.2620974 2.2590077 0.5386309 -0.23978554 -0.31449667 -0.8818536
0.261592 -0.21643008 0.1316273 0.3880268 1.9990948 0.024544042 -0.2856262 -0.0065763197
-0.16951032 -0.1870017 -0.78156894 -0.39989617 -0.32744005 -0.17266814 0.019714454 1.1902257
-0.14466172 0.007250493 -0.35498282 0.29226613 -0.35342965 -0.07835761 0.10357207 -0.28537428
-0.02821972 0.035869233 1.2922688 -0.41592327 0.14207926 -0.76108855 0.44849724 -0.4153563
-0.3223367 0.2701913 -0.26357064 -0.15951747 -0.029897356 -0.31498733 -0.3201284 -0.27395022
-0.5120903 -0.48076943 -0.35849288 -0.0063894526 -0.51077306 -0.035397988 0.10671764 -0.1560305
0.13023834 -0.17110828 1.6015178 0.421341 -0.74448943 -0.8578998 -0.1525424 0.0052276854
-0.06726832 0.14328273 1.6958191 -0.10863541 -0.3380226 -0.09019135 0.4976659 -0.064605094
-0.09003109 -0.30953765 0.26210847 0.11019778 -0.14547148 -0.26546577 1.1131053 -0.38619125
-0.58403325 -0.22319382 -0.108250216 0.377242 -0.24138038 0.16463295 -0.0075173704 -0.5293832
0.28106758 0.46557644 -0.2215966 -0.28783467 0.24701561 -0.3403092 -0.78464717 0.8503716
-0.11714105 -0.11494114 -0.29516384 -0.13783517 2.1452405 0.16891684 -0.3419365 -0.45917583
-0.5082785 0.2078793 -0.7579596 -0.049869947 -0.17159936 -0.8514654 -0.09390317 -0.54883766
-0.2583616 -0.2551318 -0.22775117 -0.007511839 0.0076840487 0.28111777 -0.051184043 -0.4412474
0.22380814 -0.18744795 -0.123415835 -0.128774 0.17798124 -0.6065209 -0.2211333 -0.44013837
-0.7177732 -0.00033730367 0.007266672 -0.38706818 -0.26139998 -0.21659505 -0.040270597 0.4514085
-0.078585766 -0.13884836 -0.25158107 0.59877765 -0.7680706 -0.14838243 -0.05193284 -0.04708382
-0.051033366 -0.233741 0.14098556 -0.29092443 -0.24563241 -0.6436777 -0.62492746 -0.5860025
-0.06164022 0.31473434 1.6478854 -0.5722829 -0.20731267 -0.4399799 -0.17400235 -0.24312656
-0.48441246 -0.7124009 0.11892277 0.2973138 -0.0056550303 -0.3432579 0.353145 -0.17077056
-0.8565056 0.16348167 -0.5532737 0.85228354 -0.76346755 -0.22565022 -0.36869198 3.2540283
-0.44421297 -0.32660222 -0.32393405 -0.5754932 -0.24598224 -0.027072864 -0.1307926 -0.17100838
-0.7242959 -0.31114432 -0.044004213 -0.40105185 -0.16955742 -0.2937478 -0.6685426 -0.2144492
-0.8255724 -0.30521297 0.23332983 -0.23473272 -0.19001988 -0.42914754 -0.7419259 0.12636752
-0.7473184 -0.7456717 -0.13795063 -0.18318014 -0.65679497 -0.7928359 -0.17473209 -0.03638193
00000000: 2850 57be 9478 673c eb4f 6dbe e96b 9abe
00000010: 1905 a43c 3f11 a93d a992 37bf 932b 28be
00000020: 3044 be3e a1f3 15be 91f6 80be 927b afbd
00000030: a472 0abf 6051 3bbe 37dc ffbe 0a98 bbbd
00000040: fe51 43b9 786e 003f 2bda cf3e 7638 cd3e
00000050: 8f53 593e 7115 35be 8da8 923e 2a95 70be
00000060: 2ec6 6abe a5bf b13e a466 7bbe 7acc acbd
00000070: a885 423e 36ce 3e3e d4a3 f33f 6c1f 123e
00000080: c6c6 383d 6f02 9a3f 3d76 74be 3856 f4be
00000090: 5a56 debe f710 513f ca11 a03d a829 0bbf
000000a0: d8c2 78bc 8ee1 c2bd 8e7a f1be 4ac1 e7be
000000b0: b7e2 983e b704 78be 7f5e 3ebf 10c4 9abe
000000c0: d6f5 31bf 99db e1bd a131 86be 9593 1040
000000d0: b7e3 093f 578a 75be b505 a1be 28c1 61bf
000000e0: 63ef 853e d99f 5dbe 4fc9 063e 73ab c63e
000000f0: 57e2 ff3f 9610 c93c 993d 92be 2b7e d7bb
00000100: 1d94 2dbe 607d 3fbe e714 48bf 31bf ccbe
00000110: 39a6 a7be ebcf 30be 3580 a13c 5159 983f
00000120: 3422 14be 8b95 ed3b 4fc0 b5be e8a3 953e
00000130: bbf4 b4be f479 a0bd 981d d43d 941c 92be
00000140: 0b2d e7bc 9eeb 123d 1069 a53f e5f3 d4be
00000150: 3a7d 113e b3d6 42bf 6ea1 e53e 95a9 d4be
00000160: 5109 a5be 8456 8a3e bbf2 86be 8c58 23be
00000170: 4deb f4bc 0546 a1be dfe7 a3be 3443 8cbe
00000180: 5a18 03bf 6927 f6be 618c b7be 9d5e d1bb
00000190: 06c2 02bf 7bfd 10bd c78e da3d 76c6 1fbe
000001a0: 335d 053e 0237 2fbe 89fe cc3f 02ba d73e
000001b0: dc96 3ebf 529f 5bbf 1334 1cbe 014d ab3b
000001c0: f9c3 89bd b5b8 123e 9a10 d93f 3e7c debd
000001d0: 4c11 adbe 3eb6 b8bd 11ce fe3e ad4f 84bd
000001e0: 3862 b8bd b87b 9ebe 1533 863e 60af e13d
000001f0: 7af6 14be 21eb 87be 3c7a 8e3f dcba c5be
00000200: 3483 15bf ec8c 64be 4ab2 ddbd dd25 c13e
00000210: 6b2c 77be 8a95 283e 4654 f6bb a885 07bf
00000220: 17e8 8f3e 0960 ee3e 38ea 62be 115f 93be
00000230: a9f1 7c3e 023d aebe a3de 48bf f4b1 593f
00000240: a6e7 efbd 4366 ebbd b71f 97be aa24 0dbe
00000250: 9f4b 0940 89f8 2c3e 4d12 afbe 1819 ebbe
00000260: 8a1e 02bf 50de 543e a409 42bf 6e44 4cbd
00000270: beb7 2fbe a3f9 59bf 4e50 c0bd a080 0cbf
00000280: f947 84be a3a0 82be 9a37 69be df25 f6bb
00000290: 79ca fb3b abee 8f3e 5ca6 51bd 2eeb e1be
000002a0: f62d 653e 5bf2 3fbe 71c1 fcbd 55dd 03be
000002b0: b740 363e f444 1bbf c570 62be d159 e1be
000002c0: fcbf 37bf 22d8 b0b9 431d ee3b cd2d c6be
000002d0: 38d6 85be 18cb 5dbe c8f2 24bd 041f e73e
000002e0: 93f1 a0bd 442e 0ebe 3ccf 80be 7e49 193f
000002f0: 46a0 44bf 90f1 17be 88b7 54bd f7da 40bd
00000300: 5d08 51bd cd59 6fbe 855e 103e 0cf4 94be
00000310: 1087 7bbe 10c8 24bf 3ffb 1fbf 4304 16bf
00000320: 757a 7cbd dc24 a13e e9ed d23f 2281 12bf
00000330: c649 54be 0c45 e1be ac2d 32be 2bf6 78be
00000340: e904 f8be e85f 36bf c88d f33d 8439 983e
00000350: d54d b9bb 80bf afbe 6ccf b43e 7ade 2ebe
00000360: f343 5bbf bd67 273e 58a3 0dbf 412f 5a3f
00000370: 9c72 43bf da10 67be 32c5 bcbe 0042 5040
00000380: e26f e3be 6838 a7be afda a5be 8653 13bf
00000390: c5e2 7bbe e9c7 ddbc 7fee 05be d21c 2fbe
000003a0: 756b 39bf 4f4e 9fbe c33d 34bd ab56 cdbe
000003b0: 76a0 2dbe 1d66 96be 9c25 2bbf 9298 5bbe
000003c0: b658 53bf e044 9cbe 04ee 6e3e c65d 70be
000003d0: 9294 42be 3ab9 dbbe dbee 3dbf 7d66 013e
000003e0: 4250 3fbf 57e4 3ebf ee42 0dbe 9393 3bbe
000003f0: b723 28bf 4bf7 4abf f8ec 32be 3805 15bd

linear2.weight f4 [3, 256]
-1.4287637 0.9871786 0.28361887 -0.356771 0.31145993 0.6649719 -0.469011 -1.3848323
0.48378488 -0.9370726 -0.5591074 0.17564629 0.032379042 -0.7430374 1.806408 -1.1851529
-0.06376375 0.5412332 1.3974439 0.47389892 1.8223532 -0.54984266 0.86678594 -0.023839986
-0.79990554 0.25826174 -0.038786642 0.56953424 0.3572522 1.0532298 0.48053715 0.5756448
-3.505637 0.40454182 -0.6015575 -0.23954965 0.26865613 0.7879847 0.5311226 0.10154322
-0.8207406 0.07051663 -0.889738 0.69390374 0.280184 -0.6616475 -0.3675687 0.06484832
-0.06465517 -0.8921143 0.18911678 0.51003677 0.29322183 0.9335418 -0.009749964 -0.004722248
0.1807376 -0.28714025 0.5301525 0.31670988 0.56257755 0.69288385 0.15147138 0.16532665
0.18497853 0.045866568 -1.212323 -0.03224453 0.40896222 -0.7684049 0.5775673 0.28476825
0.58236164 1.0417901 0.77626544 0.50093013 -0.3570293 0.16534838 0.68239135 0.011637568
0.09767688 0.24877912 0.40374207 -0.7290213 0.21290939 0.06631288 0.61868346 -0.61954325
-1.814166 1.8172904 -0.6710474 -1.1178609 0.78358287 0.04397087 0.0011480253 0.21091563
0.09727287 -0.1525085 -0.84448415 -0.97926295 -0.04072245 0.53610724 0.6114391 -0.21509555
0.76133686 -0.5727678 0.5060441 0.8073334 -0.86230785 -0.03877829 -0.8202047 -1.1293093
0.050457224 1.1148468 0.3917069 -0.51519096 -1.1558563 1.0945344 0.8087149 -0.1258187
1.160475 -2.3044102 0.07130651 0.33129945 0.04168657 0.15349951 0.35583806 0.040052667
-0.5412368 -0.28325942 0.7869713 0.5791464 -2.348542 0.5622659 0.7378282 0.1448703
0.57799363 1.7994592 -1.2897431 -0.18430081 1.5049049 -1.6067007 -0.027618008 0.87382513
-0.006566835 -0.0099634295 -0.5451087 0.249522 0.62930465 1.1998609 -0.8176679 0.076415434
0.19083175 -0.54189384 -0.7226091 -0.84101325 0.10039742 -1.041149 0.8049572 -0.17238039
-1.0001034 0.5033372 0.06199726 0.33512866 -0.5536982 0.8113371 -0.98784417 -1.0860556
0.14773113 -0.16059649 0.033652924 -0.7213093 -1.8048021 -1.1120033 -1.1724511 -0.050742798
0.047513776 -1.8442457 0.2890454 0.21083692 -1.1405028 -0.51154846 0.1994142 0.74753696
-1.5771565 0.03595171 0.027366262 0.7325406 -0.68826747 0.09773019 0.31100327 -0.02286176
-0.049318902 -1.6214007 0.59304947 0.64568216 -1.1564989 -0.28922614 -0.5007832 0.0130681135
0.41382775 0.7640796 0.4716976 -0.09813856 0.18209036 0.03438788 -0.066692576 0.028789667
0.3405809 -0.37049153 0.5757623 0.9359591 -0.041597452 -1.5274255 0.8455003 -0.5377844
0.010716058 0.39832273 -0.41432312 0.33738774 0.12253942 0.70865947 0.1810062 0.69181234
-0.15238675 -0.96373004 -0.37470105 -0.082184434 0.024247669 0.55517524 -0.78646773 -1.415444
-0.26827663 0.3147606 -0.30604354 0.15206864 0.59198487 0.020976346 -0.18971777 -0.024297899
-0.32355472 0.0062837005 0.91039175 0.89802563 0.25089213 0.047076963 -0.29877308 0.58435607
0.23639442 0.14130689 0.42776224 -0.85411346 -0.18139786 0.1058002 1.0628023 -0.6585152
00000000: bbe1 b6bf bdb7 7c3f 7e36 913e b0aa b6be
00000010: ad77 9f3e 993b 2a3f 3622 f0be 2f42 b1bf
00000020: a7b2 f73e fde3 6fbf aa21 0fbf 9fdc 333e
00000030: e39f 043d b337 3ebf 6138 e73f 17b3 97bf
00000040: 9296 82bd 428e 0a3f 71df b23f e1a2 f23e
00000050: df42 e93f 7dc2 0cbf afe5 5d3f 134c c3bc
00000060: 9cc6 4cbf e23a 843e bede 1ebd ffcc 113f
00000070: c3e9 b63e 3cd0 863f f708 f63e 755d 133f
00000080: 5b5c 60c0 1b20 cf3e acff 19bf 814c 75be
00000090: 4c8d 893e 5eb9 493f a7f7 073f e4f5 cf3d
000000a0: 0e1c 52bf 066b 903d dfc5 63bf ada3 313f
000000b0: 4774 8f3e bb61 29bf f731 bcbe 32cf 843d
000000c0: ee69 84bd 9a61 64bf d4a7 413e c591 023f
000000d0: 2c21 963e 98fc 6e3f 50be 1fbc 16bd 9abb
000000e0: 4713 393e 0c04 93be 13b8 073f cc27 a23e
000000f0: 1505 103f d660 313f 501b 1b3e 644b 293e
00000100: 036b 3d3e 95de 3b3d 662d 9bbf d712 04bd
00000110: 7f63 d13e 2fb6 44bf 73db 133f 25cd 913e
00000120: a715 153f 6159 853f 55b9 463f f53c 003f
00000130: 8bcc b6be 1651 293e 33b1 2e3f 7fab 3e3c
00000140: d10a c83d f4bf 7e3e 48b7 ce3e 24a1 3abf
00000150: eb04 5a3e 0ccf 873d 0a62 1e3f 639a 1ebf
00000160: 9736 e8bf f99c e83f c3c9 2bbf 1116 8fbf
00000170: e398 483f cd1a 343d 5679 963a 44fa 573e
00000180: 0037 c73d 302b 1cbe 1d30 58bf fab0 7abf
00000190: 95cc 26bd 533e 093f 4687 1c3f 0242 5cbe
000001a0: f9e6 423f e9a0 12bf 1b8c 013f 67ad 4e3f
000001b0: 35c0 5cbf fcd5 1ebd eff8 51bf 358d 90bf
000001c0: 3cac 4e3d 4db3 8e3f cf8d c83e 8ee3 03bf
000001d0: 19f3 93bf b419 8c3f f107 4f3f 9ed6 00be
000001e0: 728a 943f 757b 13c0 2609 923d 15a0 a93e
000001f0: 89bf 2a3d fa2e 1d3e 6830 b63e 440e 243d
00000200: 7f8e 0abf 6107 91be f376 493f f042 143f
00000210: 834e 16c0 a8f0 0f3f 4fe2 3c3f e158 143e
00000220: 64f7 133f ae54 e63f 4d16 a5bf 5ab9 3cbe
00000230: b9a0 c03f 5ea8 cdbf 293f e2bc 01b3 5f3f
00000240: 9b2e d7bb a73d 23bc 3e8c 0bbf b282 7f3e
00000250: 1c1a 213f 0b95 993f af52 51bf b27f 9c3d
00000260: 6669 433e 8eb9 0abf e9fc 38bf a54c 57bf
00000270: 2a9d cd3d 5f44 85bf ad11 4e3f 7c84 30be
00000280: 6303 80bf b5da 003f d7f0 7d3d fc95 ab3e
00000290: 2abf 0dbf cab3 4f3f 5be3 7cbf df03 8bbf
000002a0: d446 173e 6873 24be a6d7 093d baa7 38bf
000002b0: c103 e7bf 2056 8ebf e112 96bf aed7 4fbd
000002c0: ce9d 423d 3e10 ecbf c2fd 933e a2e5 573e
000002d0: fffb 91bf d7f4 02bf 3c33 4c3e 955e 3f3f
000002e0: 44e0 c9bf 1a42 133d 362f e03c c887 3b3f
000002f0: 4c32 30bf c426 c83d d23b 9f3e 9648 bbbc
00000300: 9e02 4abd 0f8a cfbf 17d2 173f 6d4b 253f
00000310: 2808 94bf 7315 94be 5433 00bf a41b 563c
00000320: 3be1 d33e b89a 433f 5982 f13e dffc c8bd
00000330: e575 3a3e 4eda 0c3d 1e96 88bd 4fd8 eb3c
00000340: 9f60 ae3e 11b1 bdbe 2865 133f 049b 6f3f
00000350: 1762 2abd ae82 c3bf b572 583f 3dac 09bf
00000360: 6892 2f3c f5f0 cb3e 2922 d4be 16be ac3e
00000370: f3f5 fa3d b56a 353f b059 393e 9d1a 313f
00000380: 460b 1cbe 03b7 76bf d1d8 bfbe 5050 a8bd
00000390: 0ca3 c63c f71f 0e3f f355 49bf 452d b5bf
000003a0: 8e5b 89be 4d28 a13e bdb1 9cbe e2b7 1b3e
000003b0: 528c 173f 96d6 ab3c 6045 42be 630c c7bc
000003c0: f7a8 a5be 80e7 cd3b 6f0f 693f 02e5 653f
000003d0: ef74 803e c6d3 403d c9f8 98be 5c98 153f
000003e0: 6111 723e c1b2 103e a703 db3e 2ea7 5abf
000003f0: 5cc0 39be c6ad d83d e809 883f 7494 28bf

linear2.bias f4 [3]
0.6052218 0.2751769 0.34344515
00000000: d1ef 1a3f fde3 8c3e 0bd8 af3e
