model/DQN/checkpoint_3900.pth (torch, 23085 bytes, 4 tensors)

linear1.weight f4 [256, 16]
0.25478753 -0.34931356 -0.20972387 0.5788381 -1.1556797 -0.9394898 0.68968654 -0.13362025
0.23979548 0.1046292 -0.29885203 0.16844964 -1.4833395 0.62252825 0.6604739 -1.0967914
-0.17331807 0.008696209 0.14656441 -1.8683422 0.49581224 0.38506165 -1.3615968 -0.33042505
0.2550153 -0.5433422 -0.5317254 -0.05063009 -1.0511736 1.8148333 -1.0778965 -1.0922332
0.18057044 0.5805958 -0.09760139 -0.39575866 0.55074716 -0.7823013 -0.31816998 -0.25956142
0.20779845 -0.35574788 -0.591459 -0.89049256 0.16041175 0.22152404 0.07150148 -0.58065844
0.17297891 -0.57148004 0.034911912 -0.08865871 -0.80982834 0.78418815 -0.27280077 -0.9880586
-0.502818 -0.4160091 0.43469605 -0.069069386 -0.9890468 -0.3652735 -0.63010734 0.556281
-0.4174351 -0.05401849 0.66741884 -0.75287336 0.57680905 0.51102334 -0.2587485 -0.24416687
0.19343689 0.28076005 0.5521615 -0.5485027 -0.697511 0.83648545 0.060453128 1.141159
-0.09364984 0.4906679 0.19776133 0.6221172 0.6610631 -0.8164545 -0.63976467 0.5015424
0.6914689 -0.61623603 -0.5924909 -0.00037600592 0.8008684 1.0282608 -0.7414351 -1.0265644
0.20638493 -0.032582 0.62031037 -0.09881017 -0.2133704 0.018014364 -0.20839594 0.3281897
-0.0060515115 0.0053792936 0.0058130156 -0.9996921 1.3091248 1.2592415 1.0330937 1.3610266
0.8953432 0.03226993 0.07150152 0.3850439 0.7479583 -1.2609396 -1.1234915 -0.42114526
-0.6203319 0.7235466 0.6442019 -0.17587179 -0.253636 -0.93512917 1.256121 0.64089715
-0.5670267 -0.10411208 0.34662655 -0.04400358 0.18574394 -0.23622845 0.69025403 0.08313373
0.19821423 -0.18808453 0.22321616 -0.35995954 1.1595753 0.64684576 -1.0718704 0.7682402
0.40666884 -0.19653009 0.009943058 -1.5432785 -0.98178095 1.0644494 0.41240618 0.40581214
0.42286792 -0.45356748 -0.38515273 0.25458783 1.2752194 0.783167 -1.4270436 -0.6637963
-0.21183434 -0.255188 -0.2859417 0.6143798 -0.7014613 0.66965634 -0.46709245 -0.5636732
-0.27173182 -0.95266944 0.37277466 0.120523185 -0.6956405 -0.07171182 -1.0186054 -0.4322509
0.44876787 -1.1561612 0.035755336 -0.44360882 -0.781397 0.1800114 -0.015217715 -0.74497694
-0.81198704 -0.19162233 -0.47683284 -0.44371784 0.89275414 0.32937607 -0.6828088 0.04238596
-0.35312048 -0.22986591 -0.03808663 0.42349136 -0.1708026 -0.4153068 0.04224959 -0.06985327
-0.041001666 -0.12549752 -0.040926673 -0.2742818 -0.9525201 0.3525199 0.6015927 0.06858271
0.052306894 0.11240165 -0.038990606 -0.21572086 -0.050863795 0.0898307 -0.33939907 0.41172248
0.0767305 0.18100075 0.40218636 0.86887866 -1.1647998 -1.3376124 -1.6943388 -0.8965873
0.061292216 0.075116426 -0.057337586 0.43225715 -2.4773424 -0.078610756 -0.44461244 -0.7864639
0.124936305 0.49761543 0.62574595 -0.09174603 2.1313472 -0.43111414 -2.0955834 -1.7026179
-0.15479204 -0.24669015 -0.16825728 -0.5248707 0.67037493 0.5871973 -0.48160875 -0.33696222
-1.1120719 -0.41151214 0.4133235 0.09988208 -1.300272 -1.2237481 -0.7762648 1.3136169
00000000: 8373 823e 3ad9 b2be dbc1 56be bc2e 143f
00000010: 50ed 93bf 6782 70bf 4c8f 303f bfd3 08be
00000020: f28c 753e d647 d63d 2203 99be 107e 2c3e
00000030: 12de bdbf 035e 1f3f d114 293f a963 8cbf
00000040: 4b7a 31be 8b7a 0e3c fb14 163e d625 efbf
00000050: 1adb fd3e cd26 c53e ce48 aebf 792d a9be
00000060: 5e91 823e 7918 0bbf 281f 08bf 7f61 4fbd
00000070: db8c 86bf 754c e83f 83f8 89bf 4cce 8bbf
00000080: 75e7 383e eda1 143f 3de3 c7bd e1a0 cabe
00000090: c4fd 0c3f e644 48bf 2de7 a2be 3ce5 84be
000000a0: 1ec9 543e 9624 b6be db69 17bf 52f7 63bf
000000b0: fa42 243e 33d7 623e 5e6f 923d 08a6 14bf
000000c0: 6221 313e 844c 12bf cbff 0e3d b392 b5bd
000000d0: e950 4fbf 8ec0 483f 8bac 8bbe 69f1 7cbf
000000e0: aeb8 00bf 25ff d4be 7b90 de3e 4074 8dbd
000000f0: 2c32 7dbf 2105 bbbe b74e 21bf 6e68 0e3f
00000100: 0eba d5be 7e42 5dbd f6db 2a3f 4fbc 40bf
00000110: c2a9 133f 6dd2 023f af7a 84be e106 7abe
00000120: 5214 463e c8bf 8f3e 755a 0d3f ac6a 0cbf
00000130: 1590 32bf e923 563f b39d 773d 8011 923f
00000140: 7dcb bfbd d338 fb3e f281 4a3e 1343 1f3f
00000150: 6e3b 293f 2a03 51bf 9ec7 23bf 1565 003f
00000160: 1b04 313f a5c1 1dbf 7cad 17bf a922 c5b9
00000170: b605 4d3f 0d9e 833f b1ce 3dbf 7666 83bf
00000180: 9256 533e b474 05bd a9cc 1e3f fd5c cabd
00000190: c57d 5abe dc92 933c bf65 55be 7b08 a83e
000001a0: c24b c6bb c944 b03b 1c7b be3b d2eb 7fbf
000001b0: 6791 a73f d32e a13f 6a3c 843f 1f36 ae3f
000001c0: 3635 653f 792d 043d 646f 923d 7924 c53e
000001d0: 327a 3f3f 7866 a1bf 92ce 8fbf 5aa0 d7be
000001e0: 12ce 1ebf 5a3a 393f 6aea 243f bc17 34be
000001f0: 94dc 81be a064 6fbf 93c8 a03f d611 243f
00000200: a928 11bf b738 d5bd 0979 b13e 193d 34bd
00000210: a933 3e3e dfe5 71be 7db4 303f 0442 aa3d
00000220: acf8 4a3e 3b99 40be c792 643e 9e4c b8be
00000230: f76c 943f af97 253f 0d33 89bf 64ab 443f
00000240: e636 d03e 2f3f 49be 35e8 223c 268a c5bf
00000250: ff55 7bbf e13f 883f e726 d33e 9cc6 cf3e
00000260: 2582 d83e ff39 e8be bd32 c5be 5659 823e
00000270: 643a a33f a27d 483f 5da9 b6bf 8eee 29bf
00000280: 1aeb 58be 00a8 82be f366 92be ff47 1d3f
00000290: f892 33bf 996e 2b3f be26 efbe e34c 10bf
000002a0: 6f20 8bbe 25e2 73bf 52dc be3e dcd4 f63d
000002b0: 7f15 32bf a6dd 92bd a961 82bf fd4f ddbe
000002c0: e7c4 e53e 17fd 93bf 3074 123d b220 e3be
000002d0: a209 48bf e954 383e b953 79bc cfb6 3ebf
000002e0: 62de 4fbf a538 44be 6f23 f4be fc2e e3be
000002f0: 898b 643f fba3 a83e 8fcc 2ebf e79c 2d3d
00000300: 35cc b4be f861 6bbe ba00 1cbd dcd3 d83e
00000310: e0e6 2ebe 18a3 d4be e80d 2d3d 3b0f 8fbd
00000320: 5df1 27bd 6c82 00be baa2 27bd aa6e 8cbe
00000330: 5bd8 73bf 7d7d b43e fb01 1a3f 1875 8c3d
00000340: c13f 563d d632 e63d 9db4 1fbd eee5 5cbe
00000350: 8e56 50bd 28f9 b73d b7c5 adbe 4acd d23e
00000360: e124 9d3d 4358 393e 5feb cd3e d56e 5e3f
00000370: 2918 95bf e236 abbf 18e0 d8bf bf86 65bf
00000380: 8c0d 7b3d a4d6 993d d1da 6abd cf50 dd3e
00000390: c78c 1ec0 adfe a0bd 3ea4 e3be b355 49bf
000003a0: 9bde ff3d 73c7 fe3e e330 203f 58e5 bbbd
000003b0: fe67 0840 feba dcbe 0a1e 06c0 62ef d9bf
000003c0: ce81 1ebe 589c 7cbe a34b 2cbe ed5d 06bf
000003d0: b19d 2b3f 9052 163f 6c95 f6be 5086 acbe
000003e0: 5f58 8ebf b8b1 d2be 239f d33e fa8e cc3d
000003f0: 506f a6bf c7a3 9cbf 4ab9 46bf 9924 a83f

linear1.bias f4 [256]
-0.38121286 -0.18979062 -0.22603455 -0.41745415 -0.03350214 0.059366155 -0.8360114 -0.1690314
0.46556717 -0.13731626 -0.1639242 -0.21863171 -0.7901378 -0.17292492 -0.6381306 -0.07934369
-0.0607959 0.5716711 0.29132956 0.4814012 0.3295378 -0.24514401 0.3368178 -0.23494402
-0.21494165 -0.19171745 -0.24550873 -0.1909173 -0.07064037 0.15956712 2.0786777 0.101436764
-0.17294447 1.1847618 -0.16011727 -0.6005322 -0.49806258 0.8792609 0.1274538 -0.5950745
-0.016972106 -0.09571327 -0.5053195 -0.4533617 0.008112738 -0.23223457 -0.7464761 -0.55792964
-0.8954808 -0.1649523 -0.3541881 2.4693618 0.5348977 -0.37630308 -0.31449667 -1.1795237
0.1290207 -0.27031553 0.09904756 0.5037379 2.2187204 0.008214187 -0.49121675 -0.023490839
-0.22698937 -0.1821036 -0.8252387 -0.39989617 -0.44520175 -0.13620019 -0.034389563 1.2198104
-0.31737772 -0.09192771 -0.44803828 0.23562846 -0.38154778 -0.38146928 0.065715104 -0.44244727
0.01523436 -0.013640815 1.3650542 -0.49923614 0.1189502 -0.7637925 0.5093423 -0.39407966
-0.39721516 0.3283636 -0.38550866 -0.12751757 0.042503417 -0.31498733 -0.3201284 -0.24039362
-0.5120903 -0.48076943 -0.3903562 0.030259276 -0.51077306 -0.030049616 0.10509541 -0.21839361
0.20055984 -0.2851346 1.7250831 0.42748863 -0.8379312 -0.8578998 -0.2049561 0.0077209002
-0.082474425 0.070596516 1.8035519 -0.43675917 -0.3417989 -0.123561725 0.41345638 -0.12124374
-0.19729705 -0.44247028 0.29902786 0.17337914 -0.15183869 -0.3230303 1.1643114 -0.38619125
-0.64573705 -0.28385276 -0.18016708 0.4586083 -0.2855522 0.09740316 -0.09939666 -0.64010984
0.20694385 0.54268986 -0.05476339 -0.23281236 0.29070938 -0.3439866 -0.7560256 0.99344456
-0.11714105 -0.2818181 -0.44848022 -0.20774052 2.4430454 0.11376645 -0.43908092 -0.5487042
-0.65665513 0.2960568 -0.85379356 -0.11600417 -0.35453653 -0.853102 -0.16963835 -0.54883766
-0.18320216 -0.30582288 -0.2957876 -0.03125121 0.09379666 0.22122324 -0.05717996 -0.41779536
0.2516367 -0.3728016 -0.39646 -0.24073243 0.1345264 -0.5572346 -0.20320982 -0.8595051
-0.7177732 -0.07123086 -0.19462374 -0.3810674 -0.28244463 -0.25073686 0.0050115376 0.520995
-0.12889391 -0.13884836 -0.25158107 0.51680934 -0.74767935 -0.3040196 0.009084403 -0.04708382
-0.037543897 -0.25859815 0.18133554 -0.35808668 -0.3956447 -0.74966353 -0.703605 -0.5860025
-0.06164022 0.28037298 1.7927049 -0.5722829 -0.2200715 -0.78919345 -0.24239002 -0.24312656
-0.60938025 -0.8794585 -0.09751941 0.24873762 0.14714602 -0.24175036 0.45480368 -0.22966045
-0.8565056 0.04853979 -0.8229848 0.8824607 -0.76346755 -0.23031598 -0.3639382 3.640919
-0.4823175 -0.36822075 -0.4637836 -0.74364465 -0.14650004 -0.014947234 -0.10289034 -0.13692121
-0.8547027 -0.33948523 0.07731485 -0.41059032 -0.28373775 -0.2937478 -0.68138826 -0.32934517
-0.8255724 -0.30521297 0.24272303 -0.27323785 -0.17529243 -0.42914754 -0.78559256 -0.0876905
-0.94625777 -0.7936493 -0.15810055 -0.13313137 -0.74485105 -0.93411434 -0.32004473 -0.10507572
00000000: 552e c3be 7958 42be 9a75 67be 8dbc d5be
00000010: 8a39 09bd ed29 733d d804 56bf 9116 2dbe
00000020: d25e ee3e a29c 0cbe bfdb 27be fee0 5fbe
00000030: 7946 4abf 3b13 31be 875c 23bf f27e a2bd
00000040: 1f05 79bd 0a59 123f 2629 953e 387a f63e
00000050: 2eb9 a83e 0807 7bbe 6273 ac3e 2a95 70be
00000060: aa19 5cbe 9451 44be a466 7bbe d37f 43be
00000070: e6ab 90bd 9065 233e 0e09 0540 14be cf3d
00000080: 5b18 31be 46a6 973f c8f5 23be 7abc 19bf
00000090: 0f02 ffbe 3e17 613f 4083 023e cd56 18bf
000000a0: 1609 8bbc 5205 c4bd 9e5c 01bf 061f e8be
000000b0: 4aeb 043c e6ce 6dbe 0f19 3fbf 7ad4 0ebf
000000c0: 3b3e 65bf 41e9 28be 2558 b5be 060a 1e40
000000d0: 0eef 083f ccaa c0be b505 a1be a2fa 96bf
000000e0: 011e 043e cc66 8abe 72d9 ca3d f8f4 003f
000000f0: 84ff 0d40 cc94 063c c380 fbbe dc6f c0bc
00000100: e76f 68be 5e79 3abe d842 53bf 31bf ccbe
00000110: 7cf1 e3be 1078 0bbe 12dc 0cbd bf22 9c3f
00000120: 557f a2be 9844 bcbd 4665 e5be 9648 713e
00000130: 3b5a c3be f14f c3be a495 863d 7388 e2be
00000140: 8999 793c ba7d 5fbc 19ba ae3f e19b ffbe
00000150: 2a9c f33d e887 43bf 4264 023f cfc4 c9be
00000160: c95f cbbe 461f a83e 6461 c5be f793 02be
00000170: 1018 2e3d 0546 a1be dfe7 a3be bf29 76be
00000180: 5a18 03bf 6927 f6be c5dc c7be 4de2 f73c
00000190: 06c2 02bf 9d2a f6bc 433c d73d 93a2 5fbe
000001a0: 8f5f 4d3e 2afd 91be 86cf dc3f cadf da3e
000001b0: a982 56bf 529f 5bbf 03e0 51be 9bff fc3b
000001c0: 5ae8 a8bd e894 903d cada e63f e69e dfbe
000001d0: 4400 afbe ee0d fdbd 8eb0 d33e a34e f8bd
000001e0: 3d08 4abe 778b e2be 2e1a 993e 4d8a 313e
000001f0: 9a7b 1bbe 3a64 a5be 2808 953f dcba c5be
00000200: 064f 25bf 2655 91be b87d 38be b5ce ea3e
00000210: e633 92be 4f7b c73d 7a90 cbbd 3dde 23bf
00000220: 17e9 533e b9ed 0a3f 944f 60bd 5d66 6ebe
00000230: dcd7 943e 031f b0be e58a 41bf 6252 7e3f
00000240: a6e7 efbd 764a 90be 339f e5be eeb9 54be
00000250: db5a 1c40 62fe e83d 37cf e0be e177 0cbf
00000260: 8d1a 28bf c294 973e 3792 5abf 9893 edbd
00000270: d085 b5be e564 5abf adb5 2dbe a080 0cbf
00000280: 5999 3bbe d194 9cbe 7971 97be 4501 00bd
00000290: 7718 c03d 5888 623e 8935 6abd 46e9 d5be
000002a0: 87d6 803e dadf bebe cefc cabe 9082 76be
000002b0: 4ac1 093e eda6 0ebf 3c16 50be 8708 5cbf
000002c0: fcbf 37bf 7ce1 91bd 724b 47be 441b c3be
000002d0: 959c 90be 9560 80be d337 a43b ee5f 053f
000002e0: c4fc 03be 442e 0ebe 3ccf 80be 9e4d 043f
000002f0: ea67 3fbf 75a8 9bbe bfd6 143c f7da 40bd
00000300: a1c7 19bd fa66 84be 06b0 393e 2357 b7be
00000310: f191 cabe f3e9 3fbf 751f 34bf 4304 16bf
00000320: 757a 7cbd 0c8d 8f3e 5b77 e53f 2281 12bf
00000330: 6c5a 61be 9508 4abf 1735 78be 2bf6 78be
00000340: 5800 1cbf 3124 61bf 42b8 c7bd 13b5 7e3e
00000350: 72ad 163e 688d 77be 07dc e83e 1c2c 6bbe
00000360: f343 5bbf a9d1 463d 22af 52bf f2e8 613f
00000370: 9c72 43bf f4d7 6bbe 1c56 babe d104 6940
00000380: 52f2 f6be 6e87 bcbe 0b75 edbe 7f5f 3ebf
00000390: 1b04 16be 3ee5 74bc 2cb8 d2bd 1335 0cbe
000003a0: cccd 5abf 02d1 adbe 4057 9e3d e538 d2be
000003b0: 1346 91be 1d66 96be 766f 2ebf ee9f a8be
000003c0: b658 53bf e044 9cbe 638c 783e d5e5 8bbe
000003d0: dc7f 33be 3ab9 dbbe 981c 49bf 1497 b3bd
000003e0: f33d 72bf 9a2c 4bbf 1ce5 21be 9753 08be
000003f0: 8fae 3ebf 1e22 6fbf e7dc a3be f031 d7bd

linear2.weight f4 [3, 256]
-0.97288865 1.0025023 0.4885157 -0.44641912 0.2809691 0.6310187 -0.39866078 -1.449737
0.3834816 -0.71609324 -0.9003137 0.33064738 0.12850793 -0.72147304 2.0952697 -1.3898202
-0.068002485 0.6947507 1.346801 0.3974694 2.1011333 -0.5210055 0.99431366 -0.023839986
-0.66712165 0.09246532 -0.038786642 0.42167142 0.13241084 1.0043993 0.4301142 0.47781876
-3.7720196 0.32199308 -0.39236918 -0.21706171 0.33732393 0.75788575 0.38766122 0.055322092
-0.77207905 0.058612753 -0.6408312 0.9659276 0.014920872 -0.42802283 -0.64987594 0.038214453
0.08311354 -0.7311398 0.20008764 0.46568424 0.2315545 0.80407494 -0.009749964 -0.021091424
0.31663325 -0.021355469 0.60669047 0.4753792 0.5024782 0.7591204 -0.034591313 0.2433402
0.32630718 0.038238794 -1.0198283 -0.03224453 0.53994966 -0.6475633 0.5696734 0.20901287
0.4544503 0.91622484 0.9309444 0.47555318 -0.16319942 0.043309033 0.6685503 0.055711083
0.13195048 0.09305112 0.3190678 -0.70434505 0.11609061 0.24489243 0.71781355 -0.48162425
-2.0271657 1.8325176 -0.4778304 -1.1142559 1.1066461 0.04397087 0.0011480253 0.28396815
0.09727287 -0.1525085 -0.7679989 -0.85682315 -0.04072245 0.39223975 0.72082883 -0.18755557
0.8001586 -0.40814927 0.4417158 0.8783279 -0.61771303 -0.03877829 -0.7723847 -0.9157872
0.08679034 1.0413934 0.3423453 -0.20397086 -0.9229437 1.1591245 0.7469864 -0.23385152
1.0594069 -2.372734 -0.03640466 0.33370978 0.077487886 0.11208454 0.3205755 0.040052667
-0.41551867 -0.17659605 0.77732974 0.87298894 -2.5488124 0.5059324 0.93746394 -0.07588687
0.76547503 1.782797 -1.2929474 0.036198303 1.5515463 -2.3565063 -0.009981179 0.83544505
-0.006566835 0.124302775 -0.3600924 0.18843032 0.5776809 1.1327467 -0.50273615 0.076415434
0.19222893 -0.6953336 -0.47921205 -0.7551871 0.33643103 -0.90247446 0.6393415 -0.17238039
-0.9699395 0.5728533 0.11295718 0.24527262 -0.20199545 0.6715763 -0.93172383 -0.9496605
0.25075248 -0.112528145 0.02129661 -0.39915872 -1.8754649 -1.8702596 -1.1702653 0.047380205
0.047513776 -1.9403934 0.24131288 0.04630996 -1.1271429 -0.378519 0.18031602 0.6360565
-1.5814564 0.03595171 0.027366262 0.78428364 -0.5371466 0.12875752 0.19345793 -0.02286176
-0.07912843 -1.9435834 0.7888734 0.6824341 -1.0131024 -0.37790212 -0.3437346 0.0130681135
0.41382775 0.77181405 0.45424077 -0.09813856 0.055065405 -0.051826797 0.020412477 0.028789667
0.17789814 -0.13937393 0.43705595 0.86425096 -0.005452091 -1.7232262 0.826776 -0.44689274
0.010716058 0.3157908 -0.086820446 0.2591256 0.12253942 1.0734496 0.19773667 0.6595636
-0.14618158 -0.9529954 -0.40826705 -0.0865978 -0.019438867 0.38846213 -0.4724726 -1.2536199
-0.23777328 0.18862993 -0.25828323 0.11778186 0.55976427 0.020976346 0.06478233 0.18495835
-0.32355472 0.0062837005 0.9415184 1.2303386 0.34058115 0.047076963 -0.2906236 0.49220258
0.44235834 0.35163626 0.7020742 -0.63735807 -0.054475248 -0.043294076 1.1145805 -0.6191772
00000000: 3b0f 79bf ff51 803f bb1e fa3e 0c91 e4be
00000010: 2fdb 8f3e 718a 213f 441d ccbe fb90 b9bf
00000020: b357 c43e e351 37bf f57a 66bf 9d4a a93e
00000030: 9597 033e 75b2 38bf e618 0640 a1e5 b1bf
00000040: e344 8bbd 2fdb 313f fa63 ac3f 1c81 cb3e
00000050: f878 0640 9e60 05bf 578b 7e3f 134c c3bc
00000060: 7cc8 2abf 755e bd3d bede 1ebd 51e5 d73e
00000070: b596 073e 2890 803f ee37 dc3e a9a4 f43e
00000080: c568 71c0 47dc a43e 9de4 c8be 6d45 5ebe
00000090: b9b5 ac3e cd04 423f 887b c63e 6b99 623d
000000a0: f9a6 45bf ed13 703d 830d 24bf 0847 773f
000000b0: ac76 743c cf25 dbbe 455e 26bf c286 1c3d
000000c0: 6f37 aa3d fa2b 3bbf c6e3 4c3e 2a6e ee3e
000000d0: 9f1c 6d3e dbd7 4d3f 50be 1fbc ecc7 acbc
000000e0: c11d a23e aaf1 aebc 1150 1b3f e764 f33e
000000f0: 69a2 003f b755 423f 9faf 0dbd 2c2e 793e
00000100: bc11 a73e 48a0 1c3d bc89 82bf d712 04bd
00000110: 243a 0a3f b5c6 25bf 1ed6 113f 7807 563e
00000120: b6ad e83e b68d 6a3f 5f52 6e3f b57b f33e
00000130: c01d 27be d064 313d 1d26 2b3f 4e31 643d
00000140: 071e 073e 9691 be3d db5c a33e f54f 34bf
00000150: eac0 ed3d 15c5 7a3e a1c2 373f 7497 f6be
00000160: 15bd 01c0 f08f ea3f 30a6 f4be f09f 8ebf
00000170: 94a6 8d3f cd1a 343d 5679 963a 4664 913e
00000180: 0037 c73d 302b 1cbe 939b 44bf c358 5bbf
00000190: 95cc 26bd a6d3 c83e 3d88 383f 910e 40be
000001a0: 32d7 4c3f f1f8 d0be 9328 e23e 19da 603f
000001b0: 7122 1ebf fcd5 1ebd 01bb 45bf 0871 6abf
000001c0: 22bf b13d 614c 853f e247 af3e bddd 50be
000001d0: 0a46 6cbf 315e 943f 803a 3f3f c676 6fbe
000001e0: a59a 873f e0da 17c0 0e1d 15bd 02dc aa3e
000001f0: f8b1 9e3d 948c e53d 7922 a43e 440e 243d
00000200: ddbe d4be 98d5 34be 15ff 463f 347c 5f3f
00000210: be1f 23c0 c984 013f a3fd 6f3f 936a 9bbd
00000220: 2cf6 433f b132 e43f 4d7f a5bf ac44 143d
00000230: 1299 c63f 00d1 16c0 1988 23bc badf 553f
00000240: 9b2e d7bb 7492 fe3d 085e b8be e1f3 403e
00000250: e5e2 133f d8fd 903f 51b3 00bf b27f 9c3d
00000260: a9d7 443e 6201 32bf 485b f5be f153 41bf
00000270: b040 ac3e 9108 67bf e2ab 233f 7c84 30be
00000280: f44d 78bf 84a6 123f 1856 e73d bf28 7b3e
00000290: e5d7 4ebe 6dec 2b3f 7485 6ebf f31c 73bf
000002a0: a162 803e 2875 e6bd 3a76 ae3c 885e ccbe
000002b0: 3c0f f0bf ab64 efbf 41cb 95bf bf11 423d
000002c0: ce9d 423d d05e f8bf b91a 773e 83af 3d3d
000002d0: 3846 90bf 3ecd c1be c3a4 383e 99d4 223f
000002e0: 2a6d cabf 1a42 133d 362f e03c d0c6 483f
000002f0: 7182 09bf 03d9 033e d619 463e 9648 bbbc
00000300: 160e a2bd 57c7 f8bf 9bf3 493f 00b4 2e3f
00000310: 57ad 81bf 637c c1be fbfd afbe a41b 563c
00000320: 3be1 d33e 9b95 453f 3f92 e83e dffc c8bd
00000330: 438c 613d 5648 54bd 1138 a73c 4fd8 eb3c
00000340: ee2a 363e 0ab8 0ebe ccc5 df3e 8d3f 5d3f
00000350: 74a7 b2bb ad92 dcbf 98a7 533f 20cf e4be
00000360: 6892 2f3c 55af a13e ebce b1bd 1cac 843e
00000370: f3f5 fa3d cc66 893f 7b7b 4a3e 29d9 283f
00000380: a0b0 15be 82f7 73bf 6108 d1be 305a b1bd
00000390: 423e 9fbc 82e4 c63e eee7 f1be 9e76 a0bf
000003a0: d77a 73be 3428 413e b33d 84be 9e37 f13d
000003b0: b64c 0f3f 96d6 ab3c 99ac 843d b965 3d3e
000003c0: f7a8 a5be 80e7 cd3b 5a07 713f bc7b 9d3f
000003d0: a760 ae3e c6d3 403d 9ecc 94be fa01 fc3e
000003e0: cb7c e23e ab09 b43e 23bb 333f e629 23bf
000003f0: 7021 5fbd 2155 31bd 93aa 8e3f 6682 1ebf

linear2.bias f4 [3]
0.6475471 0.32916945 0.42270806
00000000: a6c5 253f e688 a83e 316d d83e
