model/DQN/checkpoint_3400.pth (torch, 23085 bytes, 4 tensors)

linear1.weight f4 [256, 16]
00000000: efe0 c63e 7314 6fbe 4cf9 8fbd f65d 313f
00000010: 0cd3 84bf 2850 64bf 06cc 303f fb75 06bc
00000020: b09c ac3e 1828 263e 703c 9dbe e6af 913e
00000030: 8d52 bfbf 6168 4a3f dd0b 3f3f 0d64 9ebf
00000040: ef76 fbbd ca84 4b3d d44b 6b3e 0115 ebbf
00000050: cddc 163f d8a0 b13e fdb1 afbf 1345 39be
00000060: 13e7 353e ce3a 09bf e255 08bf 431d 8d3c
00000070: db8c 86bf bb3f de3f 5f10 85bf 2cf9 8abf
00000080: 65e6 9e3d 2441 1a3f 28b1 fd3d 51d7 b5bd
00000090: d3e1 ee3e e644 48bf ab58 90be 0ca4 9dbe
000000a0: a70e bd3d 2130 6cbe 26a4 3abf d051 34bf
000000b0: 13ca 633e e5c0 eb3e 90f7 883e a87e f2be
000000c0: 3c79 383e c089 18bf aae6 f4bd fba3 7dbc
000000d0: 42cb 38bf 54b9 3e3f 92db 9cbe 6b50 81bf
000000e0: 3e31 bfbe b13a 9abe e4dc c43e 23f9 9abd
000000f0: 86ca 6dbf b4b5 5cbe 5051 14bf 5804 093f
00000100: 2c6d a7be 6f0a ea3b 3356 273f 88c8 48bf
00000110: 9146 143f 0c9a 013f 5ad8 0abe 2a5a 51be
00000120: c2bc 033e a4bf cb3e 49d9 db3e b17f 00bf
00000130: 7b7c 61bf d08e 4b3f 4300 6e3d 6704 893f
00000140: 487e 4abd 4aa6 d73e e0d0 493e 1578 0b3f
00000150: 10ec 1d3f b640 32bf bc6c 2abf 47a6 0f3f
00000160: eac9 1e3f c866 06bf 6317 1ebf f3d5 773c
00000170: 885c 643f c3a3 763f 81bc 64bf 620b 74bf
00000180: af4b c33d 0e34 dc3b 1a2e 183f 60ba 1cbe
00000190: 599c dfbd e85f 63bd a647 11be a879 903e
000001a0: 92ae 9e3c 005f 4ebc 47a7 ccbd aa53 7cbf
000001b0: 9fbc a43f 5f6e 9a3f 70ab 833f 2983 9b3f
000001c0: 6675 683f ebfe f53d 00d1 473d e2f9 b43e
000001d0: 7807 3e3f 30e5 97bf 7c75 5dbf a490 a4be
000001e0: 028b 20bf f382 283f a548 223f 77d7 3ebe
000001f0: aaf9 9dbe 311e 5ebf 71c9 983f 2a0d 1d3f
00000200: 27b2 fbbe ac47 10be 5c0e aa3e 5ccf 2ebe
00000210: 0aaf 4a3e f9a9 9ebe 26a6 333f 38ee 1f3d
00000220: 7923 223e e11a 65be d9f9 1d3e fccc e1be
00000230: 9071 8e3f 9837 0a3f a5ea 91bf 4937 403f
00000240: e9f9 d33e 5430 cbbd 68ca 2c3c 3259 bbbf
00000250: 0ca2 54bf d3c0 873f 428a ee3e e1e0 ab3e
00000260: 5991 cb3e 74ab febe 0b57 71be 8eec 7b3e
00000270: 362d 9f3f a38e 333f f256 a6bf bcf3 00bf
00000280: cca9 0bbe 7b79 2abe ab7d 8ebe 74e3 193f
00000290: f892 33bf ea2b 2d3f e077 e2be 7569 00bf
000002a0: ad92 f1bd 25e2 73bf 6711 a83e 80ec c5bb
000002b0: c5cb 52bf e407 253e a3d0 8dbf ab6a ecbe
000002c0: d8c0 153f d9ec 8fbf 6d2a 6b3d 9bd3 90be
000002d0: 7e89 40bf 7951 6b3e 52c3 a5bc 5737 37bf
000002e0: 9d90 4fbf 25da 0ebe 0300 ddbe cc41 8dbe
000002f0: 24cf 663f 396e b13e 911a 04bf 0aa6 dbbd
00000300: 1e36 bcbe 1149 85be fc60 02bd fb7d 213f
00000310: 3eec 05be 8874 7abe 3fc2 85bd 57c7 113d
00000320: 426e 18bd e3f4 723d bab6 c13d fc25 babd
00000330: 405d 65bf d908 943e 0e09 273f 0ca5 953d
00000340: 2911 393d 32f4 033e 5b7c 05bc 2ddd 53be
00000350: f021 d4bd 5312 d93d f351 adbe cc68 943e
00000360: d449 3b3e d8b6 ed3d f10e e53e d2ea 4e3f
00000370: 9e61 8abf 689c a7bf 74d4 dbbf dc1c 32bf
00000380: ed47 79bd bf41 03bc 2706 d8bc a39a 063f
00000390: 7d0a 13c0 0697 02be 4a46 0abf 9011 50bf
000003a0: f125 403e 859a ff3e d40d 2f3f fa9d 0ebe
000003b0: 8ef2 0640 979e 1cbf ea83 ecbf dd28 bebf
000003c0: 73c6 58be faad adbe 2827 31bd 2e7e 03bf
000003d0: 6a0d 0a3f 2d3a 0c3f a865 debe 6040 a7be
000003e0: 3696 96bf e9f6 d3be e14d f53e 8680 643d
000003f0: f8e6 9cbf 8a9c a2bf 8ccb 4ebf e13f 8f3f
0.38843486 -0.23347645 -0.070299715 0.69284 -1.0376906 -0.8918481 0.69061315 -0.00820684
0.33713293 0.16226232 -0.30710173 0.28454512 -1.4947067 0.7906552 0.74627477 -1.2374283
-0.12278544 0.049687184 0.22978145 -1.8365785 0.58930665 0.34693027 -1.3726193 -0.18092756
0.17763929 -0.53605354 -0.53256047 0.017225867 -1.0511736 1.7363199 -1.0395621 -1.0857291
0.07758788 0.60255647 0.123873055 -0.08878959 0.46656665 -0.7823013 -0.28192648 -0.3078922
0.0923131 -0.23065235 -0.7290672 -0.70437336 0.22245054 0.46045604 0.26751375 -0.47362256
0.18014997 -0.5958519 -0.11958058 -0.0154809905 -0.72185147 0.7450154 -0.3063627 -1.0102667
-0.37342256 -0.30122903 0.38449776 -0.0756705 -0.9288715 -0.21553689 -0.57936573 0.53522253
-0.3270048 0.007142357 0.65365905 -0.78430986 0.57920176 0.5062568 -0.13559094 -0.20444551
0.12864974 0.39794648 0.42939213 -0.5019484 -0.8808057 0.7951479 0.05810572 1.0704468
-0.049436837 0.42119056 0.19708586 0.54480106 0.6168833 -0.6962999 -0.66572165 0.56113094
0.62026846 -0.5250058 -0.61754435 0.015126693 0.8920369 0.9634363 -0.89350134 -0.9532987
0.0953592 0.0067200726 0.59445345 -0.15305471 -0.10918493 -0.055511385 -0.14187488 0.28217816
0.019370351 -0.012595892 -0.09992843 -0.9856516 1.2870063 1.2064933 1.0286694 1.2149402
0.90804136 0.12011512 0.048783302 0.35346895 0.74230146 -1.1866817 -0.8650739 -0.32141602
-0.6271211 0.6582481 0.63392097 -0.18636881 -0.3085454 -0.8676482 1.1936475 0.6134821
-0.49159357 -0.1408984 0.3321408 -0.17071289 0.19793335 -0.30989054 0.701754 0.039045542
0.15833844 -0.22373535 0.1542734 -0.44101703 1.1128407 0.5399108 -1.1399733 0.7508436
0.41401604 -0.09921327 0.010546304 -1.4636595 -0.83059764 1.060572 0.46589857 0.33570006
0.3975933 -0.49740183 -0.2356836 0.24601957 1.2435672 0.7013952 -1.2995284 -0.5037191
-0.13638991 -0.16647904 -0.27830252 0.6011269 -0.7014613 0.6764513 -0.44232082 -0.50160915
-0.11795554 -0.95266944 0.32825777 -0.006040156 -0.8234218 0.16116291 -1.1079296 -0.4617513
0.5849738 -1.1244155 0.057413507 -0.28286442 -0.75209796 0.22980298 -0.020234738 -0.71568817
-0.8108004 -0.13950403 -0.4316407 -0.27589262 0.9015982 0.34654406 -0.5160304 -0.10725029
-0.36760038 -0.26032308 -0.031830773 0.63082856 -0.130784 -0.24458516 -0.0653119 0.035590496
-0.037214525 0.059315573 0.094586805 -0.09089276 -0.89595413 0.28913 0.6524819 0.07306871
0.04518238 0.12886122 -0.008147324 -0.2068984 -0.103580356 0.10599198 -0.33851585 0.28986204
0.18289882 0.1160714 0.44737962 0.8082706 -1.081104 -1.3094606 -1.717421 -0.69575286
-0.06085961 -0.008011281 -0.026370121 0.52579707 -2.2975152 -0.12752923 -0.540135 -0.812768
0.18764473 0.49922577 0.68380475 -0.13927451 2.1085544 -0.6117949 -1.8477757 -1.485622
-0.21169452 -0.33921796 -0.043250233 -0.5136441 0.5392672 0.5477627 -0.43436933 -0.32666302
-1.1764591 -0.41399315 0.4791098 0.055786632 -1.2257986 -1.2704022 -0.8077934 1.1191369

linear1.bias f4 [256]
00000000: 64fb 77be 279c a0bd 0867 9cbe 54b2 adbe
00000010: a85f 153d 094b a83d 595c 55bf 69e8 28be
00000020: b162 b93e e1e2 cebd 0511 50be 5924 c1bd
00000030: f960 10bf dafc 1abe e994 12bf 4032 d5bd
00000040: 77cf b03c 90fd 133f d73d bc3e 8cc5 dd3e
00000050: 45cd 913e b6c4 e7bd 60db b63e 2a95 70be
00000060: fa43 5cbe 9451 44be a466 7bbe 903d 2bbe
00000070: 0cfb abbc 3a92 2e3e 27cf 0040 5380 1bbc
00000080: 9123 28bd 2199 993f c42a 83be 331a 0abf
00000090: 70a5 ecbe 3829 583f 6a3b 7b3d 3008 02bf
000000a0: 5755 edbd 7e9f 8abd 484d e1be 8604 cabe
000000b0: a43b 5a3e 31ee 4fbe 98c2 21bf a230 e1be
000000c0: 3a96 36bf 5c64 05be f3a9 9dbe 5576 1940
000000d0: 0518 f83e a087 a7be b505 a1be 1534 65bf
000000e0: 0a7b 533e 8e75 acbe 1cf9 b13d 1c5f 043f
000000f0: 1f1e 0940 7c68 153b 0eb4 cfbe d8a4 49bb
00000100: ac1a 58be 56e1 a0bd 4680 41bf 31bf ccbe
00000110: bd35 d7be 55a8 44be c5af 0d3c dd3e 983f
00000120: 1046 6ebe bd22 ecbd ddf2 b5be ac65 423e
00000130: f8ba b8be f14f c3be 940f f53d 6080 afbe
00000140: 8d2d 31bd f0b6 42bd ccd3 a83f 721f ecbe
00000150: 5f49 3c3e 3c84 46bf 0111 e13e a381 adbe
00000160: 9d23 80be 2af5 953e 120f b9be cdad efbd
00000170: a4e9 6cbc 0546 a1be dfe7 a3be 2b74 86be
00000180: 5a18 03bf 6927 f6be 4123 b5be cdc1 ffbb
00000190: 06c2 02bf c03c d9bc d217 e83d 099d 2dbe
000001a0: ce1c 323e 944a 76be 7f87 dc3f d8b2 f13e
000001b0: bb76 35bf 529f 5bbf b741 65be c977 1cbd
000001c0: ddd1 3ebd af22 cd3d 2a20 da3f 58a6 91bd
000001d0: cc09 98be 5feb febd f5a5 c83e 69ab e8bd
000001e0: 5e1a 16be 2028 b4be be9f a53e e29a 243e
000001f0: 6daa 8cbd 0b7b 9fbe 5e27 933f dcba c5be
00000200: 41cc 15bf c6a9 96be bdc7 27be 9fba bb3e
00000210: 0636 80be 5d90 bc3d e46e 6bbd 616e 19bf
00000220: 1e91 8b3e 121c e63e 9d45 d6bd ae05 4ebe
00000230: 677d 4f3e 0466 91be 2be4 36bf 27bc 723f
00000240: a6e7 efbd f842 2cbe 2a22 bfbe a8d8 58be
00000250: 5353 1540 753a 023e db83 d8be e177 0cbf
00000260: 4749 19bf b4c0 823e cb9c 58bf fa36 3dbd
00000270: 5144 79be 0377 40bf a072 b1bd a080 0cbf
00000280: cb38 4abe 3ed9 a8be 9795 6dbe fb61 673c
00000290: 3461 443b 259e 503e 1d63 66bb 9b04 e0be
000002a0: 043e ac3e 6320 87be f33c b5be 990a 19be
000002b0: 2d21 213e 50a1 fabe 388b 70be 6d8e 18bf
000002c0: fcbf 37bf 22ae f7bc 5090 d6bd fae5 c3be
000002d0: 797c 90be ffc9 8cbe 909e 4dbd 85ca f73e
000002e0: ccd4 0ebe 442e 0ebe 3ccf 80be 95c4 0b3f
000002f0: 92de 2ebf ab69 88be 88c2 5bbc f7da 40bd
00000300: 3523 65bd 5fd0 acbe d46b 053e d17c babe
00000310: c165 92be a674 35bf 184d 17bf 4304 16bf
00000320: 757a 7cbd d4d2 ad3e fa92 d73f 2281 12bf
00000330: a0a3 26be 27c2 1abf a61e 38be 2bf6 78be
00000340: 2004 1fbf 2043 58bf 969d 84bc 7b68 823e
00000350: c27a db3d dba1 62be ab43 ff3e e4fb 2abe
00000360: f343 5bbf 4cbf 903d be25 0fbf 729a 603f
00000370: 9c72 43bf 970c 87be f2e4 cdbe d07b 5f40
00000380: e8b4 9abe df6a afbe 6650 0bbf 7f5f 3ebf
00000390: d536 53be ee73 f43c 03e5 0abe 9ecb 30be
000003a0: 43c2 4dbf 53f0 9abe dd77 9ebc 4c0a acbe
000003b0: 7c04 9dbe 1d66 96be 35e9 29bf 32f2 92be
000003c0: b658 53bf e044 9cbe 7b75 803e 2a52 7fbe
000003d0: c5b8 3ebe 3ab9 dbbe 981c 49bf 1f82 183d
000003e0: b207 37bf 1888 53bf 8627 13be 4e1d 34be
000003f0: c0c1 14bf 05fe 45bf 81e4 a5be 40f5 b1bd
-0.24216992 -0.07842284 -0.30547357 -0.33925116 0.036468178 0.08217437 -0.83344036 -0.16494907
0.36208108 -0.101018675 -0.20318992 -0.09430761 -0.5639797 -0.15135518 -0.5725847 -0.10409975
0.021583302 0.5780878 0.3676593 0.4331478 0.2847692 -0.113168165 0.35714245 -0.23494402
-0.21510306 -0.19171745 -0.24550873 -0.16722703 -0.020993732 0.17047969 2.0126436 -0.009491044
-0.041049544 1.1999856 -0.25618565 -0.53946227 -0.4621997 0.84437895 0.06133596 -0.50793743
-0.11588543 -0.06768702 -0.44004273 -0.39456576 0.21311814 -0.20305707 -0.6318755 -0.43982416
-0.7132298 -0.13026565 -0.30793723 2.3978474 0.48455825 -0.3272066 -0.31449667 -0.89532596
0.20652404 -0.33683437 0.08690092 0.51707625 2.1424634 0.0022797873 -0.40567058 -0.003076842
-0.21103925 -0.078554794 -0.75586355 -0.39989617 -0.42033187 -0.19204839 0.008647864 1.1894184
-0.23268914 -0.11530063 -0.35536852 0.18984097 -0.36080146 -0.38146928 0.11965862 -0.3427763
-0.04325633 -0.047537744 1.3189635 -0.4611774 0.18387364 -0.77545524 0.43958285 -0.33887967
-0.2502717 0.29288608 -0.3614431 -0.11703072 -0.014460001 -0.31498733 -0.3201284 -0.26260504
-0.5120903 -0.48076943 -0.3537846 -0.0078050853 -0.51077306 -0.026518226 0.11332668 -0.16954435
0.173938 -0.24051887 1.722885 0.4720676 -0.70884293 -0.8578998 -0.2238835 -0.038200174
-0.04658686 0.10016381 1.7041066 -0.07111806 -0.29694974 -0.12447237 0.39189115 -0.11360819
-0.14658496 -0.35186863 0.32348436 0.16074708 -0.06868444 -0.31148562 1.1496389 -0.38619125
-0.5851479 -0.29426402 -0.16384788 0.36665818 -0.25041217 0.092072226 -0.0574788 -0.5993405
0.27259153 0.4494329 -0.104624964 -0.20119354 0.20262681 -0.28398144 -0.71441907 0.9481835
-0.11714105 -0.16822422 -0.37330753 -0.21176398 2.3332107 0.12717612 -0.42288098 -0.5487042
-0.5987744 0.25537646 -0.8461425 -0.046195008 -0.24342467 -0.751816 -0.08664441 -0.54883766
-0.19748227 -0.32978243 -0.23201595 0.014122481 0.0029965164 0.20372827 -0.003515429 -0.43753514
0.33641064 -0.26391897 -0.35398063 -0.14945449 0.15735312 -0.48951197 -0.23490608 -0.59592324
-0.7177732 -0.0302344 -0.10476744 -0.38261396 -0.28219965 -0.2749786 -0.050200045 0.48396698
-0.13948363 -0.13884836 -0.25158107 0.54596835 -0.68308365 -0.26643118 -0.013413079 -0.04708382
-0.05594178 -0.33752725 0.13029414 -0.36423352 -0.28593257 -0.70881116 -0.5910201 -0.5860025
-0.06164022 0.33949912 1.6841729 -0.5722829 -0.16273355 -0.604525 -0.17980441 -0.24312656
-0.6211567 -0.84477425 -0.016188424 0.25470337 0.107167736 -0.22132055 0.49856314 -0.16697651
-0.8565056 0.07067737 -0.55916965 0.87735665 -0.76346755 -0.26376793 -0.40213734 3.491932
-0.30216146 -0.34261224 -0.54419553 -0.74364465 -0.20626386 0.029840436 -0.13563924 -0.17265174
-0.80374545 -0.30261478 -0.019344265 -0.33601606 -0.30667484 -0.2937478 -0.6637147 -0.28700405
-0.8255724 -0.30521297 0.2508963 -0.24933687 -0.18625171 -0.42914754 -0.78559256 0.03723347
-0.7149612 -0.8262954 -0.14370546 -0.17589304 -0.5810814 -0.7734073 -0.32400897 -0.08689356

linear2.weight f4 [3, 256]
00000000: 599d aabf fd04 823f 69f7 d13e ad82 a9be
00000010: 8757 a53e c4b2 263f fe3f e1be 1818 b5bf
00000020: 2395 d23e b40f 51bf 09ee 63bf 93bc 8f3e
00000030: ef50 4d3b 17d9 2cbf 0455 ff3f 060b b8bf
00000040: e807 78bc 52d4 383f 5bbb ac3f 052a de3e
00000050: 5064 fe3f bd42 00bf e0cb 853f 134c c3bc
00000060: 742b 46bf 755e bd3d bede 1ebd d2ea bd3e
00000070: c45c 6c3e dd4b 833f 74a7 e93e c9cc fe3e
00000080: a51d 6ec0 aa6b b63e 8336 f7be 2442 2dbe
00000090: 1d3f 743e e2a1 3d3f e407 e53e 8f78 cc3d
000000a0: 1f73 40bf dc5e 14bc d4d1 60bf 80b6 583f
000000b0: 78c4 343e 903d 12bf 9d09 19bf 7e0a d53d
000000c0: 645e ed3d 2d5d 50bf 6e66 493e d092 fb3e
000000d0: 182a 8a3e b843 563f 50be 1fbc 8d6f 58be
000000e0: 7e71 763e 410f 5cbd a2a6 133f 55ef cf3e
000000f0: 1322 083f da33 353f e25b c03d 2fa3 553e
00000100: fb17 953e d690 343d 67da 89bf d712 04bd
00000110: 8a2d f53e ace0 2ebf 9695 ea3e e578 7a3e
00000120: b1f2 fa3e 6e73 6a3f eb26 5c3f 7c5e e63e
00000130: 67d4 84be d064 313d 3238 263f 4db1 b3bc
00000140: e3fd 183e 2344 083e b3b9 b13e 124d 37bf
00000150: 96d9 5f3e 6fd7 f13d f6e3 1e3f 0cdb 24bf
00000160: 59b4 02c0 20db e63f a2fd 25bf d4f3 85bf
00000170: 402b 843f cd1a 343d 5679 963a 6117 163e
00000180: 0037 c73d 302b 1cbe bc64 4ebf 476e 67bf
00000190: 95cc 26bd a826 d63e b6fa 243f 5c9b a8be
000001a0: 0611 563f e3e3 f4be 8dfc f13e aa24 6a3f
000001b0: 347a 42bf fcd5 1ebd a820 3dbf fba7 71bf
000001c0: 203e b93d 6013 883f a7ae b93e 647e dbbe
000001d0: cfa0 89bf f53c 8c3f f7ee 413f 7511 58be
000001e0: 3ec0 8b3f bd9a 1fc0 06c2 213d 268c b43e
000001f0: fe92 e83c 461c bd3d 1ccb b03e 440e 243d
00000200: d117 01bf 2923 6cbe f838 443f d502 2d3f
00000210: d816 27c0 6ef2 053f d400 693f e089 0bbe
00000220: 425b 453f 054a e63f 605c b3bf e43d 27be
00000230: a25f c03f c686 08c0 e704 8cbd 0034 563f
00000240: 9b2e d7bb 7820 033e 411b f5be a560 663e
00000250: 91d0 1a3f 6210 953f ecd5 34bf b27f 9c3d
00000260: 7a23 263e 4eda 10bf 12cb 0ebf a096 3fbf
00000270: 2427 803e f2ff 74bf ebbc 373f 7c84 30be
00000280: d36d 7cbf 6881 123f f9fc 9d3d 1225 a13e
00000290: a272 e5be 26d6 3b3f 311d 6fbf e51d 7fbf
000002a0: a1db 223e 421c 1fbe 6b52 7f3c 39d8 09bf
000002b0: a55a fbbf e01c a9bf d053 9bbf f5e9 9fbd
000002c0: ce9d 423d 2780 ffbf 9b7f 863e ab56 ad3d
000002d0: f392 8abf e1ca e8be 8228 4d3e ef68 253f
000002e0: 3933 bdbf 1a42 133d 362f e03c 22ca 433f
000002f0: c85d 1bbf 2f2d 5e3d 9093 b93e 9648 bbbc
00000300: 0900 12ba ab78 fbbf b35b 3f3f 026a 183f
00000310: 233c 94bf f4ec 32be c8b4 eabe a41b 563c
00000320: 3be1 d33e 6a53 433f 555a f13e dffc c8bd
00000330: 6e1c 073d fa51 2dbc 40e1 d63b 4fd8 eb3c
00000340: 528b 973e 225e 9ebe de52 043f e802 693f
00000350: 86c6 dfbc 6316 cdbf 2211 573f 3441 e8be
00000360: 6892 2f3c 0776 b53e ed08 88be f3f8 923e
00000370: f3f5 fa3d 79e5 783f a244 813d 10d1 2e3f
00000380: b78b 7cbe cb6b 69bf cbb0 7cbe 305a b1bd
00000390: 47b3 53bc fa7b d13e 741c 1bbf 40fd aebf
000003a0: 5308 94be a859 8f3e a109 83be cbef 903d
000003b0: f6c5 133f 96d6 ab3c fe52 293a ff7c 1d3e
000003c0: f7a8 a5be 80e7 cd3b b2b3 753f a08a 933f
000003d0: 610a 8a3e c6d3 403d 9ecc 94be d42f 053f
000003e0: 09f7 7b3e 9da6 953e 765c 1a3f 6218 3abf
000003f0: 36c2 1dbe 067e e53d 9630 8b3f fceb 15bf
-1.3329269 1.0157772 0.4100907 -0.3310751 0.3229334 0.65116525 -0.43994135 -1.4147978
0.41129407 -0.81664586 -0.8903509 0.28073558 0.0031328758 -0.6751875 1.994782 -1.4378364
-0.015138604 0.72198975 1.3494676 0.43391433 1.9874363 -0.50101835 1.0452843 -0.023839986
-0.77410054 0.09246532 -0.038786642 0.37093216 0.23082262 1.0257527 0.4563557 0.49765614
-3.7205594 0.35629016 -0.48283777 -0.16919762 0.23852201 0.7407514 0.44732583 0.09983932
-0.7517566 -0.009055819 -0.8782017 0.8465347 0.17653072 -0.57125187 -0.59780294 0.10402392
0.11590269 -0.81392175 0.1966798 0.49135447 0.2698524 0.8369708 -0.009749964 -0.21136303
0.24066731 -0.053725485 0.57676136 0.40612283 0.53176993 0.70782244 0.09392525 0.20863031
0.29119858 0.04408344 -1.0769776 -0.03224453 0.47886306 -0.6831157 0.4581725 0.2446018
0.49013284 0.9158238 0.85996884 0.4499396 -0.259433 0.043309033 0.649295 -0.02193513
0.149406 0.13307242 0.3471199 -0.71601975 0.21860346 0.11808669 0.6206659 -0.6439674
-2.0422575 1.8035622 -0.6484014 -1.0465035 1.0325699 0.04397087 0.0011480253 0.14657356
0.09727287 -0.1525085 -0.8062246 -0.90402645 -0.04072245 0.41826367 0.64445055 -0.3293103
0.83619726 -0.47830114 0.47262993 0.91462195 -0.7596772 -0.03877829 -0.73877954 -0.9439694
0.090450525 1.0630913 0.36266062 -0.42869866 -1.07522 1.0956103 0.75755256 -0.2110041
1.0918043 -2.4938195 0.039491676 0.35263175 0.028390404 0.09233908 0.3452996 0.040052667
-0.50426966 -0.23060288 0.7664943 0.67582446 -2.6107693 0.52323043 0.9101689 -0.13626814
0.77092373 1.7991339 -1.4012566 -0.16332203 1.5029185 -2.133226 -0.068368725 0.83673096
-0.006566835 0.12805355 -0.47872356 0.22497804 0.604745 1.1645625 -0.7063892 0.076415434
0.1622447 -0.56583107 -0.5577861 -0.7483921 0.25029862 -0.9570304 0.7177264 -0.17238039
-0.9860508 0.5722871 0.07714266 0.31473595 -0.4481402 0.7337364 -0.9340392 -0.9965499
0.15904094 -0.15538123 0.015583615 -0.53845555 -1.9637038 -1.3211937 -1.2134953 -0.07808296
0.047513776 -1.9960984 0.2626923 0.08463796 -1.0826095 -0.45467284 0.20034984 0.6461324
-1.4781257 0.03595171 0.027366262 0.76480305 -0.60689974 0.05424231 0.36245394 -0.02286176
-0.0005569463 -1.96462 0.74749297 0.59536755 -1.1580852 -0.17473203 -0.4584105 0.0130681135
0.41382775 0.76299155 0.4713923 -0.09813856 0.032986097 -0.010578627 0.0065576136 0.028789667
0.2959848 -0.30931193 0.51688945 0.9102006 -0.027316343 -1.6022457 0.8401052 -0.45362246
0.010716058 0.3544161 -0.2656931 0.28705558 0.12253942 0.9722515 0.06311919 0.68287754
-0.24662672 -0.91180104 -0.24676816 -0.0865978 -0.012921161 0.409149 -0.6059029 -1.3671036
-0.289126 0.2799809 -0.25593284 0.07076987 0.5772394 0.020976346 0.0006459205 0.15379713
-0.32355472 0.0062837005 0.9597732 1.152668 0.26961043 0.047076963 -0.2906236 0.52026105
0.24605955 0.29228678 0.60297334 -0.72693455 -0.15406117 0.11205678 1.0874202 -0.5856321

linear2.bias f4 [3]
00000000: c025 253f 39e1 9c3e b250 bf3e
0.64510727 0.3064058 0.37366253
