model/DQN/checkpoint_1200.pth (torch, 23085 bytes, 4 tensors)

linear1.weight f4 [256, 16]
000000 71 72 e3 bd 0a 90 46 be b6 d9 b9 be d8 87 cc 3e
       -0.11105812 -0.19390884 -0.36298913 0.3994739
000010 1a d7 e5 be 7f f9 36 3f ee 30 d1 be de 15 8a bf
       -0.44890672 0.7147445 -0.40857643 -1.0787923
000020 9d 0f 82 3e 94 6b 90 bf 3e c1 76 be e3 f0 bb be
       0.25402537 -1.128283 -0.24097154 -0.3670722
000030 36 8a 77 be 2b f5 04 3f 62 ab da be 47 9a 89 3d
       -0.24173817 0.51936597 -0.4270888 0.06718879
000040 ba 8a 41 be c9 f1 e4 bd 69 fd 8a 3f cb 16 55 3e
       -0.18900576 -0.11178929 1.0858585 0.20809476
000050 17 0c b2 be 36 63 8b 3e 89 54 35 be 58 c2 c6 be
       -0.3477485 0.2722413 -0.17708029 -0.38820148
000060 43 c3 2a be 3b 97 82 3e 46 cd 5c be 23 e4 6e 3e
       -0.16676049 0.25506005 -0.2156268 0.23329215
000070 7e 83 40 3e 72 1f 85 3e f8 29 2a 3f 73 b0 50 3e
       0.1880016 0.26000553 0.6647029 0.2037981
000080 eb ef 91 bd de 11 16 3f ef 8a c4 3d d8 e8 61 bd
       -0.07125839 0.58621013 0.09596812 -0.055153698
000090 aa 70 54 be 02 38 a0 3c 90 89 13 be 7f b1 b1 3e
       -0.20746103 0.019557957 -0.14407945 0.3470573
0000a0 41 fe a1 3e 3f 6d e8 3e 73 b5 c4 3e 7a 40 5a bf
       0.31639293 0.45395848 0.38419685 -0.85254633
0000b0 8b 70 01 3f 0b e4 0d 3f 79 96 0b 3f 93 71 36 3f
       0.5056235 0.5542609 0.5452648 0.7126705
0000c0 f8 36 5d 3d f1 a5 15 be 1c 51 d2 bd 60 79 32 bf
       0.0540075 -0.14614083 -0.10269377 -0.69716454
0000d0 d0 d9 e8 3d 52 a4 06 bf a5 9c 1f 3f db ca 49 3e
       0.113696694 -0.5259448 0.62348396 0.1970629
0000e0 14 6d 81 be 32 99 6c 3e 69 2b 7d bf fc 99 2f bf
       -0.25278533 0.23105314 -0.98894364 -0.68594337
0000f0 f2 6e 3b 3f a6 f8 99 be a5 b7 e5 3e 6f 91 96 be
       0.73216164 -0.30072516 0.44866672 -0.29407832
000100 8d 6e 00 bf d6 78 0f be 3b 6b 00 bc d7 a4 6d bf
       -0.5016869 -0.14010939 -0.007838066 -0.9282965
000110 28 b7 5f bf 40 e3 ec 3e 6a 88 02 3f f6 6a 4f bf
       -0.8738885 0.46267128 0.509894 -0.81022584
000120 15 a7 ff be 2b 64 93 3e 4b 22 33 3e fb f1 28 3f
       -0.4993216 0.2878736 0.1749355 0.6599423
000130 8a 0b c4 bf fd 1c 98 bf da 3d f3 3e fc 75 df 3e
       -1.5316021 -1.1883847 0.47508126 0.43644702
000140 89 a1 cd 39 71 4e e9 3e fc 6d e1 3e a8 20 39 be
       0.00039221 0.4556766 0.44029224 -0.18078864
000150 6e c7 34 be 12 9f 92 be 98 9f 4b be 47 01 f6 be
       -0.17654201 -0.28636986 -0.19885099 -0.4804785
000160 28 11 3c bd dc cf 36 be ab 15 63 bd 16 a6 85 be
       -0.0459148 -0.1785273 -0.055440586 -0.26103276
000170 6c c4 07 be 8b db 5f 3e ee a9 a8 bd 03 ec f1 3d
       -0.13258523 0.21861093 -0.082355365 0.11812594
000180 37 89 c7 bd 43 ea 2f bd ec 46 96 3f 77 0f cb be
       -0.097429685 -0.04294802 1.1740394 -0.39660236
000190 cb 54 7b 3e 44 de 3d 3e 94 05 f3 be 14 84 bd bd
       0.24544065 0.18541819 -0.47465193 -0.092537075
0001a0 2f 10 89 3e 77 b1 d5 bd e6 d9 50 3d 4d 4e ad 3d
       0.2677016 -0.10434239 0.050989054 0.084622
0001b0 eb 6d bf be e1 f0 10 3f f8 64 8b be 64 3b b9 3e
       -0.37388548 0.5661755 -0.2722547 0.36178124
0001c0 10 d7 74 3d 21 d7 99 3f 8b 6b 37 be c8 59 2c 3e
       0.059775412 1.2018777 -0.17912118 0.16831124
0001d0 f2 32 a7 be b9 3a 77 3e 16 19 07 bf 14 92 a0 3e
       -0.32656056 0.24143495 -0.52772653 0.3136145
0001e0 11 6c c7 bd 91 12 0f be db 6c 7a be 27 2d 97 3c
       -0.09737409 -0.13971926 -0.24455588 0.018454148
0001f0 18 df 25 3f 99 4e bc be ab f6 88 bd 08 82 ea 3e
       0.6479354 -0.36778715 -0.06687673 0.4580233
000200 fb e4 34 be b4 82 50 be c7 32 80 be d4 0f 52 3c
       -0.17665474 -0.2036236 -0.2503874 0.0128211565
000210 26 a4 10 bd 6b 11 93 bc 8f 3d 3d be f4 cf 66 be
       -0.035312794 -0.017952641 -0.18480514 -0.22540265
000220 8c 9a b3 be 1f 34 8e be 52 18 27 be 87 5e df 3d
       -0.35078847 -0.2777414 -0.16317871 0.109067015
000230 c2 23 3a be 2a 71 5a be 57 8c 16 3e ea 00 20 3c
       -0.18177703 -0.21332231 0.14701973 0.009765843
000240 0e 16 fb 3c cf 9d 30 3d 1d b6 8b 3f 42 3f a2 3e
       0.030650165 0.043119248 1.0914952 0.31688887
000250 8b dc 6d be e0 c1 9f be 11 03 f2 3d 45 4d 1a be
       -0.23228662 -0.31202602 0.11816991 -0.15068538
000260 86 df 0a be 00 13 9c 3b ff f6 25 be 3f 8f 22 3e
       -0.1356183 0.004763007 -0.16207503 0.15874957
000270 1d 96 08 3f ff 42 71 be 27 90 0d 3f e4 98 04 be
       0.53354055 -0.23560713 0.55298084 -0.12948948
000280 50 ce 41 bf 7d c1 0b 3e b4 1d 58 bd 73 e1 8b 3e
       -0.7570543 0.13648029 -0.052762702 0.27320442
000290 e7 fc a9 3e 8a 4b 84 bf 03 e3 7f bf c2 db 65 3e
       0.33200762 -1.0335553 -0.9995577 0.22447112
0002a0 58 5e a0 3e 18 6c b5 be 1a 3a 96 be 7d f9 09 3f
       0.3132198 -0.3543403 -0.29341203 0.53896314
0002b0 ee d9 15 3f cc c2 04 3f c8 9c 8f bf 6b 7d 65 bf
       0.5853566 0.51859736 -1.1219721 -0.896445
0002c0 dc 63 39 be 50 57 ae bc 20 39 b5 bc 9e d0 6c be
       -0.181045 -0.021281868 -0.022121966 -0.23126456
0002d0 58 70 c1 bd 9b 2a 49 3e a2 9e 1a 3e aa dc 41 be
       -0.09445256 0.19645159 0.15099576 -0.18931833
0002e0 3e 06 74 be 74 f1 74 be 31 52 bc bd b0 b3 5f be
       -0.23830506 -0.23920232 -0.09195364 -0.21845889
0002f0 70 94 28 3d 8a a8 05 be aa b4 1e 3e 88 94 e6 3d
       0.041157186 -0.13052574 0.15498605 0.11258799
000300 08 80 ca bd 86 1a fa 3d 56 9b 1a 3f 63 c2 39 be
       -0.09887701 0.1221209 0.60393274 -0.18140559
000310 6c dd 35 bd 6c 23 cf be 97 82 0f 3e a2 87 d6 bc
       -0.044400617 -0.40456712 0.1401466 -0.026187722
000320 09 42 22 3e 4f a0 9d bd ea c5 03 3e f8 95 b5 bd
       0.15845503 -0.07696592 0.12868467 -0.08866495
000330 77 e3 2d 3f 25 76 8f be 78 f6 89 3e 09 bd bf 3e
       0.6792521 -0.28019825 0.26945853 0.3744891
000340 4a 49 0d bc b9 4b 3b 3f 40 a0 b9 bd ec f4 5d 3d
       -0.0086234305 0.7316242 -0.090637684 0.054188654
000350 7d 6b 70 3e 39 48 01 3e 89 ea 10 be c3 31 e8 3e
       0.23478504 0.12625207 -0.14151968 0.45350465
000360 87 47 37 3e 7a 1c be 3e bf 61 87 3e bd fe 15 bf
       0.1789838 0.371311 0.26441762 -0.58591825
000370 f0 92 20 3f 31 96 62 3e 3f 5c 07 3f 1a ef e6 3e
       0.6272421 0.22127606 0.5287513 0.45104295
000380 e0 89 86 be c4 cd 4b 3e 0a 24 1f bf c4 d3 84 3e
       -0.26277065 0.19902712 -0.62164366 0.25942814
000390 75 be dc 3d f8 b2 01 3f c0 a6 84 3e f6 6e 14 be
       0.10778514 0.5066371 0.2590847 -0.14495453
0003a0 28 12 b6 3d 41 00 30 3e ae 40 42 3e 90 92 da 3f
       0.08890182 0.17187597 0.18969986 1.7075977
0003b0 70 cc 95 bd 83 91 b3 be 32 76 fd bd 64 d6 75 3d
       -0.07314384 -0.35071954 -0.123760596 0.060018912
0003c0 74 e3 63 3f 96 8e dd bd dd 77 93 3d 4b b1 9f 3d
       0.8901894 -0.10818212 0.072005965 0.07797488
0003d0 ca b1 18 3f ae a7 2d bf bb f8 a0 be 98 30 c1 3c
       0.59646285 -0.67833984 -0.31439766 0.023582742
0003e0 71 2a 1f be 9e 8e 33 3e d1 52 8b 3e 65 55 18 bd
       -0.15543534 0.17534873 0.2721162 -0.037190814
0003f0 a2 9f 59 3d f4 1b cb be 06 1a 45 3f 31 d4 eb 3e
       0.053130753 -0.39669764 0.76992834 0.46060327

linear1.bias f4 [256]
000000 6c 14 d1 3d 6e af c0 3d e5 21 d8 bc 7c 35 8b bd
       0.10208973 0.094084606 -0.02638335 -0.06797311
000010 c4 b7 b5 3e 79 aa 9a be f2 b4 80 bd ec 60 34 be
       0.35491765 -0.30208185 -0.062845126 -0.17615098
000020 1b 8b 5a be a2 12 15 be 88 4b 21 3e 8d fd e4 bd
       -0.21342127 -0.14557889 0.15751469 -0.111811735
000030 e4 dd 00 bf e4 60 c8 be 48 dd a0 3f a9 7b c9 be
       -0.5033858 -0.39136422 1.256753 -0.39352158
000040 7a 3d 0c be 6f f6 42 bd af b4 47 be 06 50 8c be
       -0.13695326 -0.0475983 -0.19502519 -0.27404803
000050 97 fd 4e bd 2b 9f 16 3e 37 d2 26 be 50 fb 63 be
       -0.05053481 0.14709155 -0.16291128 -0.22263837
000060 d9 9a 82 be ac 16 3c bf 4b f5 dd be 55 e4 6d bd
       -0.25508764 -0.73472095 -0.43351206 -0.058079083
000070 2d 9d ce 3d 12 46 66 be 08 fd 23 bf b4 88 d6 bd
       0.10088573 -0.22487667 -0.6405797 -0.10475293
000080 a8 d8 02 be 87 dc f4 be aa 0d 26 be fe de d4 be
       -0.1277796 -0.478245 -0.1621615 -0.4157638
000090 1a 35 bb bd c8 02 9b bd 16 c2 5e be 0e 6c 6a be
       -0.09140988 -0.0756889 -0.21753725 -0.22892782
0000a0 1e d2 29 be 85 73 be bd e0 e2 0d 3f a8 c8 b2 be
       -0.1658406 -0.09299377 0.5542431 -0.34918714
0000b0 c1 69 39 be f4 9a 9e 3f 04 6a 06 3e e4 56 ef 3d
       -0.18106748 1.2391038 0.13126379 0.11686495
0000c0 1f a8 cf 3c b3 e6 a9 3c 91 9f 3a 3e cb b5 d2 bd
       0.025348721 0.020739889 0.18224932 -0.102885805
0000d0 61 f8 a1 be 12 73 a7 be dd 6d 86 bc 30 b1 a1 be
       -0.3163481 -0.3270498 -0.016409809 -0.31580496
0000e0 5c 9c ef be 48 e6 05 3f ed 8b 88 be ce 5d 06 3e
       -0.4679898 0.52304506 -0.26669255 0.13121721
0000f0 6b 70 8e bd 06 d0 82 bd 7c 50 04 3e 9e bb c3 be
       -0.06955036 -0.063873336 0.12921327 -0.38229078
000100 dd 86 e3 bd 23 82 8d bd 3a 43 30 40 82 20 80 be
       -0.111097075 -0.06909587 2.7541032 -0.25024801
000110 a2 b2 2f be 97 dc f8 bd cd ba ba 3f 92 4f 25 3d
       -0.17157987 -0.12151449 1.4588257 0.040359087
000120 73 81 2d be 7f 22 3f 3e 57 c6 30 bd c7 1d 6f be
       -0.16943912 0.18665503 -0.0431579 -0.23351203
000130 f8 a4 14 bd 12 70 c6 be 1d 3d 02 3e 11 9d 4a be
       -0.03629014 -0.38757378 0.12718625 -0.19786479
000140 90 d8 f1 3f 7e b5 9c be e9 6e 7e be e4 42 3c 3d
       1.8894215 -0.30607218 -0.24846996 0.04596223
000150 2c d2 af be 52 3a 4b be 2e e7 f4 be e4 92 43 3d
       -0.34340036 -0.19846466 -0.47832626 0.047747508
000160 91 f4 84 be c0 a1 73 be da c4 b0 3c a2 a0 bb be
       -0.2596784 -0.23792171 0.021578241 -0.3664599
000170 cd 05 35 be 31 41 7b 3e a7 27 a9 be 78 bd 47 be
       -0.17677994 0.24536587 -0.33038065 -0.1950587
000180 c5 09 71 be 4a ad 30 3e 35 c6 b9 be 92 6b 84 be
       -0.23538883 0.17253605 -0.36284032 -0.2586332
000190 e2 e2 e2 bd fe 3a a2 3d 21 02 31 bc 45 71 03 3e
       -0.11078431 0.07921408 -0.01080373 0.12836178
0001a0 ca e7 8e bb d1 5f e3 bd be 48 2e be 89 af 88 bc
       -0.0043611275 -0.1110226 -0.17019936 -0.016685264
0001b0 86 62 af be 20 93 94 be 2e 6c 8f be 40 d6 ed be
       -0.34254855 -0.29018497 -0.28012222 -0.46452522
0001c0 e1 70 cf be 03 fa ad be d9 0f 77 be 32 ea 1f 3e
       -0.40515807 -0.33979806 -0.24127139 0.15616682
0001d0 4d 2a 9a bd d1 df 8f be f8 24 58 be 9a 7e 66 3e
       -0.075275995 -0.28100446 -0.21107852 0.22509232
0001e0 8f 48 45 be 75 1d 75 3b a8 30 49 be 92 f4 9b 3d
       -0.1926596 0.003740159 -0.19647467 0.076150075
0001f0 b6 10 8d be f7 6d 98 bd 80 b3 34 be 9c 6e 27 be
       -0.27551812 -0.07442849 -0.17646599 -0.16350788
000200 37 8b 4e 3e 92 7c d4 bd 6c be 06 bf c5 98 a7 be
       0.20170294 -0.103753224 -0.5263431 -0.3273374
000210 27 d5 a4 be c5 2c a1 be a5 92 bb 3d a2 2a a7 be
       -0.32193872 -0.3147947 0.091588296 -0.32649714
000220 83 45 16 3e e0 2f 06 be 00 ec 2f be 9b c2 00 bd
       0.14674954 -0.131042 -0.1717987 -0.03143559
000230 77 d8 b0 3d 33 1c 8e 3d d7 f2 e9 be 66 c4 ab be
       0.086350374 0.06938972 -0.45693085 -0.33548278
000240 bb 4e 9d 3e 3b b0 0f be 3b 5a 9e bd 63 24 92 be
       0.3072413 -0.1403207 -0.07732054 -0.28543386
000250 12 a1 79 be 89 88 b5 3d 66 f8 14 be 79 c9 1e be
       -0.2437785 0.08863933 -0.14547881 -0.15506543
000260 5a 8f 21 3e 75 87 13 be 1a 2c 8f be 52 9b 06 3d
       0.1577734 -0.14407142 -0.27963334 0.03286297
000270 c2 5f 88 bc 04 4b a3 3e db 1b 00 bf d2 48 74 3f
       -0.016647223 0.3189317 -0.50042504 0.95423615
000280 66 6f 11 be 4c 47 be be ae a9 4c be 4d 83 bd be
       -0.14202651 -0.3716377 -0.19986603 -0.37014237
000290 f9 ed 86 3e 38 ee e5 be 98 b1 99 bc a6 eb c4 ba
       0.26353434 -0.4490831 -0.018761441 -0.0015023842
0002a0 36 ec 93 be cb f5 44 bd b0 ca 90 be 70 80 d8 3d
       -0.28891152 -0.04808597 -0.28279638 0.105713725
0002b0 f8 5c 24 be 36 a4 91 be 68 0f b2 be f3 5d d1 3e
       -0.1605109 -0.28445596 -0.3477738 0.4089199
0002c0 b4 95 9b be 57 f2 2c be 79 05 37 bd e2 59 43 be
       -0.30387652 -0.1688932 -0.044682954 -0.19077256
0002d0 9f ef 63 3e a7 74 31 be 9f 91 13 3f 77 a5 5d 3c
       0.22259377 -0.17329656 0.57644075 0.013528219
0002e0 38 45 8a be 45 ec b2 bc b9 2c f2 bd 1b 9e 8a 3e
       -0.27005935 -0.021841178 -0.118249364 0.2707375
0002f0 c7 ee 97 be 7e 90 ae be c1 08 21 be df 86 58 be
       -0.2967436 -0.34094614 -0.15725996 -0.21145199
000300 d5 16 65 be ef 40 15 be bf 3d 16 3d 7f 07 f2 3c
       -0.22371991 -0.14575551 0.03667998 0.02954459
000310 c6 9e 9c 3f 25 1d 80 3e d6 23 f0 3e 68 15 cc be
       1.2235954 0.25022236 0.4690234 -0.39860082
000320 d9 65 de 3f 54 32 8a be 1e b5 24 be 78 06 65 be
       1.7374831 -0.26991522 -0.16084716 -0.22365749
000330 cf dd c4 bd 60 28 95 be 33 6e 04 bf e8 41 e8 3c
       -0.09612619 -0.29132366 -0.5173065 0.028351739
000340 ca 2d 7d 3f a6 97 7c 3c f3 ae bb 3d d9 b9 63 bd
       0.98897994 0.015417015 0.09164228 -0.05559716
000350 1c 5f 3b be 9d 49 d7 be 12 9d 58 be 39 47 a2 bd
       -0.18298 -0.4204835 -0.21153668 -0.07923741
000360 a5 28 2f 3f 0d bc 98 be 5c 3f d9 bd ec 72 ae 3f
       0.68421394 -0.2983097 -0.10607788 1.3628821
000370 c5 fd 10 be 34 fe 56 bd bb 33 80 be ec a4 01 3c
       -0.14159305 -0.05248852 -0.25039467 0.007912856
000380 20 e2 52 3e 4e b4 b0 bd ae e8 25 bd 00 e1 37 be
       0.20594072 -0.086281404 -0.040505104 -0.17956924
000390 fc 2e d1 bc 43 20 46 3e ea 76 f5 3d e6 72 03 be
       -0.0255351 0.19348244 0.11985572 -0.12836799
0003a0 48 f8 b6 bd 64 7a ad be 99 22 ce 3c a2 94 41 be
       -0.08934075 -0.3388244 0.025162982 -0.18904355
0003b0 e8 ef a6 bd bf da af 3e 54 20 32 bd 7d a6 95 3f
       -0.08151227 0.34346578 -0.04348786 1.1691433
0003c0 3b 87 bc bc 33 66 6c 3d 18 c4 98 be 30 0d 1d be
       -0.023013702 0.057714652 -0.29837108 -0.15337062
0003d0 e0 b8 c8 be 72 e0 fa bc e6 5d 50 be 48 30 2f be
       -0.39203548 -0.030624602 -0.2034832 -0.17108262
0003e0 3f e9 a0 3e 2f 1f b2 be 71 42 f4 3d db 52 bd bd
       0.31427953 -0.34789416 0.11926735 -0.09244319
0003f0 01 79 96 bb 4d 97 5f bd 3e 1f 4e be 09 fc dd bc
       -0.0045920615 -0.05458765 -0.20129105 -0.027097719

linear2.weight f4 [3, 256]
000000 41 61 9f bf 72 ad 84 3e 88 f9 1e be 63 88 54 bf
       -1.2451555 0.25913578 -0.15524876 -0.8302061
000010 a9 e2 b0 3f 5b 4d 99 3e a2 12 43 3e 9a 18 f5 3d
       1.3819171 0.2994183 0.19050077 0.11967583
000020 1c fd 3c 3c 2a 0d 64 3d b9 8c 75 3f f0 91 bf 3d
       0.011534955 0.055676617 0.9591785 0.09354007
000030 a3 ea 8e bc 83 b1 b5 bd 79 25 1e 3f a3 bd 54 bf
       -0.017445868 -0.08871748 0.6177593 -0.8310186
000040 85 ba 4d 3d e4 5f 7d 3f 62 ea b0 3e f5 42 1d bd
       0.050226707 0.9897444 0.3455382 -0.038393933
000050 87 66 8c 3e f6 4b 09 3f a7 c8 3c bf b2 a9 c9 bc
       0.27421972 0.5363153 -0.7374367 -0.02461705
000060 42 e3 3d 3d db 6c 19 be 47 25 dd bd 7c 0f af 3e
       0.046359308 -0.14982931 -0.10798126 0.341915
000070 26 e6 fe 3e ae 8b 58 3c 78 55 7e be 8f 32 8f bf
       0.49784964 0.013216896 -0.24837291 -1.1187304
000080 37 2d 9f bf 81 66 02 bd 90 37 8b 3d dd 68 a1 3d
       -1.2435673 -0.031836037 0.06797707 0.07881329
000090 b4 a2 a9 bf f8 31 2b 3e 85 16 87 be d9 a9 84 3d
       -1.3252778 0.1671828 -0.2638437 0.06477708
0000a0 ce 90 03 bf cd eb 9f bf 2f fa 1d 3f f8 18 61 be
       -0.5139283 -1.2493836 0.61709875 -0.21982181
0000b0 3f 2c 1e 3e 1a 7c d7 3e bf 71 68 bf 6b 3e 1a bf
       0.15446566 0.4208687 -0.9079856 -0.6025149
0000c0 f5 ae 22 3f 71 95 1c 3e 08 7e 03 3f 96 a5 92 bf
       0.63548213 0.15291382 0.51364183 -1.1456783
0000d0 cf f8 24 3d fc 3b 14 be 86 ea 93 3e 55 cf 1b bc
       0.040276345 -0.14476007 0.28889865 -0.009509881
0000e0 ce 28 cc bd 22 1b 27 3f af f5 44 bf af bb 38 3f
       -0.099687204 0.65275776 -0.76937383 0.7216138
0000f0 4a a6 73 be e1 39 9b bd d7 ce 35 3f d8 11 84 bf
       -0.23793903 -0.07579399 0.7101874 -1.0317945
000100 44 51 0c be ea 06 02 3f a7 60 38 3f b3 81 70 bf
       -0.13702875 0.507918 0.7202248 -0.93947905
000110 03 30 25 3f b7 5d a2 be 70 94 47 3f 65 bc 12 3e
       0.64526385 -0.31712124 0.7796087 0.1432968
000120 b4 25 53 bf 6c aa 65 3e 1d 2f 2c 3f 70 28 96 be
       -0.82479405 0.22428292 0.6725939 -0.29327726
000130 95 d3 99 3e c5 d4 04 be 48 1a 0c be 2c fe 85 bf
       0.30044237 -0.1297179 -0.136819 -1.0468192
000140 db b9 5a 3f a3 bb e3 bd f5 2a 35 be 53 57 7a be
       0.8543984 -0.11119773 -0.17692168 -0.24447374
000150 5f 2f ed be c2 65 91 bf b0 f1 d9 bb 39 79 b4 3d
       -0.46325204 -1.1359179 -0.006651126 0.08812184
000160 f0 7f 31 bf dc 5e 20 3e 29 cd 9a 3e aa 05 f5 3d
       -0.6933584 0.15661186 0.3023465 0.11963971
000170 17 6f 9d bf 5b f7 bc 3e bf 97 26 bf 84 0e d5 3e
       -1.2299527 0.36907467 -0.65075296 0.41612637
000180 4b d1 28 bf 81 60 e5 3e 48 41 30 3e b4 be 51 3d
       -0.65944356 0.4480019 0.17212403 0.05120726
000190 51 2c 98 bf eb 09 16 be 13 22 4b bf 57 9e 0f bf
       -1.1888524 -0.14652221 -0.7934887 -0.5610098
0001a0 03 6b ad 3e 9c 1a c9 bc 00 19 4d 3a 96 8f 26 be
       0.33870706 -0.024548821 0.00078238547 -0.16265711
0001b0 5d 90 4c bf de 45 38 bf 8d b7 c0 bf 88 53 bd 3d
       -0.7990778 -0.7198161 -1.5056015 0.09244448
0001c0 c9 b1 0e be f8 07 28 3d 1a 53 bc 3d c6 3f 88 3f
       -0.13935007 0.041023225 0.09195538 1.0644462
0001d0 2e 03 55 3c 70 6f 72 bd 10 db 4c be 3e da 26 3f
       0.013001246 -0.059188306 -0.2000544 0.6517676
0001e0 1a e8 03 3f ef 19 92 3e 6d a1 e0 be 57 26 6b bf
       0.51526034 0.2853541 -0.43873158 -0.91855377
0001f0 c3 70 98 3d b2 c5 b0 3e 2c ff 08 bf 40 f7 4a bf
       0.074433826 0.3452583 -0.5351436 -0.79283524
000200 b6 8b 6d 3f e7 b7 4b bf 66 56 4c bd bd cf 01 be
       0.92791307 -0.7957749 -0.049887083 -0.12676902
000210 9d 47 a8 bf e2 75 a4 3c 8a 71 5e 3e 6c e4 49 bd
       -1.3146855 0.020075742 0.21722999 -0.049290106
000220 9b 70 fd 3e 88 35 18 3f ab 5d 20 bf d4 4a 8c bf
       0.49499974 0.5945668 -0.62642926 -1.0960336
000230 97 75 a3 3e 1f b2 7c bd 27 8a 8a be 12 c3 30 bf
       0.3192565 -0.061693307 -0.27058527 -0.69047654
000240 58 6d 07 3f 46 d4 6e bf 0b 94 41 3e a6 ea 16 bc
       0.5290122 -0.93292654 0.1890413 -0.009211218
000250 7a b6 09 bf 88 93 1a 3f 38 b7 6a bf b4 5d 9b bf
       -0.5379406 0.60381365 -0.9168582 -1.2137971
000260 e2 fa e1 bf e7 ab d7 3d 11 76 8c bf 86 16 9c 3e
       -1.7654688 0.10530835 -1.0973531 0.30485934
000270 9c cf d1 bd ba fa be 3e 25 3f 87 3d 62 ba 44 3f
       -0.102446765 0.37300664 0.06603841 0.768469
000280 ca c9 57 be 64 c6 5b be b6 2e ba bf 1e 03 92 be
       -0.2107307 -0.21462399 -1.4545505 -0.28518003
000290 16 6a 0a 3f 87 67 00 be 0c 98 6e 3f d4 56 56 bf
       0.54068124 -0.12539493 0.93200755 -0.8372624
0002a0 7b db a6 3e 3a f5 07 3f 05 dd 16 be 8b c6 a7 3e
       0.32589325 0.5310856 -0.1473275 0.32768664
0002b0 2b cc 17 bd 4d 20 00 3d 01 6a 1b bd 7b be 14 3f
       -0.037059944 0.031280804 -0.03794289 0.5810315
0002c0 f0 f1 c8 3c ec 33 dc 3e ef 0b 60 3e fd 5e fb be
       0.024529427 0.43008363 0.21879552 -0.49095908
0002d0 d3 3d c8 3e e9 e1 b5 3d 90 9a ff 3e 20 5b c8 be
       0.39109668 0.088809796 0.4992261 -0.39132023
0002e0 fa 45 91 be f5 c6 21 be 1c 73 24 bf c9 4f f5 3e
       -0.283737 -0.15798552 -0.6423814 0.47912434
0002f0 e8 80 12 bf b5 f6 a8 bc 87 82 e2 3d 30 31 78 bd
       -0.57227945 -0.020625452 0.11060052 -0.060593784
000300 57 57 67 bf af cd fa 3e fb 7c c0 3e f3 a7 1b be
       -0.90367645 0.4898505 0.37595353 -0.15200786
000310 b3 84 43 3f f9 b4 54 3f 14 6f 0f 3f 4d ce 92 bf
       0.7637436 0.8308864 0.56028867 -1.1469208
000320 9e 8a 1c 3f 57 70 86 be 81 51 00 bf 0c d3 4d 3d
       0.61149013 -0.26257583 -0.50124365 0.050250098
000330 1e 90 8f bd 19 e5 4e 3d da 13 ef bd f3 1d 11 3f
       -0.0700991 0.050511453 -0.11673708 0.56686324
000340 07 5e 19 3f e1 59 bd 3e 3d 09 ae bf 4a e8 bc be
       0.599091 0.36982635 -1.3596569 -0.36895972
000350 e4 26 63 3c 40 08 61 3d fd a0 ae bf 46 f8 20 3e
       0.013864253 0.05493951 -1.364288 0.15719709
000360 b7 92 22 3f be 99 82 3c ad 03 0c be 88 10 26 3f
       0.6350512 0.01594245 -0.13673277 0.64868975
000370 7d 49 1f bf 33 56 7f bf 0a ca 76 3e 3f 2f f7 be
       -0.6222151 -0.99740905 0.2410051 -0.48278233
000380 1f 60 0e 3f ce 8b 80 bf 96 5a 8f bf 28 6d 07 3d
       0.5561542 -1.0042665 -1.119952 0.033063084
000390 1d 38 99 bf c4 40 69 3f 71 01 1c 3f 73 b5 b2 be
       -1.197025 0.9111445 0.609397 -0.3490406
0003a0 55 80 77 bf c5 57 df be 79 65 1b bf 47 ff 92 bf
       -0.96680194 -0.4362165 -0.6070171 -1.1484154
0003b0 0f 4f 28 bf cc 75 09 3f 66 43 ff 3e d0 8f 00 3f
       -0.65745634 0.5369537 0.49856108 0.5021944
0003c0 08 22 49 3f 99 08 cb be c1 b7 74 bd c2 b1 1e be
       0.7856755 -0.39654997 -0.059745554 -0.15497497
0003d0 6b b0 dd 3d 72 c4 39 bf 29 b9 58 bf 93 37 9a bf
       0.10824665 -0.72565377 -0.8465753 -1.204821
0003e0 d1 2d 01 3f 50 97 40 3f 5e f3 d2 3e e7 6a 1e bd
       0.50460535 0.75230885 0.412013 -0.03867617
0003f0 22 4c 47 be 16 af b0 3e 52 7a 12 bf d6 05 b5 3e
       -0.19462636 0.3450858 -0.57217896 0.35356015

linear2.bias f4 [3]
000000 86 e7 02 3f db 61 93 3e ed ea 8e 3e
       0.51134527 0.28785595 0.2791361
