model/DQN/checkpoint_400.pth (torch, 23075 bytes, 4 tensors)

linear1.weight f4 [256, 16]
000000 c5 e9 aa bd 4c 9d 7c 3e b2 67 1c 3d 25 34 7e bd
       -0.08345369 0.24669379 0.03818483 -0.062061448
000010 43 d5 c1 be 10 dc 10 3e 81 d6 9c 3e 42 38 e6 be
       -0.37858018 0.14146447 0.30632403 -0.44964796
000020 17 96 99 be 9e 9d 5d 3e be f4 c1 3e 10 97 03 3e
       -0.29997322 0.21642157 0.37882036 0.12850595
000030 b8 10 4a be 8c c1 a3 bd 2f 43 b3 bd c3 d9 02 3f
       -0.1973294 -0.079959005 -0.08753049 0.5111353
000040 c5 be b1 3e f5 62 4b 3f fe a3 c4 be ae 41 22 bd
       0.34715858 0.7944787 -0.38406366 -0.03961342
000050 63 27 02 3d 91 93 c7 3d 90 1c 57 be fb 52 92 3d
       0.031775843 0.09744943 -0.2100699 0.071447335
000060 1b 03 2c bd bd dd 78 3e 4a 2e 0b 3e 9f f1 f0 bd
       -0.04199515 0.24303336 0.13591877 -0.117648356
000070 e7 cc f2 be cf 59 85 3e 58 ce 96 be d9 17 be 3e
       -0.47421953 0.2604508 -0.29454303 0.3712757
000080 89 ef 02 3d 2f f0 8f 3d 17 3f ca 3e 52 12 bd 3d
       0.03196672 0.07028233 0.3950126 0.0923201
000090 ec a3 c6 bd 86 b0 6f be c0 32 32 3e 83 01 b0 be
       -0.09699234 -0.23407182 0.17402172 -0.34376153
0000a0 e6 6a 2c bf 7f d3 9b 3e e4 c8 83 3d 69 d6 65 be
       -0.67350614 0.30434796 0.06434801 -0.22445072
0000b0 bb 96 2d be 56 fa 8d bd a1 bf 20 be 1b 1e c9 3d
       -0.1695203 -0.069325134 -0.156981 0.09820195
0000c0 b7 a5 8a 3d 7d 1e f1 3d f7 7e b1 3e e3 92 e1 be
       0.06769889 0.11773393 0.3466718 -0.44057378
0000d0 99 6e 96 be 31 cc a6 be 0b 1d 20 be 47 2f de bd
       -0.29381254 -0.3257766 -0.15636079 -0.10848861
0000e0 63 ca d6 bd 1a ea b9 3d 3d 0a dd 3d 7d 6f e3 be
       -0.10487821 0.090778545 0.107929684 -0.44420996
0000f0 2c a1 cc 3b 14 11 1d 3e 59 5b 65 3d 5e 0c 02 3d
       0.006244799 0.15338546 0.05599532 0.031750076
000100 9f e1 58 3e 5e 7b 2a 3d 15 99 7e 3d 6c b3 4f 3e
       0.21179818 0.04162156 0.06215771 0.20283288
000110 62 30 ca 3e 5c ad d3 be c3 cc 30 bf c1 7c 94 be
       0.39490038 -0.413432 -0.6906244 -0.2900143
000120 6f ac e5 be 00 eb f6 3e d6 c8 2f 3f f3 a5 10 be
       -0.4485812 0.48226166 0.68665826 -0.14125805
000130 5b 10 6a bd b5 72 1c be 7f 88 cc 3e 40 9e ff 3d
       -0.057144504 -0.15278132 0.39947888 0.12481356
000140 31 1b 01 3f 61 ed c4 be d4 90 40 3e bd a6 0e 3f
       0.50432116 -0.38462356 0.18805248 0.5572317
000150 15 d7 e2 3e 1d b4 7b bd 7c a0 b4 be 09 67 97 be
       0.4430472 -0.061451066 -0.3527869 -0.29570797
000160 ea 9e 2f 3d 9e 60 06 3e 6b 3d 07 3f c4 bb 9e 3d
       0.04287616 0.13122794 0.5282809 0.07750657
000170 30 79 bd bd 41 a8 62 be 7c 29 8d 3e 8b c7 99 3e
       -0.0925163 -0.22134496 0.27570713 0.30035052
000180 33 84 1a 3e 88 05 63 be bd eb c6 be b2 c3 9c 3e
       0.15089492 -0.22170079 -0.3885173 0.30618054
000190 42 b4 99 3e 8a 06 a9 be 88 3b a0 be 37 70 1f bf
       0.30020338 -0.330128 -0.3129542 -0.622806
0001a0 f6 92 e5 be c7 04 df 3e b5 1b 15 3e 39 cf c0 bd
       -0.44838685 0.43558332 0.1456135 -0.094145246
0001b0 17 de 2b be 8a f2 04 be 14 c1 23 3c bf cd 77 bd
       -0.1678394 -0.12983146 0.009994764 -0.06049895
0001c0 c9 f7 ea bd fe 3c b0 be 69 71 1c 3f 71 e8 c6 3e
       -0.114730425 -0.34421533 0.6111055 0.38849214
0001d0 c0 17 05 3e d3 27 7a 3c ed 10 c5 bd ec 14 1a be
       0.12997341 0.015268284 -0.09622369 -0.15047044
0001e0 25 14 d1 be fd c1 2a bd cc 76 a9 3e 84 c4 18 3d
       -0.40835682 -0.041688908 0.33098447 0.037296787
0001f0 a4 bc 47 3e d2 73 2e be 18 38 30 be 47 6e 9c be
       0.19505554 -0.1703637 -0.17208898 -0.30552885
000200 e6 6b 83 bd 84 9b fb 3d ed ce 1f bf 4a 92 26 be
       -0.06417064 0.122855216 -0.6242512 -0.16266742
000210 a2 ca 1d be 8a 30 bd be ca 00 a3 bd df ef 54 be
       -0.1540933 -0.36951095 -0.07959135 -0.20794629
000220 0a d6 7e bd 73 36 65 3d fb 1c 01 3c e4 cd 1f be
       -0.062215842 0.05596013 0.007880445 -0.15605885
000230 cd 6d 45 be 27 e3 36 bd 9d 95 60 3e 59 aa 86 3d
       -0.19280167 -0.044650223 0.21932073 0.0657546
000240 86 82 b3 be 5b 2f d3 be 1a fc 1c 3e a5 9d a0 3d
       -0.3506052 -0.41247067 0.15330544 0.07842568
000250 a8 d0 24 bf a3 b1 6b bf 14 b2 08 3f 8c d0 bb 3e
       -0.64380884 -0.9206793 0.53396726 0.36682546
000260 89 d1 86 bf 80 9d 30 bf ec 07 fb bd c8 c9 b9 bd
       -1.0532695 -0.68990326 -0.1225737 -0.0907169
000270 80 34 9a 3d 32 d1 a1 3e 6e 1f 76 be 5a 72 f3 be
       0.07529545 0.31604916 -0.24035427 -0.4754818
000280 5f 3a 8d 3e d6 79 00 bf 5c b4 5a 3f 8f f3 ff bd
       0.27583596 -0.50185907 0.85431457 -0.12497627
000290 00 5f 3d be cc 51 c6 be 86 25 8f be ed 1a f8 3d
       -0.18493271 -0.3873428 -0.27958316 0.12114511
0002a0 ef f5 61 3e 1f 0e 13 3e 91 b4 13 3e 3a 44 64 3d
       0.22066472 0.14360856 0.1442435 0.05572913
0002b0 83 47 fb 3d 96 db 88 bd 39 a3 0e bd c2 41 ef bd
       0.12269499 -0.06682508 -0.03482363 -0.11682464
0002c0 62 50 19 be 20 a3 f9 bd 78 58 47 bd 00 04 f9 ba
       -0.1497207 -0.12189317 -0.048668355 -0.0018998384
0002d0 c6 6d 62 be d5 a7 e0 3d 90 c6 ad 3c 57 f5 64 3d
       -0.22112188 0.109695114 0.021212846 0.055898037
0002e0 40 7f 8d 3c 2a 21 1b be e0 98 2b be 7e 1d 97 be
       0.017272592 -0.1514937 -0.16757536 -0.29514688
0002f0 c0 45 55 bc 50 52 01 3d 50 5d 50 be 94 e7 a9 bd
       -0.013017118 0.03157264 -0.20348096 -0.08296123
000300 9e 55 25 3f 11 4c 8b bc 45 95 4b bf 88 aa ac 3e
       0.64583766 -0.017004045 -0.7952464 0.33723855
000310 14 32 33 bf 79 b9 cc be c9 c6 c8 3d 30 25 3b bf
       -0.6999829 -0.39985254 0.0980354 -0.7310362
000320 d1 c9 d8 3e 7e 6a f4 3d 07 9e ac be 18 05 1e bd
       0.42341474 0.11934374 -0.33714315 -0.038579077
000330 af 6f 3c bc 78 f3 a3 3d d7 3a bc 3d 73 a9 a6 3d
       -0.011501237 0.08005422 0.0919091 0.081377886
000340 95 15 32 3e e4 0c 84 3d 57 14 1c 3e 28 d5 e9 bd
       0.17391045 0.06447771 0.15242134 -0.114176095
000350 3d 76 81 3e f6 f1 51 3d 00 ad 04 bf d2 0d 4a 3e
       0.2528552 0.051256143 -0.5182648 0.19731835
000360 ae d2 a2 be 59 c0 c9 be 90 b6 bd 3e 7d 3d a2 bc
       -0.3180136 -0.39404562 0.37053347 -0.01980471
000370 5e ee 2e 3e 21 80 11 bd 65 63 84 3d 2e 05 6e 3e
       0.17083117 -0.035522584 0.064642705 0.23244163
000380 a7 78 85 3e 4b f0 ac 3b 17 83 35 bf 6b 49 f5 3e
       0.26068613 0.0052776686 -0.7090315 0.47907576
000390 32 f7 d9 be 36 e1 c6 3e be 8b bc bd ea 3a 48 bd
       -0.42571408 0.38843697 -0.09206341 -0.04888431
0003a0 06 7d 5f bf 86 63 0b bf 23 13 16 bf c3 05 97 3d
       -0.87300146 -0.54448736 -0.5862295 0.07374146
0003b0 c2 af e5 be be b7 55 3e c9 d6 4e be 52 e0 2e be
       -0.44860655 0.20870873 -0.20199122 -0.17077759
0003c0 31 0d 8b be 34 78 b1 bd 16 d9 21 bf b5 80 aa be
       -0.27158502 -0.08665505 -0.6322187 -0.3330132
0003d0 10 51 d3 3e fe 5f 0b 3e db 0a 5e be 96 c6 c6 3e
       0.41272783 0.13610837 -0.21683829 0.38823384
0003e0 5e 34 ce be e2 7f d1 be ba 39 bf 3e 79 85 5f be
       -0.40274328 -0.4091788 0.3734873 -0.2182826
0003f0 d3 8c 9d 3e 8e 3f 99 3e 17 40 f1 bc 6f ba 81 3e
       0.30771503 0.299313 -0.029449506 0.2533755

linear1.bias f4 [256]
000000 66 1b d3 bd c5 f2 15 bf 4e a6 2c be 9e 92 9e be
       -0.1030796 -0.5857356 -0.16860315 -0.30971235
000010 f5 b4 4a bd 9a 97 4f be 5e 12 de bd 97 a4 55 3d
       -0.04948898 -0.20272675 -0.10843347 0.05215892
000020 76 fc 35 be e3 73 51 3e bb fc 98 be ae 88 14 be
       -0.17772087 0.20454364 -0.29880318 -0.14505264
000030 fd 79 17 3e 0a 08 c0 be 05 b1 8c 3c 36 b8 02 be
       0.14792629 -0.37506133 0.017174253 -0.12765583
000040 40 e6 0a bf 84 7b fc bc 6c cf d0 be db d9 1f be
       -0.54257584 -0.030820616 -0.4078325 -0.15610449
000050 0f 4d 95 be e9 dc 36 be 37 28 d4 3e 3c d1 b2 3e
       -0.29160354 -0.17857708 0.41436931 0.34925258
000060 6b 4b 04 3e ef c1 34 be 01 1f ab 3e 5e 9b 12 bf
       0.12919395 -0.17652105 0.33422092 -0.5726832
000070 7b 64 73 bd de 78 d9 be d9 b6 01 bf c6 1d 8d be
       -0.059421998 -0.42475027 -0.5066963 -0.27561778
000080 f0 1a 8f be b4 eb be be fa 62 a1 be fd e2 e4 be
       -0.2795024 -0.37289202 -0.31520826 -0.44704428
000090 2f a3 99 be 03 14 26 be a3 ba d8 be 78 cc 42 be
       -0.30007312 -0.16218571 -0.42329893 -0.19023311
0000a0 1e b0 e4 3d bd 8c 44 bd 18 af 99 be d0 d1 ca be
       0.11166404 -0.04798578 -0.30016398 -0.396132
0000b0 23 c1 c5 3d d8 af d6 bd 07 d5 b8 bd c7 26 87 bd
       0.096559785 -0.10482758 -0.09025007 -0.06599193
0000c0 ed 6f 6b be 8b 98 1d bf df 42 52 be 2d d3 c1 bd
       -0.22991915 -0.6156089 -0.20533322 -0.09464107
0000d0 c1 47 8e be 0c 97 87 3e 8c da 65 be b0 e0 27 be
       -0.2778912 0.26482427 -0.2244665 -0.16394305
0000e0 c7 cf 4b be 0a cf f6 3d bc 16 56 be 61 1d e0 be
       -0.1990348 0.12051208 -0.2090711 -0.43772414
0000f0 c0 4e ac 3d 43 fc a0 be 8b 76 f5 bd 1c 94 6c 3d
       0.08413458 -0.3144246 -0.11985501 0.057758436
000100 45 0b c2 be df 0c 42 be e7 89 ce 3d 94 62 03 be
       -0.37899223 -0.18950222 0.100848965 -0.12830573
000110 36 84 a1 be e7 43 86 bd a5 50 0f 3e bb 8f 14 3d
       -0.3154618 -0.0655592 0.13995607 0.036269885
000120 23 3a 42 3e 4e 0c e7 be 7e e9 b3 3e 13 f1 80 be
       0.1896749 -0.45126575 0.35139078 -0.25183925
000130 65 3a 61 3e 9e 75 ee 3f 65 25 1f be c6 aa 64 be
       0.21994932 1.8629644 -0.15541609 -0.2233077
000140 b6 8a e0 be 9e 28 e2 3d 11 36 81 be 32 ae 80 be
       -0.43855828 0.11042903 -0.25236562 -0.251329
000150 15 69 02 be b6 9e bc be 74 eb 9f 3d 84 1a d7 be
       -0.12735398 -0.36839837 0.07808581 -0.42012417
000160 89 76 ee bd 09 9d 91 be d7 34 ca be b4 61 c8 be
       -0.116437025 -0.2844012 -0.3949344 -0.39137042
000170 0a e8 31 be 56 73 db bd b3 9c 74 be a7 a2 8f 3b
       -0.17373672 -0.10715358 -0.23887901 0.0043834033
000180 dd a2 76 be 02 c6 d2 be 34 5f 93 3f 31 5f ec bd
       -0.24085565 -0.41166693 1.1513429 -0.11541594
000190 0c 0e ff 3e a0 68 97 be 7b 3e 56 3e 87 f8 c6 be
       0.49815404 -0.2957201 0.20922272 -0.38861486
0001a0 b4 77 78 3e 53 58 c3 bc b0 71 8d be b8 e5 9c 3d
       0.24264413 -0.023845827 -0.276258 0.07661003
0001b0 ca c7 43 be 6a 5a 35 be 42 d2 fe be 08 28 87 be
       -0.19119182 -0.17710271 -0.4976979 -0.2639773
0001c0 c4 3a 61 be 0d e2 a5 bd 19 bd b5 be 8f f2 63 be
       -0.21995074 -0.080997564 -0.35495833 -0.22260498
0001d0 76 dd 6f be 27 ff e2 bd a6 c8 e5 3e 53 bb 60 be
       -0.23424324 -0.11083823 0.44879645 -0.21946459
0001e0 59 ba 84 be f7 e4 59 3d 0b bf a2 be e1 7e 39 be
       -0.25923422 0.053196874 -0.3178638 -0.18114807
0001f0 5b 09 5b be 60 c6 e8 be 17 11 eb be ab e9 ff bc
       -0.21390288 -0.45463848 -0.45911476 -0.031239351
000200 f4 45 c5 3d 28 71 17 3f 73 96 32 bd b6 bf ac be
       0.09632483 0.5915704 -0.04360051 -0.33740014
000210 92 87 f0 be 05 92 03 3e c5 9d 57 be d8 0c 22 be
       -0.46978432 0.12848671 -0.21056278 -0.15825212
000220 65 f3 c6 3c 9d 7c 88 be f4 1f 8a 3e 36 89 08 3c
       0.024285981 -0.26657572 0.26977503 0.008333495
000230 6d cb 34 3e af 8f 24 be 71 29 8e be 85 97 8f be
       0.17655726 -0.16070436 -0.27765992 -0.28045288
000240 b0 b0 80 be ba 92 87 3e 5a 0e df be 85 61 80 be
       -0.25134802 0.2647913 -0.43565637 -0.25074401
000250 17 13 2e bd 4a b9 b2 be 84 ed 7f be a2 53 da 3f
       -0.042498674 -0.3490699 -0.24992949 1.7056773
000260 1f cc 29 bd 27 e2 84 be ce ce cc bd 88 89 9f be
       -0.04145443 -0.2595379 -0.10000382 -0.31159616
000270 97 69 8d 3e 10 13 97 be f4 44 bb 3e 62 fd 67 3d
       0.2761962 -0.2950673 0.36576045 0.05663813
000280 70 32 86 3e b4 f9 1b 3e 4f 3e c0 3e 6e 8a 0e bf
       0.26210356 0.15231973 0.37547538 -0.55679977
000290 fb 18 7a be 11 e1 d7 3c 93 74 d5 be bf 5f 3d be
       -0.24423592 0.026352437 -0.41690502 -0.18493555
0002a0 d6 e7 c3 be 4d c4 61 3e bc 06 15 3e ac 8c eb be
       -0.38262814 0.22047539 0.1455335 -0.46005762
0002b0 7a d9 1a bd db 13 98 be ee 4e 65 3e d5 07 cf be
       -0.037805058 -0.2970265 0.2239339 -0.40435663
0002c0 cf 43 12 3e e5 a9 b4 bc c8 90 2b 3c c2 36 91 be
       0.1428368 -0.022053668 0.01047153 -0.2836209
0002d0 1e c3 a2 3e 5e 58 d7 bd 28 94 b5 be 64 90 f9 bd
       0.31789488 -0.105149016 -0.35464597 -0.121857435
0002e0 af bd 81 be c6 e5 b5 3e c3 a5 b0 be 4d e6 96 be
       -0.2534003 0.35526866 -0.34501466 -0.2947258
0002f0 ca b9 29 3e 38 28 d5 38 42 b3 2b be b1 86 fc be
       0.16574779 0.00010164123 -0.167676 -0.4932151
000300 de 40 d5 bd 5f 9c d9 3d 20 4a b2 be 19 5d e7 be
       -0.10412763 0.106255285 -0.34822178 -0.45188215
000310 e5 50 a9 3e 09 03 b8 3f 78 76 d4 be 5b 85 11 bf
       0.3306953 1.4375926 -0.41496634 -0.5684411
000320 32 e0 0e 3f c0 24 af be bb 45 d0 bd 8b 26 be be
       0.55810845 -0.34207726 -0.1016955 -0.3713878
000330 be 28 91 be 24 40 bf be 0b 18 b8 3d 39 fa 98 3e
       -0.28351396 -0.37353623 0.08988961 0.29878405
000340 5b 5c 59 be 42 6c 0b bf 1f 7d a3 be 6d 02 4e be
       -0.21226637 -0.54462063 -0.31931397 -0.20118113
000350 ba 3c 09 bd 25 7e b9 3e 5f fa 99 be 91 b9 7a 3e
       -0.03350518 0.36229053 -0.3007383 0.2448485
000360 79 e1 be be 9b 71 a9 be b4 41 bd be 05 51 fc be
       -0.37281397 -0.33094487 -0.3696419 -0.49280563
000370 35 87 00 be f2 55 99 be 44 2a 87 be 41 3f 00 be
       -0.12551577 -0.29948384 -0.26399434 -0.1252413
000380 2b 51 75 be 4b f1 ef bd c5 62 e6 3d 74 58 c8 be
       -0.23956744 -0.11715945 0.112493075 -0.39129984
000390 e1 5c a7 3e 12 01 61 be f5 ea f4 be 84 a7 8d be
       0.32688048 -0.21973065 -0.47835508 -0.27666867
0003a0 6d 25 ad be e9 69 51 be b2 ba b1 be 20 c4 58 be
       -0.33817616 -0.20450558 -0.3471275 -0.21168566
0003b0 ae 11 49 3e 3f 31 d3 bd 98 4f 8b be 94 40 bd bc
       0.1963565 -0.10312127 -0.27209163 -0.023102082
0003c0 c3 76 b0 be 0f 7a 8b 3e 06 0e 1d be 4e 75 58 bd
       -0.34465608 0.2724156 -0.15337381 -0.052846245
0003d0 f9 69 3b be 22 24 97 be fd 61 05 bf 3b 3e 5e be
       -0.18302144 -0.29519755 -0.52102643 -0.21703427
0003e0 d7 a5 92 be 2c 06 00 3e 12 55 68 be d0 66 d3 3d
       -0.2864215 0.12502354 -0.22688702 0.10322344
0003f0 ba 3c 6d bd 8e 67 54 bd 3f fa 7f be d1 55 20 be
       -0.05791924 -0.05185657 -0.24997805 -0.15657736

linear2.weight f4 [3, 256]
000000 59 31 08 3e 13 39 92 bd c7 31 ba bd b4 2e 5f 3a
       0.13300075 -0.07139792 -0.090915255 0.0008513734
000010 85 ff 31 bf 20 df 17 bf f5 00 7a bd 16 ab 8a 3d
       -0.69530517 -0.59324837 -0.06103607 0.06770913
000020 1d ac c8 bc b8 59 96 3e 6e 71 97 bd 70 97 fa 3c
       -0.024496133 0.29365325 -0.07394682 0.03058979
000030 54 c2 29 bf 7e d0 85 bc 6e 93 64 3e 84 53 ad be
       -0.66312146 -0.016334768 0.22321865 -0.3385278
000040 07 e7 6d bb b2 77 95 be 8e 7a f4 3d 1e 5a 0f bd
       -0.0036301033 -0.29192883 0.11937438 -0.03499805
000050 ba fd 1e be 24 23 38 be 3f 9c 01 3f 8d 77 9c 3e
       -0.15526477 -0.17982155 0.5062904 0.3055996
000060 b2 d3 6a 3e ba d9 76 bc d6 4f 36 3f 16 27 16 3c
       0.22932318 -0.0150665585 0.7121557 0.009164592
000070 b7 9d 23 be 04 f5 17 be 35 e9 11 bd 1c 77 16 bd
       -0.15978132 -0.1483956 -0.035622794 -0.036734685
000080 fb a0 4c bc 5b 48 bd bc 19 e1 85 3c 3d 89 9c bd
       -0.012489553 -0.02310579 0.016342686 -0.076433636
000090 ae 1b 0c be bf 96 73 3c 5c 24 7c 3c 24 5a 15 bf
       -0.13682434 0.014867484 0.015389528 -0.5834067
0000a0 c5 be 20 3e 31 06 88 3d 58 26 2f 3a 26 e4 5f 3b
       0.15697773 0.06641806 0.0006681434 0.0034163087
0000b0 2f 4f 94 3d 1e c9 0b be 8c a1 8b 3c e0 62 91 3d
       0.072416656 -0.13650939 0.017044805 0.07098937
0000c0 a1 ae 46 3c e6 4a ca 3c 33 7c 2a be 07 c5 47 3d
       0.012126596 0.024693917 -0.1664894 0.048771884
0000d0 db f3 47 bc 38 b9 ef be 72 96 a3 be 36 4d 5d bd
       -0.012204136 -0.46820998 -0.31950718 -0.054028712
0000e0 25 d4 55 be 7f da 3f bf d5 2d 92 be 26 77 c0 bc
       -0.20881708 -0.74942774 -0.28550592 -0.023494314
0000f0 94 07 57 3f eb 0f 61 bc b0 10 11 3e 17 d8 c1 3e
       0.8399594 -0.013736705 0.14166522 0.37860176
000100 3f f8 00 be 84 1f 42 bd 0e f7 17 bf df f3 7c be
       -0.12594698 -0.047393337 -0.5936135 -0.24702404
000110 b0 b0 1e be 65 27 b8 bd 6f 89 29 3e 18 8f 22 3e
       -0.15497088 -0.08991889 0.16556333 0.15874898
000120 6a d6 42 bf 6a a5 c2 3d 6f 0c 77 3e 45 1b dd bc
       -0.7610842 0.095042065 0.24125837 -0.026990542
000130 12 d8 b4 3e 26 89 b9 3e f8 e5 07 bf d1 ab 61 bd
       0.353211 0.36237448 -0.5308528 -0.055095498
000140 b3 e2 d8 3d 3f 30 66 3e 63 98 e2 3c 44 72 97 3d
       0.105901144 0.22479342 0.027660554 0.07394841
000150 35 c3 bf bc ef a9 5b bd 78 a4 5a bf e5 03 41 bd
       -0.023408512 -0.05362886 -0.8540721 -0.047122855
000160 fd be 4a 3d 98 8f 47 3c b2 17 61 bd 64 3f a8 bc
       0.049498547 0.0121802315 -0.05495424 -0.02053804
000170 de eb 73 be 44 79 cf 3d 45 d3 ee be dc f8 c1 3c
       -0.23820445 0.101305515 -0.4664556 0.023678236
000180 34 95 d1 3d 90 8e 65 bd 11 b1 97 3e c3 75 84 be
       0.10233536 -0.05604416 0.29627278 -0.25871095
000190 f9 03 aa 3e 00 21 20 3d e1 8f 3e 3e e2 40 14 3d
       0.33206156 0.03909397 0.18609573 0.03619469
0001a0 dd 4b fa 3e 65 fc 5f 3e 45 d7 ac bd 06 34 ab 3d
       0.48886004 0.21873625 -0.08439497 0.08359532
0001b0 05 48 0d bf c6 b9 53 3a 8c c9 b4 3b e5 4d 9a bd
       -0.5518802 0.00080766936 0.0055171903 -0.075343885
0001c0 e1 17 7e bd d1 cd c4 be ee 3a 3e 3c f6 f3 ba bc
       -0.06203449 -0.38438275 0.01161073 -0.022821408
0001d0 3f 0d 0f bb cf 1e 36 3d b9 8f 8b 3e f4 f9 ac bb
       -0.0021827964 0.044462975 0.2725809 -0.00527882
0001e0 eb 22 df bd bb f3 9b be a1 ba 0b be 8e 53 e9 be
       -0.10895332 -0.3045939 -0.13645412 -0.4557156
0001f0 04 8b 30 3c c2 3c 03 bf e8 b6 b0 bd cb a2 55 3f
       0.010775331 -0.51264584 -0.086286366 0.8345153
000200 68 34 2f 3d 82 2a 23 3c ed 30 d9 bd 65 52 ac bc
       0.042774588 0.009958865 -0.10605035 -0.021035383
000210 20 85 b9 bd 71 91 ec be b0 28 0a 3e 48 26 8d be
       -0.09058595 -0.46204713 0.13492084 -0.2756827
000220 65 08 42 3e f1 e9 1a bd da 3a b4 3e b5 2f 9f 3e
       0.18948515 -0.03782076 0.3520115 0.31091085
000230 58 bc 79 be c8 2d c7 3a ba 24 b6 3c 64 e0 a2 3c
       -0.24388254 0.0015196139 0.02223431 0.019882388
000240 f7 d1 07 bf 77 2f bd 3e 58 e1 81 bd 0c 4b 76 3d
       -0.53054756 0.36950275 -0.06341809 0.060130164
000250 c5 1a 92 be 57 e3 31 3b 4a 6c 81 3c e7 52 bc 3e
       -0.2853605 0.0027143562 0.015798707 0.36782
000260 cc ba 0b be 7f b3 23 3d 0e 6c 40 3e 33 b9 85 3d
       -0.13645476 0.039966103 0.1879122 0.065294646
000270 9b 09 1d 3f 3f 8e bb bc 97 60 93 3e 7d 6d 79 bf
       0.6134278 -0.022894977 0.2878463 -0.9743269
000280 4c 46 d5 3e 5a a7 d7 3e 6f 4a 25 3f cc 12 3d 3c
       0.41655195 0.42119867 0.645667 0.011540126
000290 af 57 3a bd 36 fe 79 bf 2e 26 05 be b3 f2 20 bd
       -0.045493778 -0.9765352 -0.13002846 -0.039293956
0002a0 87 7d cc bd 1d 99 c6 3e 9c 05 6d 3e d7 d9 45 bd
       -0.0998488 0.3878869 0.23146671 -0.04830345
0002b0 01 e1 fe 3d ac fa e8 3c e5 a7 eb 3e 32 d7 ff 3c
       0.1244526 0.028439842 0.4602653 0.031230543
0002c0 3f 19 f8 3e 5d df 14 3f 09 86 5f 3e 84 ec 13 be
       0.4845676 0.58153325 0.21828474 -0.14445692
0002d0 8c 66 23 3f 4a 55 96 be a7 0d 8c be da cd 1a bf
       0.6382835 -0.29361945 -0.27354166 -0.60470355
0002e0 68 72 e0 bc 18 fa 75 3f cf df c4 bd ae 7d 2e 3d
       -0.027398303 0.9608474 -0.096130006 0.042600326
0002f0 a1 72 c1 3e a2 4f 84 be 1d ba d9 bd b5 8d 84 be
       0.37782767 -0.25842005 -0.106312014 -0.25889364
000300 f7 eb 67 3d cf 0f 60 3e 17 ca 38 3d 77 72 e7 bc
       0.056621518 0.2188103 0.045114603 -0.028252823
000310 84 81 e8 3e 53 dc aa 3e eb dc 2a be 7b 1f e6 3b
       0.45411313 0.3337122 -0.16685836 0.0070227957
000320 76 0e 34 3e bb e3 5c bd 64 e9 d0 bd 3f 97 54 3c
       0.17583641 -0.05392812 -0.10200766 0.012975513
000330 08 2f 5b bf 99 85 94 3c 05 94 60 3d 76 64 2b 3e
       -0.8561864 0.01813011 0.054828662 0.16737542
000340 0d 3e 4e bd 86 93 b9 bb 1e aa 09 bf 8f 89 51 3d
       -0.050352145 -0.005663338 -0.53775203 0.051156577
000350 b5 3b ae bd 93 33 dc 3e 51 0f 20 be 4c d2 44 3f
       -0.08507482 0.43008098 -0.15630843 0.7688339
000360 c4 da 74 3b 75 9e d8 bd 4f c8 79 3d 5f b3 0f 3d
       0.003736184 -0.10577098 0.060982045 0.03508317
000370 ff aa 73 3e 62 c8 e3 bc 1d 6b 19 bc 1a 11 14 be
       0.23795699 -0.02780551 -0.009363917 -0.14459649
000380 1e 8a b6 bd 50 ca e9 3c 36 c4 b5 3d 65 c0 7d be
       -0.089130625 0.028538853 0.08875315 -0.24780424
000390 0c 86 35 be b0 fb de be 02 25 f6 3a 71 1c 81 be
       -0.17726916 -0.43551397 0.001877934 -0.25217012
0003a0 c3 b7 34 3c 2a 22 5a bd 21 cc bc be 71 26 dd bd
       0.01103014 -0.053255238 -0.36874488 -0.10798348
0003b0 ca a6 9c 3d c9 06 8b 3e 01 f0 8e 3e 32 e7 c1 be
       0.07649 0.27153614 0.27917483 -0.378717
0003c0 6c 62 05 be fd ad 82 3e 85 6c 6d 3e 22 e0 06 bf
       -0.13025826 0.25523368 0.23185928 -0.5268575
0003d0 88 79 2f be 34 a8 bb 3b 1c 4b 16 bc 58 3f a0 bb
       -0.17136204 0.0057268385 -0.009173181 -0.0048903637
0003e0 19 67 87 be b4 9c 54 3e 2a e3 24 be ea 76 58 3e
       -0.26445845 0.20762902 -0.16102281 0.21139112
0003f0 6b 7b 9e 3b 30 41 48 be f9 4f ff be 23 1b 16 be
       0.00483649 -0.19556117 -0.49865702 -0.1465879

linear2.bias f4 [3]
000000 bf 1c dd 3e 56 e1 f6 3d e4 6c 46 3d
       0.43185994 0.12054698 0.04844369
