model/DQN/checkpoint_300.pth (torch, 23075 bytes, 4 tensors)

linear1.weight f4 [256, 16]
-0.42966178 0.26779222 0.12692654 0.44554022 -0.14578998 -0.060498483 -0.46699095 0.35628343
-0.40325287 -0.41468954 -0.1557573 -0.09024553 0.10663382 0.25854248 -0.41731337 -0.6198678
-0.08178687 -0.25027055 -0.16473106 -0.28439352 -0.5140396 0.2714369 0.44492918 0.07886249
0.43682957 -0.47498974 -0.6439042 -0.14458957 -0.3070138 0.20117214 0.01598527 0.045431707
-0.34197465 0.09984288 0.04387987 -0.35944343 0.6479135 -0.3038198 0.26393336 -0.5443325
-0.55141693 0.28806245 -0.7184465 -0.039336823 -0.05048454 -0.062093094 -0.084671475 -0.053855963
0.20669413 -0.22440223 -0.4837906 -0.13139533 -0.10192748 -0.54080635 0.1936643 0.006699402
0.011803214 0.5057119 0.076725945 -0.16551767 0.11492202 -0.071585774 0.15781645 -0.13972126
0.47112152 -0.22312619 -0.47933918 0.036112074 -0.113641836 0.083520606 -0.1596414 -0.36933804
-0.32879126 -0.32755905 0.048141137 0.3554824 -0.036886904 -0.22091594 -0.028856698 -0.06862386
0.15338637 -0.39698768 0.6859243 -0.17464331 -0.11867969 -0.097930655 -0.3610193 0.31232715
0.0274188 0.29727986 0.24172771 -0.11906384 0.029928282 0.35512412 0.18226276 0.05666197
0.60457474 0.22335634 0.20937243 -0.33799246 -0.21302924 0.07241324 -0.36185133 0.24335776
0.24363105 -0.0051793335 0.619727 -0.2090439 0.16475047 0.13728172 -0.0065036826 0.35665804
-0.19941686 -0.23412238 -0.5310382 -0.26145354 -0.013095637 -0.14380486 -0.104231276 0.07601879
0.08450156 0.19887069 0.1820107 -0.27268335 0.37374347 0.19951913 0.34684283 0.30645928
-0.11450657 -0.20117664 0.109959185 -0.36028922 -0.061865296 -0.49719852 0.27219343 0.32832736
-0.5016864 -0.34145162 -0.6621909 -0.19673511 -0.44177252 0.13833705 0.00083896134 0.09763054
0.0849975 -0.12132273 -0.055033654 -0.17007327 0.49197432 -0.30733958 0.5656148 0.39295283
-0.46656796 -0.35583687 -0.55000925 0.047814116 0.3447783 0.123145506 -0.072200805 -0.17854252
0.5450252 0.14919497 -0.59916925 -0.18061684 0.18004307 -0.4317741 0.39859542 0.28879428
-0.0036155656 0.25058457 -0.13145494 0.0038093245 0.3857463 0.078178115 -0.00056717335 -0.13048169
-0.5896333 0.45800263 -0.2043774 0.36752033 0.06855259 -0.57445717 0.20943931 0.010643596
0.17879097 -0.6735807 0.12080447 -0.046336424 0.38677272 0.18082343 -0.40611085 -0.3655276
0.13711642 -0.13653865 0.853931 0.3139958 -0.22261947 -0.39125678 -0.2502842 0.17654201
0.14378399 0.24774146 0.078639716 -0.13640594 -0.17553896 0.15755588 0.21675661 -0.14021125
-0.5491555 -0.10297843 -0.10575004 0.37866518 0.4361572 0.33954364 -0.16518469 -0.102602996
-0.1944288 -0.058449645 -0.40815133 0.5617829 -0.0056620855 -0.041557398 -0.28706527 0.04960945
-0.013972924 -0.124963395 0.768518 -0.31099838 -0.17486094 -0.2551577 0.0966769 0.18591444
-0.13839895 -0.3914862 -0.07798931 0.1152429 -0.15548186 0.08153737 -0.22676526 -0.051579237
-0.39410692 0.21335301 0.19197346 -0.068408534 0.04286846 -0.38685128 0.07517547 0.1133089
0.102628276 -0.43929937 0.04714672 -0.21014768 0.102038726 -0.18950237 0.109609514 0.12207895
00000000: a1fc dbbe 101c 893e 08f9 013e d91d e43e
00000010: f849 15be 42cd 77bd 7019 efbe c86a b63e
00000020: 2977 cebe 3052 d4be d77e 1fbe a6d2 b8bd
00000030: d562 da3d ae5f 843e 19aa d5be a8af 1ebf
00000040: e07f a7bd 7623 80be 42af 28be 079c 91be
00000050: 1998 03bf c7f9 8a3e c2cd e33e a882 a13d
00000060: 20a8 df3e db31 f3be e8d6 24bf 4a0f 14be
00000070: ea30 9dbe 1200 4e3e 8af3 823c 9916 3a3d
00000080: 4d17 afbe 6d7a cc3d 61bb 333d f808 b8be
00000090: a9dd 253f 458e 9bbe 4622 873e 6059 0bbf
000000a0: a929 0dbf ec7c 933e 1cec 37bf a61f 21bd
000000b0: e1c8 4ebd 5455 7ebd 3d68 adbd 1298 5cbd
000000c0: a0a7 533e b3c9 65be 67b3 f7be 7f8c 06be
000000d0: 5bbf d0bd 4972 0abf ef4f 463e a886 db3b
000000e0: 4562 413c 5676 013f 7e22 9d3d 777d 29be
000000f0: 3c5c eb3d 909b 92bd a39a 213e 1713 0fbe
00000100: d736 f13e 317b 64be f26b f5be 41ea 133d
00000110: 0dbd e8bd da0c ab3d 0979 23be e019 bdbe
00000120: 5457 a8be d2b5 a7be a42f 453d ca01 b63e
00000130: b916 17bd ca37 62be e264 ecbc ab8a 8cbd
00000140: 5111 1d3e f841 cbbe bc98 2f3f b2d5 32be
00000150: 560e f3bd de8f c8bd 86d7 b8be 58e9 9f3e
00000160: 649d e03c 1135 983e 7887 773e bed7 f3bd
00000170: 282c f53c d4d2 b53e 17a3 3a3e 6216 683d
00000180: 69c5 1a3f 86b7 643e ba65 563e 590d adbe
00000190: 5624 5abe 654d 943d 9444 b9be c732 793e
000001a0: 6b7a 793e 66b7 a9bb 6ea6 1e3f 9b0f 56be
000001b0: 59b4 283e 9493 0c3e d81c d5bb e29b b63e
000001c0: ef33 4cbe c7bd 6fbe 1ff2 07bf 3ddd 85be
000001d0: 158f 56bc 9541 13be 3577 d5bd bdaf 9b3d
000001e0: 270f ad3d c2a4 4b3e 0361 3a3e 279d 8bbe
000001f0: 4e5b bf3e be4e 4c3e 6295 b13e 3be8 9c3e
00000200: 6c82 eabd 4001 4ebe 4832 e13d d477 b8be
00000210: 7766 7dbd ce90 febe f05c 8b3e 861a a83e
00000220: 856e 00bf bfd2 aebe 5885 29bf ee74 49be
00000230: 0230 e2be 3aa8 0d3e beed 5b3a 85f2 c73d
00000240: 2b13 ae3d 0d78 f8bd f86a 61bd b027 2ebe
00000250: 0fe4 fb3e 9d5b 9dbe 22cc 103f 1d31 c93e
00000260: ffe1 eebe 4030 b6be 68cd 0cbf bcd8 433d
00000270: c886 b03e b633 fc3d 04de 93bd dad3 36be
00000280: c686 0b3f 91c6 183e 2863 19bf 9ff3 38be
00000290: 365d 383e 7f11 ddbe b314 cc3e d8dc 933e
000002a0: 20f3 6cbb 9f4c 803e 209c 06be dca5 793b
000002b0: 8a80 c53e d91b a03d 5cae 14ba fe9c 05be
000002c0: 35f2 16bf 527f ea3e 4f48 51be a02b bc3e
000002d0: 4d65 8c3d a00f 13bf 4277 563e 7a62 2e3c
000002e0: fb14 373e c96f 2cbf 5568 f73d 43cb 3dbd
000002f0: 1307 c63e c729 393e c3ed cfbe 6f26 bbbe
00000300: 3f68 0c3e cad0 0bbe 399b 5a3f 0fc4 a03e
00000310: 5cf6 63be cf52 c8be 4025 80be 6ec7 343e
00000320: 1c3c 133e f0af 7d3e dc0d a13d 00ae 0bbe
00000330: 7cc0 33be 5456 213e 72f5 5d3e 8a93 0fbe
00000340: 7495 0cbf 5be6 d2bd 7a93 d8bd 67e0 c13e
00000350: ff4f df3e aad8 ad3e 2d26 29be 8521 d2bd
00000360: 5818 47be e568 6fbd 36f9 d0be 01d1 0f3f
00000370: 0489 b9bb 1738 2abd 38fa 92be 4733 4b3d
00000380: b1ee 64bc cfec ffbd 98bd 443f 2e3b 9fbe
00000390: bf0e 33be 08a4 82be 8afe c53d 5b60 3e3e
000003a0: 74b8 0dbe e170 c8be dcb8 9fbd 7804 ec3d
000003b0: a336 1fbe 11fd a63d 2735 68be c044 53bd
000003c0: 62c8 c9be 3679 5a3e b194 443e c619 8cbd
000003d0: d796 2f3d 5f11 c6be 99f5 993d 7f0e e83d
000003e0: c62e d23d d9eb e0be eb1c 413d f430 57be
000003f0: aef9 d03d e90c 42be f47a e03d 8704 fa3d

linear1.bias f4 [256]
-0.092947274 0.022257242 -0.016270742 -0.42218253 0.31281272 -0.18830527 -0.4907084 -0.2898363
-0.056521405 -0.075270034 -0.055589985 0.25028312 -0.11024778 0.8335552 9.3986484e-05 -0.07550331
-0.4675608 -0.18606305 0.0672845 -0.1576071 -0.11152074 -0.09474978 -0.11466713 -0.3008714
-0.15395574 -0.11045446 -0.136962 -0.17788543 0.75953645 -0.15236877 0.044143245 0.31275484
-0.40212142 -0.20662148 -0.20504808 -0.10514445 -0.23540367 -0.19975758 0.31423032 -0.06958394
-0.41359794 0.5270544 -0.32403585 0.15718754 -0.10515568 -0.28944644 -0.26841807 0.09313531
-0.36757243 0.31175053 -0.082735375 -0.16771549 0.60756457 0.07118461 0.2864587 -0.21853697
-0.16364959 -0.5316964 -0.38160244 -0.28760925 -0.2831482 0.07900975 -0.37817273 -0.3024382
-0.31900835 -0.4861842 -0.21387295 0.49463636 -0.35874125 -0.39374867 -0.19022675 -0.09192604
-0.18275468 0.0020170128 0.16556679 1.1152134 -0.2950657 -0.20513926 -0.074628 0.13194998
-0.2223943 -0.33795345 0.051339433 0.0038857702 0.1688767 -0.2452522 -0.11620254 -0.06768102
-0.047950856 0.045596424 -0.21532746 -0.096767895 -0.18919942 -0.03429123 0.23325843 -0.15497473
-0.050519474 -0.01520845 -0.24678814 -0.4120179 0.29943094 -0.38756037 0.08354832 -0.38765433
-0.3503309 -0.30900708 0.13047363 -0.38404804 -0.040416237 -0.20595981 -0.27512845 0.11802295
0.05579943 0.65528595 -0.20061897 -0.18215492 -0.28482962 0.40506822 -0.2099367 -0.25579745
-0.20013618 -0.28469113 -0.09605103 0.14912835 -0.2604197 0.38988113 -0.22347099 0.07421769
0.25068575 -0.31710458 -0.25213507 -0.10267919 -0.16600929 -0.17292675 -0.33617353 -0.03103101
-0.080836825 0.39891407 -0.1017789 -0.20833792 -0.27443922 -0.22558011 -0.20275928 0.102343045
-0.40928298 -0.31614336 0.3579795 0.244834 0.18620388 -0.32924783 -0.329776 -0.13449103
0.16862462 0.0503211 -0.06097658 -0.13802889 -0.2609215 0.28076124 -0.48390815 0.51235896
0.57380253 -0.16971295 -0.17288256 -0.21329848 -0.046739973 -0.47348613 -0.16282478 -0.09820347
0.109203726 -0.17814144 -0.25596374 -0.19739527 -0.23853016 -0.33207148 -0.31773415 -0.32614407
-0.179995 -0.09893592 0.1608511 0.14217922 0.2082744 -0.45629653 0.42700827 -0.3173505
-0.47945303 -0.15362006 -0.51257 -0.29855886 -0.26488414 -0.26935026 -0.14117582 -0.2409574
-0.31103078 -0.19883192 -0.075341284 -0.02750272 0.17771846 0.39416382 -0.51039296 -0.019208549
-0.21602042 0.12500554 -0.32042632 0.13434221 -0.018759744 -0.17320018 0.31907818 -0.5820263
0.05534253 -0.16390662 -0.39787063 -0.33152512 0.46328074 -0.012041409 0.22436723 -0.07758275
-0.11047944 -0.1783249 0.14527519 0.0735919 -0.14054425 0.01729659 0.21279907 -0.25995034
-0.26080126 0.22486524 -0.19092569 0.48117557 -0.04555203 -0.28030217 -0.13661091 0.05075177
-0.12736501 -0.06689651 -0.0918666 -0.20841041 0.005529912 -0.30878517 -0.30626163 0.2583975
0.022991253 -0.2699426 -0.1249685 -0.0122812195 0.20672822 0.13557735 -0.24816145 -0.25428292
-0.48697585 -0.23555978 -0.12416899 -0.4818263 -0.2168529 -0.30497304 0.76074326 -0.4600694
00000000: 245b bebd d254 b63c 384a 85bc 4f28 d8be
00000010: fd28 a03e 19d3 40be 223e fbbe 6c65 94be
00000020: fd82 67bd 2d27 9abd 53b2 63bd 1c25 803e
00000030: 97c9 e1bd e063 553f 9c1a c538 7ba1 9abd
00000040: 2164 efbe 5087 3ebe 75cc 893d c163 21be
00000050: fc64 e4bd 2c0c c2bd 9ad6 eabd d10b 9abe
00000060: 93a6 1dbe f335 e2bd c43f 0cbe 9927 36be
00000070: fb70 423f 8f06 1cbe 8ccf 343d 6721 a03e
00000080: dce2 cdbe 9594 53be 20f8 51be f955 d7bd
00000090: a90d 71be 408d 4cbe cce2 a03e 0682 8ebd
000000a0: 1cc3 d3be 0aed 063f 07e8 a5be c5f5 203e
000000b0: dc5b d7bd 5332 94be 186e 89be babd be3d
000000c0: 7432 bcbe c49d 9f3e 2a71 a9bd 9cbd 2bbe
000000d0: 5a89 1b3f 3dc9 913d b7aa 923e 28c8 5fbe
000000e0: c293 27be 411d 08bf 6561 c3be 8541 93be
000000f0: cdf8 90be ddcf a13d db9f c1be 2ed9 9abe
00000100: 1055 a3be 23ed f8be 8301 5bbe fa40 fd3e
00000110: efac b7be 6d99 c9be cdca 42be b843 bcbd
00000120: 0b24 3bbe dc2f 043b 578a 293e 50bf 8e3f
00000130: da12 97be 0710 52be 91d6 98bd e51d 073e
00000140: 55bb 63be 3c08 adbe 4c49 523d 68a8 7e3b
00000150: 03ee 2c3e 6523 7bbe 99fb edbd 599c 8abd
00000160: 1e68 44bd 51c3 3a3d cd7e 5cbe 3f2e c6bd
00000170: 7ebd 41be f674 0cbd 4cdb 6e3e b2b1 1ebe
00000180: 82ed 4ebd dd2c 79bc 08b6 7cbe 03f4 d2be
00000190: 034f 993e 506e c6be 621b ab3d a17a c6be
000001a0: 925e b3be 2d36 9ebe e19a 053e f2a1 c4be
000001b0: 7f8b 25bd 21e7 52be a3dd 8cbe 04b6 f13d
000001c0: f18d 643d d2c0 273f 0f6f 4dbe d286 3abe
000001d0: 30d5 91be 1a65 cf3e a5f9 56be e2f7 82be
000001e0: 80f0 4cbe 09c3 91be 67b6 c4bd 1ab5 183e
000001f0: bb55 85be 809e c73e 94d5 64be 72ff 973d
00000200: e259 803e 885b a2be d917 81be 7849 d2bd
00000210: 57fe 29be b613 31be f01e acbe bf34 febc
00000220: c78d a5bd 773e cc3e 7571 d0bd 8956 55be
00000230: 4c83 8cbe 79fe 66be 21a0 4fbe 3b99 d13d
00000240: 8a8d d1be 8bdd a1be 1749 b73e c4b5 7a3e
00000250: 3bac 3e3e 2c93 a8be 66d8 a8be 04b8 09be
00000260: efab 2c3e 7f1d 4e3d 94c2 79bd 7257 0dbe
00000270: 8197 85be f0bf 8f3e cfc2 f7be f529 033f
00000280: b9e4 123f 3bc9 2dbe 2008 31be eb6a 5abe
00000290: 6a72 3fbd c66c f2be 8abb 26be e71e c9bd
000002a0: 34a6 df3d b66a 36be ae0d 83be fc21 4abe
000002b0: 4041 74be 4605 aabe 0dae a2be 5bfc a6be
000002c0: 9c50 38be ea9e cabd 27b6 243e 6e97 113e
000002d0: e245 553e b39f e9be d4a0 da3e c47b a2be
000002e0: de7a f5be 944e 1dbe ca37 03bf b5dc 98be
000002f0: e59e 87be 47e8 89be 6590 10be 89bd 76be
00000300: 6d3f 9fbe 989a 4bbe 884c 9abd 624d e1bc
00000310: d4fb 353e d7cf c93e 1da9 02bf 3f5b 9dbc
00000320: 7534 5dbe 7401 003e eb0e a4be 0191 093e
00000330: 09ae 99bc 635b 31be 375e a33e adff 14bf
00000340: d9ae 623d 23d7 27be b3b5 cbbe a9bd a9be
00000350: 2233 ed3e 5449 45bc 86c0 653e b4e3 9ebd
00000360: 0b43 e2bd cd9a 36be 05c3 143e 5ab7 963d
00000370: d5ea 0fbe 94b1 8d3c 00e8 593e 3618 85be
00000380: be87 85be 1343 663e 0682 43be a55c f63e
00000390: c494 3abd c483 8fbe bbe3 0bbe 17e1 4f3d
000003a0: f96b 02be 0a01 89bd 8e24 bcbd 8a69 55be
000003b0: 4434 b53b 1719 9ebe 53ce 9cbe ad4c 843e
000003c0: 2758 bc3c eb35 8abe 7cef ffbd 2b37 49bc
000003d0: 90b0 533e cad4 0a3e 091e 7ebe 5f31 82be
000003e0: e654 f9be 9536 71be 504c febd f0b1 f6be
000003f0: b00e 5ebe 6d25 9cbe 12c0 423f 378e ebbe

linear2.weight f4 [3, 256]
0.50389785 -0.043862645 -0.27745134 -0.038273413 0.09643575 0.055944707 -0.1697671 -0.04449994
-0.08480238 -0.48170975 -0.2837777 0.4001227 -0.071773745 0.2728748 -0.027614903 0.03391678
-0.029910356 -0.0621414 -0.10806125 0.037937578 0.011453363 -0.19885373 -0.16204685 0.04475631
-0.25551078 -0.5101246 -1.0969325 -0.34786156 0.13615103 -0.0054569477 0.028571462 0.20730342
-0.054888763 -0.4792305 0.0628603 0.17492698 -0.16155024 0.0048175296 0.9509053 -0.10628146
-0.037262265 0.25582725 -0.18011774 0.6957606 -0.23787321 0.044873655 0.025662823 0.28798515
-0.002340503 0.20905994 0.049943484 -0.35522386 0.38876438 0.16739182 0.2284897 -0.15480992
-0.002172853 0.015005216 -0.1372307 -0.15664226 -0.0012262807 0.2725081 -0.031807248 -0.0567501
-0.052516963 -0.032200817 0.030846208 0.31475648 -0.0035799837 -0.047913164 -0.5311114 0.25618896
-0.10794943 -0.053407796 0.2151948 0.42195657 -0.12969255 -0.33606783 0.08144478 -0.34082127
0.020948842 0.012160052 -0.16919607 0.02744575 0.5261241 0.039378874 -0.12189752 -0.49520773
-0.020374637 0.14129502 -0.6507528 -0.78526044 0.0023173615 -0.27571645 0.36108133 -0.14951546
0.03869491 -0.033555754 -0.024213418 0.0051584723 0.352478 0.016047291 -0.488205 0.0130159035
-0.14575794 -0.023729281 0.05057449 -0.07347172 0.060880255 -0.23203391 -0.017234461 0.52703494
-0.25618064 0.3887736 -0.10350815 -0.013537143 0.015235834 0.3826661 -0.046675086 -0.54257584
0.059927046 -0.10010316 -0.15991423 0.49601233 0.025894301 0.5492537 0.032765232 0.7444169
0.39609683 -0.37174013 -0.37153345 -0.4459937 -0.311245 0.031032905 0.011074305 -0.8284505
-0.8669841 0.46751016 0.041707985 -0.061028633 -0.13393015 0.17960458 -0.9106104 0.0859942
-0.10942748 -0.028263152 0.12692147 0.27923468 0.3671561 -0.18883485 -0.082902424 -0.55629677
-0.4166771 0.028240943 -0.32770547 0.28912678 0.019811893 0.089397684 -0.03618642 0.5105403
0.26648208 -0.2566895 0.0738968 -0.028880931 0.23839058 -0.049196184 0.5885053 0.0010131696
0.135692 -0.27233577 -0.19312082 -0.36165538 -0.01242205 -0.112733565 -0.17612128 -0.07672161
-0.17307909 -0.020906258 0.18227059 0.4240102 0.17689748 -0.059899695 0.40733895 -0.010961409
-0.007832271 -0.1999638 0.0040920456 0.13643457 -0.015567292 -0.30228448 -0.2932052 -0.07321527
-0.048615128 0.020779168 -0.21422622 -0.0014499369 0.44907978 0.029263742 -0.0006276249 0.23665734
-0.03885605 0.45344 -0.05855893 -0.576554 0.086978175 -0.61364186 0.3822077 -0.0922907
0.659328 0.028667279 0.02530849 0.032453492 0.23640439 0.48128852 0.17136602 -0.52347153
0.09555404 0.011975241 0.22450978 0.17816855 0.053397894 -0.34671983 0.3379084 -0.035325788
0.10225092 0.2665572 -0.073545255 0.3518392 0.09192819 0.029072335 -0.20179535 0.44803074
-0.35013095 0.30439577 -0.65232295 -0.9641719 0.6982316 -0.008238098 -0.0691066 0.25242174
0.76994646 -0.005385198 -0.19578534 0.087936915 -0.04798358 0.9205838 -0.013747478 -0.02662999
-0.078155644 -0.065729015 0.038134135 -0.041858807 0.2260969 7.2444964e-05 0.37440905 0.020823129
00000000: 73ff 003f 51a9 33bd 1a0e 8ebe 95c4 1cbd
00000010: 1b80 c53d 4726 653d 6dd7 2dbe 9245 36bd
00000020: dfac adbd a9a2 f6be 504b 91be e2dc cc3e
00000030: 1dfe 92bd 3fb6 8b3e a638 e2bc 52ec 0a3d
00000040: 9006 f5bc fb87 7ebd 374f ddbd 6f64 1b3d
00000050: e3a6 3b3c 50a0 4bbe 9cef 25be 6452 373d
00000060: 4fd2 82be 8797 02bf 4968 8cbf e91a b2be
00000070: 2d6b 0b3e 32d0 b2bb b30e ea3c 5947 543e
00000080: 0ad3 60bd b35d f5be e7bc 803d 0f20 333e
00000090: 6d6d 25be 5edc 9d3b 886e 733f 18aa d9bd
000000a0: 51a0 18bd cafb 823e c970 38be 5e1d 323f
000000b0: 0995 73be 70cd 373d d73a d23c ca72 933e
000000c0: 2063 19bb cf13 563e 8a91 4c3d e7df b5be
000000d0: 200c c73e c368 2b3e 34f9 693e 7e86 1ebe
000000e0: 6d66 0ebb 70d8 753c 3486 0cbe d466 20be
000000f0: 27bb a0ba 2f86 8b3e 5148 02bd cb72 68bd
00000100: 071c 57bd 01e5 03bd 30b1 fc3c c327 a13e
00000110: 299e 6abb 9840 44bd ebf6 07bf 332b 833e
00000120: 9714 ddbd 22c2 5abd 075c 5c3e b10a d83e
00000130: 20ce 04be 1511 acbe 85cc a63d 2080 aebe
00000140: e89c ab3c f43a 473c bc41 2dbe e9d5 e03c
00000150: 12b0 063f be4b 213d 68a5 f9bd de8b fdbe
00000160: b6e8 a6bc a4af 103e bc97 26bf d406 49bf
00000170: e0de 173b b52a 8dbe a7df b83e 951a 19be
00000180: 8e7e 1e3d c271 09bd 385b c6bc 6708 a93b
00000190: ff77 b43e 9c75 833c 01f6 f9be a840 553c
000001a0: 9241 15be e963 c2bc 3227 4f3d 5778 96bd
000001b0: 935d 793d 4c9a 6dbe 492f 8dbc c3eb 063f
000001c0: 1c2a 83be 550d c73e 15fc d3bd e5ca 5dbc
000001d0: b89f 793c d0ec c33e 602e 3fbd 40e6 0abf
000001e0: 1076 753d e302 cdbd 8ec0 23be 54f5 fd3e
000001f0: 4920 d43c e49b 0c3f d634 063d 1b92 3e3f
00000200: 34cd ca3e b954 bebe a239 bebe 4959 e4be
00000210: 815b 9fbe b838 fe3c 0071 353c 5515 54bf
00000220: acf2 5dbf 7e5d ef3e fed5 2a3d 29f9 79bd
00000230: fc24 09be 43ea 373e c31d 69bf ba1d b03d
00000240: 841b e0bd 2088 e7bc b4f7 013e d9f7 8e3e
00000250: e2fb bb3e ec5d 41be bfc8 a9bd 7769 0ebf
00000260: b356 d5be 8d59 e73c 03c9 a7be 6d08 943e
00000270: 8d4c a23c 2216 b73d 3638 14bd c5b2 023f
00000280: 5770 883e ce6c 83be 3557 973d b497 ecbc
00000290: a91c 743e f081 49bd 49a8 163f 55cc 843a
000002a0: d8f2 0a3e 986f 8bbe 77c1 45be e52a b9be
000002b0: db85 4bbc dbe0 e6bd 2359 34be 3820 9dbd
000002c0: a53b 31be 9a43 abbc 24a5 3a3e dd17 d93e
000002d0: 9d24 353e 6259 75bd bb8e d03e 7b97 33bc
000002e0: ed52 00bc 4fc3 4cbe 9116 863b 81b5 0b3e
000002f0: f50d 7fbc 08c5 9abe fe1e 96be e3f1 95bd
00000300: a820 47bd 1339 aa3c 1e5e 5bbe cf0b beba
00000310: c9ed e53e 84ba ef3c 3287 24ba 4d56 723e
00000320: 8627 1fbd 4a29 e83e 7ddb 6fbd 0b99 13bf
00000330: 9d21 b23d a217 1dbf bab0 c33e e802 bdbd
00000340: b8c9 283f a4d7 ea3c c053 cf3c f4ed 043d
00000350: fe13 723e 736b f63e 937a 2f3e 3b02 06bf
00000360: d6b1 c33d cd33 443c e4e5 653e d171 363e
00000370: c0b7 5a3d 4385 b1be 5402 ad3e c6b1 10bd
00000380: ee68 d13d 2f7a 883e e59e 96bd 4524 b43e
00000390: d944 bc3d 1b29 ee3c 71a3 4ebe 4964 e53e
000003a0: 5d44 b3be c3d9 9b3e a3fe 26bf f8d3 76bf
000003b0: 4ebf 323f 16f9 06bc c387 8dbd 6c3d 813e
000003c0: 361b 453f 5176 b0bb f47b 48be 4518 b43d
000003d0: 6e8a 44bd 61ab 6b3f 1a3d 61bc 2327 dabc
000003e0: 1110 a0bd ef9c 86bd 8a32 1c3d 2474 2bbd
000003f0: f285 673e 98ed 9738 8bb2 bf3e 4495 aa3c

linear2.bias f4 [3]
0.44180286 0.18045014 0.1563376
00000000: fc33 e23e ecc7 383e f716 203e
