model/DQN/checkpoint_1800.pth (torch, 23085 bytes, 4 tensors)

linear1.weight f4 [256, 16]
000000 5a 67 17 3e 1e 9e 60 bd 44 23 61 3c 40 63 02 3e
       0.14785519 -0.054838292 0.013741318 0.12733173
000010 c8 e6 3a be bc 0f 37 be 20 f9 3c be 88 1d 17 be
       -0.18252099 -0.17877096 -0.18454409 -0.14757359
000020 95 c5 6c bd d1 00 5d bd c4 fc d0 bd 77 08 5c be
       -0.057805616 -0.053955857 -0.10204461 -0.21487604
000030 90 d3 0f bd 2c 98 a4 bd 14 1c 85 bd fa 2a 68 be
       -0.03511387 -0.08036837 -0.06499496 -0.22672644
000040 aa 10 ac bc c6 86 9f 3e c2 44 83 be c4 2e 8e bc
       -0.02100404 0.3115751 -0.25638396 -0.017356284
000050 8b 56 38 3d 20 b0 86 3e 19 89 4d bc fb e0 b4 be
       0.04500441 0.26306248 -0.012544894 -0.35327896
000060 0b 55 07 bf 2b 99 10 3e 95 57 7f 3e 2a a8 21 3d
       -0.5286414 0.14120929 0.24935754 0.039467014
000070 28 14 d6 3d 6e 3b 4f 3c 89 9e ca 3c 0a bc ed 3b
       0.10453063 0.0126484465 0.024733799 0.007255082
000080 82 2f 83 3e 43 04 8c 3f dd 6e 92 3d 97 0e 6a 3e
       0.25622183 1.09388 0.07150052 0.22857128
000090 0f 8f 35 3c 4e 33 42 3d 87 a5 d1 bd e8 f2 e5 3a
       0.011081471 0.04741221 -0.1023665 0.0017543705
0000a0 d4 97 bc 3d 6a 7e b1 3d 16 b2 ec 3d be ab 0e be
       0.092086464 0.0866669 0.11557405 -0.13932702
0000b0 5f 1c 17 3b a6 48 4d 3e a7 a4 78 bc d2 07 51 3a
       0.0023057682 0.20047244 -0.015175975 0.00079738826
0000c0 f2 e9 c1 3d 76 79 af bd b8 b3 68 3f 83 47 4e 3e
       0.0946845 -0.08568089 0.9089923 0.20144467
0000d0 dd 5a 1b 3e 58 f8 0d bd 3b 7b 8a bd d8 0a 3d 3e
       0.1517138 -0.034660667 -0.067617856 0.18461168
0000e0 16 2f 6f 3e ad 20 f8 bb 61 bb 12 be a7 05 45 be
       0.23357806 -0.0075722546 -0.14329292 -0.19240437
0000f0 8b 79 c3 bd 3e 1a 81 3e 05 c4 b4 3b 29 27 0e be
       -0.09544667 0.25215334 0.0055165314 -0.13882126
000100 c2 0f 83 bd fb e2 4e be 85 73 9e be a4 7e a4 3e
       -0.0639949 -0.20203774 -0.3094751 0.3212787
000110 9a b5 c1 3e 44 fb ac 3e b0 84 99 3e c0 ab 3b be
       0.37833863 0.3378545 0.29984045 -0.18327236
000120 b2 10 6a 3e a0 96 fe bd 62 92 a8 3d f0 e8 ea bc
       0.22857931 -0.12431073 0.08231045 -0.028675526
000130 6c cf 58 be 32 34 b7 bc ee 39 28 3e de b6 96 3d
       -0.21172875 -0.022363756 0.16428348 0.07359098
000140 69 d7 3d 3d dc 49 cb bd 2c c8 76 bd fd 1b 4c 3e
       0.04634801 -0.09926197 -0.060249493 0.19932552
000150 61 5a 93 bc 20 be 3b 3e 13 05 92 3d c0 7d c0 3e
       -0.017987432 0.18334246 0.07129874 0.3759594
000160 b8 f9 ac 3e da 01 07 bf af 88 6b be 2b f8 98 3c
       0.3378427 -0.527372 -0.2300136 0.018673023
000170 c5 1c 86 3d ec 1b 12 3e 53 7d 4e bc f9 c5 aa 3d
       0.06548456 0.14268464 -0.012603122 0.083385415
000180 4d 71 5c 3e 5f d5 81 3c b3 71 b8 be c6 2f 83 3e
       0.21527596 0.015848814 -0.36024246 0.25622386
000190 f6 74 be 3e 13 aa 1d 3e d1 76 e3 3a e5 d4 ae 3c
       0.3719861 0.1539691 0.0017354136 0.02134175
0001a0 8e 5f 53 3e 06 3d 53 bd 30 78 9d 3d b1 18 c7 3c
       0.2064192 -0.05157187 0.076889396 0.024303766
0001b0 29 d6 5e be df 33 25 3c e5 91 0a be fa e7 db 3d
       -0.21761383 0.010083168 -0.13532217 0.107376054
0001c0 80 42 81 3c ce 78 2d be 48 99 50 bd e2 1c 68 be
       0.01577878 -0.16940615 -0.05092743 -0.22667268
0001d0 c2 6f 6b be 98 7c 2f bd c0 04 ca bd a2 38 0b 3e
       -0.22991851 -0.04284343 -0.09864187 0.13595822
0001e0 e0 a6 68 3d c0 8b ec 3c d4 6f c7 bd 80 e7 8d bd
       0.05679977 0.028875232 -0.097381264 -0.06928921
0001f0 24 07 a4 bd 3a be 24 be 6e 99 10 be a0 c5 1e 3c
       -0.080091745 -0.1608819 -0.14121029 0.009690672
000200 58 bb 1e bd 74 d3 6f 3e 59 ad 4d be 06 dd 90 3e
       -0.038752884 0.23420507 -0.20085658 0.28293628
000210 e0 cb ae 3e 4e 64 a3 3d 6a 8e fb 3c d5 93 90 bd
       0.3413992 0.07978116 0.030707557 -0.07059447
000220 ad fb 44 bd 5e b6 00 3e 2a 4b 2e 3d eb 57 95 3e
       -0.04809158 0.12569568 0.04255215 0.2916864
000230 81 f2 dd bd ee 18 32 3e 0a a4 6d be 6a d6 66 be
       -0.108372696 0.17392322 -0.23207107 -0.2254273
000240 47 5a cf bd 8c 64 db be 87 b5 79 3d 0c 5c 9a bb
       -0.10124641 -0.4285015 0.060964134 -0.00471068
000250 4c cb a9 3e 44 06 94 bd 9b a4 48 3d 95 bf 17 be
       0.33162916 -0.072277576 0.048985105 -0.14819176
000260 17 a2 a9 3d 68 cb 67 3d c1 f6 1d 3b 93 fd 15 3e
       0.08282869 0.056590468 0.0024103376 0.14647512
000270 ba 63 17 3e 21 a5 68 bd bc 8b 34 3d 27 98 17 be
       0.14784136 -0.056798104 0.044078574 -0.14804135
000280 31 09 0c 3e 50 06 fd be fb bc 0a be 55 c7 8f 3d
       0.13675381 -0.4941888 -0.13548653 0.070204414
000290 01 10 28 3e d4 ff 01 bd e0 cb 60 bd a9 dd f0 3d
       0.16412355 -0.031738117 -0.05488193 0.11761028
0002a0 08 82 fb 3d a3 54 2c 3c 1c 53 da 3d 9f 2e 6b 3e
       0.12280661 0.010518226 0.10660383 0.22967003
0002b0 8b b2 bc bd c4 cb 55 3e 55 1c 25 be 96 5e 43 3e
       -0.09213742 0.20878512 -0.16124089 0.1907905
0002c0 cf 1a 17 3e f8 71 ad bd 97 fc 26 be e8 ec 93 3e
       0.1475632 -0.084690034 -0.16307293 0.28891683
0002d0 2f 64 3f 3e f5 34 8d 3e 61 0f 85 3e 6e 54 66 be
       0.18690561 0.27579466 0.25988296 -0.22493145
0002e0 44 93 5b 3e 0a 09 9d 3d 8f 34 50 3e c0 30 83 3e
       0.21442896 0.0766774 0.2033255 0.2562313
0002f0 b3 06 ae bc fa 42 53 bb 38 77 0d bd c3 e2 b9 bd
       -0.021243429 -0.0032235966 -0.034537524 -0.090764545
000300 0d 52 73 be 1b 81 b4 3d d9 01 01 be 1b 00 85 bd
       -0.23761769 0.088136874 -0.12598361 -0.06494161
000310 a3 f6 50 be b7 ce 62 3e b4 15 5a 3e 8b 7c 05 bd
       -0.20406584 0.22149168 0.21297342 -0.032589477
000320 76 a5 0d 3e b2 c7 b6 be ae 39 8c 3d 72 3b 60 3e
       0.1383265 -0.3569923 0.06846939 0.21897677
000330 33 bc 31 3e f6 3d 1f be 31 ca 13 3d 0f 43 b0 3d
       0.17356949 -0.1555098 0.036081497 0.086065404
000340 00 71 8c 3e 77 c6 a7 3d f8 a6 a1 be 79 b9 00 3e
       0.27429962 0.08192151 -0.315727 0.12570752
000350 0b c0 92 bc e5 38 1e be 39 0e 16 3e ef fd 53 be
       -0.017913839 -0.15451391 0.14653863 -0.20702337
000360 d8 ee 4b be a2 7a 0d 3d 3d 39 6f be 45 8f e6 bd
       -0.1991533 0.03454078 -0.23361678 -0.11257795
000370 33 72 2e be d3 a5 27 be 31 d2 cc bd 58 a3 dd bd
       -0.17035751 -0.1637185 -0.10001028 -0.10822171
000380 b5 4c 16 be 53 6b 78 3e d4 94 18 3e 4d 18 1f be
       -0.14677699 0.24259691 0.14900523 -0.15536614
000390 e2 7e ab 3e 7c 7c a2 be 11 51 04 3e 5b c7 ea be
       0.3349524 -0.317356 0.1292155 -0.4585522
0003a0 d3 d6 ae 3d 45 fb 98 be b0 30 b9 be 5e ac 0d be
       0.08537068 -0.29879203 -0.36169958 -0.13835284
0003b0 a6 38 f1 3d 83 66 e2 3d 2a d3 52 3d f6 9a df 3d
       0.11778383 0.11054709 0.051470913 0.10918228
0003c0 ad 9a 7e 3d 65 a3 3a 3d 17 cb 95 be 22 a2 a4 3e
       0.06215923 0.04556598 -0.29256508 0.32154948
0003d0 22 94 4f 3e 91 99 80 3e ab c3 ed 3d cf e5 7e 3e
       0.20271352 0.25117162 0.11609586 0.24892353
0003e0 db aa 97 3d ad 51 26 3e 2d 21 8b 3e da 52 0c 3e
       0.07405635 0.16242094 0.2717375 0.1370348
0003f0 d0 ed 3f 3e 53 51 98 bd b2 7f 33 3e c8 cb 82 bd
       0.18743062 -0.07437386 0.1752918 -0.063865244

linear1.bias f4 [256]
000000 8e e7 64 be 3a 25 98 3d d5 59 99 be aa 0a 3c be
       -0.22353956 0.074289754 -0.2995135 -0.18363443
000010 16 fd 0c 3f 40 d0 3f 3d a7 e3 e8 3e 68 97 73 be
       0.5507368 0.046829462 0.45486185 -0.23788226
000020 bc 81 e2 3e 35 73 e9 3e d1 ad 91 3e 01 2d d4 3e
       0.44239604 0.45595708 0.28452924 0.41440585
000030 9f 5e 85 3e 00 fb 64 3e b4 db 06 bd 35 2e df 3e
       0.26048753 0.22361374 -0.03292437 0.4358994
000040 dd 03 6f 3e bc 7c 01 3f 33 30 c4 3e 62 36 f1 bd
       0.23341317 0.50580955 0.38318023 -0.11777951
000050 fd ff 0e 3f 89 81 a8 3e 5d c2 52 bd b2 31 45 3e
       0.5585936 0.32911327 -0.05145489 0.19257239
000060 b0 0b 9d bd 8d 66 a7 3e 49 5b f0 3e 02 23 9f 3e
       -0.07668245 0.32695428 0.46944645 0.31081396
000070 9f c3 d4 bd e9 81 92 bc 00 04 e2 3d d0 43 88 3d
       -0.10388874 -0.017884212 0.11035919 0.06653559
000080 89 17 17 3e 5c e9 81 3d ba 1a c3 3a 75 c4 ee 3e
       0.14755072 0.06343338 0.0014885284 0.4663426
000090 58 3d 3a 3e 29 04 7f 3d 5c 75 9e 3e 65 47 10 3f
       0.18187463 0.062259827 0.30948913 0.5635894
0000a0 3b f0 25 be b2 c3 3b be eb 8d ff 3e 72 99 b9 3e
       -0.16204922 -0.1833637 0.49912962 0.36249882
0000b0 8a 20 16 3f 96 d5 be 3e b0 e0 8a 3e 7e 58 9a 3e
       0.586434 0.37272328 0.27124548 0.3014564
0000c0 db 78 da bc 42 21 5b 3e b7 37 89 3e ff 8b 84 be
       -0.026668957 0.21399406 0.2680032 -0.2588806
0000d0 8e 8d 6b be b5 34 f9 bd 1a 2c be bd b1 5e 4f be
       -0.23003218 -0.12168256 -0.092857555 -0.20250966
0000e0 f7 7c b7 3e 78 64 14 3d 89 41 2a 3e ba aa 04 be
       0.35837528 0.036228627 0.16626562 -0.12955752
0000f0 48 8c 10 3f 93 cb 8f 3e 31 3e 56 be 68 09 f8 bd
       0.5646405 0.28085002 -0.20922162 -0.12111169
000100 56 41 9f bd 10 9c 1c be a4 c6 88 3e 44 59 b2 3c
       -0.07776134 -0.15293908 0.2671405 0.02177108
000110 de ab c0 be bb 28 f0 3e 60 74 15 3d 94 de 12 3f
       -0.37631124 0.46906075 0.036487937 0.5737088
000120 d4 a8 0c 3e c9 9d f4 3d ff 88 1b 3e 7d 82 a2 be
       0.13736278 0.11944158 0.15188979 -0.3174018
000130 c1 8c f5 3e 38 aa 9c be d9 91 e0 3e d8 c4 cb 3e
       0.4795895 -0.30598617 0.43861273 0.39798617
000140 ed 5c a3 3e ed 35 0a 3f ff 47 68 be 83 1d 82 bd
       0.31906834 0.53988534 -0.22683714 -0.06353285
000150 f1 78 32 3e b2 3d dc 3d 65 8a 07 3f f3 69 55 3e
       0.17428948 0.10753955 0.5294555 0.20841198
000160 b8 61 38 3c 9a d2 94 3e 33 e5 09 3f dc 4d 31 bc
       0.011253767 0.29066926 0.53865355 -0.010821786
000170 33 77 84 3e 37 e3 f1 3e 4c 20 fc 3e bd 60 f5 3d
       0.25872192 0.47243664 0.4924339 0.11981342
000180 d0 3e d4 bd 9a 98 87 3c 00 0f ac 3e bd 14 42 3e
       -0.10363543 0.016552258 0.33605194 0.18953224
000190 3a 44 15 3e 30 9c ea 3d 0e 3e 3c bd de 0e 94 3e
       0.14576808 0.11455572 -0.045957617 0.28917593
0001a0 e1 43 ce 3e 9c 89 ae 3e 2d 19 09 be 40 60 6e 3e
       0.40286162 0.34089363 -0.1338851 0.23278904
0001b0 8d 21 24 3e 55 71 07 3f 1b 6d 2c 3e 7a 24 48 be
       0.16028424 0.52907306 0.16838495 -0.19545165
0001c0 33 26 58 bd 7f 6f ce be 91 53 c6 bd 85 2f fe 3e
       -0.052770805 -0.4031944 -0.09683908 0.4964563
0001d0 4f 69 5c 3c 15 e6 b7 3d 1f b4 da bd 48 03 a8 3e
       0.013452842 0.089794315 -0.106788866 0.32815003
0001e0 10 b9 a2 be 02 e5 c3 3d 59 12 03 3f 81 1a 2b be
       -0.31781816 0.09565164 0.5119987 -0.16709329
0001f0 ad 78 bb 3e 1f 31 2f be 2d 49 6a 3e ad ec c8 3e
       0.36615506 -0.17108582 0.22879477 0.3924307
000200 66 17 da 3e b0 e9 f1 3e 5a 51 0d 3e cc 49 83 bc
       0.42595977 0.47248602 0.13800564 -0.0160264
000210 b6 2f d2 3e 29 7d 49 3d dc 15 09 3f 0e 47 0f be
       0.41052026 0.049191628 0.5354898 -0.13991949
000220 73 6b c2 3e 40 f6 45 bd e1 9f d4 3e 57 0f ae 3e
       0.37972602 -0.048330545 0.41528228 0.33996078
000230 0a 40 18 3d 7d ce c2 bd be 6b 92 3e 65 fa 94 be
       0.037170447 -0.09512041 0.28597826 -0.29097286
000240 a4 c2 9f 3e b7 4d d7 bc b6 be 89 be f5 82 11 be
       0.31203187 -0.026282175 -0.26903313 -0.14210112
000250 22 f5 82 3e 74 3b ec 3e f4 9a 8d bd 5f a4 49 3d
       0.25577646 0.4613911 -0.069143206 0.049229022
000260 a9 72 f9 3e 7a 50 6a 3d e7 c3 1c be b6 ff b0 3e
       0.4872029 0.057205655 -0.15309106 0.34570092
000270 6a b2 82 3e fc bc 2b be 3f 40 33 3d af d6 5b bd
       0.25526744 -0.1677131 0.04376244 -0.053671535
000280 66 c4 21 3e 63 97 c2 3e 3c 27 ac 3e 2c b5 3d 3e
       0.15797576 0.38006124 0.33623683 0.18526143
000290 67 41 b0 be 9a 03 13 bd 8e 12 8e 3e 80 b7 30 be
       -0.34424898 -0.035892107 0.2774853 -0.172575
0002a0 ab 27 fb bd 0a 3d e2 3c 9d 31 9c 3d cd 73 25 3d
       -0.122634254 0.027616996 0.076266505 0.04039364
0002b0 3b c2 cb 3e 5a b0 26 be d9 41 22 3e 19 d3 19 3e
       0.39796624 -0.1627821 0.15845431 0.15021934
0002c0 a4 60 05 bd 00 c2 c8 3e 5a 03 2e 3e c3 dd a7 bd
       -0.032562867 0.3921051 0.16993466 -0.081965946
0002d0 82 66 ef 3c f0 27 8f be fb 24 83 3e ee 2d a3 3d
       0.029223684 -0.27960157 0.2561415 0.07967745
0002e0 e2 10 16 3f 4d ed c7 3e 8d 1a bb bd 05 d1 80 3e
       0.5861951 0.39048234 -0.091359235 0.2515947
0002f0 c9 8b 10 be 5b 36 ba 3e 1b 87 0b 3f b1 de 07 3d
       -0.14115824 0.36369595 0.5450303 0.03317136
000300 9b 0f f5 3d 89 b3 16 ba 88 e5 b4 bd 37 c8 7d b9
       0.11965867 -0.0005748799 -0.08832842 -0.00024202546
000310 b9 3b c8 3e d6 16 57 3e 61 db ad 3e 1a b5 1d be
       0.39108065 0.21004805 0.33956435 -0.15401116
000320 70 86 4f 3d 8a f8 63 3e 1b e3 c0 3e e1 3b bf 3e
       0.05066532 0.22262779 0.37673268 0.3735037
000330 4f 7b 8b be 1e dd 74 bd eb 1b ed 3e 52 d2 e7 3e
       -0.27242514 -0.059781186 0.46310362 0.4527765
000340 94 77 64 3d 7c 85 c6 bd 8c 20 c1 3d c0 23 7d bd
       0.0557781 -0.09693429 0.09430036 -0.061801672
000350 0a c6 8f 3e ec 15 9d bc 0a 5c ac 3d f5 a7 22 be
       0.2808078 -0.019175492 0.084159926 -0.15884383
000360 dc aa 1d bd ff 64 19 3d ca 8d 7c be 84 2b 4c be
       -0.038493022 0.037449833 -0.24663463 -0.19938475
000370 9d 19 7f be 44 20 c5 3e 52 c5 08 be c5 02 bc 3d
       -0.24912114 0.3850118 -0.13356522 0.09180216
000380 34 24 b5 3e 99 82 91 3e 0f de 72 be d8 2b 0b 3e
       0.35379183 0.2841995 -0.23717521 0.13590944
000390 c0 1f 85 3d fc c0 4c 3e 01 87 49 bd 47 a6 a1 3e
       0.065001965 0.19995493 -0.049201015 0.31572172
0003a0 0c fe 8a 3e 4d 36 be 3d 27 3a e8 3e 7c 3c 4f be
       0.27146947 0.09287701 0.45356867 -0.20237917
0003b0 d9 5e cf 3e 4b 4b f8 3e 22 f0 b1 3d d4 53 90 bd
       0.4050205 0.48494944 0.0868838 -0.07047239
0003c0 0b 5f c8 bd 72 8b ab bd 0e 3d e5 bd 6c ef 25 3d
       -0.09783753 -0.083762065 -0.11193286 0.040511534
0003d0 96 73 54 3d db e3 e8 3e 1b 01 bc 3b 7c 42 08 3f
       0.051868044 0.4548634 0.0057374365 0.5322645
0003e0 eb c8 a0 be a0 e7 c0 3e 44 0c cc 3d 55 cd d8 3e
       -0.31403288 0.37676716 0.09963277 0.42344156
0003f0 2b 64 00 be 39 0e 49 bc df df 59 3e 30 cc 6a 3a
       -0.12538211 -0.012271457 0.21276806 0.0008956818

linear2.weight f4 [3, 256]
000000 0a dd e3 3c 04 5f a0 3e 6b f4 a2 bd 76 a5 13 3e
       0.02781536 0.3132249 -0.07956775 0.14418587
000010 1a 7b 82 3e 76 0e 65 3e f8 8c db 3d 00 2c f4 3a
       0.25484544 0.22368798 0.10720247 0.0018628836
000020 2d 4d 2b 3e 14 f8 f6 3d 32 06 33 3d ea 80 1f 3e
       0.16728659 0.12059036 0.04370708 0.1557652
000030 20 1e fe 3d 51 34 da bc 6d 45 58 3e 9e 52 c5 3d
       0.1240809 -0.026636275 0.21120234 0.096348986
000040 ba f2 b4 3c fd 75 8d 3e 28 84 5e 3e 7f 0d 5d 3d
       0.022088397 0.2762908 0.21730101 0.05396795
000050 e7 6f 1b 3e 23 e4 42 3e 65 e5 a1 3c 5a 0a a4 3e
       0.15179406 0.1903234 0.019762704 0.32039148
000060 69 26 be 3d 07 f9 ad 3e e9 3b 37 3e 82 91 e1 3d
       0.0928467 0.33979055 0.17893948 0.110140815
000070 80 3f 4b bd 6b a6 b3 3e bf 0c 76 3e 28 36 c1 3a
       -0.049621105 0.35087904 0.240283 0.0014740871
000080 76 77 65 3c 6c 65 36 be f7 f0 63 3d af d7 98 3e
       0.0140055325 -0.17812127 0.055649724 0.29852054
000090 9b 86 69 3e 3b dc 07 be 66 ac 93 3e 26 fd a7 3e
       0.22805254 -0.13267605 0.28842467 0.32810324
0000a0 4d 25 8c 3d 68 c4 2d 3d 87 6f 6a 3e 14 ba 2c 3e
       0.06843052 0.042423636 0.22894107 0.16867858
0000b0 f6 49 71 3e f7 12 6b 3e de 22 d2 3d 4b 09 61 3e
       0.2356337 0.22956453 0.10260557 0.21976201
0000c0 f7 95 36 3e 87 d7 aa 3e c3 75 98 3e b9 6e 23 bf
       0.17830645 0.3336756 0.29777345 -0.63840824
0000d0 3a b3 00 bf 96 21 d7 bd dd f7 79 be da 9c 52 3d
       -0.5027348 -0.10504453 -0.24410959 0.051419117
0000e0 ab 1b 1b 3e 2b 05 bc 3d 11 3c 77 bd 9a e2 be 3e
       0.15147273 0.09180673 -0.06036002 0.37282258
0000f0 af e9 58 3e f1 1b 08 3e c8 a4 83 be 5b e3 c3 be
       0.21182893 0.13291909 -0.25711656 -0.38259396
000100 74 45 cd 3c 74 92 d9 3d 57 52 8b 3e 56 78 c6 bd
       0.025057532 0.10623637 0.27211258 -0.09690921
000110 ff ca 45 bc e9 ab 56 3e 7d 6e 68 3e 66 b7 4e 3e
       -0.012072324 0.20964016 0.22698398 0.20187148
000120 05 f4 9f 3e a5 05 c6 3d 6a 4b 03 3e b5 ca 0e 3c
       0.3124086 0.09669045 0.12821737 0.008715321
000130 07 58 5e 3e a4 a9 d8 be 04 4a 5e 3e 26 90 b2 3d
       0.21713267 -0.42316926 0.21707922 0.087189004
000140 30 55 50 3e 33 42 51 3e 92 88 76 3c a0 e4 17 bc
       0.20344996 0.20435409 0.015047209 -0.009270817
000150 87 21 81 3e 58 15 84 3e 43 8d 0c 3e bd 82 53 3e
       0.25220892 0.25797534 0.13725762 0.20655341
000160 a1 4b e2 3d 29 4c 21 3e 52 16 9c 3e 40 44 19 3c
       0.11049581 0.15751709 0.3048578 0.009354651
000170 f6 5d 37 3e 0f 8c 70 3e 8c 99 24 3e 50 ae 96 3e
       0.17906937 0.23490928 0.16074198 0.29429865
000180 09 98 02 bf 80 84 fc 3d fc 5a 28 3e b9 20 e7 3d
       -0.5101324 0.1232996 0.16440958 0.11285538
000190 af 19 04 bd fb c1 57 3e 0e ba 86 3e c4 78 da 3d
       -0.032251056 0.21070091 0.26313823 0.106675655
0001a0 fd a2 54 3e b7 7b e0 3d a1 32 00 bd e2 4f 9c 3e
       0.207653 0.10961097 -0.031298283 0.30529696
0001b0 97 a7 4e 3d 0e 3d 64 3e 6c 19 1e 3e 72 1b 4d 3c
       0.050452795 0.22288916 0.15439385 0.0125187505
0001c0 55 4c ef 3d fd b1 51 be 7b 98 21 3e 08 2d 0c 3e
       0.11684481 -0.20478053 0.15780823 0.13689053
0001d0 c1 2a d1 bd 19 79 30 3e 7a 70 8a 3e c0 9c aa 3d
       -0.10213233 0.17233695 0.27038938 0.08330679
0001e0 8f d9 94 3d c1 48 bd 3b 87 d8 42 3e 38 64 d0 3d
       0.072680585 0.005776495 0.19027911 0.10175365
0001f0 5e 86 23 3e 55 ef 53 bf c6 12 6f 3e 89 67 5a 3e
       0.15969226 -0.82787067 0.23347005 0.21328558
000200 21 de 27 3e 6d 0d 03 3e 24 3e b6 3d 13 de 22 bf
       0.16393329 0.1279809 0.08898571 -0.6362011
000210 23 0d 30 3e cd 35 ba 3d 13 c3 17 3e cc dd fc 3c
       0.17192511 0.09092293 0.14820509 0.03086748
000220 10 bd 28 3e 41 74 5c 3e 95 28 38 3d 81 e6 31 3e
       0.16478372 0.21528722 0.044960577 0.17373087
000230 4c a7 81 3e c2 04 ac be b3 e9 79 3e f6 b8 44 be
       0.2532295 -0.3359738 0.24405555 -0.19211182
000240 94 3e d9 3d c4 fd 9a bd 50 17 01 bf 73 c0 02 3e
       0.10607639 -0.07567933 -0.504262 0.12768726
000250 e9 7d 1d 3e 8d 90 02 3e fc c6 22 3d 1b 35 38 3c
       0.15380062 0.12750454 0.039740548 0.01124313
000260 5d bc a0 3e a0 e9 af bd a9 ef a9 be f4 65 47 3e
       0.3139371 -0.08589482 -0.3319066 0.19472486
000270 d2 60 90 3e 22 ff 46 3e 20 c8 85 3e cc 4c 18 be
       0.28198868 0.19433263 0.26129246 -0.14873046
000280 74 aa ce bd fa 8f ad 3e de 8c 4a 3e 76 e2 bb 3e
       -0.10091105 0.33898908 0.19780299 0.36696213
000290 35 0c 4b bf 0c ee 4b be 8d c8 08 3e 3e a7 d0 3c
       -0.793155 -0.19915026 0.13357754 0.025470372
0002a0 2c 2f ab 3e 05 b1 8c bd 7a cd 6a 3e e5 86 2c 3d
       0.33434427 -0.06869701 0.22929946 0.042120833
0002b0 e3 ee be 3d f8 15 86 3e 40 cf 8f 3e 81 dc 0f 3e
       0.09322908 0.26188636 0.28087807 0.1404896
0002c0 bd 73 30 3e dc fb 84 3d 66 01 4a 3b a4 be 6f be
       0.1723165 0.06493351 0.0030823587 -0.23412567
0002d0 2f 6a 9f 3e 21 16 34 be 5b c9 5d 3e 33 16 42 3e
       0.311357 -0.17586567 0.21658842 0.18953781
0002e0 6a 6a 85 3e e1 eb 9b 3e b4 5d 88 3e 11 70 84 3d
       0.2605775 0.304534 0.2663399 0.064666875
0002f0 27 45 62 3d ad 2b 24 3e 33 53 a2 3e e8 a1 a4 3e
       0.05524173 0.16032286 0.317041 0.32154775
000300 cc 70 b7 3e ea 4a bc bd 16 9a 33 3e 01 72 85 3e
       0.35828245 -0.09193976 0.17539248 0.2606354
000310 d8 00 7b 3e cf f7 17 3e 9b 09 13 3e 71 ec b1 3d
       0.2451204 0.14840625 0.14359133 0.08687676
000320 ff 18 96 3c 6c ac 84 3e 2e 70 9a 3e 5c 80 47 3d
       0.018322466 0.25912797 0.3016371 0.048706397
000330 fb 7c 93 be f8 0b 31 bf 8d 5a 44 3e 9b 4f 59 3e
       -0.2880629 -0.6915889 0.19175167 0.21221773
000340 b8 eb b5 bd f8 5e 15 3c e8 29 0b 3e fc 9c 05 3e
       -0.088828504 0.009116881 0.13590205 0.13048166
000350 f0 38 ef 3d 60 2e 04 3e 11 2c 34 3e 59 61 0d 3e
       0.11680782 0.12908316 0.17594935 0.13806666
000360 28 e8 2d bb 65 f5 ee 3c e8 b3 bd be c3 9b b0 b9
       -0.002653608 0.029169748 -0.3705132 -0.00033685387
000370 25 b7 bd 3d ea 28 7e 3d ef 3f 83 3d c5 dc 3f 3e
       0.09263448 0.062050737 0.06408679 0.1873656
000380 55 3c 09 3e e8 33 66 3d fd 4f 81 3b 3f a4 80 3e
       0.13401921 0.056201845 0.003946303 0.2512531
000390 43 e5 e8 3d 90 b9 46 3a 84 59 87 3e 73 35 4f 3e
       0.11371853 0.00075807516 0.26435483 0.20235233
0003a0 f0 68 73 3e a3 f0 bd 3b d4 8c 85 3e 09 b9 11 bf
       0.23770499 0.0057965084 0.26084006 -0.56922966
0003b0 a6 f7 29 3e a9 19 ac 3e 22 fa e7 bd cf 75 c1 bd
       0.16598377 0.33613327 -0.11327006 -0.09446298
0003c0 59 6e 8b be d6 b1 e0 3d f0 2d 6e 3e 3e b0 50 3e
       -0.27232626 0.109714195 0.23259711 0.20379731
0003d0 6b 90 1b 3e e7 80 52 3e 63 90 7b 3e d6 ce 53 3e
       0.1519181 0.20556985 0.24566798 0.2068437
0003e0 48 9c 2a 3e 1e 54 4c 3e 2c 46 74 3e 44 db 5f 3e
       0.16661179 0.19953963 0.23854893 0.21860987
0003f0 fd 6a 18 3c cb 62 a5 bd 66 14 82 3e fb cb 9b be
       0.009302852 -0.08075484 0.25406188 -0.30429062

linear2.bias f4 [3]
000000 c3 d6 7a 3e 37 45 1c 3e b8 af 71 3e
       0.24495988 0.15260778 0.23602188
