model/DQN/checkpoint_100.pth (torch, 23075 bytes, 4 tensors)

linear1.weight f4 [256, 16]
000000 fb c4 3f 3e 10 58 52 bd 47 2c 2f 3d e1 c0 2a 3e
       0.18727486 -0.051353514 0.042766836 0.1667514
000010 c8 e6 3a be bc 0f 37 be 20 f9 3c be 08 93 ea bd
       -0.18252099 -0.17877096 -0.18454409 -0.11453825
000020 c3 56 98 bd dc d0 e7 bc 6b 9f 99 bd 80 a8 3c be
       -0.074384235 -0.028297834 -0.0750111 -0.18423653
000030 90 d3 0f bd 2c 98 a4 bd 14 1c 85 bd fa 2a 68 be
       -0.03511387 -0.08036837 -0.06499496 -0.22672644
000040 0c c8 3d bd 33 25 b7 3d 75 a6 82 be 86 ae 33 be
       -0.046333358 0.08942642 -0.25517622 -0.17547044
000050 2c e6 cd bd cb eb 20 3e a3 26 e0 3c f6 74 49 be
       -0.100536674 0.15714948 0.027362173 -0.19673523
000060 3a 69 4a be 44 91 1d 3c 2d 2d 7a 3e e2 72 cf 3d
       -0.19766703 0.009617154 0.24431296 0.10129334
000070 ba 9c 4c 3e 9f 84 76 bc 9c 51 b6 bc df 3b 0b bd
       0.19981661 -0.015046268 -0.022255711 -0.033992644
000080 d3 e5 91 3b 0c d7 64 3e bf 76 90 3d e4 b5 50 3e
       0.004452446 0.22347659 0.07053899 0.20381886
000090 1f 5a 20 3e 4e 1d a5 bd 9c 84 09 3d a7 8b 63 be
       0.15659378 -0.0806223 0.03357373 -0.22221242
0000a0 28 10 f2 3d 1d 3f cb 3d 66 6b 19 3e a0 c3 5e be
       0.11819488 0.09924147 0.14982376 -0.21754313
0000b0 12 49 c8 3d 8c c9 1c 3e bc 05 94 bc 74 66 bf 3d
       0.09779562 0.15311259 -0.01806914 0.09345713
0000c0 95 1d 1d 3e 4b e1 5b be be 53 75 3e 3d 59 7b 3e
       0.15343316 -0.21472661 0.23957726 0.2454576
0000d0 fb 87 93 3d 7e 7c da 3d b2 97 d0 bd ab 68 1e 3e
       0.072036706 0.10668276 -0.101851836 0.15469615
0000e0 40 55 5c 3e fc e4 76 3b ff cc 9b bc 49 6a 50 be
       0.21516895 0.0037673106 -0.019018648 -0.20353045
0000f0 43 b3 16 be ce c1 6a 3e 9e 6d f3 bc 46 a3 54 be
       -0.1471682 0.22925493 -0.029715355 -0.20765409
000100 95 dc 1f 3d 9e 5c a9 bd 0b 1f 55 be 6b 5c 27 3e
       0.039028723 -0.082696185 -0.20812623 0.16343848
000110 f0 25 85 3e 6f f8 3e 3e 13 13 1e 3e 44 b9 4d be
       0.26005507 0.18649457 0.15436964 -0.20090204
000120 a9 db 80 3e e2 57 01 be 24 95 95 3d 1b 0a 8d bd
       0.25167587 -0.12631181 0.07303837 -0.06886693
000130 c2 a8 58 be 84 cc 0f bd b5 83 1c 3e 7e 50 73 3d
       -0.21158126 -0.03510715 0.15284617 0.059402935
000140 f0 4e b4 3b c4 d7 51 3c b7 57 23 3c f3 53 3f 3e
       0.005502574 0.01280779 0.009969643 0.18684368
000150 0c 56 94 bd cd bf 30 3c 91 43 f9 bd fe 0b 72 3e
       -0.07242975 0.010787916 -0.121710904 0.23637387
000160 cf e0 70 3e 1b cd 95 be fa 48 04 be 1e 5a df 3c
       0.23523258 -0.29258046 -0.12918463 0.02726465
000170 ae b8 61 3d 14 87 49 3e 3b 27 84 bd 71 fb cf 3d
       0.055107765 0.19680434 -0.06452795 0.101553805
000180 d9 7f 7d 3e 07 54 e8 3d e2 78 be bd 93 41 12 3e
       0.24755801 0.11344152 -0.093004 0.14282827
000190 91 b0 87 3e 39 7e 9c 3c b6 38 08 be 74 24 4c 3c
       0.26501897 0.019103156 -0.13302884 0.012459863
0001a0 6e 51 6d 3e 36 7c 88 bc 5a dd 88 3d 46 2f 9d 3c
       0.23175594 -0.01666079 0.066828445 0.01918758
0001b0 4b df 4c be 54 df e1 bb 1c f3 14 be f9 93 e6 3d
       -0.20007055 -0.006893078 -0.14545864 0.11258692
0001c0 80 42 81 3c ce 78 2d be 48 99 50 bd e2 1c 68 be
       0.01577878 -0.16940615 -0.05092743 -0.22667268
0001d0 c2 6f 6b be 98 7c 2f bd c0 04 ca bd a2 38 0b 3e
       -0.22991851 -0.04284343 -0.09864187 0.13595822
0001e0 e0 a6 68 3d c0 8b ec 3c d4 6f c7 bd 80 e7 8d bd
       0.05679977 0.028875232 -0.097381264 -0.06928921
0001f0 24 07 a4 bd 3a be 24 be 6e 99 10 be a0 c5 1e 3c
       -0.080091745 -0.1608819 -0.14121029 0.009690672
000200 62 14 e6 3d 8f 96 6d 3e c4 59 7f 3d 22 92 21 3e
       0.112343565 0.23201965 0.062341467 0.15778401
000210 53 0f 6d 3e 12 7d 62 bd 59 19 cb bd c4 f8 63 bd
       0.23150377 -0.055295058 -0.09916944 -0.055657163
000220 4e c0 b3 bc 34 6b 2a 3e 9a 51 28 3d 02 b9 91 3e
       -0.021942284 0.16642457 0.041093446 0.28461462
000230 d5 33 c3 bd d3 a8 1d 3e cc 59 85 be ef 50 5c be
       -0.095313706 0.15396433 -0.26045072 -0.21515249
000240 86 da 8f bd 0b 42 51 be 71 42 03 3e 03 e6 03 be
       -0.07024102 -0.2043535 0.12818314 -0.12880711
000250 69 38 75 3e 7b 18 52 be 16 1e ca bd bd 33 15 be
       0.239473 -0.20517151 -0.0986902 -0.14570518
000260 a8 60 ed 3d ee 62 a6 3d 1b 53 a3 bb ce 83 1b 3e
       0.11590701 0.08124338 -0.004984272 0.15186998
000270 d0 57 35 3e 83 99 5b bd b5 49 37 3d 1e 41 06 be
       0.17709279 -0.053613197 0.044748027 -0.13110778
000280 25 91 01 3e 73 df 02 be 54 dd cb bd 47 37 b4 bc
       0.12653024 -0.12780552 -0.09954324 -0.021999015
000290 07 52 d0 3d f3 d7 1c be f1 0d 36 be fc 26 d4 3d
       0.101718955 -0.15316753 -0.17778756 0.10358998
0002a0 49 cb 1f 3e f1 75 1d 3d 98 44 e7 3d c5 6e 88 3e
       0.15604891 0.038442556 0.1129238 0.2664701
0002b0 6f 57 8c bd 39 bf 56 3e ed 86 25 be 61 97 43 3e
       -0.06852614 0.20971383 -0.16164751 0.19100715
0002c0 5e 8c 47 3e dd 76 34 3d 15 86 2e 3d b7 58 29 3e
       0.1948714 0.04405867 0.04260834 0.16537748
0002d0 e1 d8 8c 3d 0f 6b 0c 3e 5a a8 01 3e 9f 06 78 be
       0.06877304 0.13712715 0.12661877 -0.24221276
0002e0 59 db 70 3e d0 41 d8 3d 0a a2 42 3e 0c 46 78 3e
       0.23521174 0.10559428 0.19007125 0.24245471
0002f0 b8 07 52 bb 55 9e a8 bc f1 50 41 bd e2 35 ad bd
       -0.0032048058 -0.020583311 -0.047196332 -0.08457543
000300 76 3a 2f be 76 3d 2f 3e 1a ac 32 3d a4 74 1a be
       -0.17112145 0.17113289 0.04362116 -0.15083557
000310 63 7d 87 be b7 32 6d 3d 5c db fd 3d eb bf 05 be
       -0.2646285 0.057909694 0.12395355 -0.13061492
000320 11 8c ed 3d 82 7a 80 be 47 bf c1 3d 5d d5 81 3e
       0.11598981 -0.25093466 0.094603114 0.25358096
000330 ad 12 4d 3e 30 5b 2a be 52 b9 30 bd 27 6a 0d 3e
       0.20026655 -0.16636348 -0.043145485 0.13810025
000340 90 13 e5 bc b8 49 0f 3d 80 53 7a be 00 fa 55 3b
       -0.02796343 0.034982413 -0.24445915 0.0032650232
000350 80 da aa bc 10 bd b4 bd 20 50 3a 3d 66 55 78 be
       -0.020856142 -0.08825123 0.04548657 -0.24251327
000360 8a 44 76 be 44 10 12 be 6a 18 73 be da 56 1e be
       -0.24049583 -0.14264017 -0.23739782 -0.15462819
000370 22 7a 33 be 0e bd 71 be 18 7c eb bd ca 81 0e be
       -0.17527059 -0.23607275 -0.114982784 -0.13916698
000380 87 d5 9d bb 1b 4a 81 3e 6c 01 67 3e ce b0 eb bd
       -0.004816714 0.2525185 0.22559136 -0.11508332
000390 f2 e1 56 3e 2f 3e 26 bd 82 48 26 3e 46 66 2f be
       0.20984629 -0.040586647 0.16238597 -0.17128858
0003a0 fd e9 cb bc 14 70 d4 bd 4c 45 51 be d4 94 25 be
       -0.024891848 -0.1037294 -0.20436591 -0.16170055
0003b0 b1 c1 63 3e ad 60 a4 3d a3 3d 7c 3d b6 3b 39 3e
       0.22241856 0.08026252 0.06158222 0.18089184
0003c0 69 67 93 3d b2 07 5b 3e 7c 0b a0 bd 56 a5 6d 3e
       0.07197458 0.21389654 -0.078146905 0.23207602
0003d0 c8 9e c5 3d e3 3c 03 3e 6a 7a 61 b9 75 65 70 3e
       0.09649426 0.12816195 -0.00021503275 0.23476203
0003e0 ea 4a c6 3d 4e bb 55 3e 7b 50 87 3e e2 b2 19 3e
       0.096822575 0.20872232 0.2642859 0.15009645
0003f0 52 f9 51 3e f4 e9 bc bd 74 ef 2f 3e 6f 70 66 bd
       0.20505264 -0.092243105 0.17181188 -0.05625957

linear1.bias f4 [256]
000000 ed 89 3c be 3d 9f 87 bc 43 61 62 be 68 48 fd bd
       -0.1841199 -0.016555423 -0.22107415 -0.12367326
000010 ff 48 8e 3e 35 90 1f be b9 3c 62 3e 68 97 73 be
       0.27790067 -0.15582354 0.22093476 -0.23788226
000020 16 9a 58 3e a2 26 5e 3e 29 76 c1 3d c4 16 2c 3e
       0.21152529 0.21694425 0.094463654 0.1680556
000030 2d 2c 92 3d 68 53 f3 3d 77 29 1b bd 5c 20 6b 3e
       0.07137332 0.11881143 -0.03788134 0.22961563
000040 15 83 f5 3d 43 d3 8e 3e f1 c0 22 3e e7 9a 42 be
       0.119878925 0.27895555 0.15893914 -0.19004403
000050 00 9a 98 3e 46 bd 51 3e 33 ad 97 bd 2f 67 df 3d
       0.29804993 0.20482358 -0.07406082 0.109083526
000060 8b d4 6f bd c3 8c 5d 3e ac 4a 5c 3e e2 61 19 3e
       -0.058552306 0.21635728 0.2151286 0.14978746
000070 b0 e9 cd bd 0e 5b cc bd 67 aa 8b bc e2 87 c9 3d
       -0.10054338 -0.09978305 -0.017049028 0.09840371
000080 41 ef 7c 3c 24 77 ee 3d 1a 73 82 3d 61 62 5c 3e
       0.015437902 0.11643818 0.0636961 0.21521904
000090 05 8f 05 bd 03 ee 96 bd 4b 1d fc 3d 36 52 91 3e
       -0.032607097 -0.07369616 0.12310275 0.28383034
0000a0 98 5c 22 be 23 2e 58 be 54 6d 7c 3e 9c 87 1b 3e
       -0.15855634 -0.2111135 0.2465108 0.1518845
0000b0 35 17 ab 3e c4 f1 3f 3e 11 32 90 3d e2 d4 11 3e
       0.33416143 0.1874457 0.070407994 0.14241365
0000c0 35 13 27 be ad e5 17 3e ae ec dc 3d 2f 44 3b be
       -0.1631592 0.14833708 0.107873306 -0.18287729
0000d0 8b 07 5c be c5 26 ef bd 2c 05 6f be f2 16 3e be
       -0.21487252 -0.116773166 -0.23341817 -0.1856344
0000e0 45 49 08 3e 35 e8 ee 3c f7 59 7c 3d da 59 36 be
       0.133092 0.02916346 0.061609235 -0.17807713
0000f0 8c b9 9b 3e 17 30 9b 3d 7d 0a 6e be b2 25 96 bd
       0.30415 0.07577532 -0.23246188 -0.073314086
000100 ab 5b 0c bd ca c6 48 be 0b 8d 04 3e 5f e6 05 be
       -0.03426711 -0.19607082 0.12944429 -0.13076161
000110 c4 cd 60 be 66 77 65 3e 03 15 e6 bc 44 7e 8f 3e
       -0.21953493 0.22408828 -0.028086191 0.2802602
000120 1b 2b b7 3c 08 cd 11 bd c2 0d 2c bd 4d df 87 be
       0.022359421 -0.035595924 -0.042005308 -0.26537552
000130 cb e8 78 3e 9b 67 6e be c9 65 8c 3e 9e 90 4c 3e
       0.24307553 -0.2328171 0.27421406 0.19977042
000140 ba 42 e4 3d 9f 57 8f 3e c8 c6 61 be 31 35 23 be
       0.111455396 0.27996537 -0.22048485 -0.1593826
000150 ad 10 26 3e 3c cf d2 ba a2 a7 95 3e 57 ed 22 3e
       0.16217299 -0.0016083489 0.29229456 0.1591085
000160 2b af b7 bd 27 6b 8e 3d d3 d1 8e 3e 46 65 8e bd
       -0.089689575 0.069540314 0.27894458 -0.0695291
000170 38 9f 5d 3e 61 8a 84 3e 3d 71 79 3e fc 5a 70 3d
       0.21642768 0.25886825 0.24359603 0.05868052
000180 54 9e 30 be 0a dc d4 bc f3 c3 48 3e ab ee 44 3d
       -0.17247897 -0.025983829 0.19605999 0.048079174
000190 a2 7f be 3d b5 be 83 3c 4c c5 fc bd 5e 7b 0c 3d
       0.09301688 0.016082147 -0.12342319 0.03429734
0001a0 73 a5 0f 3e d8 e0 cc 3d 56 ad 1e be 95 15 8c 3d
       0.14027958 0.10003823 -0.1549581 0.06840054
0001b0 13 a1 d3 3d 19 4e 88 3e 4f b5 6a 3d 61 5a 4b be
       0.10333457 0.26622084 0.057301816 -0.19858696
0001c0 34 dc fd bd ab 94 5c be 78 b6 78 be 95 75 83 3e
       -0.12395516 -0.21541087 -0.24288356 0.25675645
0001d0 d1 85 cc bd 72 94 d1 3c ed b6 20 be ab e7 ba 3d
       -0.09986461 0.02558348 -0.1569478 0.091262184
0001e0 16 cb 84 be 23 5e e5 bc ae 23 89 3e e4 a4 d0 bc
       -0.25936192 -0.02799899 0.26785034 -0.025469251
0001f0 76 61 f2 3d 25 dd 1b be 2e 2d 0b 3e 44 cc 18 3e
       0.118349954 -0.15221079 0.13591453 0.14921671
000200 cb 62 12 3e 8b 2b 76 3e c4 af f0 bc d7 5a c4 3d
       0.14295499 0.24040048 -0.029380687 0.09587639
000210 69 a1 36 3e 44 ae ae 3c d8 8c 91 3e 2f a1 a5 bd
       0.1783501 0.02132333 0.28427768 -0.08087384
000220 36 19 19 3e 43 76 b3 bd db 7e 33 3e 67 a9 f2 3d
       0.14951023 -0.08762791 0.1752886 0.11848717
000230 ef 65 09 be 2c 71 c5 bd d2 f5 11 3e 75 ab 7e be
       -0.13417791 -0.096407264 0.1425393 -0.24870093
000240 f4 d8 1f 3e 63 1a 96 bd c6 fc 4b be df 9c 38 be
       0.15610105 -0.073292516 -0.19920644 -0.18028592
000250 64 27 b6 3d 6f 9d 79 3e 47 86 d6 3b a9 6d b1 3b
       0.08894232 0.24376462 0.006546769 0.005414684
000260 28 f4 67 3e c1 64 aa 3c 45 0a 13 be 8b 1f 6a 3e
       0.22651732 0.020799996 -0.14359386 0.22863595
000270 34 a7 31 3d d3 07 52 be 15 b4 00 be a2 33 d1 bd
       0.043372348 -0.20510797 -0.12568696 -0.10214926
000280 f2 04 15 3d 6a f8 44 3e 9a 3f fb 3d 05 e4 aa 3d
       0.03638167 0.19235387 0.122679904 0.083442725
000290 0f cd 7d be 23 8c 3e bd b7 94 3c 3d 68 0e 4e be
       -0.24785255 -0.046520364 0.046040263 -0.20122683
0002a0 ff dd 66 be 12 0b 8c bd 3d 14 24 be 13 a4 b1 3d
       -0.22545622 -0.06838049 -0.16023345 0.08673873
0002b0 c2 1b 06 3e f5 4f 61 be 38 d4 d8 3d e4 55 01 3e
       0.13096526 -0.22003157 0.105873525 0.12630421
0002c0 a9 ef ba bb 31 b2 52 3e 2d aa ac 3d 4a fa f8 bd
       -0.0057048392 0.20575787 0.08430896 -0.12157114
0002d0 7c d9 91 bd 06 89 64 be 22 45 a6 3d 5d ad 29 3b
       -0.0712156 -0.22317895 0.08118655 0.0025890686
0002e0 cd a0 a8 3e ec cd f5 3d 2b 08 8a bd 2b e6 93 3d
       0.3293518 0.12002167 -0.06739839 0.072216354
0002f0 77 49 9f bd 8b ea 16 3e 92 40 97 3e c5 e8 9e bd
       -0.07777684 0.14737909 0.2954145 -0.07759241
000300 7a 71 cb 3b c7 aa 93 bd b5 20 fe bd c1 7f f5 bd
       0.006208596 -0.072103076 -0.12408582 -0.11987258
000310 99 f6 7e 3e c4 42 48 bb 1f 30 04 3e 6b d6 6c be
       0.24898757 -0.0030557374 0.12908982 -0.23128669
000320 33 d4 39 bd 6a 7a 93 3d 66 a4 75 3e 83 0e 5e 3e
       -0.045368385 0.07201083 0.23988494 0.21685223
000330 b8 fd cf bd 35 22 8e bc 86 e6 3a 3e 65 51 69 3e
       -0.10155815 -0.017350296 0.18252 0.22784956
000340 6d c3 82 3b 7c 85 c6 bd dd 64 f9 bd c9 19 e2 bd
       0.0039905817 -0.09693429 -0.12177441 -0.110400744
000350 e3 63 b6 3d 24 91 9e 3d 47 c4 b2 bd 70 f8 4b be
       0.08905771 0.07742527 -0.08728843 -0.1991899
000360 73 fa ed bd 6c 44 38 3d e0 fb 0d be d9 6e 0b be
       -0.11620035 0.044987127 -0.13865614 -0.13616504
000370 c5 3d 60 be 9a 4a 22 3e 0a 76 0d be 72 b7 76 3c
       -0.21898563 0.1584877 -0.1381456 0.015058385
000380 39 dc 11 3e 9d 60 e4 3d c8 db 64 be d6 6f 8e bc
       0.14244165 0.1115124 -0.22349465 -0.017387312
000390 7c fd 88 bd c5 08 8a 3d 28 a8 06 be 08 21 01 3e
       -0.06688973 0.06739954 -0.13150084 0.12610257
0003a0 e0 04 31 3e 07 51 02 bc 6b 4b 4e 3e 52 a2 68 be
       0.17287016 -0.007953889 0.20145957 -0.2271817
0003b0 8b 58 65 3e e8 a7 5c 3e 6a 44 4c 3d e7 41 63 be
       0.22397058 0.21548426 0.049869932 -0.22193108
0003c0 a8 3a 4c be 2a 27 9e bd 32 3b 04 be 08 a1 7e bd
       -0.1994425 -0.07722314 -0.12913206 -0.06216529
0003d0 1d 79 0b be 22 fa 6c 3e f7 5a ef bd 1c 7c 9a 3e
       -0.1362042 0.23142293 -0.11687272 0.30172813
0003e0 e3 11 67 be 2e c1 23 3e a7 f5 75 bd d8 b1 3a 3e
       -0.22565417 0.15991661 -0.060048725 0.18231905
0003f0 3f 51 ef bd 2c bb cd bc 35 b7 4a 3d ad 09 ea bd
       -0.11685418 -0.025113665 0.049491126 -0.11427627

linear2.weight f4 [3, 256]
000000 d3 e0 fd 3c d4 c9 9a 3d a9 7f bc bc df 1f fd 3c
       0.030990994 0.07558027 -0.023010092 0.030898986
000010 42 fb cc 3d b6 d0 56 3c f4 bf cd 3c 00 2c f4 3a
       0.10008861 0.013111284 0.025115944 0.0018628836
000020 ab c8 7a 3d 1f 70 9c 3c 98 22 db 3c 5e 2d 88 3d
       0.06122653 0.019096432 0.026749894 0.06649278
000030 98 c6 db ba aa a1 02 bd 14 e3 d8 3c 99 c2 d2 3b
       -0.001676756 -0.031892456 0.026475467 0.0064318893
000040 d9 37 94 bb 26 6f b8 3d 1a 0c 37 3d 3c b4 d3 bc
       -0.004523259 0.09005575 0.044689275 -0.025842778
000050 e9 b9 b5 3c 3d c4 aa 3d 0f 0b f0 39 63 ea ba 3d
       0.022183375 0.08338211 0.00045784606 0.09126737
000060 75 c2 72 bd 47 64 e2 3d 0d 51 fa 3b d5 07 05 bd
       -0.05926748 0.11054283 0.0076390565 -0.032478172
000070 be e7 75 bd ed 33 c0 3d 0c 67 f0 3d d9 9b 4e bd
       -0.06003546 0.09384904 0.11738405 -0.050441597
000080 d8 cd 0e 3c ad 2e 11 bd 87 e7 86 3c 73 e7 c8 3d
       0.008716069 -0.035444904 0.016467823 0.098097704
000090 ac 07 8e 3d e1 34 89 bd 38 a4 e3 3d ad af c6 3d
       0.06935057 -0.06699539 0.111153066 0.09701476
0000a0 cb eb 3a bd a1 db 60 bd 05 03 a8 3d eb 64 10 3d
       -0.045635026 -0.054896954 0.08203701 0.035252493
0000b0 17 d2 c2 3d 71 c1 61 3d 44 0e d4 3b b8 99 2c 3d
       0.09512728 0.05511612 0.006471427 0.042138785
0000c0 9c 62 e0 3d 0a 65 bb 3d f1 26 cd 3d ad 4a a6 bc
       0.10956308 0.09150131 0.10017193 -0.02029928
0000d0 9a 89 b0 bd 2f 0d 48 bd 77 60 61 bd bb 9d d9 bc
       -0.086199954 -0.048840698 -0.055023637 -0.02656447
0000e0 cb 15 87 bc 3f ac c9 bc f7 a6 62 bd 24 28 ce 3d
       -0.016489884 -0.024618266 -0.05533501 0.1006625
0000f0 ac 10 8d 3d b9 83 7c 3d 5f 7d ac 3c 37 af c9 bd
       0.068879455 0.061649058 0.021055875 -0.09847873
000100 83 9f ac 3c ce 86 81 bc f7 27 8e 3d f6 d1 4a bc
       0.021072155 -0.01581135 0.069412164 -0.01237916
000110 7b ed ff bc 4c 47 a2 3d c9 70 6b 3d e9 94 77 3d
       -0.03124117 0.07923755 0.057480607 0.060444746
000120 61 e4 fb 3d 14 72 2d 3d ab bb c6 3c e7 57 97 bc
       0.12299419 0.04234512 0.024259409 -0.018474532
000130 41 a8 6d 3d 55 a4 68 bb eb e6 6c 3d 1a 10 38 3c
       0.058021788 -0.003549834 0.057837408 0.011234308
000140 de 5c f5 3c 9d 92 9c 3c f4 47 95 3c c0 0b a2 bc
       0.02995151 0.01911288 0.018222786 -0.019780993
000150 84 ce 0a 3d f8 ab 8e 3d 0e f5 45 3d 22 b0 78 3d
       0.033888355 0.06966394 0.048329405 0.06071485
000160 fc 4a 0a bd db a7 97 3d 85 cc 91 3d 37 3f 6a 3d
       -0.033762917 0.07405063 0.07119087 0.057189193
000170 af 98 33 bb 5b f9 c2 3d 7a f9 90 3d ac a5 8a 3d
       -0.002740424 0.09520217 0.07078834 0.06769881
000180 51 5b 9d bd 7c f3 4c 3d 4f ba 8b 3d cb 1c 12 3d
       -0.07683433 0.050036892 0.06822645 0.03567199
000190 1f 3a a2 bc fe 88 49 3d 2d ac 80 3d 4d 55 86 3b
       -0.019803105 0.04920291 0.0628284 0.004099524
0001a0 09 a1 2f 3d e4 2d 92 bb e2 b5 98 3a 27 d9 09 3e
       0.042878184 -0.004461037 0.0011650885 0.13461743
0001b0 44 2e e0 3b 90 ea aa 3d 8b 03 a9 3c 8f ee 1d bc
       0.006841453 0.083455205 0.020631572 -0.009639396
0001c0 2f 4e 54 bd 22 f6 9b bb 7a 49 08 3d 5b 8b b9 3c
       -0.051832374 -0.004759566 0.033273198 0.022649458
0001d0 b0 87 d8 ba 8c e5 53 3c 55 8c 9b bc 2f 4b 47 bb
       -0.001651993 0.012933146 -0.018987814 -0.0030409803
0001e0 31 e3 10 bc 03 99 59 bd 69 51 5a 3d f3 18 47 bc
       -0.008843229 -0.05312444 0.053300295 -0.012151944
0001f0 fb 62 20 3d e5 de 52 bc 03 a5 50 3d 7d bc 46 3d
       0.039156895 -0.012870525 0.050938617 0.0485196
000200 ec 5f 23 3d b2 52 7d 3c 56 5e 21 3c c1 db 59 bd
       0.0398864 0.015461611 0.009849152 -0.05318809
000210 db 07 8c 3d d4 ba 0b 3d 54 b5 16 3d 94 34 66 bd
       0.06837436 0.03411372 0.03679402 -0.056202486
000220 06 4d 73 3d ff 9d 93 3d e9 44 d4 bb 73 07 96 3d
       0.059399627 0.0720787 -0.0064779413 0.073256396
000230 52 16 ec 3d 54 24 30 bd 9b df b0 3d c2 ba e7 bc
       0.11527695 -0.043003395 0.08636399 -0.028287295
000240 b5 ac 15 3d 98 dd bf bd d4 29 c5 bd 5b 15 11 bd
       0.03654166 -0.093684375 -0.09627119 -0.035420757
000250 be 83 b9 3b 71 ac ba 3c 0d ef 63 bc 54 5c a5 bd
       0.005661457 0.022787305 -0.013911975 -0.08074251
000260 ad d6 f1 3d 18 f2 00 bd 93 0f a7 bd b6 75 53 3d
       0.11808524 -0.03148088 -0.081572674 0.05162593
000270 5c 3d 20 3d e0 53 f1 3c 9f e8 f0 3d 10 e9 e8 bc
       0.039121017 0.02945894 0.11763119 -0.028431445
000280 b5 71 ba bc 86 32 d2 3c dd 43 7d 3b b8 b0 22 3d
       -0.022759298 0.025658857 0.0038645186 0.039719313
000290 45 c5 a1 bc 2d e6 8d bd 73 3b 82 3d 0c 23 1d bd
       -0.019747386 -0.06928668 0.06358995 -0.0383635
0002a0 5b d7 c7 bb f6 01 95 bd 9f ed 03 3d 6f a8 13 bd
       -0.0060986704 -0.07275765 0.032209035 -0.036049303
0002b0 bd 7a 0f bb a3 20 2b 3d 3b c3 b4 3d 35 a4 7f bd
       -0.0021893226 0.04177917 0.088263 -0.06241246
0002c0 4b 80 9b bc 41 58 1e bd 43 66 be bc aa 21 b8 bd
       -0.018982073 -0.038658384 -0.023242122 -0.08990796
0002d0 16 40 e5 3c bf e6 4c bd cb 56 a1 3b f1 12 69 3d
       0.02798466 -0.050024744 0.0049236766 0.05690283
0002e0 82 c0 c6 3d dc e9 92 3d 07 41 72 bd 05 e1 9c 3b
       0.09704687 0.071735114 -0.059144046 0.0047875666
0002f0 71 9e 94 3b da e4 27 3d b8 bd d4 3d f2 c5 3d 3d
       0.0045354892 0.040989734 0.103877485 0.046331353
000300 f3 75 91 3d 4b a9 26 bd c4 f3 7f 3d cb ec c5 3d
       0.07102575 -0.040688794 0.062488332 0.09664305
000310 8d 8b ad 3d 97 cb 58 3d 0d d4 ff 3c 7c d2 01 bd
       0.08473883 0.052928533 0.031229043 -0.031694874
000320 5a dd b8 3c db b0 ec 3d fe 0a 9f 3d 3d e3 f6 bc
       0.022566486 0.1155717 0.077657685 -0.030137653
000330 32 66 c5 bd f8 88 37 bd c0 30 38 3d 8b 4e b5 3d
       -0.09638633 -0.044808358 0.044968367 0.088528715
000340 00 9d a6 bd f8 5e 15 3c 4e aa 4f 3d fe cf 96 3d
       -0.08135414 0.009116881 0.050699525 0.0736389
000350 cb 10 d9 3c e5 62 2f 3c d6 0e ae 3d 45 ae de 3c
       0.026497265 0.010704731 0.084989235 0.027182708
000360 dc 4e 60 bd 7f 0c bf bb b9 20 a5 bd a9 9a a5 bc
       -0.054762706 -0.005830347 -0.08062882 -0.02021535
000370 db b4 a8 3c 50 ea 80 3c 4b 3d 72 3b 8e a5 71 3d
       0.020594051 0.015736729 0.0036962803 0.058995776
000380 4b f7 73 3d 20 9e 90 bc 6e f9 29 3c bc ab 9a 3d
       0.05956201 -0.017653525 0.01037441 0.07552287
000390 a7 3e bd bc fa 97 f0 bc 56 63 01 3e f1 2e 9f 3c
       -0.023101164 -0.029369343 0.1263555 0.019431563
0003a0 c3 3e 2f 3c 20 b9 1a bd d5 26 d6 3d 05 a0 ff bc
       0.010696116 -0.037774205 0.10456625 -0.031204233
0003b0 8a 6b 33 3d 74 04 ba 3d 76 26 8b bd 8b 5b 20 3d
       0.04380373 0.090828806 -0.06794445 0.039149802
0003c0 cf 6c 9d bd 76 95 41 3d 1a 42 8f 3d c7 b9 c6 3d
       -0.07686769 0.047261678 0.0699503 0.09703403
0003d0 01 d0 3a 3d 91 b3 9c 3d 22 4e 92 3d cd 56 98 3d
       0.045608524 0.07651437 0.07143809 0.07438431
0003e0 fa 3c 62 bc 36 fa ba 3d 00 bb cb 3d 43 db 1e 3d
       -0.013808483 0.09129755 0.09947777 0.038783323
0003f0 9a 93 19 3d b9 5d f0 bc c6 df e3 3c 8b e9 58 bd
       0.03749428 -0.029341565 0.027816664 -0.0529571

linear2.bias f4 [3]
000000 4d 0c 5c 3d 5c cf f3 bb 68 a9 94 3d
       0.05372267 -0.0074404906 0.07258874
