model/DQN/checkpoint_2800.pth (torch, 23085 bytes, 4 tensors)

linear1.weight f4 [256, 16]
0.14785519 -0.054838292 0.013741318 0.12733173 -0.18252099 -0.17877096 -0.18454409 -0.14757359
-0.057805616 -0.053955857 -0.10204461 -0.21487604 -0.03511387 -0.08036837 -0.06499496 -0.22672644
-0.003312409 0.3560176 -0.23957396 -0.039191548 0.032672547 0.20755136 0.015825821 -0.37545434
-0.59674734 0.12769765 0.252691 -0.048207846 0.0932717 0.050250255 0.01177081 -0.008113778
0.2468846 1.615291 -0.049253237 0.18992971 0.052455753 0.019901866 -0.08992665 0.022786472
0.009148387 0.060810994 0.03577051 -0.13206771 0.0545959 0.16641583 -0.0010275476 -0.045976367
0.10019215 -0.04000517 1.2802445 0.11896887 0.17487152 -0.0031070774 -0.049254496 0.17947085
0.21477865 -0.017090837 -0.15905318 -0.15801205 -0.02974084 0.16241257 -0.029197972 -0.07295898
-0.09209146 -0.25361988 -0.36664128 0.33431908 0.3824235 0.35088965 0.30059722 -0.14751276
0.2221215 -0.11564445 0.04719762 -0.037735466 -0.21677585 -0.04235995 0.15024646 0.05722257
-0.02444246 -0.17358072 -0.10398229 0.25421315 -0.0117052235 0.19953504 0.0477195 0.39369994
0.31773034 -0.5089135 -0.24752691 0.04619404 0.053944584 0.069373116 -0.042738847 0.065346494
0.17971182 -0.05615227 -0.545394 0.24473177 0.36014134 0.15545887 -0.003604491 0.021335822
0.19180517 -0.06402075 0.039968498 -0.009168653 -0.23127024 -0.0025705015 -0.16540764 0.10583076
0.01577878 -0.16940615 -0.05092743 -0.22667268 -0.22991851 -0.04284343 -0.09864187 0.13595822
0.05679977 0.028875232 -0.097381264 -0.06928921 -0.080091745 -0.1608819 -0.14121029 0.009690672
-0.15356597 0.20866673 -0.33308235 0.2803219 0.3379686 0.08090825 0.021186799 -0.06392494
-0.0577007 0.109414145 0.003339035 0.26184496 -0.107275344 0.15770547 -0.24496563 -0.23844954
-0.11526107 -0.5260759 0.054485418 -0.0019105718 0.3186626 -0.054088708 0.060681753 -0.10206829
0.0658837 0.048983656 -0.024444321 0.13988952 0.141987 -0.061557613 0.02952805 -0.14816575
0.1736989 -0.65524364 -0.16622 0.04477591 0.13870123 -0.006134772 -0.03136931 0.13225761
0.11554796 0.0047633876 0.066865444 0.1957628 -0.092775784 0.19150938 -0.16449937 0.17144018
0.08953856 -0.16512454 -0.28153804 0.28346688 0.183533 0.2823083 0.25510868 -0.21162318
0.20282456 0.06517582 0.16500618 0.23032212 -0.029215962 -0.024314035 -0.053070955 -0.10671041
-0.2585742 0.116143286 -0.20730673 -0.057436954 -0.20733142 0.24567883 0.20620264 -0.013736753
0.14592642 -0.3192051 0.005180982 0.21154058 0.15390646 -0.16218802 0.0033941062 0.09582938
0.4181711 0.10989394 -0.31695005 0.13093399 -0.068454094 -0.08406213 0.14432421 -0.20563279
-0.23867117 -0.0037637332 -0.17772721 -0.18798523 -0.12049679 -0.106132045 -0.07558912 -0.1372181
-0.1538119 0.2481037 0.13888676 -0.14116117 0.32973683 -0.34991542 0.19525531 -0.45220104
0.088797 -0.36508262 -0.45238632 -0.13441826 0.0870518 0.043257385 0.06167397 0.025983185
0.011602355 -0.03257321 -0.4248781 0.30486545 0.19537343 0.25223148 0.10922054 0.24755694
0.061778624 0.14370026 0.22825208 0.10130188 0.17536747 -0.0958887 0.15436956 -0.0807633
00000000: 5a67 173e 1e9e 60bd 4423 613c 4063 023e
00000010: c8e6 3abe bc0f 37be 20f9 3cbe 881d 17be
00000020: 95c5 6cbd d100 5dbd c4fc d0bd 7708 5cbe
00000030: 90d3 0fbd 2c98 a4bd 141c 85bd fa2a 68be
00000040: 0015 59bb f047 b63e e052 75be 5187 20bd
00000050: a6d3 053d 5888 543e 27a5 813c 8d3b c0be
00000060: 6fc4 18bf 2cc3 023e b760 813e 9775 45bd
00000070: 3c05 bf3d 36d3 4d3d 5bda 403c a7ef 04bc
00000080: 51cf 7c3e dbc1 ce3f c3bd 49bd ef7c 423e
00000090: d8db 563d 3d09 a33c 772b b8bd b2aa ba3c
000000a0: 1ee3 153c f314 793d 1984 123d c23c 07be
000000b0: f39f 5f3d e968 2a3e c7ae 86ba b751 3cbd
000000c0: 8b31 cd3d 76dc 23bd 0ddf a33f f3a5 f33d
000000d0: 8511 333e 1ca0 4bbb 15bf 49bd 35c7 373e
000000e0: efee 5b3e 1502 8cbc d6de 22be e9cd 21be
000000f0: 10a3 f3bc 7b4f 263e 9630 efbc 856b 95bd
00000100: 739a bcbd 77da 81be 68b8 bbbe df2b ab3e
00000110: 03cd c33e cfa7 b33e e1e7 993e 960d 17be
00000120: d273 633e ffd6 ecbd 4b52 413d 8190 1abd
00000130: 7dfa 5dbe a081 2dbd 35da 193e 3762 6a3d
00000140: 8e3b c8bc 25bf 31be abf4 d4bd 3a28 823e
00000150: 44c7 3fbc ea52 4c3e 8675 433d 0a93 c93e
00000160: 8dad a23e 2848 02bf b277 7dbe f635 3d3d
00000170: fff4 5c3d 7e13 8e3d ee0e 2fbd 62d4 853d
00000180: 6006 383e ecff 65bd f19e 0bbf f79a 7a3e
00000190: 7264 b83e 9c30 1f3e 5339 6cbb 76c8 ae3c
000001a0: 9368 443e 501d 83bd 02b6 233d 1e38 16bc
000001b0: 1bd2 6cbe dc75 28bb 9f60 29be ccbd d83d
000001c0: 8042 813c ce78 2dbe 4899 50bd e21c 68be
000001d0: c26f 6bbe 987c 2fbd c004 cabd a238 0b3e
000001e0: e0a6 683d c08b ec3c d46f c7bd 80e7 8dbd
000001f0: 2407 a4bd 3abe 24be 6e99 10be a0c5 1e3c
00000200: 6640 1dbe bbac 553e c589 aabe 5a86 8f3e
00000210: 380a ad3e 39b3 a53d f08f ad3c 14eb 82bd
00000220: 9257 6cbd 8614 e03d b6d3 5a3b 8b10 863e
00000230: 2db3 dbbd 8b7d 213e 45d8 7abe 1e2c 74be
00000240: ff0d ecbd e9ac 06bf 1a2c 5f3d 276c faba
00000250: bf27 a33e 1f8c 5dbd 6e8d 783d 2e09 d1bd
00000260: 09ee 863d 16a3 483d 753f c8bc 333f 0f3e
00000270: 0a65 113e d623 7cbd cfe4 f13c c3b8 17be
00000280: 20de 313e 0cbe 27bf 9335 2abe f266 373d
00000290: b207 0e3e 3306 c9bb 1b7d 00bd 8a6e 073e
000002a0: 69a4 ec3d 3116 9c3b c0f0 883d 0b76 483e
000002b0: 3b01 bebd 091b 443e 8672 28be 048e 2f3e
000002c0: fe5f b73d 6816 29be c125 90be 9222 913e
000002d0: 13f0 3b3e b78a 903e 9b9d 823e bfb3 58be
000002e0: 3eb1 4f3e e67a 853d 61f7 283e 90d9 6b3e
000002f0: 5056 efbc 3a2e c7bc ee60 59bd fd8a dabd
00000300: d663 84be 88dc ed3d 3748 54be 0343 6bbd
00000310: b04e 54be 3b93 7b3e c926 533e 1e10 61bc
00000320: bc6d 153e da6e a3be 3ac5 a93b 189e 583e
00000330: a899 1d3e 9e14 26be a76f 5e3b 3242 c43d
00000340: 861a d63e 1310 e13d 4747 a2be 8f13 063e
00000350: a931 8cbd c428 acbd bac9 133e 6791 52be
00000360: 3766 74be f7a8 76bb 1ffe 35be 337f 40be
00000370: 05c7 f6bd c25b d9bd 78ce 9abd e782 0cbe
00000380: de80 1dbe e50e 7e3e 5538 0e3e 8e8c 10be
00000390: 44d3 a83e 1d28 b3be 02f1 473e e586 e7be
000003a0: 34db b53d 1cec babe 2e9f e7be f1a4 09be
000003b0: 3748 b23d a82e 313d d89d 7c3d b0da d43c
000003c0: ce17 3e3c 7c6b 05bd 9f89 d9be 5317 9c3e
000003d0: f90f 483e 7c24 813e 05af df3d 917f 7d3e
000003e0: 950b 7d3d 2926 133e eaba 693e 5c77 cf3d
000003f0: 8893 333e 4b61 c4bd 0e13 1e3e 3b67 a5bd

linear1.bias f4 [256]
-0.22353956 0.024455814 -0.34573102 -0.19958957 0.5533742 0.05958119 0.42913318 -0.23788226
0.42053485 0.45133576 0.2680363 0.39925593 0.25743124 0.20584832 -0.017869292 0.40938327
0.23210064 0.50350904 0.37304243 -0.12044635 0.55534595 0.3226003 -0.0556972 0.18357232
-0.08625231 0.31973395 0.46383572 0.31350935 -0.114465944 -0.03532057 0.10803471 0.086962216
0.14416364 0.051013026 -0.06006402 0.4749796 0.14386831 0.06859778 0.31180623 0.5773467
-0.15946454 -0.23149195 0.49125838 0.344356 0.577703 0.38407838 0.266585 0.30976725
-0.05122391 0.19010346 0.27872133 -0.3146413 -0.1975858 -0.15808818 -0.09821915 -0.21398568
0.36686495 -0.03117287 0.17204475 -0.14712383 0.5658362 0.26800606 -0.20755652 -0.1119702
-0.09972797 -0.12493682 0.24059184 0.02829726 -0.38485184 0.46447593 0.04289887 0.57712585
0.12918586 0.11509031 0.15731104 -0.28571492 0.48861188 -0.38999772 0.44781855 0.3735813
0.31758824 0.5296962 -0.22683714 -0.02032559 0.14563948 0.0854877 0.5135744 0.20397535
0.027194843 0.2847252 0.5456473 0.0011168086 0.25478315 0.47151777 0.48610115 0.11361329
-0.09090484 -0.002792847 0.34050152 0.16475008 0.14422251 0.093627475 -0.062764555 0.28231928
0.38401332 0.33417547 -0.15301308 0.21515696 0.1654932 0.5297975 0.15385066 -0.23203939
-0.055896375 -0.42989007 -0.11232064 0.47874585 -0.015893212 0.06817405 -0.09742168 0.3370841
-0.34908533 0.062457222 0.49694544 -0.22073367 0.35261774 -0.25550675 0.20677674 0.39876217
0.4181329 0.45020124 0.14220771 -0.033817995 0.3879815 0.038199745 0.5137277 -0.1874076
0.36439666 -0.059536166 0.42470878 0.33584714 0.01368232 -0.11849321 0.24621835 -0.3431555
0.31594256 -0.040421136 -0.24250959 -0.18200593 0.2453287 0.46390355 -0.067778364 0.04408925
0.4944693 0.06568851 -0.17199014 0.35257196 0.24104112 -0.15325516 0.04381711 -0.068356186
0.17659086 0.37918267 0.33541277 0.13372214 -0.39926508 -0.05526491 0.26007771 -0.1903085
-0.10684327 0.022486446 0.07177083 -0.024620658 0.3928841 -0.18264073 0.14153391 0.15756537
-0.07834576 0.403491 0.120754845 -0.11490936 0.022219663 -0.29376155 0.2624587 0.059749387
0.58054024 0.40311533 -0.1008175 0.2535707 -0.21544576 0.33252913 0.5518454 0.041927654
0.13632733 -0.034294132 -0.07479811 -0.0055697174 0.37334377 0.22213109 0.33124927 -0.13130313
0.06422121 0.2147231 0.36336303 0.3388613 -0.3057746 -0.05209619 0.46460286 0.45074388
0.030992879 -0.09693429 0.1071223 -0.10180425 0.28950787 -0.05027614 0.063050665 -0.18802215
-0.07346362 0.034167025 -0.26682064 -0.21997122 -0.26266256 0.3859461 -0.1538758 0.078335
0.34621814 0.24888445 -0.24739368 0.13861273 0.06014983 0.1827339 -0.055555794 0.31725872
0.24382551 0.10009014 0.4571252 -0.25552243 0.39106914 0.48856318 0.10131527 -0.08087869
-0.110469 -0.13293183 -0.16676502 0.0333732 0.041800063 0.44733208 -0.0025662412 0.517145
-0.33153903 0.35567498 0.075395525 0.41561902 -0.14959279 -0.00651677 0.21420167 -0.03601337
00000000: 8ee7 64be 8f57 c83c a803 b1be 3561 4cbe
00000010: eea9 0d3f 680b 743d 58b7 db3e 6897 73be
00000020: 5850 d73e 7b15 e73e 0e3c 893e 466b cc3e
00000030: 07ce 833e e7c9 523e 9f62 92bc af9a d13e
00000040: caab 6d3e f8e5 003f 6bff be3e 93ac f6bd
00000050: 272b 0e3f de2b a53e bf22 64bd 62fa 3b3e
00000060: 0da5 b0bd 2bb4 a33e e07b ed3e 4c84 a03e
00000070: 1f6d eabd 4dac 10bd 4d41 dd3d 3f19 b23d
00000080: a29f 133e 09f3 503d b105 76bd 8730 f33e
00000090: 3752 133e fe7c 8c3d 11a5 9f3e fecc 133f
000000a0: ac4a 23be 3a0c 6dbe 3886 fb3e 6e4f b03e
000000b0: 58e4 133f eca5 c43e d47d 883e d099 9e3e
000000c0: 2ad0 51bd 7baa 423e 90b4 8e3e aa18 a1be
000000d0: ef53 4abe dee1 21be 1f27 c9bd 101f 5bbe
000000e0: b9d5 bb3e 3f5e ffbc 802c 303e a1a7 16be
000000f0: a4da 103f 1738 893e b289 54be a250 e5bd
00000100: 2e3e ccbd e0de ffbd b55d 763e a8cf e73c
00000110: 4d0b c5be cacf ed3e bab6 2f3d 85be 133f
00000120: 4c49 043e 78b4 eb3d 2516 213e 3a49 92be
00000130: 562b fa3e c8ad c7be 7948 e53e 0c46 bf3e
00000140: ed9a a23e 2c9a 073f ff47 68be da81 a6bc
00000150: 8422 153e 2d14 af3d 9d79 033f eade 503e
00000160: b8c7 de3c 80c7 913e 8baf 0b3f e161 923a
00000170: f072 823e c76a f13e 40e2 f83e 16ae e83d
00000180: 512c babd 3308 37bb 3756 ae3e 3fb4 283e
00000190: 11af 133e c3bf bf3d b48a 80bd 278c 903e
000001a0: 659d c43e 0c19 ab3e 76af 1cbe 1b52 5c3e
000001b0: 0d77 293e cfa0 073f 078b 1d3e bc9b 6dbe
000001c0: 99f3 64bd 8d1a dcbe 5d08 e6bd 2d1e f53e
000001d0: 7b32 82bc d69e 8b3d 0585 c7bd 4a96 ac3e
000001e0: 50bb b2be 25d3 7f3d a26f fe3e 0208 62be
000001f0: 508a b43e c8d1 82be 48bd 533e 8e2a cc3e
00000200: 8415 d63e c780 e63e e69e 113e bd84 0abd
00000210: 83a5 c63e 5677 1c3d a983 033f c7e7 3fbe
00000220: 3392 ba3e 32dc 73bd 6e73 d93e 28f4 ab3e
00000230: cf2b 603c 91ac f2bd aa20 7c3e 14b2 afbe
00000240: 39c3 a13e a290 25bd 6f54 78be c35f 3abe
00000250: 7237 7b3e c484 ed3e 62cf 8abd ee96 343d
00000260: 152b fd3e b387 863d 2f1e 30be 5084 b43e
00000270: 7cd3 763e ecee 1cbe 9279 333d 54fe 8bbd
00000280: 3cd4 343e 3b24 c23e 39bb ab3e 75ee 083e
00000290: 796c ccbe 755d 62bd e828 853e 3be0 42be
000002a0: a5d0 dabd 7f35 b83c 96fc 923d 43b1 c9bc
000002b0: 1b28 c93e 2c06 3bbe 44ee 103e d158 213e
000002c0: be73 a0bd 5f96 ce3e 514e f73d 9955 ebbd
000002d0: 0306 b63c ea67 96be fd60 863e c6bb 743d
000002e0: 499e 143f 2265 ce3e 6879 cebd 05d4 813e
000002f0: d09d 5cbe 4241 aa3e bd45 0d3f 55bc 2b3d
00000300: 6499 0b3e 0178 0cbd c02f 99bd 2d82 b6bb
00000310: ea26 bf3e 5576 633e 8199 a93e 5474 06be
00000320: 6986 833d 5fe0 5b3e b80a ba3e 3a7f ad3e
00000330: 7d8e 9cbe d162 55bd 6de0 ed3e e7c7 e63e
00000340: c7e4 fd3c 7c85 c6bd f062 db3d bf7e d0bd
00000350: 603a 943e 5bee 4dbd b520 813d e188 40be
00000360: 1874 96bd b9f2 0b3d b79c 88be 2340 61be
00000370: b57b 86be ba9a c53e 9e91 1dbe 1a6e a03d
00000380: 8143 b13e 91db 7e3e c554 7dbe 7ff0 0d3e
00000390: ab5f 763d 981e 3b3e 798e 63bd bc6f a23e
000003a0: 65ad 793e 0ffc cc3d 500c ea3e d6d3 82be
000003b0: 373a c83e f424 fa3e 617e cf3d baa3 a5bd
000003c0: 923d e2bd 481f 08be 73c4 2abe 56b2 083d
000003d0: 8b36 2b3d b608 e53e 622e 28bb 9d63 043f
000003e0: 7cbf a9be 081b b63e f868 9a3d 04cc d43e
000003f0: da2e 19be a18a d5bb af57 5b3e c182 13bd

linear2.weight f4 [3, 256]
0.02781536 0.2939084 -0.06597695 0.15418154 0.2585837 0.22535375 0.109784685 0.0018628836
0.17288978 0.12536658 0.05050938 0.14867295 0.12399343 -0.029373351 0.21253423 0.103305586
0.031441085 0.29306632 0.23256375 0.08230387 0.16130055 0.21532649 -0.040568184 0.3679054
0.10307644 0.36514705 0.18484919 0.10931325 0.027737372 0.34803882 0.25012615 -0.03059173
0.021521902 -0.20176901 0.06903041 0.3055517 0.2489903 -0.12386961 0.3038581 0.3419795
0.10638376 0.07315002 0.23267382 0.16862465 0.24394183 0.24663557 0.08732609 0.19823757
0.17849939 0.33315545 0.31161198 -1.1200886 -0.8426045 -0.07655563 -0.17470798 0.055522412
0.14863336 0.34952378 -0.04820738 0.42619568 0.21709278 0.13758793 -0.20909558 -0.85395384
0.08478748 0.034276213 0.26601195 -0.10905913 0.012397941 0.2255979 0.28366283 0.20021635
0.3278307 0.09335022 0.12162891 0.07331714 0.22865352 -0.42568722 0.23030685 0.07929964
0.191162 0.20104884 0.015047209 0.0233356 0.28255245 0.27437195 0.14419633 0.20106205
0.09733468 0.13565512 0.31055656 0.009476657 0.17764471 0.24388334 0.15542486 0.27215415
-0.9215161 0.12763564 0.1681311 0.098067716 -0.017554024 0.17046906 0.2501876 0.09262977
0.20575628 0.11336938 -0.014299425 0.29954058 0.07509141 0.22457944 0.15732212 0.0072079906
0.06578811 -0.12151861 0.12747876 0.13538845 -0.05108967 0.18428344 0.29024136 0.081815116
0.10424898 -0.006874877 0.2036595 0.16063759 0.17611867 -1.2873569 0.2374138 0.22588766
0.17555074 0.11885719 0.052836627 -1.0665157 0.18128169 0.09499395 0.1332587 0.057204798
0.16615981 0.21900235 0.03391195 0.18597801 0.22862332 -0.60881853 0.25362474 -0.38036165
0.110910706 -0.047620077 -0.8851069 0.17919126 0.15974715 0.13305186 0.042184837 0.057825595
0.3287494 -0.031954184 -0.33302692 0.2002375 0.31405172 0.22825669 0.25288066 -0.07061403
-0.09849804 0.35818484 0.21329805 0.2559471 -1.2502333 -0.32122222 0.14498504 -0.04928829
0.41145027 -0.07676088 0.20482993 -0.019637493 0.09424459 0.31239367 0.2810683 0.12448702
0.24242689 0.07119157 0.025293862 -0.31555715 0.34415233 -0.1924019 0.20414537 0.19103321
0.27488384 0.31046134 0.20518357 0.059011724 0.06266232 0.14194927 0.33841005 0.36564508
0.35421526 -0.0952605 0.1255649 0.2647715 0.22707292 0.16352281 0.13149576 0.027338907
0.028645195 0.27029216 0.30524987 0.052118108 -0.3616654 -1.1320752 0.20195682 0.21224308
-0.036567345 0.009116881 0.111998945 0.06757821 0.12823963 0.07776853 0.17420335 0.17968453
-0.035089534 0.04087811 -0.65421695 0.15154047 0.10448593 0.06295959 0.08384735 0.18598245
0.13576241 0.0491051 0.033978347 0.28989205 0.10582229 0.021091316 0.24339981 0.20522717
0.33251527 -0.00036172685 0.2576005 -0.9061907 0.17447264 0.3473734 -0.06145114 -0.07356624
-0.3848812 0.13703403 0.23754959 0.22207184 0.15178011 0.19249526 0.27824822 0.21141921
0.21273349 0.20582224 0.2262551 0.2125865 -0.15202667 -0.034818534 0.27218914 -0.35364944
00000000: 0add e33c 297b 963e ec1e 87bd c4e1 1d3e
00000010: 1565 843e 22c3 663e cbd6 e03d 002c f43a
00000020: 050a 313e 1960 003e ece2 4e3d b93d 183e
00000030: 44f0 fd3d 62a0 f0bc 93a2 593e e191 d33d
00000040: 5ec8 003d ca0c 963e 3125 6e3e ee8e a83d
00000050: f92b 253e 8c7e 5c3e d32a 26bd 195e bc3e
00000060: be19 d33d 8ef4 ba3e 1b49 3d3e a0df df3d
00000070: 7c39 e33c 2532 b23e 8910 803e 829b fabc
00000080: b34e b03c 899c 4ebe d15f 8d3d 4671 9c3e
00000090: 50f7 7e3e 5aaf fdbd 4a93 9b3e f017 af3e
000000a0: bbdf d93d adcf 953d 0c42 6e3e f1ab 2c3e
000000b0: e3cb 793e 098e 7c3e 05d8 b23d cafe 4a3e
000000c0: 8bc8 363e 5a93 aa3e 9b8b 9f3e 105f 8fbf
000000d0: eeb4 57bf 33c9 9cbd a6e6 32be 786b 633d
000000e0: 5833 183e c8f4 b23e 1a75 45bd 5236 da3e
000000f0: 924d 5e3e dae3 0c3e 271d 56be b89c 5abf
00000100: 0fa5 ad3d 3765 0c3d b832 883e 655a dfbd
00000110: bc20 4b3c 2303 673e 413c 913e 8405 4d3e
00000120: 6dd9 a73e 662e bf3d 9418 f93d 4c27 963d
00000130: 2624 6a3e adf3 d9be 8fd5 6b3e da67 a23d
00000140: f9bf 433e bfdf 4d3e 9288 763c 4d2a bf3c
00000150: b7aa 903e 7b7a 8c3e 34a8 133e 36e3 4d3e
00000160: 6857 c73d 2de9 0a3e 4501 9f3e fb43 1b3c
00000170: 7fe8 353e 8ebc 793e b227 1f3e ca57 8b3e
00000180: 7be8 6bbf ebb2 023e 8f2a 2c3e bad7 c83d
00000190: 75cd 8fbc 718f 2e3e 9718 803e adb4 bd3d
000001a0: c6b1 523e 352e e83d 2348 6abc 625d 993e
000001b0: 86c9 993d 27f8 653e 0d19 213e 0231 ec3b
000001c0: ebbb 863d c0de f8bd cb89 023e 45a3 0a3e
000001d0: 6743 51bd ccb4 3c3e 849a 943e af8e a73d
000001e0: 7d80 d53d a646 e1bb 1e8c 503e 2e7e 243e
000001f0: 7458 343e 1cc8 a4bf 9a1c 733e 184f 673e
00000200: 93c3 333e 666b f33d 386b 583d 9683 88bf
00000210: e8a1 393e 308c c23d f874 083e 944f 6a3d
00000220: cc25 2a3e 2742 603e 42e7 0a3d 0571 3e3e
00000230: 3b1c 6a3e 88db 1bbf 1adb 813e c3be c2be
00000240: 2725 e33d 450d 43bd 5e96 62bf ea7d 373e
00000250: c294 233e bf3e 083e 02ca 2c3d 88da 6c3d
00000260: d751 a83e 64e2 02bd 8182 aabe 0f0b 4d3e
00000270: 63cb a03e 1fbc 693e 9379 813e 179e 90bd
00000280: 57b9 c9bd 0164 b73e ce6a 5a3e 800b 833e
00000290: a507 a0bf 3d77 a4be f576 143e 85e2 49bd
000002a0: 9ca9 d23e cf34 9dbd f0be 513e cfde a0bc
000002b0: 4f03 c13d 10f2 9f3e 2fe8 8f3e 0df3 fe3d
000002c0: c13e 783e e3cc 913d 1335 cf3c b590 a1be
000002d0: bc34 b03e 0105 45be 7c0b 513e 369e 433e
000002e0: 93bd 8c3e caf4 9e3e a41b 523e 47b6 713d
000002f0: 1a55 803d 265b 113e 1544 ad3e d535 bb3e
00000300: b45b b53e f017 c3bd 1694 003e 2190 873e
00000310: ce85 683e 8672 273e d3a6 063e d8f5 df3c
00000320: 54a9 ea3c bc63 8a3e b649 9c3e cc79 553d
00000330: 352c b9be d7e7 90bf c5cd 4e3e 4056 593e
00000340: a4c7 15bd f85e 153c b45f e53d 7266 8a3d
00000350: 4051 033e 1b45 9f3d 5d62 323e 39ff 373e
00000360: 0bba 0fbd ce6f 273d c37a 27bf 6d2d 1b3e
00000370: b8fc d53d f5f0 803d 29b8 ab3d 2f72 3e3e
00000380: 4d05 0b3e 6e22 493d e12c 0b3d bb6c 943e
00000390: 5bb9 d83d b2c7 ac3c cd3d 793e 1227 523e
000003a0: 713f aa3e 28a6 bdb9 36e4 833e 1dfc 67bf
000003b0: f5a8 323e edda b13e 31b4 7bbd e6a9 96bd
000003c0: 260f c5be a652 0c3e 3340 733e cd66 633e
000003d0: 3f6c 1b3e 7a1d 453e 8d76 8e3e 477e 583e
000003e0: cfd6 593e 11c3 523e 6baf 673e 47b0 593e
000003f0: e1ac 1bbe e19d 0ebd 605c 8b3e 8a11 b5be

linear2.bias f4 [3]
0.25826427 0.16001049 0.24897358
00000000: 373b 843e cad9 233e eef2 7e3e
