model/DQN/checkpoint_5100.pth (torch, 23085 bytes, 4 tensors)

linear1.weight f4 [256, 16]
-0.1908189 -0.23432107 -0.23149082 0.36748597 -0.19543624 0.8352107 -0.49409014 -0.6185214
0.39639783 -0.62430054 -0.12564561 0.3413605 -0.80458206 1.0752006 -1.7353357 0.5442472
0.41520193 -0.7746399 -0.07009903 -0.77068067 0.1748 0.11504797 -0.32425028 -0.373592
-0.25428745 -0.63271856 -0.7483352 -0.35855782 0.3331836 -0.6581074 -0.56049895 0.035319187
-0.03737992 -0.4790784 -0.26309276 -0.096276365 -0.20419207 -0.17781043 -0.22538967 0.18201588
0.19837046 -0.16103485 0.3427334 0.06755678 -0.22694948 -0.39776492 -0.29711342 -0.40500313
-0.3727013 0.0434104 1.0136368 -0.5999436 0.56466925 -0.30517653 0.30890805 -0.17226806
0.14439045 -0.04374136 -0.14999291 -0.75791615 -0.12477021 0.7835261 0.61296535 1.0932904
0.022987934 -0.035119634 0.21980967 -0.0052184206 0.114393845 0.042179015 0.1707462 0.2129073
0.047806576 0.0018503976 0.13480204 1.0667659 -1.1401585 -1.5052737 -1.0100831 -1.6393242
0.16796511 -0.15903687 0.69979537 0.19872041 0.3891863 -0.84125626 -0.8859645 0.47576794
0.59537274 0.12584308 -0.1755831 -0.9575512 0.96855927 0.4920992 -0.5752769 -0.7045393
-0.22766477 -0.02540439 -0.06796307 -0.3224686 -0.3633435 -0.18579559 -0.006896318 -0.3753042
0.07055728 -0.05726837 -0.3416153 -0.3322286 -0.060987063 0.28549674 0.29548046 0.036043733
-0.7777934 0.08248844 0.23552507 -0.4213031 0.84726614 0.39814264 -0.28775772 0.08614398
-0.16237721 0.12780124 0.20452756 -0.28096262 -0.8887173 0.5585935 1.1625504 1.2043324
0.14917485 -0.10247873 0.33558407 0.0029553035 -0.26362175 -0.029483939 -0.22708789 0.11499705
-0.31955343 -0.12952717 -0.010284008 -0.7558982 0.26937774 0.17326657 0.32191098 0.2700208
0.16975528 0.19143261 0.0110681085 -0.17062812 0.18208513 -0.25922385 0.08488757 0.023924751
0.06529165 -0.07926615 0.09215103 -0.99069643 2.0547295 1.5573131 1.8337417 1.6180099
0.12510262 1.352174 0.6308687 -0.5700345 -0.5116034 -0.5502555 -0.4193618 -0.3426873
-0.34952295 -0.3971776 -0.26750943 -0.23456119 0.18598746 0.032322332 0.6851877 0.2045677
0.0065542096 0.07569931 -0.03228855 -0.1386716 -0.16391501 -0.1942755 -0.20411834 0.17962694
0.06918508 -0.14868611 -0.103764385 -0.287424 0.052472517 -0.006484568 0.13783902 -0.12660089
-0.11811957 -0.16982448 0.07845835 -0.11434409 -0.09043678 -0.19388014 -0.06244765 -0.05059466
-0.065768756 -0.011349238 -0.17349988 0.04214414 -0.21821314 -0.20009482 -0.1307331 0.1707355
-0.36540475 -0.24366169 -0.0019567467 -0.276175 1.053778 0.24336562 -0.06740125 0.31475794
-0.16557842 -0.23922384 -0.025923738 -0.47427773 -1.8196871 0.28361568 1.469147 1.4615648
0.77236855 -0.60203606 -0.25450483 0.70785075 -0.43009403 0.14769223 -0.7805502 -0.3633397
-0.20239873 -0.30529904 -0.26126704 -0.1904861 -0.8448566 0.71999204 -0.579839 0.5746522
-0.18875338 0.26391533 0.45486885 -0.25260592 0.09525623 -0.02421691 -0.20492496 -0.20516601
0.18367583 0.4279579 0.08548016 -0.71574736 0.96101314 0.9728747 1.0623057 0.91052467
00000000: 0866 43be ddf1 6fbe ee0b 6dbe 1f27 bc3e
00000010: 7020 48be 5ed0 553f 62f9 fcbe 6b57 1ebf
00000020: a8f4 ca3e 29d2 1fbf 3ea9 00be cec6 ae3e
00000030: 17f9 4dbf 2ca0 893f 7b1f debf c953 0b3f
00000040: 5995 d43e cd4e 46bf 1590 8fbd 544b 45bf
00000050: c5fe 323e 459e eb3d 2204 a6be 7347 bfbe
00000060: f731 82be d8f9 21bf e592 3fbf e494 b7be
00000070: 0a97 aa3e ba79 28bf dc7c 0fbf daaa 103d
00000080: b01b 19bd c449 f5be 18b4 86be 8b2c c5bd
00000090: ba17 51be f013 36be 8dcc 66be 5f62 3a3e
000000a0: a021 4b3e 52e6 24be c17a af3e 365b 8a3d
000000b0: 7265 68be d8a7 cbbe 401f 98be 925c cfbe
000000c0: b4d2 bebe 1bcf 313d dabe 813f e795 19bf
000000d0: 2a8e 103f 1940 9cbe 3229 9e3e 0a67 30be
000000e0: 17db 133e 242a 33bd be97 19be cb06 42bf
000000f0: 8687 ffbd 2b95 483f 4ceb 1c3f f1f0 8b3f
00000100: 3151 bc3c 9bd9 0fbd c915 613e 49ff aabb
00000110: 5247 ea3d e7c3 2c3d 18d8 2e3e 5f04 5a3e
00000120: d4d0 433d 0a89 f23a 8c09 0a3e c98b 883f
00000130: b7f0 91bf cfac c0bf 674a 81bf 60d5 d1bf
00000140: 0cff 2b3e 90da 22be ca25 333f 5d7d 4b3e
00000150: 6d43 c73e 925c 57bf 92ce 62bf db97 f33e
00000160: 596a 183f 02dd 003e 0ecc 33be 1322 75bf
00000170: 80f3 773f 6df4 fb3e 5945 13bf b05c 34bf
00000180: f420 69be de1c d0bc 3930 8bbd 9b1a a5be
00000190: 2908 babe 3341 3ebe 82fa e1bb df27 c0be
000001a0: 5680 903d 3d92 6abd 33e8 aebe de19 aabe
000001b0: 92cd 79bd a12c 923e 3749 973e 98a2 133d
000001c0: 781d 47bf b3ef a83d 7c2d 713e 0ab5 d7be
000001d0: 6fe6 583f 5ad9 cb3e fb54 93be 416c b03d
000001e0: 3646 26be 54de 023e ac6f 513e 55da 8fbe
000001f0: fa82 63bf fcff 0e3f 74ce 943f 9027 9a3f
00000200: 4bc1 183e 5ee0 d1bd add1 ab3e c4ad 413b
00000210: 6ef9 86be 4d88 f1bc ba89 68be 9383 eb3d
00000220: 829c a3be c5a2 04be 427e 28bc 8b82 41bf
00000230: e1eb 893e cb6c 313e 84d1 a43e 2b40 8a3e
00000240: 54d4 2d3e e906 443e 0357 353c 23b9 2ebe
00000250: 8674 3a3e fdb8 84be 89d9 ad3d d7fd c33c
00000260: a1b7 853d 4b56 a2bd aeb9 bc3d 489e 7dbf
00000270: b080 0340 0956 c73f 0cb8 ea3f f31a cf3f
00000280: e71a 003e 0a14 ad3f 9c80 213f c8ed 11bf
00000290: 71f8 02bf 8bdd 0cbf 97b6 d6be b674 afbe
000002a0: acf4 b2be dd5a cbbe fff6 88be cf30 70be
000002b0: 7f73 3e3e 6c64 043d 7668 2f3f 327a 513e
000002c0: b2c4 d63b 3d08 9b3d 0041 04bd eeff 0dbe
000002d0: 56d9 27be 28f0 46be 6604 51be 20f0 373e
000002e0: e8b0 8d3d 2c41 18be 6c82 d4bd 3d29 93be
000002f0: 6ced 563d 807c d4bb ac25 0d3e aaa3 01be
00000300: ace8 f1bd 78e6 2dbe c5ae a03d 3c2d eabd
00000310: eb36 b9bd 8488 46be 1bc9 7fbd 593c 4fbd
00000320: c5b1 86bd 28f2 39bc f4a9 31be 559f 2c3d
00000330: 4473 5fbe a8e5 4cbe e6de 05be 49d5 2e3e
00000340: 5516 bbbe 7382 79be c33c 00bb cf66 8dbe
00000350: 33e2 863f d634 793e ab09 8abd f427 a13e
00000360: 648d 29be 18f7 74be 055e d4bc 88d4 f2be
00000370: 82eb e8bf 1336 913e 020d bc3f 8e14 bb3f
00000380: f2b9 453f 091f 1abf 754e 82be b535 353f
00000390: 4935 dcbe a23c 173e 23d2 47bf a907 babe
000003a0: 9d41 4fbe 2850 9cbe cbc4 85be ca0e 43be
000003b0: 8648 58bf 6651 383f 5470 14bf 681c 133f
000003c0: 9148 41be e91f 873e 92e4 e83e 9055 81be
000003d0: b315 c33d 8b62 c6bc d9d7 51be 0a17 52be
000003e0: 8415 3c3e 4c1d db3e 3910 af3d 383b 37bf
000003f0: f504 763f 510e 793f a2f9 873f 2518 693f

linear1.bias f4 [256]
-0.16556276 -0.52416813 -0.53438985 -0.45198795 -0.18540344 -0.37841842 -0.45982662 0.08280108
-0.77420557 -1.0387423 -0.19491722 -0.22903751 -0.319063 0.8886736 -0.5634894 -0.7665498
-0.61455363 3.5582383 -0.09376889 0.036483027 -0.63997084 -0.17766619 0.7567032 1.5238963
-0.30825946 -0.5605695 -0.21866827 -0.8315301 -0.5080616 -0.923755 -0.22974192 1.5518467
-0.1719274 0.04406261 1.6749579 -0.60575557 -0.69453955 -0.64088 0.52769816 0.12880202
0.63123715 0.28309748 -0.030872812 -0.2540773 -0.012428692 -0.34844014 -0.020553214 0.49860552
-0.5414426 0.07668351 -0.4922314 -0.7148357 -0.012296048 -0.45785996 3.0002918 -0.5076423
-0.45897517 0.08747128 -0.0860687 -0.267964 -0.13061243 0.6474102 -0.8677048 -0.33086756
-0.4063146 0.7077192 1.6515654 -0.6853899 -0.07097367 -0.058344595 -0.65222585 -0.86975783
-0.4972378 -0.51409155 -0.20227566 -0.16440833 0.2758602 -0.61689067 -0.5922682 0.6968042
-0.54951453 -0.57539135 -0.28683573 -0.271684 0.35732803 -0.549376 -0.043928847 0.66195893
-0.06803718 -0.30632508 -0.26599917 -0.48690057 -0.23293631 -0.4363793 -0.2194979 -0.07682744
-0.6560014 -0.620733 -0.7621186 0.13561273 -0.0048545008 0.32818246 -0.5638934 -0.99444306
-0.57266456 -1.0095227 0.28020942 -0.53258187 -0.742649 -0.21937501 -0.25590754 0.104495555
-0.16956322 -0.95868886 -0.5115506 0.1205892 -0.9209497 -0.22346438 0.04249219 -0.1989448
-0.21794203 -0.032210503 -0.935955 -0.02611386 -0.08937748 0.061574537 0.28319728 -0.55660045
2.413108 -0.7025004 0.56557554 0.14292476 0.19671163 -0.48516035 1.1061941 0.45077056
-0.61815387 1.7708257 0.036585074 -0.10711221 0.719134 -0.89656395 0.024655402 -0.7877915
-0.1512404 0.43811005 -0.29821154 -0.94302404 -0.17293084 -0.2609553 -0.69323593 -0.37426168
-0.28001916 0.35241175 -0.66469616 -0.91395104 -0.0023050255 -0.12734856 -0.20734416 -0.64210486
-0.053723417 -0.85078526 0.38530016 -0.0016635216 -0.14680465 -0.1408894 -0.5049333 0.1006772
-0.83738685 -0.15766764 -0.50509685 0.113165446 0.08936399 -0.110895015 0.03074993 -0.34249994
-0.21161078 0.19019344 3.9360924 -0.6580397 -0.8543154 -0.27279568 -0.3253919 -0.22859204
0.8556724 -0.31109804 -0.0804918 0.2883689 -0.11009248 -0.8048984 2.9334202 -0.7111357
0.21197706 -0.21898648 -0.3276364 -0.24694464 -0.86323315 0.19172046 -0.28757623 -0.93297654
-0.43599364 -0.3689946 -0.45686975 -0.2961851 -0.40761665 2.296083 0.23548982 1.519046
-0.76299614 -0.2045578 -0.038853273 0.025843255 -0.18048209 0.10352788 1.3180528 -0.039051328
0.63430125 0.3015501 0.05283032 0.103038855 -0.51262033 -0.48020542 -0.14949475 -0.32502928
-0.7616309 -0.9023334 -0.04033812 -0.33133736 -0.21190374 0.10221032 0.13220926 -0.285183
-1.0641583 -0.18309282 0.375187 0.09419457 -0.25506696 0.29374158 0.18908411 -0.13457079
-0.12923813 -0.6029296 0.3411082 0.64703023 -0.3737023 -0.0659782 -0.7464489 -0.28099105
0.22431009 0.024029609 -0.18680373 -0.10788529 -0.2334138 -0.47969452 -0.1834072 -0.31534234
00000000: 4989 29be e22f 06bf c6cd 08bf f76a e7be
00000010: 66da 3dbe 0fc0 c1be 656e ebbe 9d93 a93d
00000020: 5632 46bf 82f5 84bf 6198 47be cf88 6abe
00000030: 3a5c a3be 1d80 633f d740 10bf 9c3c 44bf
00000040: 6353 1dbf 2dba 6340 e709 c0bd 3a6f 153d
00000050: 21d5 23bf 20ee 35be 4db7 413f 090f c33f
00000060: 2fd4 9dbe 7c81 0fbf 93ea 5fbe 28df 54bf
00000070: 5310 02bf 357b 6cbf 7741 6bbe eaa2 c63f
00000080: bd0d 30be ff7a 343d 0565 d63f cc12 1bbf
00000090: 58cd 31bf b610 24bf 3a17 073f ade4 033e
000000a0: c298 213f 27f2 903e fbe8 fcbc 6b16 82be
000000b0: b6a1 4bbc bf66 b2be 375f a8bc 3949 ff3e
000000c0: fb9b 0abf 3e0c 9d3d c105 fcbe 79ff 36bf
000000d0: 5d75 49bc 9f6c eabe c804 4040 d9f4 01bf
000000e0: cbfe eabe 2424 b33d c944 b0bd 9432 89be
000000f0: 44bf 05be adbc 253f e721 5ebf 7967 a9be
00000100: 7808 d0be 162d 353f 7f66 d33f b675 2fbf
00000110: a55a 91bd befa 6ebd 46f8 26bf 73a8 5ebf
00000120: f495 febe 819b 03bf 5a21 4fbe a85a 28be
00000130: 8c3d 8d3e 8cec 1dbf e49e 17bf c361 323f
00000140: fcac 0cbf d94c 13bf 22dc 92be 2a1a 8bbe
00000150: b3f3 b63e e8a3 0cbf bcee 33bd 2476 293f
00000160: 1457 8bbd a4d6 9cbe 0b31 88be 084b f9be
00000170: db86 6ebe 1c6d dfbe 0fc4 60be b457 9dbd
00000180: b5ef 27bf 5ce8 1ebf 341a 43bf 10de 0a3e
00000190: 8112 9fbb 8807 a83e 515b 10bf d293 7ebf
000001a0: 259a 12bf 0a38 81bf 9c77 8f3e 4957 08bf
000001b0: 3f1e 3ebf d8a3 60be 5006 83be c401 d63d
000001c0: fba1 2dbe a26c 75bf fbf4 02bf 78f7 f63d
000001d0: 5cc3 6bbf d9d3 64be 4a0c 2e3d 30b8 4bbe
000001e0: 322c 5fbe 29ef 03bd bf9a 6fbf bcec d5bc
000001f0: 8a0b b7bd 9535 7c3d 3cff 903e 5e7d 0ebf
00000200: 5d70 1a40 11d7 33bf 8fc9 103f de5a 123e
00000210: c66e 493e f066 f8be c597 8d3f 66cb e63e
00000220: 553f 1ebf 6baa e23f 3bda 153d a55d dbbd
00000230: 2a19 383f 3785 65bf 20fa c93c b4ac 49bf
00000240: c3de 1abe f64f e03e 2faf 98be 066a 71bf
00000250: c814 31be ef9b 85be e977 31bf 3a9f bfbe
00000260: ac5e 8fbe 506f b43e 8729 2abf b2f8 69bf
00000270: e90f 17bb a967 02be 0752 54be fc60 24bf
00000280: 160d 5cbd 10cd 59bf 1046 c53e 860a daba
00000290: f553 16be 5045 10be 4f43 01bf d92f ce3d
000002a0: fc5e 56bf a073 21be 074e 01bf 49c3 e73d
000002b0: 7804 b73d ed1c e3bd 47e7 fb3c 275c afbe
000002c0: 7fb0 58be 12c2 423e f0e8 7b40 4a75 28bf
000002d0: 6ab4 5abf e0ab 8bbe c499 a6be 0814 6abe
000002e0: 590d 5b3f 3e48 9fbe e3d8 a4bd 17a5 933e
000002f0: 2b78 e1bd d20d 4ebf 28bd 3b40 fd0c 36bf
00000300: 8410 593e fe3d 60be f5bf a7be 0edf 7cbe
00000310: d9fc 5cbf 5e52 443e 313d 93be 8dd7 6ebf
00000320: 8f3a dfbe dcec bcbe d5ea e9be 93a5 97be
00000330: 21b3 d0be 06f3 1240 3e24 713e 1970 c23f
00000340: b753 43bf 9a77 51be 9c24 1fbd 3cb5 d33c
00000350: 4cd0 38be 6d06 d43d f4b5 a83f 49f4 1fbd
00000360: 9161 223f c664 9a3e 9b64 583d 0906 d33d
00000370: 163b 03bf 7cdd f5be 2715 19be 3d6a a6be
00000380: 3efa 42bf 52ff 66bf 9639 25bd 0da5 a9be
00000390: 4bfd 58be a553 d13d dd61 073e 8203 92be
000003a0: 5736 88bf af7c 3bbe 8318 c03e 15e9 c03d
000003b0: 2398 82be 4c65 963e 449f 413e edcc 09be
000003c0: 0057 04be 9859 1abf bca5 ae3e c6a3 253f
000003d0: e855 bfbe 941f 87bd 4617 3fbf 0fde 8fbe
000003e0: 8bb1 653e bed9 c43c 7a49 3fbe f7f2 dcbd
000003f0: 0704 6fbe 859a f5be 19cf 3bbe 8d74 a1be

linear2.weight f4 [3, 256]
-0.41359448 0.03979681 0.037826013 0.27639642 -0.49821624 0.23057263 0.07218539 0.43174863
-0.020450143 -1.3542513 0.028982969 -0.025714837 -0.012011037 0.88733596 -0.29009232 -0.08189649
0.061557915 0.5961291 -0.4617814 -0.71105915 -0.14163613 -0.8880856 0.89690256 0.35226342
-1.045773 -0.39759853 -1.0904132 -0.7918288 -0.098957695 -0.39248276 0.16307692 0.4607858
-0.5392669 -0.029557118 0.305346 -0.010009319 -0.0019045483 -0.020465625 1.0905833 0.5486713
0.9300653 0.09135091 -1.2679772 -0.91001964 -2.6895533 0.6126152 1.1615702 2.037759
0.08930055 -1.0510128 0.39106333 -0.013296835 -0.35259464 0.023806678 0.66760063 -0.31740478
0.1500429 -1.1843368 1.245521 0.0059423256 -0.60541046 1.227388 -0.0048475256 -0.67504007
0.09741535 0.53556913 0.3089899 0.8075828 1.1199126 0.11765347 0.09361542 0.0028993352
-0.12415502 0.20525102 -1.2573134 -1.2286825 0.27036703 -0.32347557 -0.012357055 0.78557277
-0.41914073 0.037658073 -0.89135164 -0.4793516 0.7989469 0.35535464 0.6101812 0.49041802
0.37198913 0.29040474 -0.004009935 -0.026944999 -0.6361742 -0.25300103 0.08107976 -0.7197839
-0.04172692 0.06578109 -0.23917568 0.4840016 0.8986153 1.3333595 0.29368496 -1.0993063
0.14305939 -1.1191666 0.46660393 0.13991584 -0.0019994152 -2.2061965 -1.0786202 0.23117915
1.1826094 -0.14859857 -0.24665073 1.0286648 -0.2117127 -0.1895965 -0.747579 -1.2124997
-0.5893053 -0.529384 0.09680348 0.02694194 0.09934276 0.46338868 0.75815934 -0.2525517
0.38162127 0.049146835 0.8065308 1.3613681 0.62712055 -0.26645786 0.18589357 0.6610219
0.0019023621 0.41005707 -1.2647178 -0.8399552 0.1871938 -0.26631424 0.7575409 1.1688844
0.025984783 0.7596808 0.06395519 -0.2464515 1.3693644 -1.014293 0.0029706846 0.029007679
0.22862062 0.7600505 -0.07898672 0.04857825 0.29372075 -0.038016353 1.3558297 0.17937717
0.283066 -0.005385432 0.9469454 1.3597604 -0.6207019 0.635958 -0.9601655 0.047112428
0.15864018 0.23093334 0.6759729 0.7838948 -2.0604115 -1.2112656 0.54586375 -1.183106
0.09826488 -1.5491513 0.5564023 0.1513261 0.0057371254 -0.012849394 0.23163195 -0.39580545
0.43091127 -0.2386631 -2.174917 0.48026273 0.14119409 -0.04637466 0.5490175 0.02104971
0.51545316 0.13588244 -0.07200133 0.03712328 -0.39945984 0.7187356 -0.014792502 -0.35544437
-0.012604058 0.028099312 -2.2323134 -0.809185 0.19491024 0.39833972 0.59037405 0.35462424
0.031684387 -0.27856144 0.26416424 -0.21113159 -0.94985884 -0.7610424 0.14657608 0.14323547
1.0846918 2.1915874 0.6315354 1.2192739 0.38806367 0.05390685 -0.65885425 0.36131513
-0.21447551 2.2826693 -0.34933892 -0.28633973 0.44680583 0.4962041 1.7438785 0.07678562
0.053381126 -0.8360955 2.3107305 0.8092896 -0.01290536 0.93900293 0.8459728 -0.4675347
0.19694366 -0.0114163365 0.53787047 0.60665506 0.19290717 0.1794767 0.0008259113 -0.34514788
0.455526 0.32594335 -0.65883577 -0.8974392 0.0019096858 0.057653435 0.8226433 -0.44514576
00000000: a8c2 d3be fb01 233d 73ef 1a3d d583 8d3e
00000010: 3316 ffbe 3b1b 6c3e efd5 933d 280e dd3e
00000020: 0f87 a7bc 1b58 adbf b16d ed3c eca7 d2bc
00000030: f1c9 44bc 7328 633f fb86 94be 59b9 a7bd
00000040: 2724 7c3d eb9b 183f 9d6e ecbe f907 36bf
00000050: 1009 11be 9459 63bf 689b 653f df5b b43e
00000060: e4db 85bf 0992 cbbe a992 8bbf 4bb5 4abf
00000070: 55aa cabd 80f3 c8be a3fd 263e 1eec eb3e
00000080: 650d 0abf c521 f2bc 5056 9c3e 20fe 23bc
00000090: 09a2 f9ba 87a7 a7bc 3c98 8b3f b975 0c3f
000000a0: c218 6e3f 3016 bb3d 144d a2bf 0cf7 68bf
000000b0: a421 2cc0 5ad4 1c3f 55ae 943f a56a 0240
000000c0: 35e3 b63d 9687 86bf 7439 c83e f8da 59bc
000000d0: 4987 b4be 3906 c33c e0e7 2a3f e182 a2be
000000e0: d9a4 193e 5998 97bf 3b6d 9f3f d7b7 c23b
000000f0: 2efc 1abf 0d1b 9d3f fed7 9ebb 6dcf 2cbf
00000100: b381 c73d 0f1b 093f ed33 9e3e bfbd 4e3f
00000110: 4c59 8f3f 4df4 f03d 71b9 bf3d c602 3e3b
00000120: fd44 febd 532d 523e a5ef a0bf 7845 9dbf
00000130: 8c6d 8a3e 979e a5be 3f75 4abc 4c1b 493f
00000140: 9d99 d6be 5a3f 1a3d 9f2f 64bf 936d f5be
00000150: c987 4c3f 0bf1 b53e d634 1c3f 1218 fb3e
00000160: 5c75 be3e eeaf 943e c665 83bb c2bb dcbc
00000170: 50dc 22bf 5a89 81be 250d a63d c243 38bf
00000180: d9e9 2abd 3cb8 863d 78ea 74be 0fcf f73e
00000190: a70b 663f 86ab aa3f e05d 963e 12b6 8cbf
000001a0: 297e 123e da40 8fbf b6e6 ee3e 1946 0f3e
000001b0: 9f08 03bb 5332 0dc0 3a10 8abf 3aba 6c3e
000001c0: bf5f 973f 392a 18be 0292 7cbe 4aab 833f
000001d0: 37cb 58be 9625 42be 5661 3fbf 3133 9bbf
000001e0: b6dc 16bf b685 07bf e740 c63d 58b5 dc3c
000001f0: 3874 cb3d 4841 ed3e bb16 423f 754e 81be
00000200: dd63 c33e 314e 493d cd78 4e3f 4f41 ae3f
00000210: f98a 203f 2a6d 88be e25a 3e3e bb38 293f
00000220: ae58 f93a 00f3 d13e 46e2 a1bf 4e07 57bf
00000230: bbaf 3f3e 575a 88be 33ee 413f 019e 953f
00000240: 0ade d43c 717a 423f f0fa 823d c85d 7cbe
00000250: 5547 af3f 5ad4 81bf d1af 423b 83a1 ed3c
00000260: 861b 6a3e ab92 423f cac3 a1bd fdf9 463d
00000270: 9162 963e 09b7 1bbd d48b ad3f a6ae 373e
00000280: 07ee 903e 4778 b0bb 046b 723f a10c ae3f
00000290: 52e6 1ebf 25ce 223f 68cd 75bf f6f8 403d
000002a0: 9272 223e ca79 6c3e 8f0c 2d3f 54ad 483f
000002b0: c8dd 03c0 c00a 9bbf babd 0b3f 0470 97bf
000002c0: 193f c93d 974a c6bf 6270 0e3f 3bf5 1a3e
000002d0: 7ffe bb3b 4486 52bc ed30 6d3e 03a7 cabe
000002e0: 67a0 dc3e 1a64 74be d731 0bc0 ffe4 f53e
000002f0: 2f95 103e 5bf3 3dbd 698c 0c3f 7170 ac3c
00000300: bdf4 033f c424 0b3e 6f75 93bd 950e 183d
00000310: 0086 ccbe 0eff 373f 405c 72bc cefc b5be
00000320: 4081 4ebc 8730 e63c 39de 0ec0 c026 4fbf
00000330: 8d96 473e 2ff3 cb3e c122 173f 4f91 b53e
00000340: 7dc7 013d 9b9f 8ebe 8940 873e e132 58be
00000350: f329 73bf add3 42bf 0a18 163e 52ac 123e
00000360: 2ed7 8a3f f842 0c40 4eac 213f 2b11 9c3f
00000370: 48b0 c63e 6ecd 5c3d acaa 28bf 4cfe b83e
00000380: 789f 5bbe 4117 1240 8ddc b2be 1f9b 92be
00000390: bcc3 e43e 770e fe3e 6937 df3f c741 9d3d
000003a0: 2ba6 5a3d 5b0a 56bf 02e3 1340 9a2d 4f3f
000003b0: 0171 53bc 7f62 703f ac91 583f b560 efbe
000003c0: 99ab 493e 960b 3bbc e1b1 093f bf4d 1b3f
000003d0: 7589 453e bdc8 373e f881 583a 39b7 b0be
000003e0: b43a e93e 0ce2 a63e 76a9 28bf 93be 65bf
000003f0: 6c4e fa3a 0226 6c3d c098 523f 25ea e3be

linear2.bias f4 [3]
0.738965 0.5113414 0.4816516
00000000: cf2c 3d3f 45e7 023f 0a9b f63e
