model/DQN/checkpoint_1700.pth (torch, 23085 bytes, 4 tensors)

linear1.weight f4 [256, 16]
0.14785519 -0.054838292 0.013741318 0.12733173 -0.18252099 -0.17877096 -0.18454409 -0.14757359
-0.057805616 -0.053955857 -0.10204461 -0.21487604 -0.03511387 -0.08036837 -0.06499496 -0.22672644
-0.032990817 0.30077997 -0.25741917 -0.046662726 0.06582853 0.2645247 -0.014947934 -0.34964812
-0.5207856 0.145729 0.23808995 0.037583943 0.10445472 0.010264995 0.013135129 -0.0014850004
0.24671252 1.0285239 0.07143975 0.21571416 0.018874172 0.03950159 -0.11938489 -0.012339302
0.083418705 0.043055203 0.14687593 -0.16817589 0.0027985026 0.18966793 -0.044854894 0.007011731
0.07924276 -0.10839322 0.85263425 0.21611382 0.16319095 -0.018203983 -0.102927685 0.19190751
0.25266892 -0.009881834 -0.12991686 -0.17350832 -0.07226778 0.26232082 -0.005820117 -0.10738887
-0.06295387 -0.19487888 -0.30054125 0.32170793 0.37906662 0.33770013 0.30101296 -0.17333433
0.22898898 -0.122366525 0.07898656 -0.031242142 -0.21340506 -0.027034447 0.1619841 0.06345015
0.0354729 -0.09443786 -0.057389595 0.19796333 -0.022613812 0.18331274 0.08452484 0.3861919
0.33752912 -0.5219122 -0.23308052 0.021662328 0.070518136 0.1402837 -0.0025839868 0.07263176
0.21712878 0.025874833 -0.33699137 0.2608493 0.37309635 0.15440387 0.0038420018 0.033265498
0.20530118 -0.04664168 0.071552716 0.02268014 -0.21639109 0.007291798 -0.14298359 0.10210816
0.01577878 -0.16940615 -0.05092743 -0.22667268 -0.22991851 -0.04284343 -0.09864187 0.13595822
0.05679977 0.028875232 -0.097381264 -0.06928921 -0.080091745 -0.1608819 -0.14121029 0.009690672
-0.02876335 0.2378843 -0.17584898 0.29168823 0.3399455 0.08269762 0.030469779 -0.05524859
-0.046113104 0.135333 0.03937439 0.29200482 -0.108033806 0.16788825 -0.23797579 -0.23545843
-0.109015435 -0.40804097 0.0577926 -0.0042440607 0.33664522 -0.07289012 0.05061372 -0.1370124
0.0824344 0.059464846 -0.001209938 0.14859007 0.15196307 -0.06044625 0.044629566 -0.15398405
0.12533166 -0.4920244 -0.13563266 0.06706634 0.17117654 -0.038882893 -0.054654304 0.12204824
0.118743464 0.0073835026 0.10212045 0.22681804 -0.09223709 0.20706958 -0.1656431 0.18762688
0.15137307 -0.0724113 -0.14433922 0.29123956 0.18828595 0.27684096 0.2629501 -0.21218528
0.21394959 0.081474416 0.19913886 0.25576037 -0.018101783 -0.006811057 -0.038200457 -0.0965045
-0.23109739 0.08822352 -0.1248003 -0.063125305 -0.21370284 0.2205924 0.21557423 -0.02852538
0.13687357 -0.36485845 0.068495125 0.20965852 0.17495431 -0.15350196 0.02553974 0.082645826
0.25724497 0.077615455 -0.28841665 0.12835346 -0.032314103 -0.1508873 0.14960848 -0.20760034
-0.20810065 0.015839653 -0.22615446 -0.14334312 -0.16902757 -0.15948571 -0.10527503 -0.104965106
-0.17389953 0.2526016 0.13950065 -0.1492081 0.32789925 -0.31100327 0.13972005 -0.48090997
0.086329795 -0.28155392 -0.34844553 -0.14264165 0.08965007 0.11275287 0.04876972 0.091334276
0.064884245 0.05797336 -0.27189922 0.32512036 0.20417155 0.2527597 0.11982717 0.26281816
0.07309776 0.1676872 0.26764446 0.1372798 0.19154191 -0.07742737 0.17106634 -0.06864755
00000000: 5a67 173e 1e9e 60bd 4423 613c 4063 023e
00000010: c8e6 3abe bc0f 37be 20f9 3cbe 881d 17be
00000020: 95c5 6cbd d100 5dbd c4fc d0bd 7708 5cbe
00000030: 90d3 0fbd 2c98 a4bd 141c 85bd fa2a 68be
00000040: 6121 07bd d5ff 993e 72cc 83be 6a21 3fbd
00000050: 1cd1 863d c86f 873e 2ee8 74bc 1405 b3be
00000060: 3552 05bf fc39 153e dacd 733e 9ff1 193d
00000070: 5bec d53d 822e 283c b934 573c 58a4 c2ba
00000080: 35a2 7c3e aca6 833f 014f 923d 2ce4 5c3e
00000090: 029e 9a3c 6bcc 213d 1180 f4bd c92a 4abc
000000a0: 6dd7 aa3d a75a 303d a566 163e 4d36 2cbe
000000b0: 1567 373b 4f38 423e c4b9 37bd aac2 e53b
000000c0: 074a a23d 44fd ddbd 3d46 5a3f f14c 5d3e
000000d0: 871b 273e 8520 95bc c0cb d2bd 6783 443e
000000e0: d25d 813e 6ae7 21bc ed08 05be 2aac 31be
000000f0: 2101 94bd ea4e 863e aeb6 bebb b2ee dbbd
00000100: f5ed 80bd 548e 47be 8be0 99be e7b6 a43e
00000110: 0515 c23e 08e7 ac3e 5f1e 9a3e 8e7e 31be
00000120: 167c 6a3e 4d9b fabd b5c3 a13d 85ef ffbc
00000130: db86 5abe 5877 ddbc 29df 253e 27f2 813d
00000140: 084c 113d a368 c1bd 5a11 6bbd e6b6 4a3e
00000150: 9a40 b9bc 56b6 3b3e 5c1b ad3d f2ba c53e
00000160: 9ed0 ac3e 0a9c 05bf a9ac 6ebe 3275 b13c
00000170: d06b 903d 88a6 0f3e 1b58 29bb f6bf 943d
00000180: 0257 5e3e 75f7 d33c 228a acbe 0a8e 853e
00000190: 7c06 bf3e 0c1c 1e3e 18ca 7b3b 6741 083d
000001a0: 793a 523e 590b 3fbd 3b8a 923d b3cb b93c
000001b0: a095 5dbe 09f0 ee3b 4a6a 12be 151e d13d
000001c0: 8042 813c ce78 2dbe 4899 50bd e21c 68be
000001d0: c26f 6bbe 987c 2fbd c004 cabd a238 0b3e
000001e0: e0a6 683d c08b ec3c d46f c7bd 80e7 8dbd
000001f0: 2407 a4bd 3abe 24be 6e99 10be a0c5 1e3c
00000200: 1ea1 ebbc f197 733e c111 34be 2958 953e
00000210: 560d ae3e 5f5d a93d c29b f93c 584c 62bd
00000220: 18e1 3cbd bc94 0a3e 0a47 213d a881 953e
00000230: d440 ddbd e6ea 2b3e edaf 73be 041c 71be
00000240: 7c43 dfbd bfea d0be efb7 6c3d c311 8bbb
00000250: c35c ac3e 6a47 95bd 5550 4f3d fb4c 0cbe
00000260: 5ed3 a83d 6991 733d c896 9eba ff27 183e
00000270: 359c 1b3e 7d96 77bd 7ecd 363d ffad 1dbe
00000280: f156 003e 9fea fbbe 4ae3 0abe 145a 893d
00000290: e748 2f3e ab43 1fbd 31dd 5fbd 6df4 f93d
000002a0: c62f f33d 4ff1 f13b 8724 d13d fd42 683e
000002b0: cde6 bcbd 0c0a 543e 589e 29be 4321 403e
000002c0: 8b01 1b3e 604c 94bd a9cd 13be 5a1d 953e
000002d0: 08ce 403e 19be 8d3e 65a1 863e 1947 59be
000002e0: 9a15 5b3e 0fdc a63d 0feb 4b3e 06f3 823e
000002f0: 314a 94bc 4a2f dfbb 1578 1cbd 27a4 c5bd
00000300: cba4 6cbe 88ae b43d 4d97 ffbd d747 81bd
00000310: ebd4 5abe f9e2 613e 7ebf 5c3e 0fae e9bc
00000320: 9628 0c3e bace babe 2c47 8c3d b9b0 563e
00000330: 3927 333e 9e2f 1dbe b838 d13c 3742 a93d
00000340: 9db5 833e daf4 9e3d 59ab 93be 176f 033e
00000350: cb5b 04bd 3382 1abe f732 193e 2f95 54be
00000360: 5618 55be 29c2 813c 0995 67be 8ac8 12be
00000370: 9015 2dbe 3950 23be 6f9a d7bd f2f7 d6bd
00000380: b812 32be ff54 813e 42d9 0e3e 02ca 18be
00000390: 69e2 a73e d23b 9fbe c612 0f3e d539 f6be
000003a0: adcd b03d d627 90be 7467 b2be a710 12be
000003b0: 759a b73d faea e63d c2c2 473d 770d bb3d
000003c0: 08e2 843d 7975 6d3d 6036 8bbe 2d76 a63e
000003d0: 5912 513e b869 813e f367 f53d 1a90 863e
000003e0: 47b4 953d 31b6 2b3e b208 893e 1393 0c3e
000003f0: 9023 443e 3e92 9ebd 042c 2f3e 1697 8cbd

linear1.bias f4 [256]
-0.22353956 0.07184889 -0.31296209 -0.170288 0.55307347 0.051232677 0.46042684 -0.23788226
0.44904527 0.46021667 0.28350377 0.41955203 0.25983945 0.21907446 -0.033092435 0.4423258
0.2404466 0.50965065 0.3878214 -0.11974967 0.5590333 0.33661318 -0.055633184 0.19506507
-0.06867838 0.32790074 0.47450152 0.315402 -0.08549292 -0.013514814 0.11857815 0.06891042
0.15902174 0.057484493 -0.012313898 0.4690073 0.18131463 0.06765672 0.3164611 0.5654992
-0.16620432 -0.18201832 0.5033072 0.36771414 0.59116197 0.38125452 0.2738381 0.29747182
-0.023510905 0.20604506 0.2671807 -0.26426163 -0.22042817 -0.11722102 -0.0945258 -0.19856817
0.35701165 0.02126594 0.16781199 -0.11402633 0.5672763 0.28662533 -0.1993817 -0.12674955
-0.068550445 -0.1541942 0.2610566 0.022870848 -0.36728302 0.47513247 0.040441938 0.57448643
0.14372383 0.121158324 0.14833471 -0.31167775 0.48079476 -0.3001012 0.44095436 0.40582198
0.31793672 0.5433965 -0.22683714 -0.056519475 0.1769424 0.11557162 0.53536534 0.20957032
0.017522773 0.29094872 0.54083705 -0.007121272 0.27484515 0.47826537 0.4912662 0.11271155
-0.10506268 0.025953744 0.33892897 0.18810171 0.16039854 0.12299939 -0.041222647 0.2926439
0.4063105 0.34547284 -0.14831491 0.24189796 0.16596113 0.53131884 0.1695849 -0.1763582
-0.051965073 -0.39313155 -0.10653913 0.5018295 0.027775014 0.08354909 -0.11850309 0.32974988
-0.305394 0.09106782 0.5172443 -0.15942216 0.37102824 -0.1766813 0.23632324 0.39468098
0.42856467 0.47853166 0.13071288 -0.0014924621 0.4167998 0.059376847 0.5405113 -0.13210316
0.38784862 -0.036763687 0.4173353 0.34433004 0.044186965 -0.09145731 0.29421496 -0.2843551
0.3127879 -0.024564337 -0.25168034 -0.13419859 0.26032445 0.46517774 -0.05475609 0.04978036
0.48812413 0.06365011 -0.15378495 0.34771636 0.26465374 -0.16576666 0.04995923 -0.05395413
0.156916 0.38486347 0.34128237 0.17889908 -0.31900737 -0.029085448 0.2822168 -0.14114481
-0.13227755 0.034509633 0.0785401 0.0342851 0.40044495 -0.15851545 0.16559339 0.15572678
-0.03634103 0.40013984 0.17697217 -0.088705935 0.038475882 -0.26816565 0.25232625 0.0889939
0.59051883 0.39802578 -0.08023416 0.26076612 -0.1243896 0.36462504 0.54906905 0.036281582
0.11027415 0.0020203025 -0.083824955 0.0030358688 0.39960387 0.21430223 0.3437625 -0.15599443
0.06745019 0.23077574 0.3787577 0.380125 -0.26221535 -0.061548334 0.46580592 0.45737725
0.053654693 -0.09693429 0.099646896 -0.06626421 0.27801427 -0.015651496 0.09124424 -0.14906007
-0.04444095 0.053174768 -0.24112052 -0.185886 -0.22271925 0.38697237 -0.11812161 0.09893997
0.3605025 0.2869041 -0.24225193 0.13914475 0.06510202 0.18891242 -0.045538656 0.32264543
0.27644312 0.09329051 0.45615512 -0.20700681 0.4121621 0.48739165 0.08859155 -0.063483365
-0.107937984 -0.09533338 -0.112994015 0.04481651 0.048198756 0.45955983 0.0066053313 0.53684556
-0.3094822 0.38265663 0.10365252 0.4285377 -0.0959059 -0.018021904 0.21239012 -0.007171263
00000000: 8ee7 64be 8325 933d 913c a0be fa5f 2ebe
00000010: 3996 0d3f 5bd9 513d 11bd eb3e 6897 73be
00000020: 43e9 e53e 85a1 eb3e 6827 913e 86cf d63e
00000030: ad09 853e 0e55 603e ef8b 07bd 8778 e23e
00000040: a237 763e 7778 023f 8790 c63e 513f f5bd
00000050: ce1c 0f3f 9058 ac3e 9fdf 63bd 23bf 473e
00000060: 40a7 8cbd 9be2 a73e ddf1 f23e 5f7c a13e
00000070: e916 afbd 3d6d 5dbc 1ad9 f23d e820 8d3d
00000080: 98d6 223e dc74 6b3d 3bc0 49bc ba21 f03e
00000090: 8baa 393e 9b8f 8a3d 3007 a23e 8ec4 103f
000000a0: 7731 2abe 0363 3abe bed8 003f 0745 bc3e
000000b0: 6456 173f cb33 c33e 8234 8c3e 3a4e 983e
000000c0: f199 c0bc 7afd 523e e9cb 883e 4d4d 87be
000000d0: ecb7 61be 9311 f0bd be96 c1bd 7455 4bbe
000000e0: 3bca b63e e935 ae3c e8d6 2b3e a386 e9bd
000000f0: 0539 113f 8ec0 923e b72a 4cbe a2ca 01be
00000100: 2d64 8cbd 16e5 1dbe 36a9 853e a55b bb3c
00000110: 850c bcbe 9044 f33e 72a6 253d 8b11 133f
00000120: 572c 133e db21 f83d 0ee5 173e 3a94 9fbe
00000130: bb2a f63e dda6 99be c5c4 e13e e6c7 cf3e
00000140: 9ac8 a23e 081c 0b3f ff47 68be f780 67bd
00000150: 6330 353e d0b0 ec3d b40d 093f 9a99 563e
00000160: eb8b 8f3c 3bf7 943e 4c74 0a3f 8f59 e9bb
00000170: 81b8 8c3e 33df f43e 3e87 fb3e 50d5 e63d
00000180: 1a2b d7bd f29c d43c 1988 ad3e bc9d 403e
00000190: 843f 243e 1be7 fb3d 14d9 28bd 6cd5 953e
000001a0: ee07 d03e d1e1 b03e dddf 17be 19b4 773e
000001b0: b7f1 293e 8304 083f aaa7 2d3e 3e97 34be
000001c0: 54d9 54bd 8a48 c9be 3031 dabd e677 003f
000001d0: 6d88 e33c c91b ab3d c0b1 f2bd fad4 a83e
000001e0: 9a5c 9cbe c481 ba3d 1f6a 043f 903f 23be
000001f0: 6af7 bd3e f1eb 34be b8fe 713e a013 ca3e
00000200: d46c db3e 1a02 f53e 99d9 053e b89e c3ba
00000210: c966 d53e 2335 733d f35e 0a3f 0d46 07be
00000220: 1894 c63e 8595 16bd f9ac d53e 074c b03e
00000230: 64fd 343d f84d bbbd 58a3 963e fe96 91be
00000240: bc25 a03e 263b c9bc 3fdc 80be 5b6b 09be
00000250: 3f49 853e c72b ee3e ec47 60bd 7ee6 4b3d
00000260: 68eb f93e fd5a 823d cd79 1dbe e107 b23e
00000270: b280 873e bcbe 29be 0da2 4c3d 01ff 5cbd
00000280: 97ae 203e d30c c53e 90bc ae3e 5231 373e
00000290: ef54 a3be 9b44 eebc b87e 903e 4488 10be
000002a0: c473 07be f959 0d3d a2d9 a03d 886e 0c3d
000002b0: 1f07 cd3e e051 22be 5091 293e d776 1f3e
000002c0: 55da 14bd 21df cc3e 3138 353e 75ab b5bd
000002d0: e398 1d3d 024d 89be e830 813e 6f42 b63d
000002e0: 3e2c 173f 09ca cb3e cf51 a4bd 2383 853e
000002f0: f9bf febd 22b0 ba3e ca8f 0c3f ff9b 143d
00000300: 6ad7 e13d 0d67 043b 6bac abbd 6df5 463b
00000310: e198 cc3e 0b72 5b3e a301 b03e 01bd 1fbe
00000320: 5323 8a3d 7a50 6c3e 87ec c13e be9f c23e
00000330: 1741 86be 1b1a 7cbd 1d7e ee3e 5a2d ea3e
00000340: 06c5 5b3d 7c85 c6bd ac13 cc3d 88b5 87bd
00000350: e357 8e3e 9137 80bc 43de ba3d 34a3 18be
00000360: b707 36bd c9cd 593d 4ce8 76be e658 3ebe
00000370: 8410 64be 3e21 c63e bee9 f1bd 0aa1 ca3d
00000380: c993 b83e 18e5 923e e410 78be f67b 0e3e
00000390: 3554 853d 4272 413e be86 3abd c831 a53e
000003a0: f489 8d3e 180f bf3d 2a8d e93e 98f9 53be
000003b0: e906 d33e 668b f93e 7d6f b53d 9103 82bd
000003c0: 970e ddbd 263e c3bd 6869 e7bd 8491 373d
000003d0: 0f6c 453d 6d4b eb3e 8971 d83b b66e 093f
000003e0: 7374 9ebe 92eb c33e c647 d43d 4b69 db3e
000003f0: 506a c4bd aca2 93bc cc7c 593e eafc eabb

linear2.weight f4 [3, 256]
0.02781536 0.3023124 -0.08069181 0.14694655 0.25682232 0.22640726 0.11202988 0.0018628836
0.17126052 0.123195834 0.04833433 0.15997522 0.121355414 -0.022194546 0.20437413 0.101755455
0.024766427 0.278412 0.21765636 0.048604958 0.15382099 0.18628438 0.01980345 0.31531543
0.08712406 0.3326198 0.18445459 0.11268587 -0.050644964 0.3478723 0.24385783 0.014038378
0.014291294 -0.19886689 0.05349683 0.30044526 0.22835413 -0.12362286 0.28685004 0.32884625
0.05062626 0.03828062 0.23237924 0.17272869 0.23766728 0.23051146 0.107043706 0.22127315
0.18057089 0.33197814 0.2971179 -0.59095883 -0.46991447 -0.1012571 -0.24011444 0.04683975
0.1560787 0.05181395 -0.062692165 0.37892693 0.21319479 0.14107291 -0.27585155 -0.33043578
0.0233864 0.088330016 0.26387668 -0.095918834 -0.010849388 0.21214826 0.22871658 0.20198058
0.31070697 0.10883014 0.11638435 0.013580914 0.21752174 -0.40956825 0.22300346 0.090712674
0.19549969 0.20189603 0.015047209 -0.019281698 0.2471852 0.25671002 0.14119194 0.19929667
0.11991392 0.16417009 0.30227804 0.015146684 0.1840663 0.23770958 0.16125743 0.2817376
-0.47796062 0.12621304 0.17261778 0.113139726 -0.024879316 0.2114162 0.25815678 0.11169885
0.21142831 0.11227136 -0.027569761 0.30189255 0.052612618 0.22360896 0.16516197 0.032253873
0.1097159 -0.20501134 0.1484078 0.14331593 -0.08039044 0.17333324 0.25908667 0.08655575
0.0715904 0.016991902 0.19212642 0.096427485 0.16473626 -0.7803358 0.2331314 0.21201897
0.1662637 0.12884131 0.08938388 -0.5831912 0.17881043 0.082892336 0.1505839 0.033015076
0.16595626 0.2098885 0.046267733 0.17534637 0.24915688 -0.30978936 0.24142821 -0.17867218
0.112616435 -0.08400677 -0.46555632 0.123817794 0.15988256 0.13315883 0.04662984 -0.010032899
0.31541455 -0.094296046 -0.36124882 0.19548327 0.27507353 0.17096466 0.26277322 -0.12422421
-0.09315932 0.3341673 0.20122878 0.36133015 -0.7540421 -0.1917668 0.13897718 0.03130913
0.33133277 -0.055146996 0.2311783 0.045251742 0.098700866 0.25279072 0.27876836 0.13045385
0.16503647 0.06635319 0.0026563045 -0.21452017 0.30895197 -0.1708226 0.21444796 0.18956
0.26184767 0.3005262 0.25343376 0.06740403 0.054116767 0.16352099 0.31510976 0.308203
0.34488475 -0.081775196 0.17309505 0.25351554 0.2463016 0.1497738 0.14923607 0.08002689
0.014925517 0.25843897 0.29712787 0.051376652 -0.27892643 -0.63808537 0.1945825 0.21373357
-0.10314597 0.009116881 0.13478322 0.13610664 0.12167025 0.14026241 0.17755592 0.12175332
0.0028655815 0.045229614 -0.35166952 0.016664673 0.10076224 0.06790474 0.043873895 0.19331865
0.13926561 0.061315328 0.003349707 0.24850585 0.119075276 -0.00042321204 0.25808397 0.20468748
0.23362811 0.01413477 0.26267922 -0.5227057 0.16589683 0.33007953 -0.09816403 -0.07268157
-0.25621283 0.10684614 0.22819707 0.20658582 0.15119022 0.2064645 0.2449566 0.2111817
0.1617472 0.20031314 0.23911847 0.22247265 -0.0045494176 -0.07250704 0.2539673 -0.30184865
00000000: 0add e33c b1c8 9a3e bf41 a5bd 2879 163e
00000010: 377e 833e 4ed7 673e ec6f e53d 002c f43a
00000020: eb5e 2f3e 194e fc3d 38fa 453d 8bd0 233e
00000030: 3089 f83d 56d1 b5bc 7447 513e 2a65 d03d
00000040: f6e2 ca3c 058c 8e3e 4fe1 5e3e fe15 473d
00000050: 4083 1d3e 55c1 3e3e d83a a23c 0671 a13e
00000060: 196e b23d 244d aa3e aae1 3c3e d9c7 e63d
00000070: 1871 4fbd 511c b23e deb5 793e 3a01 663c
00000080: 0826 6a3c c3a3 4bbe 7e1f 5b3d f6d3 993e
00000090: aad5 693e fb2d fdbd 02de 923e 895e a83e
000000a0: 7b5d 4f3d 24cc 1c3d d3f4 6d3e cadf 303e
000000b0: 0d5f 733e 320b 6c3e bb39 db3d 6e95 623e
000000c0: 93e7 383e 0af9 a93e d61f 983e 1449 17bf
000000d0: a198 f0be e25f cfbd 8fe0 75be 0adb 3f3d
000000e0: 18d3 1f3e dd3a 543d c064 80bd b602 c23e
000000f0: bc4f 5a3e 6b75 103e 6a3c 8dbe e12e a9be
00000100: d694 bf3c 5ee6 b43d d81a 873e 1871 c4bd
00000110: a2c1 31bc 653d 593e ae34 6a3e ffd3 4e3e
00000120: fc14 9f3e 56e2 de3d eb5a ee3d 7b82 5e3c
00000130: 05be 5e3e eeb2 d1be 055b 643e 91c7 b93d
00000140: 1231 483e d5bd 4e3e 9288 763c a7f4 9dbc
00000150: 1e1e 7d3e 7f6f 833e 9f94 103e 6d14 4c3e
00000160: 6e95 f53d 341c 283e 30c4 9a3e cc29 783c
00000170: e07b 3c3e 246a 733e ab20 253e e93f 903e
00000180: 41b7 f4be fe3d 013e b7c2 303e cdb5 e73d
00000190: b5cf cbbc 7d7d 583e 202d 843e 5ec2 e43d
000001a0: aa80 583e 87ee e53d fbd9 e1bc a991 9a3e
000001b0: 5480 573d bff9 643e 3820 293e a31c 043d
000001c0: bbb2 e03d 7eee 51be 37f8 173e 69c1 123e
000001d0: bea3 a4bd 457e 313e 02a7 843e 2444 b13d
000001e0: fd9d 923d 9a32 8b3c cabc 443e c67b c53d
000001f0: 9fb0 283e 16c4 47bf ffb9 6e3e 801b 593e
00000200: 0841 2a3e faee 033e e50e b73d 054c 15bf
00000210: 151a 373e 75c3 a93d aa32 1a3e d13a 073d
00000220: 70f0 293e 03ed 563e 3c83 3d3d 008e 333e
00000230: fb22 7f3e b69c 9ebe f538 773e d7f5 36be
00000240: 72a3 e63d be0b acbd 665d eebe 2f94 fd3d
00000250: 41b8 233e ca5a 083e eefe 3e3d 0761 24bc
00000260: 047e a13e 491e c1bd 9bf5 b8be c42c 483e
00000270: 70d6 8c3e 5c11 2f3e 368a 863e 4369 febd
00000280: 50ca bebd fa17 ab3e eb0e 4e3e 4400 b93e
00000290: e708 41bf 845e 44be 0950 0e3e 013e 003d
000002a0: 73a4 a93e d1e1 61bd 01ba 6c3e e459 393d
000002b0: ae23 ca3d c96d 813e baba 8e3e b295 053e
000002c0: 52ff 283e 2ee4 873d 6515 2e3b 2dab 5bbe
000002d0: f42e 9e3e 1fec 2ebe 3f98 5b3e 041c 423e
000002e0: e610 863e 92de 993e 12c2 813e 200b 8a3d
000002f0: 8ba9 5d3d 0c72 273e 1156 a13e c9cc 9d3e
00000300: bc94 b03e c179 a7bd d43f 313e cacc 813e
00000310: 7d36 7c3e 4e5e 193e 57d1 183e 23e5 a33d
00000320: 288a 743c 1d52 843e 2521 983e 5370 523d
00000330: 72cf 8ebe 9059 23bf a340 473e f9dc 5a3e
00000340: 323e d3bd f85e 153c 9d04 0a3e 8a5f 0b3e
00000350: 412e f93d f3a0 0f3e 38d1 353e ce59 f93d
00000360: 7bcc 3b3b b042 393d 070e b4be 5a84 883c
00000370: 6f5c ce3d a411 8b3d 1db5 333d 53f5 453e
00000380: a59b 0e3e c825 7b3d c286 5b3b 5178 7e3e
00000390: bddd f33d 8fe2 ddb9 9523 843e 9899 513e
000003a0: 353c 6f3e 8695 673c e47d 863e 0ad0 05bf
000003b0: dce0 293e 2f00 a93e 390a c9bd 13da 94bd
000003c0: 542e 83be 26d2 da3d 7eac 693e 3c8b 533e
000003d0: 9cd1 1a3e 6e6b 533e e7d5 7a3e 0440 583e
000003e0: 0fa1 253e e31e 4d3e 79db 743e dfcf 633e
000003f0: 4813 95bb 927e 94bd 0008 823e e88b 9abe

linear2.bias f4 [3]
0.24604326 0.150849 0.2394031
00000000: c4f2 7b3e 2978 1a3e 1626 753e
