model/DQN/checkpoint_500.pth (torch, 23075 bytes, 4 tensors)

linear1.weight f4 [256, 16]
-0.56155473 0.1333762 0.14174025 0.52655876 -0.3223383 -0.20055826 -0.5203982 0.4137814
-0.6739954 -0.4800248 -0.14459622 -0.07873559 0.11759414 0.35984194 -0.47495773 -0.63001823
0.04132333 -0.6573911 -0.054590657 -0.3764709 -0.630572 0.26892033 0.44423002 0.1523471
0.43309587 -0.5390709 -0.87021416 -0.0733064 -0.40238345 0.012096876 0.14717296 0.028382782
-0.38312513 0.005651959 -0.22458974 -0.5393858 0.6417702 -0.47870624 0.5129501 -0.7702568
-0.66603047 0.37760702 -0.92117274 -0.015615107 -0.10760529 0.19291703 0.04178766 0.029885039
0.26432884 -0.45456454 -0.84736705 -0.40432945 -0.22290625 -0.6836639 0.38361764 -0.1162639
0.10110963 0.62852144 0.04725571 -0.16337053 -0.097678706 -0.016034257 0.17344426 -0.16068022
0.46278822 0.0072064484 -0.5611506 0.04711367 -0.27974814 0.11521207 -0.33980146 -0.41562086
-0.5049131 -0.39705563 -0.018884761 0.16262807 0.031953596 -0.025339412 -0.02561956 -0.24502264
0.23115182 -0.598755 0.6728349 -0.3889716 -0.028697914 -0.2750696 -0.44691056 -0.016526163
0.1323431 0.3184242 0.046524502 -0.113163486 -0.08205079 0.6765278 -0.35814068 -0.1716299
0.6183166 0.44881514 0.54384637 -0.2460638 -0.39005893 0.13999976 -0.2632449 0.19993818
0.34848186 0.21869682 0.5132283 -0.33875033 0.38697505 -0.0011921143 0.15908179 0.49675372
-0.17874473 -0.27239853 -0.8082546 -0.037178405 -0.01942823 0.08884186 0.123880535 0.1979405
0.16554439 0.12944536 0.17322049 -0.5064793 0.6835327 0.642244 0.74678767 0.8162794
-0.03346605 -0.33681232 0.20651388 -0.5398508 0.274313 -0.5483915 0.3175077 0.40210405
-0.61449736 -0.42543915 -0.63085234 -0.1972517 -0.5218719 0.053497568 0.147733 0.097392246
0.12418171 -0.3065078 -0.3494954 -0.090298705 0.58343893 -0.43005142 0.6533988 0.37071642
-0.58614445 -0.35628277 -0.6080591 0.01959429 0.30372238 0.004638605 -0.0891352 -0.22970748
0.33385283 0.11837358 -0.6515363 -0.18842718 0.333527 -0.29727954 0.20758772 0.22285351
-0.20279352 0.2588554 -0.2752948 -0.1757382 0.44779322 0.08433348 0.31332535 -0.15301386
-0.59805965 0.47958675 -0.35036385 0.3885585 0.10791895 -0.66013414 0.20762147 -0.021646801
0.22336717 -0.65908724 0.15761809 0.14340436 0.5548397 0.4182251 -0.6564893 -0.47672975
0.34979174 0.072588824 0.95916235 0.33716398 -0.28099436 -0.35028973 -0.06539453 0.2063362
0.2620245 0.16095968 0.11287749 -0.124985605 -0.33679923 0.019200021 0.2992164 -0.45465565
-0.6413391 -0.24705368 -0.3178473 0.36752772 0.37281796 0.2876901 -0.02204974 -0.20160705
-0.27297747 -0.060675595 -0.3709817 0.8562691 0.30117813 0.17046195 -0.4181777 0.005305533
-0.017352484 -0.078807615 0.8382483 -0.3824471 -0.13484544 -0.31027722 0.076153524 0.18615434
-0.15351501 -0.3713094 -0.038708076 0.15214992 0.041285664 -0.2201881 -0.1347335 -0.16476485
-0.44148764 0.12810215 0.04479261 -0.2564317 -0.03076956 -0.43013766 -0.0035830732 -0.07472615
0.054028787 -0.5027243 -0.038716294 -0.3495339 0.1212439 -0.3886914 0.1279639 0.13874443
00000000: 0dc2 0fbf c593 083e 5b24 113e 8ecc 063f
00000010: 8709 a5be 255f 4dbe d138 05bf 28db d33e
00000020: f68a 2cbf d0c5 f5be 0811 14be 2040 a1bd
00000030: 32d5 f03d 343d b83e a92d f3be e048 21bf
00000040: a742 293d c84a 28bf 749a 5fbd cbc0 c0be
00000050: 2b6d 21bf edaf 893e 1e72 e33e e100 1c3e
00000060: bebe dd3e 8d00 0abf 5bc6 5ebf aa21 96bd
00000070: 3405 cebe fa31 463c 82b4 163e 0283 e83c
00000080: fa28 c4be 1234 b93b dafa 65be 3015 0abf
00000090: 0d4b 243f fc18 f5be b350 033f 8d2f 45bf
000000a0: f980 2abf b555 c13e fad1 6bbf 81d6 7fbc
000000b0: 2a60 dcbd 0b8c 453e 8a29 2b3d 78d1 f43c
000000c0: 1c56 873e afbc e8be 0ced 58bf 4504 cfbe
000000d0: 8941 64be 9904 2fbf 8869 c43e c51b eebd
000000e0: 9112 cf3d c8e6 203f 348f 413d 9b4a 27be
000000f0: c60b c8bd 465a 83bc 5f9b 313e 5b89 24be
00000100: 94f2 ec3e 1224 ec3b 91a7 0fbf 43fa 403d
00000110: 263b 8fbe 4ef4 eb3d 75fa adbe 42cc d4be
00000120: fc41 01bf e04a cbbe 37b4 9abc f987 263e
00000130: c6e1 023d 9994 cfbc 1de0 d1bc 37e7 7abe
00000140: 10b3 6c3e 0248 19bf e83e 2c3f 4927 c7be
00000150: e317 ebbc ecd5 8cbe 76d1 e4be e061 87bc
00000160: f384 073e 7f08 a33e 7a90 3e3d 42c2 e7bd
00000170: 3f0a a8bd ed30 2d3f 375e b7be c0bf 2fbe
00000180: ff49 1e3f 19cb e53e 8439 0b3f 26f8 7bbe
00000190: ceb5 c7be 195c 0f3e 09c8 86be 98bc 4c3e
000001a0: 376c b23e 0ff2 5f3e ee62 033f af70 adbe
000001b0: 9821 c63e b840 9cba 56e6 223e 8156 fe3e
000001c0: dc08 37be d277 8bbe c6e9 4ebf 6248 18bd
000001d0: f427 9fbc b9f2 b53d 14b5 fd3d eab0 4a3e
000001e0: 7884 293e 538d 043e b660 313e a1a8 01bf
000001f0: 00fc 2e3f 1a6a 243f 7a2d 3f3f b0f7 503f
00000200: b213 09bd aa72 acbe 6078 533e a933 0abf
00000210: c172 8c3e 6363 0cbf 5f90 a23e 95e0 cd3e
00000220: b34f 1dbf 29d3 d9be 8a7f 21bf 5afc 49be
00000230: 6699 05bf 4420 5b3d 5247 173e 9675 c73d
00000240: fb52 fe3d 97ee 9cbe 10f1 b2be 87ee b8bd
00000250: 415c 153f b32f dcbe 2545 273f 8bce bd3e
00000260: 900d 16bf b26a b6be c3a9 1bbf 3484 a03c
00000270: 8081 9b3e 70ff 973b 848c b6bd 7038 6bbe
00000280: c2ee aa3e d96d f23d 15cb 26bf 0ef3 40be
00000290: 0dc4 aa3e 0635 98be e091 543e b633 643e
000002a0: 1ba9 4fbe b288 843e 71f3 8cbe b7f4 33be
000002b0: 2745 e53e 08b7 ac3d 2e6c a03e aaaf 1cbe
000002c0: 701a 19bf 658c f53e e462 b3be 24f1 c63e
000002d0: 9c04 dd3d 8dfe 28bf b99a 543e a254 b1bc
000002e0: 5dba 643e f1b9 28bf a366 213e 98d8 123e
000002f0: f909 0e3f 9a21 d63e af0f 28bf ec15 f4be
00000300: e717 b33e 73a9 943d aa8b 753f c2a0 ac3e
00000310: 7ede 8fbe 2d59 b3be 91ed 85bd cc49 533e
00000320: 1328 863e 9dd2 243e 502c e73d 74f8 ffbd
00000330: f370 acbe 5d49 9d3c e432 993e a0c8 e8be
00000340: cd2e 24bf a4fb 7cbe e2bc a2be 982c bc3e
00000350: ffe1 be3e 1e4c 933e a8a1 b4bc 1472 4ebe
00000360: b4c3 8bbe f986 78bd 50f1 bdbe 7434 5b3f
00000370: 0534 9a3e 948d 2e3e 631b d6be 09da ad3b
00000380: cc26 8ebc e365 a1bd 7197 563f 1bd0 c3be
00000390: ec14 0abe a8dc 9ebe 61f6 9b3d 3e9f 3e3e
000003a0: 0a33 1dbe 441c bebe 5c8c 1ebd 30cd 1b3e
000003b0: 281b 293d fd78 61be 94f7 09be 1eb8 28be
000003c0: ab0a e2be 362d 033e 7578 373d 044b 83be
000003d0: 7210 fcbc 013b dcbe fed1 6abb 060a 99bd
000003e0: 4a4d 5d3d 8ab2 00bf fa94 1ebd 1bf6 b2be
000003f0: b94e f83d 8f02 c7be f808 033e 0513 0e3e

linear1.bias f4 [256]
-0.04558933 0.0373715 0.012530775 -0.4861699 0.098268405 -0.14618737 -0.5954646 -0.5291587
-0.0013386471 -0.08357908 -0.2858338 0.42753297 -0.11264383 0.9447788 -0.029191503 -0.22946338
-0.4675608 -0.4938886 0.025981283 -0.1569012 -0.04641572 -0.14928435 -0.26206523 -0.3008714
-0.29272377 -0.17235583 -0.26508898 -0.29193437 0.60637444 -0.16537994 -0.05160623 0.20570016
-0.6608703 -0.20721497 -0.30302632 -0.031233309 -0.47628886 -0.23198256 0.36789688 -0.12508528
-0.5716429 0.46945474 -0.58721864 0.21208084 -0.14286959 -0.5867658 -0.26841807 0.14463927
-0.30091968 0.19637448 -0.082735375 -0.29355204 0.6210922 -0.07825533 0.17594968 -0.3379876
-0.22317398 -0.5316964 -0.57934326 -0.26476192 -0.2831482 0.093054116 -0.41387004 -0.37811038
-0.5841446 -0.4861842 -0.26221472 0.500876 -0.3901214 -0.39374867 -0.29023507 -0.052530736
-0.3322757 0.0020170128 0.029577052 1.2474523 -0.17017011 -0.28130203 -0.3723214 0.1608407
-0.2223943 -0.46084344 -0.083511695 -0.21617363 0.24364994 -0.2452522 -0.015479747 -0.24386825
-0.07616846 -0.07784937 -0.311298 -0.15495867 -0.22469376 -0.08118806 0.27402374 -0.23214132
-0.19638571 -0.02622086 -0.24678814 -0.58359545 0.23913255 -0.5281253 0.025175948 -0.38765433
-0.6247652 -0.30900708 0.13700587 -0.5506879 0.010561179 -0.5093519 -0.487075 0.12520133
-0.11587685 0.7982572 -0.11639699 -0.18215492 -0.26186094 0.37892446 -0.3310162 -0.4438269
-0.23129113 -0.39370117 -0.08885744 0.16467364 -0.17922443 0.4523334 -0.32435584 0.10297915
0.19012552 -0.45523596 -0.2475898 -0.1901497 -0.36189783 -0.17292675 -0.33617353 -0.13546804
-0.16746801 0.4609408 -0.12353977 -0.20833792 -0.20316444 -0.24980256 -0.27816758 0.09011716
-0.5746556 -0.31614336 0.079847574 0.2781231 0.198092 -0.24614781 -0.39812395 -0.14847106
0.1253771 0.0503211 -0.00018386495 -0.077219784 -0.2609215 0.15209636 -0.4408262 0.4208594
0.6508147 -0.23749004 -0.06679045 -0.21329848 0.02343227 -0.47257456 -0.07765784 -0.09820347
0.100319624 -0.31316453 -0.45422813 -0.5145509 -0.23853016 -0.60459447 -0.502406 -0.36137193
-0.27150673 -0.24904746 0.034371812 0.10848987 -0.00092834234 -0.5759271 0.51875067 -0.52758527
-0.5879205 -0.20091702 -0.49051186 -0.17060624 -0.26488414 -0.3178583 -0.2185633 -0.28077835
-0.31103078 -0.40001044 -0.06611135 -0.02750272 0.22376885 0.34538072 -0.60903203 -0.043758772
-0.21602042 0.14074476 -0.32042632 0.01432567 -0.0809845 -0.1042037 0.37453625 -0.6774903
0.08423372 -0.16390662 -0.2825043 -0.42271537 0.29628664 -0.06612172 0.19984187 -0.24850367
-0.16610396 -0.21008821 0.062102396 0.04349527 -0.0014024228 -0.12216597 0.1843142 -0.30022585
-0.3439721 0.22702238 -0.30137736 0.42527404 -0.1267967 -0.2633101 -0.064950734 0.1260157
-0.36479515 -0.084973626 -0.15505779 -0.2731361 0.036870867 -0.5095047 -0.26477182 0.35892227
0.086355 -0.2699426 -0.29233876 0.0033298412 0.23551673 0.15813394 -0.24816145 -0.42324245
-0.47688568 -0.37736484 -0.2710102 -0.4818263 -0.14643711 -0.40894768 0.7419745 -0.4600694
00000000: e1bb 3abd dc12 193d e14d 4d3c 43eb f8be
00000010: f240 c93d 24b2 15be 5e70 18bf f276 07bf
00000020: 8b75 afba 822b abbd cf58 92be 9ae5 da3e
00000030: cfb1 e6bd 06dd 713f 0523 efbc 73f8 6abe
00000040: 2164 efbe f7de fcbe b3d6 d43c b5aa 20be
00000050: 691e 3ebd ffdd 18be 6a2d 86be d10b 9abe
00000060: e4df 95be 0c7e 30be beb9 87be 6c78 95be
00000070: 5b3b 1b3f 5c59 29be 0e61 53bd 10a3 523e
00000080: cc2e 29bf 2930 54be 4426 9bbe ffdc ffbc
00000090: 22dc f3be d68c 6dbe fb5c bc3e 5b16 00be
000000a0: 3057 12bf 5f5c f03e f653 16bf b82b 593e
000000b0: 684c 12be 4936 16bf 186e 89be 511c 143e
000000c0: 2512 9abe 6416 493e 2a71 a9bd 744c 96be
000000d0: e6ff 1e3f 5544 a0bd 272c 343e b60c adbe
000000e0: b887 64be 411d 08bf d74f 14bf e08e 87be
000000f0: cdf8 90be 2893 be3d c6e6 d3be af97 c1be
00000100: 808a 15bf 23ed f8be 0241 86be 6939 003f
00000110: febd c7be 6d99 c9be b199 94be 782a 57bd
00000120: 0a20 aabe dc2f 043b 934b f23c 84ac 9f3f
00000130: 1341 2ebe d206 90be e9a0 bebe 6db3 243e
00000140: 55bb 63be acf3 ebbe 2e08 abbd 9f5c 5dbe
00000150: 5f7f 793e 6523 7bbe c49e 7dbc 99b8 79be
00000160: 36fe 9bbd 7e6f 9fbd 7462 9fbe 7cad 1ebe
00000170: 1f16 66be ed45 a6bd d74c 8c3e 74b6 6dbe
00000180: 5619 49be 21cd d6bc 08b6 7cbe 8366 15bf
00000190: 2adf 743e 3833 07bf ca3d ce3c a17a c6be
000001a0: 9df0 1fbf 2d36 9ebe 444b 0c3e e2f9 0cbf
000001b0: cc08 2d3c e364 02bf e561 f9be c734 003e
000001c0: d850 edbd 955a 4c3f 8c61 eebd d286 3abe
000001d0: a312 86be 6302 c23e f57a a9be 483d e3be
000001e0: 95d7 6cbe 3393 c9be e4fa b5bd 35a0 283e
000001f0: 9c86 37be 3e98 e73e f811 a6be bce6 d23d
00000200: 44b0 423e b014 e9be 2e88 7dbe 9ab6 42be
00000210: ac4a b9be b613 31be f01e acbe 22b8 0abe
00000220: bc7c 2bbe 6f00 ec3e 6b02 fdbd 8956 55be
00000230: 570a 50be 3ecc 7fbe fb6b 8ebe 588f b83d
00000240: a11c 13bf 8bdd a1be 2087 a33d 2766 8e3e
00000250: a1d8 4a3e 2c0e 7cbe e7d6 cbbe cc08 18be
00000260: db62 003e 7f1d 4e3d dfcb 40b9 6825 9ebd
00000270: 8197 85be 26bf 1b3e f9b3 e1be e27a d73e
00000280: cb9b 263f 9730 73be 6ec9 88bd eb6a 5abe
00000290: 08f5 bf3c 4bf5 f1be 130b 9fbd e71e c9bd
000002a0: 6074 cd3d 1a57 a0be 9790 e8be 9cb9 03bf
000002b0: 4041 74be b4c6 1abf ae9d 00bf be05 b9be
000002c0: ee02 8bbe 4c06 7fbe 75c9 0c3d f02f de3d
000002d0: 005c 73ba f56f 13bf d8cc 043f d40f 07bf
000002e0: f581 16bf 31bd 4dbe 5f24 fbbe 67b3 2ebe
000002f0: e59e 87be 53be a2be 0fcf 5fbe 2ec2 8fbe
00000300: 6d3f 9fbe 2bce ccbe 6365 87bd 624d e1bc
00000310: a923 653e bed5 b03e 86e9 1bbf 663c 33bd
00000320: 7534 5dbe 651f 103e eb0e a4be 37b6 6a3c
00000330: 34db a5bd c068 d5bd 37c3 bf3e 0170 2dbf
00000340: bb82 ac3d 23d7 27be 67a4 90be 266e d8be
00000350: e2b2 973e d36a 87bd 59a3 4c3e bf77 7ebe
00000360: 2817 2abe 5d21 57be 155f 7e3d 1928 323d
00000370: 80d1 b7ba 2732 fabd ddbc 3c3e 34b7 99be
00000380: 1c1d b0be 8e78 683e 224e 9abe 85bd d93e
00000390: fed6 01be 95d0 86be e404 85bd 420a 013e
000003a0: 6ec6 babe a706 aebd 78c7 1ebe 7fd8 8bbe
000003b0: e805 173d e66e 02bf 2c90 87be a9c4 b73e
000003c0: e4da b03d eb35 8abe 6dad 95be 7739 5a3b
000003d0: 4c2b 713e dded 213e 091e 7ebe 3cb3 d8be
000003e0: 5c2a f4be f735 c1be d9c1 8abe f0b1 f6be
000003f0: 9cf3 15be 9761 d1be 0af2 3d3f 378e ebbe

linear2.weight f4 [3, 256]
0.5244666 0.05087966 -0.3585485 -0.3517548 -0.18810147 0.2555354 -0.042929 -0.35196397
-0.51544446 -0.67687905 -0.12642343 0.562113 -0.30698785 0.34575906 -0.04370717 0.030257119
-0.029910356 0.004468444 -0.15523092 -0.0015246221 0.10615016 -0.3124211 -0.2897397 0.04475631
-0.5640664 -0.55480903 -1.3090042 -0.03592361 -0.18518834 -0.04355289 -0.17859286 0.18011361
-0.37640512 -0.7513651 -0.04328706 0.54835224 -0.17619982 -0.0050603906 1.3744028 0.09644278
-0.16369705 0.2607756 -0.07240763 0.8293548 -0.32232356 0.081175804 0.025662823 0.42723414
0.12326201 0.39241448 0.049943484 -0.16945264 0.24245487 -0.049852367 0.20007768 -0.031241294
-0.009841576 0.015005216 -0.14647993 -0.18899806 -0.0012262807 0.54438156 -0.09836346 -0.10508281
-0.006491144 -0.032200817 0.13857254 0.3826803 -0.32335177 -0.047913164 -0.7434357 0.23212457
0.1046069 -0.053407796 0.24889094 0.396452 -0.026624804 -0.37352854 0.04549292 -0.26686662
0.020948842 0.010822502 -0.27317148 0.011977793 0.75757456 0.039378874 -0.60250807 -0.36110464
-0.10881385 0.048940435 -0.5730799 -0.5926444 0.013470743 -0.34572867 0.33673164 -0.103229724
0.017432446 -0.08233861 -0.024213418 -0.050716728 0.28602833 -0.008425602 -0.6781927 0.0130159035
-0.17837898 -0.023729281 -0.076718986 -0.16591041 0.1690353 0.009732766 0.1156536 0.74948967
-0.23921439 0.47926867 -0.20955129 -0.013537143 0.16026996 0.26194853 -0.022282224 -0.48637995
0.059926227 0.10750689 -0.13756594 0.41026625 0.18614958 0.7372109 0.32248932 0.92363554
0.2185335 -0.39598292 -0.4670823 -0.7526123 -0.20119157 0.031032905 0.011074305 -1.059627
-0.8826576 0.29408476 -0.07451414 -0.061028633 -0.35432032 0.22782475 -0.89212626 0.15285969
-0.059520703 -0.028263152 0.08084948 0.13632749 0.35295975 -0.18416156 -0.1887502 -0.7364083
-0.5076936 0.028240943 -0.28373182 0.39542985 0.019811893 -0.08528459 0.039021146 0.31749183
0.33663613 -0.3097112 0.20864333 -0.028880931 0.3990627 -0.16771734 0.58677036 0.0010131696
0.19602656 -0.44025654 -0.07339701 -0.12919192 -0.01242205 0.018237483 0.016546097 -0.33746767
-0.29853016 -0.025319612 0.1648189 0.34362698 0.2057325 -0.18473497 0.3299182 0.027570568
-0.042600714 -0.17326011 -0.06506935 0.3077488 -0.015567292 -0.4957751 -0.37430012 -0.07321527
-0.048615128 -0.043362554 -0.5003839 -0.0014499369 0.48038656 0.18247019 -0.0020795525 0.17860997
-0.03885605 0.32772142 -0.05855893 -0.5826743 0.26098645 -0.81707704 0.28394684 -0.13685489
0.7199419 0.028667279 0.02881548 0.05200449 0.20411426 0.5414146 0.17839327 -0.50188094
-0.2572149 0.011975241 0.27033123 0.27954563 0.08275654 -0.22818032 0.32156467 0.04565626
0.09245358 0.30827874 -0.051344287 0.22663942 0.064885505 0.0551212 -0.37513068 0.5519372
-0.22580792 0.33807442 -1.1885204 -0.93868077 0.7920923 0.0075647556 -0.44827238 0.49700478
0.9099493 -0.005385198 -0.004743658 0.21667568 -0.122284494 1.0569711 -0.013747478 -0.12403842
-0.013146071 -0.12920123 -0.01642079 -0.041858807 0.24096254 -0.050448332 0.3547164 0.020823129
00000000: 7143 063f 3167 503d ab93 b7be 3519 b4be
00000010: ac9d 40be 89d5 823e 52d6 2fbd 9f34 b4be
00000020: 2bf4 03bf f247 2dbf 2575 01be a3e6 0f3f
00000030: 832d 9dbe 5507 b13e 4a06 33bd c7dd f73c
00000040: 9006 f5bc 066c 923b dbf4 1ebe d4d5 c7ba
00000050: 4165 d93d a9f5 9fbe c358 94be 6452 373d
00000060: a866 10bf f707 0ebf 738d a7bf a324 13bd
00000070: 03a2 3dbe 8464 32bd 0ce1 36be b46f 383e
00000080: 2cb8 c0be 7759 40bf c64d 31bd d060 0c3f
00000090: ba6d 34be a2d1 a5bb 6eec af3f cb83 c53d
000000a0: 33a0 27be 6184 853e 744a 94bd 9950 543f
000000b0: 9807 a5be 803f a63d d73a d23c 6fbe da3e
000000c0: cb70 fc3d 8dea c83e 8a91 4c3d fe84 2dbe
000000d0: 1746 783e ff31 4cbd 2ae1 4c3e beed ffbc
000000e0: 903e 21bc 70d8 753c d6fe 15be b588 41be
000000f0: 27bb a0ba 975c 0b3f c872 c9bd a835 d7bd
00000100: aab3 d4bb 01e5 03bd f6e5 0d3e acee c33e
00000110: 5d8e a5be 9840 44bd cd51 3ebf 10b2 6d3e
00000120: 243c d63d 22c2 5abd 44dd 7e3e c2fb ca3e
00000130: 431c dabc 223f bfbe c956 3a3d bea2 88be
00000140: e89c ab3c dd50 313c 22dd 8bbe 813e 443c
00000150: 68f0 413f be4b 213d f83d 1abf b5e2 b8be
00000160: ccd9 debd c475 483d 5db5 12bf 8bb7 17bf
00000170: 64b4 5c3c 5903 b1be 1768 ac3e 1b6a d3bd
00000180: 7dce 8e3c 25a1 a8bd 385b c6bc 58bc 4fbd
00000190: 4e72 923e 890b 0abc 099e 2dbf a840 553c
000001a0: fba8 36be e963 c2bc d81e 9dbd 6be4 29be
000001b0: 9717 2d3e 2e76 1f3c cbdb ec3d 8ede 3f3f
000001c0: 9ef4 74be b462 f53e 9d94 56be e5ca 5dbc
000001d0: cf1d 243e 1e1e 863e 3689 b6bc cb06 f9be
000001e0: 3475 753d 932c dc3d 16de 0cbe 6b0e d23e
000001f0: ff9d 3e3e dbb9 3c3f 521d a53e 6173 6c3f
00000200: 3fc7 5f3e 46be cabe 6925 efbe 33ab 40bf
00000210: 2a05 4ebe b838 fe3c 0071 353c dca1 87bf
00000220: d9f5 61bf 4792 963e df9a 98bd 29f9 79bd
00000230: 7969 b5be e44a 693e 6362 64bf 4087 1c3e
00000240: fbcb 73bd 2088 e7bc 6a94 a53d 6f99 0b3e
00000250: 24b7 b43e d994 3cbe bc47 41be 4185 3cbf
00000260: 35f8 01bf 8d59 e73c 4c45 91be c875 ca3e
00000270: 8d4c a23c b0a9 aebd a3d4 1f3d 4a8e a23e
00000280: 925b ac3e 7792 9ebe 99a6 553e b497 ecbc
00000290: f251 cc3e 18be 2bbe 9536 163f 55cc 843a
000002a0: 30bb 483e 4e69 e1be 2c51 96bd e34a 04be
000002b0: db85 4bbc c666 953c ae8b 873c 90c8 acbe
000002c0: f2d8 98be 136b cfbc 49c6 283e e0ef af3e
000002d0: 8aab 523e 2a2b 3dbe 0aeb a83e acdb e13c
000002e0: 167e 2ebd 196b 31be 1443 85bd 4091 9d3e
000002f0: f50d 7fbc 3cd6 fdbe 44a4 bfbe e3f1 95bd
00000300: a820 47bd ef9c 31bd 2919 00bf cf0b beba
00000310: 3af5 f53e 77d9 3a3e 1a49 08bb 88e5 363e
00000320: 8627 1fbd 1acb a73e 7ddb 6fbd 252a 15bf
00000330: 04a0 853e f62b 51bf 7b61 913e b023 0cbe
00000340: 1d4e 383f a4d7 ea3c 710e ec3c a902 553d
00000350: 5403 513e 269a 0a3f baac 363e 457b 00bf
00000360: acb1 83be cd33 443c db68 8a3e 9b20 8f3e
00000370: 437c a93d 1aa8 69be 20a4 a43e 0f02 3b3d
00000380: 4d58 bd3d b6d6 9d3e 634e 52bd 2a14 683e
00000390: b1e2 843d c4c6 613d 2111 c0be c24b 0d3f
000003a0: 313a 67be 1718 ad3e 7021 98bf 624d 70bf
000003b0: 90c6 4a3f c5e1 f73b f583 e5be 6977 fe3e
000003c0: 70f2 683f 5176 b0bb b070 9bbb 3be0 5d3e
000003d0: 4b70 fabd d44a 873f 1a3d 61bc db07 febd
000003e0: 9e62 57bc 544d 04be e584 86bc 2474 2bbd
000003f0: e2be 763e e9a2 4ebd 639d b53e 4495 aa3c

linear2.bias f4 [3]
0.6001665 0.21222955 0.085633
00000000: 83a4 193f b452 593e 5b60 af3d
