model/DuelDQN_Copy/checkpoint_500.pth (torch, 287029 bytes, 9 tensors)

feature.0.weight f4 [256, 16]
0	0xbeec767a	-0.4618414
1	0x3ed42b4e	0.4143929
2	0x3ed70f2a	0.42003757
3	0xbd953c21	-0.07286859
4	0xbe08cd21	-0.133595
5	0x3e4c51ca	0.19953075
6	0x3d06b718	0.032889456
7	0xbf0963fa	-0.5366818
8	0xbf304140	-0.68849564
9	0xbdeb28a6	-0.114823624
10	0xbe828056	-0.25488538
11	0xbea81c58	-0.32834125
12	0x3e208551	0.15675856
13	0x3dc8eb23	0.09810474
14	0xbe08c316	-0.1335567
15	0xbe6da0ca	-0.23205867
16	0xbcdba40d	-0.026811624
17	0xbe2e60d0	-0.17029119
18	0xbe499e03	-0.19689183
19	0xbe6ca766	-0.23110732
20	0x3d893bae	0.06700836
21	0x3c9c9cbc	0.019117706
22	0x3df4dd01	0.11956216
23	0x3d6c2b76	0.057658635
24	0xbe31bdc8	-0.17357552
25	0xbc805f05	-0.015670309
26	0x3cfe2d0f	0.031027345
27	0xbe7fda94	-0.24985725
28	0x3e638a18	0.22220647
29	0xbc6567a9	-0.014001765
30	0xbde657af	-0.11247193
31	0xbdf5c200	-0.11999893
32	0xbec2f098	-0.38074183
33	0x3ea0b1ac	0.31385553
34	0x3da5a697	0.08088415
35	0xbe5ce97e	-0.21573445
36	0xbe21cdf9	-0.15801229
37	0xbe4c2679	-0.19936551
38	0xbe84de48	-0.25950837
39	0x3d9b591d	0.075853564
40	0xbe05794a	-0.1303455
41	0xbeb61f32	-0.35570675
42	0xbe0ed57b	-0.13948624
43	0xbec51261	-0.38490584
44	0x3d991ce8	0.074762166
45	0x3e5fa06d	0.21838541
46	0x3c25225e	0.010078995
47	0xbd7314a0	-0.05934584
48	0x3e80a316	0.25124425
49	0x3eb20b2c	0.34774148
50	0x3ed072f7	0.4071271
51	0xbea51377	-0.32241413
52	0xbe6e1337	-0.23249517
53	0xbe9ce5b2	-0.30643994
54	0xbe4fb727	-0.20284711
55	0xbe061a6a	-0.13096014
56	0xbe91bb7c	-0.28463352
57	0xbe0bc1ba	-0.1364812
58	0x3d5b7dc5	0.05358674
59	0xbea2f9bc	-0.31831157
60	0x3dcb8a65	0.09938506
61	0xbbc1831d	-0.0059055225
62	0x3e728a12	0.23685482
63	0x3d820cd7	0.06350105
64	0x3e0f9e3f	0.1402521
65	0x3f006137	0.5014834
66	0x3ee39171	0.444469
67	0xbedc6a74	-0.43049967
68	0xbdff6bdd	-0.12471745
69	0xbda03118	-0.07821864
70	0xbdf87020	-0.12130761
71	0xbedfd3a3	-0.43716154
72	0xbeccf8ed	-0.40033665
73	0xbd9c2233	-0.076237105
74	0xbd2763f3	-0.040866803
75	0xbe90ec71	-0.2830539
76	0x3eaec8c5	0.3413755
77	0xbe46bbe5	-0.19407614
78	0x3e8e0c25	0.2774364
79	0x3d89e507	0.067331366
80	0x3dcc591f	0.09977936
81	0x3e179270	0.14801955
82	0x3c3531db	0.01105925
83	0x3c151b58	0.009100758
84	0xbddf090c	-0.108903974
85	0xbdfaab6f	-0.122397296
86	0xbd207e37	-0.039182868
87	0xbe33547b	-0.17512695
88	0x3bd65a7d	0.0065415488
89	0xbe754811	-0.23953272
90	0xbca177b9	-0.019710409
91	0xbdb31e0e	-0.08745967
92	0x3e2fbad5	0.17161115
93	0x3ca75aa2	0.02042896
94	0xbe3672b7	-0.17817198
95	0xbd4f688c	-0.050636813
96	0xbe37d48c	-0.17952174
97	0x3e1020d0	0.14075017
98	0xbf078968	-0.5294404
99	0xbe58ede8	-0.21184504
100	0x3e1619ad	0.14658232
101	0x3df394bd	0.11893604
102	0xbf09dbab	-0.5385081
103	0x3dd3838c	0.10327825
104	0xbe11445c	-0.14186233
105	0x3d7e070a	0.06201843
106	0xbecc7c9e	-0.39938825
107	0xbd52ea6c	-0.051493093
108	0xbe29b98b	-0.16574685
109	0xbe663990	-0.22482896
110	0x3e84473e	0.25835603
111	0xbead16fa	-0.33806592
112	0x3ea9f75f	0.33196542
113	0x3ead7a3d	0.33882323
114	0x3ee5c56d	0.44877186
115	0xbe6f0976	-0.23343453
116	0xbe25b55c	-0.16182464
117	0xbe4df6ae	-0.20113632
118	0xbe9a35ba	-0.30119115
119	0xbcbff3b3	-0.023431635
120	0xbd3b8802	-0.045784004
121	0xbe5e0131	-0.21680142
122	0xbe19cc06	-0.15019235
123	0x3d9d3dff	0.076778404
124	0x3daf8e9b	0.08572122
125	0x3e00b260	0.12568045
126	0xbddefba5	-0.10887841
127	0xbe7f0f9b	-0.24908297
128	0x3d7b0e98	0.061293215
129	0x3d1605fa	0.036626793
130	0xbe814c71	-0.25253633
131	0xbe5a3d8c	-0.21312541
132	0xbc17afe5	-0.009258245
133	0xbe457803	-0.19284062
134	0xbeb49971	-0.35273317
135	0xbd051f6f	-0.03250068
136	0xbe1c4499	-0.15260543
137	0x3dfcef66	0.12350349
138	0xbbbc9980	-0.0057556033
139	0xbea12a00	-0.31477356
140	0xbd1b5d6f	-0.037930902
141	0x3d3b46f7	0.045721974
142	0xbc2cc907	-0.0105459755
143	0x3bc2ee39	0.0059488085
144	0xbee10fb9	-0.43957308
145	0xbde1e0a6	-0.110291764
146	0xbe0cfa46	-0.13767347
147	0xbdc7c19b	-0.09753724
148	0x3df16589	0.117869444
149	0x3e622ae2	0.22086671
150	0xbe2d9348	-0.16950715
151	0xbeee1322	-0.46498972
152	0x3c4b3d3d	0.012404737
153	0xbdb61b17	-0.08891886
154	0xbeb8ca3b	-0.3609179
155	0xbd5282fb	-0.051394444
156	0xbe713c08	-0.23558056
157	0xbc1cbf63	-0.0095671145
158	0xbe94ccc5	-0.29062477
159	0xbe480b3b	-0.19535534
160	0xbeea7f2c	-0.4580015
161	0xbeeb86ea	-0.4600137
162	0x3e94abec	0.29037416
163	0x3c5bad5a	0.013408029
164	0x3e8120d4	0.25220358
165	0x3ed15dd2	0.40891892
166	0xbee00900	-0.43756866
167	0xbf06060d	-0.5235298
168	0x3dd34ff7	0.103179865
169	0x3d9dd6b5	0.07706968
170	0xbee8e459	-0.45486715
171	0xbdd95e43	-0.10613682
172	0xbe71f4e5	-0.23628576
173	0xbe127342	-0.1430178
174	0xbe0d6a60	-0.1381011
175	0x3eb051b9	0.3443735
176	0xbdd61263	-0.10452726
177	0xbec80149	-0.3906348
178	0x3e7c2d2f	0.24626611
179	0x3d10b78a	0.035331286
180	0xbf128c29	-0.5724512
181	0x3ecef048	0.40417695
182	0xbf0f38ec	-0.5594623
183	0xbef9e48f	-0.4880719
184	0x3ec89a20	0.39180088
185	0x3cc2ca19	0.023778008
186	0xbe41a3f9	-0.18910207
187	0x3aa4c92e	0.0012572163
188	0xbec82a4e	-0.39094776
189	0x3d512dbb	0.051069003
190	0xbda4b1af	-0.08041703
191	0xbce55788	-0.02799584
192	0x3d51b2b8	0.05119583
193	0xbefa6f0d	-0.4891285
194	0x3e8a39e0	0.2699728
195	0xbecdd3b6	-0.40200585
196	0x3dec1b6b	0.11528667
197	0x3ebdc933	0.37067565
198	0xbe287b29	-0.16453232
199	0xbe9c3e49	-0.3051627
200	0x3ce038ac	0.027370773
201	0xbf13076a	-0.5743319
202	0x3ecf8d44	0.40537465
203	0x3a33c75c	0.0006858015
204	0x3e4a0ccf	0.19731449
205	0x3dfa819e	0.12231754
206	0x3da6b6dc	0.081403464
207	0x3dfcf840	0.123520374
208	0x3da2a720	0.07942033
209	0x3e8b7308	0.272362
210	0xbe96d50c	-0.29459417
211	0xbed9a31c	-0.42507255
212	0xbe953145	-0.29139152
213	0xbe17b236	-0.14814076
214	0xbe702217	-0.23450504
215	0xbb8720d5	-0.004123787
216	0xbe88a47f	-0.26688
217	0xbe58fe8d	-0.21190853
218	0xbe972f3c	-0.29528224
219	0xbeadb47c	-0.3392676
220	0xbe3babef	-0.18327306
221	0xbd641b06	-0.055689834
222	0x3d079f82	0.033111103
223	0x3e5a4a0a	0.21317306
224	0x3da9b071	0.08285607
225	0xbe4d1120	-0.20026064
226	0xbe91091c	-0.28327262
227	0x3d04681b	0.032325845
228	0xbd5d8371	-0.05408043
229	0x3df6dee3	0.12054231
230	0x3da54828	0.08070403
231	0xbcf3350e	-0.029688384
232	0xbdd0dd97	-0.10198515
233	0x3d469951	0.048486058
234	0xbc9ea1a7	-0.019364191
235	0xbe558a51	-0.20853545
236	0x3da72fbc	0.081634015
237	0xbe6d2754	-0.23159534
238	0xbdf10d0a	-0.11770065
239	0xbe4413c3	-0.19148163
240	0x3e1cd31f	0.15314911
241	0xbecb6d26	-0.3973171
242	0xbe11c0b4	-0.14233667
243	0xbe995e51	-0.2995477
244	0xbbd502b5	-0.006500567
245	0x3c969868	0.01838322
246	0x3e052e50	0.13005948
247	0xbe5047a3	-0.20339827
248	0xbe6a7d64	-0.22899395
249	0xbe2e377f	-0.17013358
250	0xbeacff28	-0.3378842
251	0xbec226aa	-0.37920123
252	0x3dcdf764	0.10056952
253	0xbe3842a0	-0.17994165
254	0xbe504b81	-0.20341302
255	0xbb60eae5	-0.0034319696

feature.0.bias f4 [256]
0	0xbe892bb0	-0.26791143
1	0xbe6c80ff	-0.23096083
2	0xbe82d419	-0.25552443
3	0xbf055833	-0.52087706
4	0xbeb3853b	-0.35062584
5	0xbeb49d5d	-0.3527631
6	0xbef8332b	-0.48476538
7	0xbef57dd5	-0.47947565
8	0xbe2e91a2	-0.17047742
9	0xbe6c70b7	-0.23089872
10	0xbd60272e	-0.054724865
11	0xbe31aace	-0.17350313
12	0xbe48e6a0	-0.19619226
13	0xbe748404	-0.23878485
14	0xbe81d550	-0.25358057
15	0xbcc4224c	-0.023942135
16	0xbea1ab58	-0.31576037
17	0xbe61ed76	-0.2206324
18	0xbda344bb	-0.07972094
19	0xbe98e8ba	-0.29865056
20	0xbe406d74	-0.18791753
21	0x3cb49471	0.022043439
22	0xbe5fd025	-0.21856745
23	0x3ee9ee8b	0.45689806
24	0xbecc8749	-0.39946964
25	0xbecf13b0	-0.40444708
26	0xbd9592a8	-0.07303363
27	0xbd5c356e	-0.053761892
28	0xbdc30fc5	-0.09524492
29	0xbd537ba7	-0.051631596
30	0x3c47a8b7	0.012186221
31	0xbed0b2ea	-0.407615
32	0xbea3c583	-0.31986627
33	0xbe893d26	-0.26804465
34	0x3df4f352	0.11960472
35	0xbdc9318f	-0.09823906
36	0xbed90b79	-0.42391565
37	0xbe87cdc1	-0.26524165
38	0xbeea853b	-0.45804772
39	0xbe7b0f7c	-0.24517626
40	0xbcd35a7d	-0.025799984
41	0xbe6e876c	-0.23293847
42	0xbe23bbd2	-0.15989617
43	0xbded4893	-0.11586108
44	0xbd0126e4	-0.03153123
45	0xbe8cc3c4	-0.27493107
46	0xbeea1889	-0.45721844
47	0xbef28c83	-0.47372827
48	0xbea9582a	-0.33075076
49	0xbea9b5ca	-0.33146507
50	0xbe616ef9	-0.22014989
51	0xbe3aeacf	-0.18253635
52	0xbf11e538	-0.56990385
53	0xbe810d7e	-0.25205606
54	0x3e4ab40b	0.19795243
55	0xbe56af34	-0.20965272
56	0xbea3d7b9	-0.3200052
57	0xbca57223	-0.020196026
58	0xbe79debc	-0.24401373
59	0xbdf3f2c0	-0.11911535
60	0xbd319aac	-0.043360397
61	0xbec5af9d	-0.38610545
62	0xbd92567b	-0.07145401
63	0xbe0de5d2	-0.138572
64	0xbca56363	-0.020188993
65	0xbd3b6197	-0.045747366
66	0xbbfe4299	-0.007759404
67	0xbe0573b4	-0.13032418
68	0xbe39e9e0	-0.18155622
69	0xbd88adc1	-0.06673766
70	0xbea8ad30	-0.32944632
71	0xbdf2db5c	-0.11858246
72	0xbe983fa4	-0.29736054
73	0xbec65e28	-0.3874371
74	0xbe36d227	-0.17853604
75	0xbcd9723d	-0.02654373
76	0xbeb8f343	-0.36123094
77	0xbe09c4fb	-0.13454048
78	0x3eef3b55	0.46724954
79	0xbea46a0e	-0.32112163
80	0xbf276f01	-0.65403754
81	0xbe8b4761	-0.27202895
82	0xbe6327cf	-0.22183155
83	0xbe670c96	-0.22563395
84	0x3e207910	0.15671182
85	0xbeb049af	-0.34431216
86	0xbe90df18	-0.28295207
87	0xbe8f3b85	-0.27975097
88	0xbc73b6b8	-0.0148751065
89	0x3e374107	0.178959
90	0xbec2ef7d	-0.3807334
91	0xbe47a5c9	-0.19496836
92	0xbe6e69e0	-0.23282576
93	0xbe902b0b	-0.2815784
94	0xbea98578	-0.3310964
95	0xbdedbc85	-0.11608223
96	0xbc2a6bfe	-0.010401724
97	0x3d374260	0.044741035
98	0xbce78e4b	-0.028266093
99	0xbda7fdcb	-0.08202704
100	0xbe995c82	-0.2995339
101	0xbee53119	-0.4476402
102	0xbe978e4e	-0.29600757
103	0xbe1ad4a9	-0.15120186
104	0xbe1fdc7c	-0.15611452
105	0xbe83eaf8	-0.25765204
106	0xbe4ec11d	-0.20190854
107	0xbd535580	-0.05159521
108	0xbeaeeff5	-0.34167448
109	0xbe2fd588	-0.171713
110	0xbe74b34d	-0.23896523
111	0xbe3a3acb	-0.1818649
112	0xbe996055	-0.29956308
113	0xbcca9f37	-0.024734123
114	0xbe04044e	-0.12892267
115	0xbede82d7	-0.43459198
116	0xbe49d5b4	-0.19710428
117	0xbde9bd3d	-0.114130475
118	0x3e395adb	0.18101065
119	0x3f057004	0.5212405
120	0xbea98744	-0.33111012
121	0xbe7b5760	-0.2454505
122	0xbea98215	-0.33107057
123	0x3e3ed446	0.18635663
124	0xbe7d0c17	-0.24711643
125	0xbe8240fe	-0.2544021
126	0xbee82fa8	-0.4534886
127	0xbded639f	-0.11591267
128	0xbdeb4d10	-0.11489308
129	0xbe91f8c0	-0.28510094
130	0xbddbf475	-0.10739986
131	0xbe227510	-0.15864968
132	0xbf00365a	-0.50082934
133	0xbeb48042	-0.35254103
134	0xbf0edd22	-0.5580617
135	0xbe1fbc34	-0.15599138
136	0xbe552e15	-0.2081836
137	0xbde415fc	-0.11137006
138	0xbe9869de	-0.2976827
139	0xbd223c71	-0.039608423
140	0xbe844f62	-0.25841814
141	0x3d1503f8	0.036380738
142	0xbdb6c89f	-0.08924984
143	0xbe5e691e	-0.21719787
144	0x3cf2dfab	0.029647669
145	0xbe6d3f2f	-0.23168634
146	0xbdf3fd12	-0.11913504
147	0xbedbe163	-0.42945394
148	0xbeb9bc08	-0.3627627
149	0xbe30d101	-0.17267229
150	0xbe4d7ec4	-0.20067888
151	0xbeb6d4e6	-0.35709304
152	0xbe838d7c	-0.25693882
153	0xbe35e5f2	-0.17763498
154	0xbe341863	-0.17587428
155	0xbe2dc3d4	-0.16969234
156	0xbe9863be	-0.29763597
157	0xbd66a8ad	-0.056313206
158	0xbe8b5c24	-0.27218735
159	0xbd5a2d58	-0.0532659
160	0xbeadf98c	-0.33979452
161	0xbe442f30	-0.19158626
162	0xbe2ebd0e	-0.17064306
163	0xbea93a7c	-0.33052433
164	0xbe8e2013	-0.27758846
165	0xbe5382af	-0.2065532
166	0xbdf95ad0	-0.12175524
167	0xbed71e7c	-0.42015445
168	0x3e025007	0.1272584
169	0xbe69d79f	-0.22836159
170	0xbe97bb60	-0.29635143
171	0xbeccaa00	-0.3997345
172	0xbcbb52b8	-0.022866592
173	0xbe8f2cb1	-0.27963784
174	0xbe64f2f1	-0.223583
175	0xbeab58a6	-0.3346607
176	0xbe204e70	-0.15654922
177	0x3e0a9bfe	0.13536069
178	0xbeacf2e2	-0.33779055
179	0x3e2270e5	0.15863378
180	0xbef58735	-0.47954717
181	0xbea8dd10	-0.32981157
182	0xbe60baa2	-0.21946195
183	0xbec06b55	-0.37581888
184	0xbe5dd68c	-0.21663874
185	0xbed210aa	-0.4102834
186	0xbeb4093c	-0.35163295
187	0xbe93cb51	-0.28866056
188	0xbee56ab2	-0.44807965
189	0xbe9bbfb6	-0.304197
190	0x3e0d719c	0.1381287
191	0xbe02dada	-0.12778798
192	0x3db28985	0.08717636
193	0xbe22f7ca	-0.15914837
194	0xbe12ee82	-0.14348796
195	0xbe37292d	-0.17886801
196	0x3e072111	0.13196208
197	0xbe159e88	-0.14611256
198	0xbe88e810	-0.2673955
199	0x3ea51d01	0.3224869
200	0xbef5043a	-0.47854787
201	0xbe2b6401	-0.16737367
202	0x3c0e772e	0.008695407
203	0xbe8fed01	-0.28110507
204	0xbe94417b	-0.28956208
205	0xbdc7dc17	-0.09758776
206	0xbeb82181	-0.3596306
207	0xbdce5bee	-0.10076128
208	0xbdf51e18	-0.119686306
209	0x3e454832	0.19265822
210	0xbec3b74b	-0.3822578
211	0x3c8a6d66	0.016897868
212	0xbd9bedc9	-0.07613713
213	0xbe9ebb1e	-0.31002134
214	0xbceb3f5e	-0.02871674
215	0xbdb0d288	-0.08633906
216	0xbe7352fc	-0.23762125
217	0xbe806b0e	-0.25081676
218	0xbdbc416f	-0.09192168
219	0xbeea066b	-0.45708022
220	0xbcc916de	-0.024547037
221	0x3e75c840	0.2400217
222	0xbe58f2b4	-0.21186334
223	0x3cd83315	0.026391545
224	0x3eb4a2f3	0.3528057
225	0xbe3be4f8	-0.18349063
226	0x3d152b09	0.036417995
227	0xbccbe36f	-0.024888722
228	0xbe372864	-0.17886502
229	0x3b3feabf	0.0029284207
230	0xbea317b8	-0.31854033
231	0xbe4fda41	-0.20298101
232	0xbd980480	-0.07422733
233	0xbeba3635	-0.36369482
234	0xbdbc061d	-0.091808535
235	0xbe536887	-0.20645343
236	0xbe5094cc	-0.20369262
237	0xbe520195	-0.20508416
238	0xbe22ec63	-0.15910487
239	0xbe01a9dc	-0.12662452
240	0xbe21312b	-0.15741412
241	0xbd18e7e8	-0.037330538
242	0xbde52240	-0.11188173
243	0xbe8e23b9	-0.2776163
244	0xbe991abf	-0.29903218
245	0xbdddb21a	-0.10824986
246	0xbdb99d7a	-0.090632394
247	0xbe2dd0f7	-0.16974245
248	0xbe51728d	-0.20453854
249	0xbe6cf3f5	-0.23139937
250	0xbe8d32a8	-0.2757771
251	0x3dfca630	0.12336385
252	0xbea7c021	-0.3276377
253	0xbe4f6510	-0.20253396
254	0xbe99cf70	-0.30041075
255	0xbe91a219	-0.28443983

value.0.weight f4 [128, 256]
0	0xbd3b9e1c	-0.04580508
1	0xbd5d2baa	-0.05399672
2	0xbd191e24	-0.03738226
3	0xbc8ae465	-0.01695461
4	0xbc937f17	-0.018004937
5	0x3c7c5b8e	0.015402688
6	0x3d7a173e	0.06105732
7	0xbc499984	-0.012304667
8	0xbcdfbcc8	-0.027311698
9	0xbc9eb2c7	-0.019372357
10	0xbd2aec86	-0.041729473
11	0xbd5e0eea	-0.054213442
12	0xbb932ea5	-0.0044916444
13	0xbd25d90a	-0.040490188
14	0x3d175adb	0.03695188
15	0x3d6dab73	0.058024835
16	0xbd92be98	-0.07165259
17	0xbd455f3c	-0.048186526
18	0xbd1e850d	-0.038701106
19	0xbd7f0097	-0.062256422
20	0xbcfd6306	-0.030931007
21	0x3aafa2d6	0.0013399969
22	0xbc8e52fc	-0.017373554
23	0xbd212164	-0.039338484
24	0xbd26080b	-0.040535014
25	0xbca98bb6	-0.020696502
26	0xbd821add	-0.0635278
27	0xbca81cea	-0.0205216
28	0xbd9c62c7	-0.07636028
29	0x3d3060ee	0.04306119
30	0xbc55da36	-0.013052514
31	0xbd43bac0	-0.04778552
32	0xbd60fbe6	-0.05492773
33	0xbd314984	-0.043283
34	0xbdad1288	-0.084508
35	0xbddc1fea	-0.107482746
36	0xbdcf3018	-0.10116595
37	0xbd37b0a0	-0.044846177
38	0xbbb13422	-0.005407826
39	0x3bca692d	0.0061770887
40	0xbd2997fd	-0.041404713
41	0xbd531229	-0.05153099
42	0xbd111f63	-0.035430323
43	0x3ca5e1c6	0.020249259
44	0x3d4a7321	0.0494262
45	0xbdb99cdf	-0.09063124
46	0x3c187d09	0.009307154
47	0xbd65067f	-0.0559144
48	0xbbe475c9	-0.006972049
49	0xbc974ce0	-0.018469274
50	0xbcad134a	-0.021127362
51	0xbd9fa3f5	-0.07794944
52	0xbd5b7e41	-0.053587202
53	0xbd24d588	-0.0402427
54	0xbd394eec	-0.04524128
55	0x3d729ce1	0.059231643
56	0xbdaa579c	-0.083174914
57	0x3c3342a8	0.010941185
58	0xbda36c90	-0.07979691
59	0x3d0484c5	0.03235318
60	0xbc953330	-0.018212885
61	0xbd6b3c0e	-0.05743032
62	0xbd807858	-0.06272954
63	0xbc9f4b2b	-0.019445023
64	0x3d4761b9	0.04867718
65	0xbd48fe4c	-0.04907064
66	0x3c832cbe	0.016012546
67	0xbc66c7c0	-0.01408571
68	0x3ca7a957	0.02046649
69	0xbd2b1687	-0.04176953
70	0xbe09f367	-0.13471757
71	0xbd086df0	-0.03330797
72	0xbda02ce5	-0.07821063
73	0xbc800378	-0.015626654
74	0xbcba0de8	-0.02271171
75	0xbd2aa5f1	-0.04166216
76	0x3d742c9e	0.059612863
77	0xbd9a4a50	-0.07533705
78	0xbd9697f4	-0.073532015
79	0xbb92377c	-0.0044621807
80	0xbd3a8f6c	-0.045546934
81	0xbb88fc7f	-0.0041804905
82	0xbdceaafa	-0.10091205
83	0x3d47ad94	0.04874952
84	0x3d55a596	0.05215987
85	0xbcbeee9e	-0.02330714
86	0xbcea15f7	-0.028574927
87	0x3d372dbb	0.044721346
88	0xbd01bfa8	-0.03167692
89	0xbd3b6780	-0.045753002
90	0xbd9dbcc4	-0.0770202
91	0xbb223e03	-0.00247562
92	0xbdd3fe5c	-0.103512496
93	0x3d29435a	0.041323997
94	0x3c440320	0.011963636
95	0xbc1417e1	-0.009038896
96	0x3cace54a	0.021105427
97	0xbd495486	-0.049152873
98	0xbd4c99eb	-0.049951475
99	0xbdabebbd	-0.08394573
100	0x3d9c8e5b	0.0764434
101	0xbcb34a43	-0.021885997
102	0xbce8719d	-0.028374488
103	0xbce12440	-0.027483106
104	0x3d1b3ba0	0.03789866
105	0xbc634e25	-0.013873612
106	0xbb8d8fa0	-0.0043201
107	0x3d0d2132	0.034455486
108	0x3c27d9f0	0.010244831
109	0x3c205877	0.009786717
110	0x3d62c9e4	0.05536832
111	0xbcbc3e53	-0.022978937
112	0xbb23712d	-0.0024939284
113	0xbd898151	-0.06714118
114	0xbd7c7e01	-0.061643604
115	0xbc0b4d3f	-0.008502304
116	0xbd7db9fe	-0.061944954
117	0x3b3238ca	0.0027194493
118	0xbd2acaf8	-0.041697472
119	0xbd503d51	-0.050839726
120	0xbcb64ac5	-0.02225245
121	0xbcd0a90f	-0.025471238
122	0xbd13e01b	-0.036102396
123	0xbd264f9f	-0.040603276
124	0x3c89d3cf	0.016824631
125	0x3cff39bd	0.031155461
126	0xbd9e4e91	-0.07729829
127	0x3c9beda8	0.019034222
128	0xbcd0b583	-0.025477177
129	0x3cb0d571	0.021586152
130	0xbbbe9117	-0.005815636
131	0xbd9055ed	-0.07047639
132	0xbbb642de	-0.0055621704
133	0xbd429bae	-0.04751175
134	0x3d27c09b	0.040955167
135	0xbd56c080	-0.052429676
136	0xbd6be91a	-0.05759535
137	0x3b24489c	0.0025067693
138	0x3cfd9886	0.030956518
139	0x3cb90586	0.022585642
140	0xbda4da61	-0.08049465
141	0xbbc31001	-0.0059528355
142	0xbd4ace19	-0.049512956
143	0xbc2cdbd7	-0.010550461
144	0x3cd68e8e	0.026191022
145	0xbbf54cb2	-0.0074859494
146	0xbd156454	-0.036472633
147	0xbc57cd1d	-0.013171461
148	0xbd138765	-0.036017794
149	0x3c28a224	0.010292564
150	0xbd3d7a90	-0.046259463
151	0xbdc92118	-0.09820765
152	0x3b0a0f9e	0.0021066437
153	0x3c977e93	0.018492972
154	0xbc2e8ff0	-0.010654435
155	0xbd9a8328	-0.07544547
156	0xbe1a0b88	-0.15043461
157	0xbd3d05f3	-0.04614825
158	0xbd5897c3	-0.052879106
159	0xbc781623	-0.015141997
160	0x3d285abb	0.041102152
161	0x3c03f44b	0.008053849
162	0xbb4bdd91	-0.0031107406
163	0xbda0fced	-0.07860742
164	0x3bb3fa4a	0.0054924833
165	0xbcbb5d90	-0.022871763
166	0x3cf25e1e	0.029585894
167	0x3c7c9fe4	0.01541898
168	0x3ce7a65e	0.028277572
169	0xbc54874b	-0.0129717095
170	0x3b8de1a0	0.004329875
171	0xbd983aec	-0.074331135
172	0x3bde658d	0.006787008
173	0xbdacdc35	-0.08440439
174	0xbdbc3e21	-0.09191538
175	0xbd2644ab	-0.04059283
176	0xbd80d4c8	-0.06290585
177	0x3ce717e1	0.028209629
178	0xbd62cbbd	-0.05537008
179	0x3bf0fc13	0.0073542683
180	0xbdcbc5b2	-0.09949817
181	0xbda9d614	-0.08292785
182	0xbd1ed981	-0.038781647
183	0xbbaf6ba4	-0.005353408
184	0xbd6200fa	-0.055176713
185	0xbd7bc738	-0.061469287
186	0x3ce9750f	0.0284982
187	0xbbc27d2c	-0.005935332
188	0x3b547735	0.0032419686
189	0x3d6de57b	0.058080178
190	0xbd189be8	-0.03725806
191	0xbcacfcd1	-0.021116646
192	0xbc620424	-0.0137949325
193	0x3cc6b7b1	0.024257513
194	0xbd73c07f	-0.05950975
195	0x3ccc9c5a	0.024976898
196	0xbbee5a27	-0.0072739306
197	0xbcea8db6	-0.028632026
198	0xbe062a8b	-0.13102166
199	0xbd527d5b	-0.05138908
200	0xbcf05d4a	-0.029341359
201	0xbd4a4862	-0.049385436
202	0xbce1f008	-0.027580276
203	0xbdb60ea8	-0.08889514
204	0x3d2897a2	0.041160233
205	0xbd52f29b	-0.051500898
206	0xbaf5a4eb	-0.0018741166
207	0x3d959b92	0.07305063
208	0xbd16057f	-0.036626335
209	0xbdaea994	-0.08528438
210	0xbde80ad9	-0.11330194
211	0xbd070019	-0.032959078
212	0x3c95cc9c	0.018286042
213	0xbda23e16	-0.07921998
214	0x3b7314e4	0.003709131
215	0x3bdedaee	0.006801001
216	0xbd78d781	-0.060752396
217	0xbd738fdf	-0.059463378
218	0xbd737680	-0.059439182
219	0xbd01583c	-0.031578287
220	0xbde3e33c	-0.11127326
221	0xbbffda9f	-0.007808044
222	0xbdb05eb3	-0.086118124
223	0xbdca0414	-0.09864059
224	0x3cc04b88	0.023473516
225	0x3d232a7c	0.039835438
226	0xbda7ccae	-0.081933364
227	0x3c8c6aae	0.017140713
228	0xbd88cd7f	-0.0667982
229	0x3c9c31dd	0.019066745
230	0x3d61682c	0.055030987
231	0x3d3cc8f7	0.046090093
232	0x3b76b85b	0.0037646506
233	0xbd567a9e	-0.05236303
234	0xbcc3221d	-0.023819977
235	0xbcfd8311	-0.030946286
236	0xbd689484	-0.05678226
237	0x3a8f2d5d	0.0010923553
238	0x3b97ebf3	0.0046362816
239	0x3bedb2e2	0.0072539905
240	0x3d8b3123	0.067964815
241	0xbd0e20da	-0.0346993
242	0xbb93db36	-0.004512216
243	0xbd05801f	-0.03259289
244	0xbd85c0fe	-0.06530951
245	0xbd33af86	-0.043868564
246	0xbc4462dc	-0.011986461
247	0xbd12eb7f	-0.035869118
248	0xbc718577	-0.014741293
249	0xbd5e4a24	-0.054269925
250	0x3d0f9424	0.035053387
251	0x3cacb6d4	0.021083273
252	0x3ca66dd3	0.02031604
253	0xbdb6b277	-0.08920758
254	0xbcc82fec	-0.024436913
255	0xbd4a4f86	-0.049392246

value.0.bias f4 [128]
0	0xbda9ccf4	-0.08291045
1	0xbc4109f5	-0.011782159
2	0xbe82a940	-0.25519753
3	0xbe9e53be	-0.30923265
4	0xbe861ec3	-0.26195344
5	0xbdb54577	-0.0885114
6	0xbe4459de	-0.19174907
7	0xbe0fa5cf	-0.14028095
8	0xbe46c028	-0.1940924
9	0xbde14f5f	-0.11001467
10	0xbe45a042	-0.19299415
11	0xbd87fccc	-0.06640014
12	0xbda125ab	-0.07868513
13	0xbdb57ec0	-0.08862066
14	0xbdc62993	-0.096758984
15	0xbe02565a	-0.12728253
16	0x3ca339b6	0.01992498
17	0xbdaf684e	-0.085648164
18	0xbd97f4df	-0.07419752
19	0xbd75e9fb	-0.060037594
20	0xbdef63e0	-0.116889715
21	0xbd03e918	-0.032204717
22	0xbddfe86e	-0.10933004
23	0xbddb2e04	-0.10702136
24	0xbe094f3d	-0.13409133
25	0xbe65c292	-0.22437504
26	0xbd918e70	-0.07107246
27	0xbda15440	-0.078773975
28	0xbdbfc62a	-0.09363969
29	0x3f080cb9	0.53144413
30	0xbe887d3e	-0.26658052
31	0xbde370df	-0.11105513
32	0xbd33e7bd	-0.043922175
33	0xbe4cb019	-0.19989051
34	0x3dbbccf6	0.091699526
35	0xbd1bc3ae	-0.03802841
36	0xbd8e724f	-0.069553964
37	0xbde06d59	-0.109583564
38	0xbdfdbee0	-0.12389922
39	0xbe90a4c1	-0.28250697
40	0xbdb63f8b	-0.088988386
41	0xbe3a1fc1	-0.18176176
42	0xbe0b31c2	-0.135932
43	0xbdb3b52f	-0.087747924
44	0xbe15d037	-0.14630209
45	0xbe81d2ed	-0.25356236
46	0x3f01b0ab	0.506602
47	0xbd957a5d	-0.072987296
48	0xbdaf34fc	-0.08555028
49	0x3e48c522	0.1960645
50	0xbe35200f	-0.1768801
51	0xbdd4c3c2	-0.103889
52	0xbd8b1ef9	-0.06793017
53	0x3a8f4229	0.0010929751
54	0xbda54688	-0.080700934
55	0xbcce5137	-0.02518521
56	0xbdbc48d4	-0.09193578
57	0xbe08ea2a	-0.13370577
58	0xbdd54508	-0.10413557
59	0xbb144dfc	-0.002262949
60	0xbdd680f9	-0.10473818
61	0xbd78c730	-0.060736835
62	0xbd91c710	-0.07118046
63	0x3d44d80c	0.0480576
64	0xbd651d9f	-0.055936452
65	0x3e1c31e1	0.15253402
66	0xbd438f91	-0.047744337
67	0xbddf9968	-0.10917932
68	0xbe266cae	-0.16252396
69	0xbd81c825	-0.06337003
70	0xbe65f26f	-0.22455762
71	0xbda4b818	-0.080429256
72	0xbe4dc268	-0.20093691
73	0xbd9b2de7	-0.075771146
74	0xbd629990	-0.05532223
75	0xbd889e9a	-0.06670876
76	0xbd84deb9	-0.064877935
77	0xbe2b5c34	-0.16734391
78	0xbd8c816b	-0.06860622
79	0xbdab14be	-0.08353566
80	0xbe8a587a	-0.27020627
81	0xbda5dfcd	-0.08099327
82	0xbde0b0f9	-0.10971255
83	0xbdee77f8	-0.11643976
84	0xbcaa2b02	-0.02077246
85	0x3b8dd2a4	0.004328089
86	0xbda6b8ec	-0.0814074
87	0xbda97f6e	-0.082762584
88	0x3d30ef08	0.043196708
89	0x3cb5486f	0.022129266
90	0xbdb27b0b	-0.08714875
91	0xbdd8c00d	-0.10583506
92	0xbd4ccf2e	-0.05000227
93	0xbdd2b463	-0.10288312
94	0x3cac6e55	0.021048704
95	0xbda49552	-0.08036293
96	0xbd86f36b	-0.06589397
97	0xbe78846c	-0.24269265
98	0xbe15f22a	-0.1464316
99	0xbdcabc75	-0.098992266
100	0xbd2b13c5	-0.0417669
101	0xbc8d2363	-0.017228788
102	0xbe216374	-0.15760595
103	0xbc38aef3	-0.01127218
104	0xbdc7aec6	-0.09750132
105	0xbe3ce287	-0.18445788
106	0xbe23cc12	-0.15995815
107	0x3b6d8738	0.0036243927
108	0xbdab7aab	-0.083730064
109	0xbdc058a8	-0.0939191
110	0xbde8a554	-0.11359659
111	0xbdd58810	-0.104263425
112	0xbd46041e	-0.04834377
113	0xbdf69ad2	-0.120412484
114	0xbd275386	-0.04085114
115	0xbd8657a0	-0.06559682
116	0xbd801ac3	-0.062551044
117	0x3d3e499c	0.046456918
118	0xbd75530e	-0.05989366
119	0xbdb37d7d	-0.08764169
120	0xbe229945	-0.1587878
121	0xbc760ab2	-0.015017198
122	0xbde6168e	-0.11234771
123	0xbd5c6ef9	-0.05381677
124	0xbe561a35	-0.20908435
125	0xbdc587d1	-0.096450455
126	0xbda2fa68	-0.079579175
127	0xbd73ca50	-0.059519112

value.2.weight f4 [1, 128]
0	0xba28959f	-0.00064309867
1	0x3b814751	0.003945269
2	0xbebd6335	-0.3698975
3	0xbe78313d	-0.24237533
4	0xbed07859	-0.40716818
5	0x3a8f1886	0.0010917343
6	0xbda4e3c5	-0.08051256
7	0xbccd8799	-0.025089072
8	0xbe4d6a30	-0.20060039
9	0xbcee2cb0	-0.029074043
10	0xbf05faa5	-0.5233558
11	0x3d137eba	0.036009528
12	0x3cf870f2	0.030327294
13	0x3c4fb7f4	0.012678135
14	0x3c7db09e	0.015484003
15	0xbd0090ba	-0.031388022
16	0x3c093202	0.008373739
17	0xbbb1063d	-0.005402355
18	0x3ab2682e	0.001361137
19	0xbc7bda97	-0.01537194
20	0xbc10c480	-0.008835912
21	0xbcf08415	-0.029359857
22	0xbc8e1e4e	-0.017348435
23	0xbc6463ee	-0.013939841
24	0xbedab13e	-0.4271335
25	0xbeab2e50	-0.3343377
26	0x3c415b52	0.011801558
27	0x3c9ddd99	0.019270705
28	0xbc2afae7	-0.010435796
29	0x3e1cbc72	0.15306261
30	0xbd9da601	-0.07697678
31	0x3c8d50ce	0.017250445
32	0x3c2e840f	0.010651602
33	0xbd01dc09	-0.031703983
34	0xbe13feb6	-0.14452633
35	0x3c0b5db0	0.008506224
36	0xbc4b951d	-0.012425688
37	0x3d12f19f	0.03587496
38	0xbbfd490c	-0.007729655
39	0xbed83020	-0.42224216
40	0xbd4d24cc	-0.05008392
41	0xbecee260	-0.40407085
42	0x3c9baa04	0.019001968
43	0x3ce99ef9	0.028518187
44	0xbf043455	-0.5164235
45	0xbef5c7e7	-0.48004076
46	0x3e14dd27	0.14537488
47	0x3d452951	0.048135106
48	0xbc0a8154	-0.008453686
49	0xbc04df98	-0.0081099495
50	0xbeab9ad4	-0.33516562
51	0x3bb57146	0.005537185
52	0x3cbd8802	0.023136143
53	0xbc6b2b7b	-0.014353628
54	0x3cf70718	0.03015475
55	0x3c224d97	0.009906194
56	0xbe42af1f	-0.19012116
57	0x3acede3e	0.0015782786
58	0xbcae645e	-0.021288093
59	0xbc9f44bf	-0.01944196
60	0x3c8ed792	0.017436776
61	0xbc684d78	-0.014178626
62	0xbccdd803	-0.025127416
63	0xbc88e506	-0.01671077
64	0xbd4af720	-0.049552083
65	0xbd14a899	-0.0362936
66	0x3d0c3b32	0.03423614
67	0xba3b0339	-0.0007133964
68	0xbd9c693a	-0.07637258
69	0x3ce67f66	0.02813692
70	0xbe528e80	-0.20562172
71	0x3b067e05	0.002052189
72	0xbd289ebf	-0.041167017
73	0x3b6215f5	0.003449795
74	0xbc9aac42	-0.018880967
75	0xbd07862e	-0.033086948
76	0x3d174247	0.03692844
77	0xbbb3822d	-0.0054781646
78	0x3ccef1ea	0.025261838
79	0xbcf7a04d	-0.030227805
80	0x3d923baa	0.07140286
81	0x3c2409c9	0.010012099
82	0x3d8431ea	0.06454833
83	0xbee0279d	-0.43780223
84	0xbe1c7aa2	-0.15281156
85	0x3c849e57	0.016188784
86	0xbc6f518a	-0.014606843
87	0xbd93cec4	-0.07217172
88	0x3d841c72	0.06450738
89	0xbc61d1d4	-0.013782937
90	0x3cf3f605	0.029780397
91	0x3c09d5d5	0.008412798
92	0x3c6603fc	0.014039036
93	0xbd4c85a9	-0.049932156
94	0x3d922e1e	0.071377024
95	0xbcf6855e	-0.030092891
96	0x3c081b24	0.008307252
97	0xbd6adab8	-0.057337493
98	0xba8bf203	-0.0010676984
99	0x3cf54e2f	0.029944507
100	0xbc168eb4	-0.0091892965
101	0xbe34c498	-0.1765312
102	0xbe7f9351	-0.2495854
103	0x3b0cb1dc	0.0021468317
104	0xbcf9bef2	-0.030486558
105	0xbec878d2	-0.3915468
106	0xbeeb04ce	-0.45902103
107	0xbd755744	-0.059897676
108	0x3cc597a6	0.024120163
109	0x3d3e56ab	0.04646937
110	0xbc7b2ecd	-0.015330982
111	0xbb3d801d	-0.0028915473
112	0xbc6186fa	-0.013765091
113	0xbc1a8229	-0.009430447
114	0xbc331718	-0.010930799
115	0x3be0f964	0.006865667
116	0xbcb61e7c	-0.022231333
117	0xbc1a5fb4	-0.009422231
118	0xbce04b44	-0.02737964
119	0x3c7a35e6	0.015271639
120	0xbc8b82b4	-0.017030098
121	0x3c742ad6	0.014902791
122	0xbd2f0efb	-0.042738896
123	0x3d5389b8	0.05164501
124	0xbe8b8e77	-0.2725713
125	0x3ba66c32	0.005078816
126	0xbcc63d0a	-0.024199028
127	0x3d4a917b	0.049455147

advantage.0.weight f4 [128, 256]
0	0xbd2f83d9	-0.04285035
1	0x3d10bece	0.035338216
2	0xbd9abb4c	-0.07555255
3	0xbc61d502	-0.013783695
4	0x3d74526a	0.05964891
5	0x3d031d8f	0.03201061
6	0x3d41de1f	0.04733097
7	0xbd699cbf	-0.05703425
8	0x3c970de1	0.018439235
9	0x3d18a6cd	0.03726845
10	0xbce9d6d2	-0.028544817
11	0x3d45b899	0.04827175
12	0xbda001eb	-0.07812866
13	0xbbc1f20d	-0.0059187473
14	0x3c69f11b	0.014278675
15	0x3d51f811	0.051261965
16	0x3c2a8709	0.010408171
17	0xbc331978	-0.010931365
18	0xbc8c29df	-0.01710981
19	0xbda8b7cd	-0.08238182
20	0x3cb2204f	0.021743922
21	0xb8e11bff	-0.00010734051
22	0xbd21b110	-0.0394755
23	0x3c4b78ea	0.012418965
24	0xbd74c736	-0.059760295
25	0x3d6fcf1a	0.058547117
26	0xbc9e4d71	-0.019324036
27	0x3c920aba	0.01782738
28	0xbc8dbe07	-0.017302526
29	0xbc86c7b7	-0.016452653
30	0xbc8cfceb	-0.017210444
31	0xbd7247ef	-0.059150632
32	0x3d85ac86	0.06527047
33	0xbbbf3e58	-0.0058362894
34	0xbd69e0e4	-0.057099238
35	0xbcf3d614	-0.029765166
36	0xbd0729ee	-0.03299897
37	0x3d48c0de	0.049012057
38	0xbd5c2bd4	-0.053752735
39	0xbd1fcef8	-0.03901574
40	0x3caee1d1	0.021347912
41	0xbb802661	-0.003910825
42	0xbd515d0f	-0.05111414
43	0xbb47e8a3	-0.0030503653
44	0x3ced32ed	0.028954947
45	0xbc8ac6f0	-0.016940564
46	0xbd57141e	-0.05250942
47	0xbc1ebf73	-0.0096892
48	0x3d5e9b00	0.05434704
49	0xbd5528ea	-0.05204097
50	0x3cc932ee	0.024560418
51	0x3d7b0550	0.061284363
52	0x3d82942a	0.06375916
53	0x3b8eae67	0.0043542865
54	0xbc64f4d2	-0.013974385
55	0x3cdadd7f	0.026716946
56	0xbb902760	-0.004399225
57	0x3c94bb24	0.018155642
58	0xbcb8dd7c	-0.02256655
59	0xbd64ed1a	-0.05589018
60	0x3d0fd750	0.035117447
61	0x3d07de34	0.033170894
62	0xbd4bc306	-0.049746536
63	0xbda34b87	-0.0797339
64	0xbcaf4e4d	-0.021399641
65	0xbca7a9a9	-0.020466642
66	0xbd446c33	-0.04795475
67	0x3bad3f0e	0.0052870577
68	0xbd33e1fa	-0.04391668
69	0xbc7e4584	-0.0155195035
70	0xbd7b8e2a	-0.061414875
71	0xbd90caa2	-0.07069899
72	0xbc49e068	-0.012321569
73	0xbd8d2874	-0.068924814
74	0xbbd53167	-0.0065061334
75	0xbb350c8f	-0.0027625894
76	0xbd8227d9	-0.063552566
77	0xbd83939b	-0.06424638
78	0xbd8ccf5c	-0.06875488
79	0xbccd68ff	-0.02507448
80	0x3d52a98e	0.05143123
81	0xbcec8b53	-0.028875029
82	0xbcf47301	-0.029839994
83	0xbce85401	-0.028360369
84	0xbd38e918	-0.04514417
85	0xbd7e9f2f	-0.062163528
86	0xbd34cff1	-0.04414362
87	0xbc1eb933	-0.00968771
88	0x3d26ec70	0.040752828
89	0xbca6b948	-0.02035202
90	0xbcbc4f2a	-0.022986967
91	0x3d03d2a9	0.032183323
92	0xbb37d380	-0.0028049648
93	0x3cc253a0	0.023721516
94	0xbcf336a8	-0.029689148
95	0x3cce5aa4	0.025189705
96	0xbd549c75	-0.05190702
97	0xbb332c2e	-0.0027339566
98	0x3aeb2890	0.0017941166
99	0x3d7c04ee	0.06152814
100	0xbcae754f	-0.021296171
101	0x3c73ce90	0.014880791
102	0xbba04ff9	-0.004892346
103	0x3c8a004c	0.016845845
104	0x3d311597	0.04323348
105	0xbd543f25	-0.05181803
106	0xbd5b2e02	-0.053510673
107	0x3d7ab377	0.061206307
108	0xbd1c4462	-0.038151152
109	0xbb8acae8	-0.004235614
110	0xbd2ac35c	-0.041690215
111	0xbd6aa2d2	-0.057284184
112	0xbd8847af	-0.066542976
113	0x3c6620a1	0.014045865
114	0xbd48a7b8	-0.048988074
115	0xbd5dff40	-0.054198503
116	0x3ccc1812	0.024913821
117	0xbd22f3be	-0.039783232
118	0x3c5f7eca	0.013641069
119	0xbd3c95df	-0.046041366
120	0xbc63aefd	-0.013896701
121	0x3d5cabf6	0.053874932
122	0x3cdadc97	0.026716514
123	0x3d275f76	0.040862523
124	0x3bf00dd0	0.0073258653
125	0x3cf21974	0.029553153
126	0xbdb2feed	-0.087400295
127	0xbd51499b	-0.051095586
128	0xbd06d0d9	-0.032914016
129	0xbd6c4498	-0.057682604
130	0xbcf5278c	-0.029926084
131	0xbb100ba0	-0.0021979585
132	0xbcf431f2	-0.029808972
133	0xbd81871d	-0.06324599
134	0xbd7cf78a	-0.06175951
135	0xbd4b6016	-0.04965218
136	0xbc14b8cc	-0.009077262
137	0xbd1e79ae	-0.03869026
138	0xbbbc2560	-0.00574176
139	0x3cd89fc3	0.026443368
140	0xbb56e1f7	-0.0032788494
141	0xbd711619	-0.058858965
142	0xbbd6be24	-0.0065534282
143	0xbc8b3454	-0.016992725
144	0x3d16dc70	0.03683132
145	0x3ca0ca28	0.019627646
146	0xbd1e89b2	-0.038705535
147	0x3b830edc	0.003999574
148	0xbd95b480	-0.07309818
149	0xbd69f62c	-0.057119533
150	0xbd094792	-0.03351552
151	0xbc8f1d3a	-0.017469991
152	0xbd1668f2	-0.036721177
153	0xbce96083	-0.028488403
154	0xbb884a89	-0.004159276
155	0xbd9817e6	-0.07426433
156	0xbce267f4	-0.02763746
157	0xbd207196	-0.039170824
158	0x3d549b1f	0.051905748
159	0x3c909f0e	0.017653968
160	0xbd74546c	-0.059650823
161	0x3b569646	0.0032743379
162	0xbd0c47da	-0.03424821
163	0x3cb3a911	0.021931203
164	0x3d4770ca	0.04869155
165	0xbd5831c4	-0.052781835
166	0xbcc3bd02	-0.023893837
167	0xbc56b71f	-0.013105183
168	0xbc21eb1e	-0.009882716
169	0x3a488f54	0.0007650752
170	0x3d114be6	0.035472773
171	0x3d0c421e	0.03424274
172	0x3c2e4b82	0.01063812
173	0xbd0cbce3	-0.034359824
174	0xbd7b14b5	-0.061299045
175	0xbd817f96	-0.06323163
176	0xbd43c159	-0.047791813
177	0x3c0379e8	0.00802467
178	0x3d0af22d	0.033922363
179	0x3bbcc0e7	0.0057603004
180	0xbd126b50	-0.035746872
181	0x3bfb2378	0.0076641403
182	0xbd3472c0	-0.044054747
183	0x3b349f00	0.0027560592
184	0xbd0bcda9	-0.03413168
185	0xbcdda31c	-0.027055316
186	0xbd7c43e7	-0.061588194
187	0x3d3073fa	0.043079354
188	0x3c444918	0.0119803175
189	0x3d902b30	0.07039487
190	0xbd351705	-0.044211406
191	0xbcd194aa	-0.025583584
192	0x3c8f1e9b	0.017470649
193	0xbd32277c	-0.043494686
194	0x3ca00c56	0.019537132
195	0xbd361650	-0.044454873
196	0x3bbf6dc0	0.0058419406
197	0xbd5e4352	-0.05426342
198	0xbcac7fcd	-0.021057034
199	0xbd6f6f00	-0.058455467
200	0x3d23134b	0.03981332
201	0x3c144d48	0.009051628
202	0x3c3a3248	0.011364527
203	0xbce0be9a	-0.027434636
204	0x3c746282	0.014916064
205	0xbd4816d1	-0.048849884
206	0x3d62b8ac	0.055351898
207	0xbd8aa9bf	-0.06770658
208	0x3ba06795	0.0048951604
209	0xbcd0e4ca	-0.02549972
210	0x3cf98f3a	0.030463804
211	0xbc84b29e	-0.016198453
212	0x3d2f30c4	0.042771116
213	0x3d23252e	0.03983038
214	0xbd64ded4	-0.055876568
215	0x3d7e5688	0.06209424
216	0x3cecef3b	0.028922668
217	0xbcb86266	-0.022507858
218	0x3d0ca60a	0.034338035
219	0xbd035086	-0.032059215
220	0xbda654e5	-0.08121661
221	0x3c9bf1fb	0.019036284
222	0xbb8d616a	-0.004314591
223	0xbd945eaf	-0.07244622
224	0x3c212ea8	0.009837784
225	0xbcf31b80	-0.029676199
226	0xbda9580d	-0.082687475
227	0xbd8feac8	-0.07027203
228	0x3d0e0b5f	0.034678813
229	0x3d32c559	0.043645237
230	0x3d051c30	0.032497585
231	0x3d02b9d6	0.03191551
232	0xbbdbf18f	-0.0067121456
233	0x3cb8ccfe	0.022558685
234	0xbd9cdd23	-0.07659366
235	0xba111180	-0.0005533919
236	0x3d2634b3	0.0405776
237	0x3d5d2483	0.0539899
238	0x3cf7da64	0.030255504
239	0xbd9bb635	-0.076031126
240	0xbd0151a2	-0.03157199
241	0xbc8789c9	-0.016545193
242	0xbc8124e1	-0.015764656
243	0xbd57c719	-0.05268011
244	0x3d5e4c25	0.054271836
245	0x3d031834	0.032005504
246	0x3cda7ff1	0.026672335
247	0x3c4953f3	0.012288081
248	0x3ceddf8d	0.029037261
249	0xbcf7f1e0	-0.030266702
250	0x3ce84b23	0.02835614
251	0x3d23688b	0.03989462
252	0x3c2d2f35	0.010570337
253	0x3c853f39	0.016265498
254	0x3c9247ec	0.01785656
255	0x3c913c08	0.01772882

advantage.0.bias f4 [128]
0	0xbda40eba	-0.08010621
1	0xbd7f4e72	-0.06233067
2	0xbe2aa91d	-0.16666074
3	0x3e420425	0.18946894
4	0x3e4c4fc3	0.19952302
5	0xbe6d4a59	-0.23172893
6	0xbe12d80f	-0.14340232
7	0xbdac14b0	-0.08402383
8	0xbd55469a	-0.052069284
9	0xbdfc4351	-0.12317527
10	0xbdae33f3	-0.08506002
11	0xbd661608	-0.056173354
12	0xbde183b6	-0.1101145
13	0xbe19c6a0	-0.15017176
14	0xbdca1a4d	-0.09868298
15	0xbe1d10c8	-0.15338433
16	0x3e09b929	0.13449539
17	0xbe8700cc	-0.26367795
18	0xbe00a874	-0.1256426
19	0xbe29daeb	-0.16587417
20	0xbe6a331d	-0.2287106
21	0xbe08e14a	-0.13367191
22	0xbe837751	-0.2567697
23	0xbeb61370	-0.35561705
24	0xbd5103b7	-0.051028933
25	0xbe4500ff	-0.19238661
26	0xbd26c744	-0.04071738
27	0xbd951e7f	-0.07281207
28	0xbd249c28	-0.040187985
29	0xbdb752cf	-0.08951341
30	0xbe00505b	-0.12530653
31	0xbe457627	-0.19283353
32	0x3e1fa82c	0.15591496
33	0xbe2b1839	-0.16708459
34	0xbdb631f5	-0.08896247
35	0xbd250136	-0.040284358
36	0x3c1b62b8	0.009483986
37	0xbe83b7e7	-0.25726244
38	0xbdc95a07	-0.098316245
39	0xbdad9c89	-0.08477122
40	0x3ee09f8e	0.4387173
41	0xbda558ac	-0.080735534
42	0xbe3d2f6f	-0.18475126
43	0xbe719d8a	-0.23595253
44	0xbe4a62e6	-0.1976429
45	0xbe4b97ba	-0.19882098
46	0xbde52126	-0.11187963
47	0xbd87df44	-0.066343814
48	0xbe2b27a2	-0.16714337
49	0xbe45bf46	-0.19311246
50	0xbd0126d5	-0.031531174
51	0xbdc7fdc0	-0.09765196
52	0xbe517630	-0.20455241
53	0xbd8d3fd5	-0.068969406
54	0xbd834bc1	-0.06410933
55	0xbe095a9b	-0.1341347
56	0xbe3e693e	-0.18594834
57	0x3e01322a	0.12616792
58	0xbe37fe9a	-0.17968217
59	0xbd86ab4b	-0.0657564
60	0xbd1b053f	-0.0378468
61	0xbe1fde4a	-0.1561214
62	0xbe3d539b	-0.18488924
63	0xbd4dfca8	-0.05028978
64	0xbd9a0839	-0.075210996
65	0x3dcea24b	0.10089549
66	0xbda8078c	-0.082045645
67	0xbdbee252	-0.09320511
68	0xbd76db7e	-0.060267918
69	0x3e2d5ff7	0.16931139
70	0xbe89794e	-0.2685036
71	0xbe0bdb44	-0.13657862
72	0xbe44d2fd	-0.1922111
73	0xbdad30a1	-0.08456541
74	0x3e92f0d5	0.28699365
75	0xbd3341df	-0.04376399
76	0xbe8a48c2	-0.27008635
77	0xbd7d01b6	-0.06176921
78	0xbdaef6b8	-0.085431516
79	0xbe97f3b0	-0.29678106
80	0xbd939098	-0.072053134
81	0xbd2f5c46	-0.04281261
82	0xbe5624a5	-0.20912416
83	0xbce8749a	-0.028375912
84	0xbe64405a	-0.22290173
85	0xbd173d18	-0.036923498
86	0x3ee421c7	0.4455702
87	0xbdb0f921	-0.086412676
88	0xbce8d04d	-0.028419638
89	0xbdb4df2e	-0.08831631
90	0xbda18f02	-0.07888605
91	0xbe4f45ec	-0.20241517
92	0xbdcf2a1a	-0.10115452
93	0xbdedaeff	-0.116056435
94	0xbd56e71c	-0.052466497
95	0xbe66860f	-0.22512077
96	0xba95b96e	-0.001142306
97	0xbeb37928	-0.35053372
98	0xbd78d431	-0.060749236
99	0xbe40f41a	-0.18843117
100	0xbe8a606e	-0.27026695
101	0xbdaa4a43	-0.083149455
102	0xbd9baac9	-0.07600934
103	0x3e1911b2	0.14948156
104	0xbe7e6ae5	-0.24845465
105	0xbde96940	-0.11397028
106	0xbe462374	-0.19349462
107	0xbdaa564c	-0.08317241
108	0xbe761852	-0.24032715
109	0xbd9e131b	-0.07718488
110	0xbdbf4d73	-0.09340944
111	0xbe3910ed	-0.18072863
112	0xbe5ae396	-0.2137588
113	0x3c41287d	0.011789438
114	0xbd9bd6d6	-0.07609336
115	0xbda39385	-0.079871215
116	0xbd8de06f	-0.06927573
117	0xbdd76de4	-0.10519007
118	0xbe3dbc9e	-0.18528983
119	0xbda8c7a6	-0.08241205
120	0xbe7e57c1	-0.24838163
121	0xbe18364c	-0.14864463
122	0xbe783135	-0.24237521
123	0xbdb8a5f2	-0.090160266
124	0xbe04c345	-0.12965114
125	0xbd4af2ca	-0.049547948
126	0xbd8dcf4d	-0.06924305
127	0xbe30dcc3	-0.17271714

advantage.2.weight f4 [3, 128]
0	0x3d793fdf	0.060851928
1	0x3cd2e87e	0.025745627
2	0xbce90828	-0.028446272
3	0x3d859bee	0.06523882
4	0x3db08635	0.08619348
5	0x3d677e2b	0.056516808
6	0x3d408f0b	0.047011416
7	0x3c97ffef	0.018554656
8	0xbbde99e8	-0.0067932494
9	0xbcadc83d	-0.021213645
10	0xbcb61242	-0.022225503
11	0xbca8f70a	-0.02062561
12	0x3d4160e3	0.04721154
13	0xbb3d3540	-0.002887085
14	0x3c72e208	0.014824398
15	0x3d90f7eb	0.070785366
16	0xbe100233	-0.14063339
17	0x3e40f483	0.18843274
18	0x3e5aa63f	0.2135248
19	0x3d1ff627	0.03905311
20	0x3d68c484	0.056828037
21	0x3c4449ef	0.011980518
22	0x3d68123c	0.056658015
23	0x3d9f081b	0.07765218
24	0x3d8aab04	0.067709
25	0x3d38636a	0.045016684
26	0x3c6b9bfa	0.014380449
27	0xbd08bdeb	-0.033384245
28	0xbc7f3099	-0.015575551
29	0x3d37ac88	0.044842273
30	0x3d391a47	0.045191076
31	0x3e03157d	0.12801166
32	0x3cd8dac7	0.026471509
33	0xbd21653c	-0.039403185
34	0x3cc8ab64	0.024495788
35	0xbd02c110	-0.0319224
36	0x3d5fb052	0.05461151
37	0x3d7c8638	0.06165144
38	0x38fe396c	0.000121223595
39	0xbb109fe3	-0.0022067956
40	0x3dec545c	0.11539528
41	0x3cad99b6	0.02119146
42	0x3df46228	0.11932784
43	0x3cc74994	0.024327077
44	0x3dbe0b6a	0.09279521
45	0x3d5716d7	0.052512016
46	0xbd962e8b	-0.07333096
47	0xbb90081c	-0.004395498
48	0x3bebddbf	0.007198065
49	0x3d865c7f	0.06560611
50	0x3a29d321	0.0006478299
51	0x3c69a490	0.014260426
52	0x3da23163	0.07919576
53	0x3cab8cd6	0.02094118
54	0xbcedc5f3	-0.029025054
55	0x3c9e7d60	0.019346893
56	0x3d5caf7b	0.05387829
57	0x3e15911c	0.14606136
58	0x3d2816a0	0.041037202
59	0x3d902a8f	0.070393674
60	0x3c364893	0.0111257015
61	0xbd89665a	-0.06708975
62	0x3d3542ea	0.044253267
63	0x3d2d8900	0.04236698
64	0x3cb99d7b	0.0226581
65	0xbe8254fe	-0.2545547
66	0xbb817280	-0.003950417
67	0xbd3faad9	-0.046793792
68	0x3c5d88e4	0.013521407
69	0x3e2a3a16	0.1662372
70	0xbc9d3846	-0.019191872
71	0xbd563422	-0.05229581
72	0x3c8d0017	0.017211957
73	0x3bcc2e3d	0.006231098
74	0x3e1f2357	0.15540825
75	0x3c96cde7	0.018408729
76	0x3d462ad3	0.048380684
77	0x3d6eb1ad	0.058274914
78	0x3c63ad3f	0.013896286
79	0x3db6b8ab	0.08921941
80	0x3d1b5693	0.03792436
81	0x3da3716b	0.07980617
82	0x3d6eeac1	0.058329348
83	0xbcffed7f	-0.031241177
84	0xbd02f2cc	-0.03196983
85	0x3e6912c8	0.2276107
86	0xbcd65479	-0.026163327
87	0xbd5b69ec	-0.05356781
88	0x3cfdd0d0	0.030983359
89	0x3cbca54c	0.023028038
90	0xbd0dbfee	-0.034606867
91	0xbd8a99de	-0.06767629
92	0x3e0dd3b7	0.13850294
93	0xbce14cc7	-0.02750243
94	0x3d88d619	0.06681461
95	0x3c417c2a	0.011809388
96	0xbcd93d06	-0.026518356
97	0xbc6224e4	-0.013802741
98	0xbb874141	-0.004127652
99	0xbc6741e0	-0.014114827
100	0x3dd296e5	0.10282687
101	0x3b7b7aaa	0.0038372674
102	0xbcd6a597	-0.026202006
103	0x3dd24242	0.10266544
104	0x3ca87d6a	0.020567615
105	0x3dde92ec	0.10867867
106	0x3d774239	0.06036589
107	0xbcb7390b	-0.022366067
108	0x3dc0077e	0.09376429
109	0x3d768f35	0.060195167
110	0x3bc43001	0.005987168
111	0x3d4c4ddf	0.04987895
112	0x3c8e08bd	0.017338151
113	0x3e6cd255	0.2312711
114	0x3d6f638e	0.058444552
115	0xbddffe4f	-0.109371774
116	0x3dcce306	0.10004239
117	0xbabe0f51	-0.0014500414
118	0x3ddd3a8b	0.10802182
119	0x3d5de042	0.054168947
120	0xbd907b2b	-0.070547424
121	0x3db01931	0.08598555
122	0x3d92b3bf	0.0716319
123	0x3cfb7a21	0.030697884
124	0xbcecfe38	-0.028929815
125	0xbcb7c8c9	-0.022434609
126	0x3d2402b0	0.040041625
127	0x3cfdd049	0.030983107
128	0xbd0fa47f	-0.035068985
129	0x3c9c0acf	0.019048123
130	0x3dbc72fb	0.09201618
131	0x3e249983	0.16074185
132	0x3e4a1383	0.19734006
133	0x3b039d8a	0.0020082914
134	0x3cf56c30	0.029958814
135	0xbd6fc13d	-0.058533896
136	0x3cc07d49	0.02349724
137	0xbc80f83b	-0.015743366
138	0x3cd53dc1	0.026030423
139	0xbc9e02ef	-0.019288508
140	0x3d3e175e	0.046409003
141	0x3c2bad43	0.0104783205
142	0x3c063fc8	0.008193918
143	0x3c087e9a	0.008330965
144	0x3e2c3047	0.16815291
145	0xbc56ac38	-0.013102584
146	0xbdbe2686	-0.092846915
147	0xbca88ea2	-0.020575825
148	0x3d87e426	0.06635313
149	0xbd04f315	-0.032458384
150	0x3d303cf1	0.04302687
151	0x3e20be28	0.15697539
152	0x3dc71e4d	0.09722576
153	0x3d8c31c1	0.06845427
154	0xba2c00dd	-0.0006561408
155	0xbcda0523	-0.026613778
156	0x3d15973c	0.03652118
157	0x3dcc3e42	0.09972812
158	0x3deed059	0.11660833
159	0xbd1b79fc	-0.03795813
160	0xbd7398b7	-0.059471812
161	0x3be03166	0.0068418263
162	0x3d67b504	0.056569114
163	0xbd2f7094	-0.042831972
164	0x3d2678df	0.040642615
165	0x3d9396fd	0.07206533
166	0xbc2c7524	-0.010525975
167	0x3bf75aa8	0.007548649
168	0xbe54631a	-0.20740929
169	0x3d2ede90	0.04269272
170	0xbcbfeedf	-0.023429332
171	0x3da412e8	0.080114186
172	0xbd7b2625	-0.061315674
173	0x3e1927fc	0.14956659
174	0xbc8f2896	-0.017475408
175	0x3bb30212	0.0054628933
176	0xbd00704b	-0.03135709
177	0x3d59c2a1	0.05316413
178	0xbdc7aa6e	-0.09749304
179	0xbd991c29	-0.07476074
180	0x3d5c4743	0.053778898
181	0x3ac3f830	0.0014951285
182	0xbd4bac5e	-0.04972493
183	0x3bf1f6ec	0.0073841717
184	0x3da7b1ad	0.08188186
185	0xbe086a46	-0.1332179
186	0x3d768bcd	0.06019192
187	0xbc381a41	-0.011236728
188	0x3e31a318	0.17347372
189	0x3d1f3a22	0.0388738
190	0x3d06491e	0.032784574
191	0x3cbe3d39	0.023222553
192	0x3d5ce6d5	0.053931076
193	0x3ddd5be3	0.108085416
194	0xbca77f30	-0.02044639
195	0x3c566406	0.013085371
196	0xbc489fb0	-0.012245104
197	0xbdfd34fd	-0.12363622
198	0xbccc05ab	-0.024905046
199	0x3c117bd6	0.008879622
200	0xb9d0fa73	-0.0003985945
201	0xbcabc53f	-0.020968078
202	0xbe894e01	-0.26817325
203	0x3d79cbc2	0.060985334
204	0x3d8a2582	0.06745435
205	0x3d8ece8f	0.06972992
206	0xbbc2dfd4	-0.0059470925
207	0x3d48769f	0.04894125
208	0x3da473f5	0.080299295
209	0x3d14c67d	0.036322106
210	0x3c17355e	0.009229032
211	0x3d626698	0.055273622
212	0x3c64502f	0.013935133
213	0x3cd3167b	0.025767555
214	0xbe3706c0	-0.17873669
215	0xbc80207d	-0.015640492
216	0x3d23933c	0.039935336
217	0x3c8d2c0f	0.017232923
218	0x3dab32da	0.083593085
219	0x3d3443cf	0.04400998
220	0x3e8318ba	0.25604802
221	0xbd4889fb	-0.048959713
222	0xbb5a49d5	-0.0033308167
223	0xbb5d5cc9	-0.0033777228
224	0xbd973d83	-0.07384779
225	0x3d8d73d6	0.069068596
226	0xbc3a9abd	-0.011389432
227	0x3d4eb3dc	0.050464496
228	0x3cc04775	0.023471573
229	0x3d1bb2e2	0.038012393
230	0xbc7c61ea	-0.015404204
231	0x3dc2adec	0.09505829
232	0x3d6fbc17	0.058528986
233	0x3d9d92c6	0.076940104
234	0x3c3d96e4	0.01157162
235	0xbd2a9f64	-0.041655913
236	0x3d287b5f	0.04113328
237	0xbd89b6e5	-0.067243375
238	0x3d17f16a	0.037095465
239	0x3dc19cbb	0.09453722
240	0x3d358d8a	0.044324435
241	0x3d82e3ca	0.063911036
242	0xbbefcbe7	-0.007318008
243	0xbda131db	-0.07870837
244	0xbda39a5f	-0.07988428
245	0xbd86a5fb	-0.06574627
246	0x3d963c05	0.073356666
247	0x3d82810e	0.063722715
248	0xbb256f16	-0.0025243214
249	0xbc7d8d18	-0.015475534
250	0x3d5b8450	0.05359298
251	0x3db1ca62	0.086811796
252	0x3b930d43	0.004487665
253	0xbcdbc9b3	-0.026829576
254	0x3cc9f06a	0.024650771
255	0x3d2bbb20	0.041926503

advantage.2.bias f4 [3]
0	0x3db05936	0.08610766
1	0xbd4a7fa4	-0.049438134
2	0xbd88c34f	-0.06677877
