model/DuelDQN_Copy_2/checkpoint_600.pth (torch, 287029 bytes, 9 tensors)

feature.0.weight f4 [256, 16]
00000000: 5522 abbc cf47 afbd aa4a 153d 790f 0f3e
00000010: 7ef1 a5bd a803 c43c 9417 29be ebbc a2bd
00000020: fd3f 923c f1c4 16bd 7202 72be 284e 9cbe
00000030: b8ef bfbd 2840 b2bd b091 2ebd 78e8 4bbe
00000040: 3ed5 413e a19e 97bd d3f2 d0be 8c3e ad3e
00000050: 986d cabe 03db 1fbf bf65 5cbe 8256 1cbf
00000060: 5c4e ecbd a3ba dd3d f82b c1be 68d1 8abe
00000070: d4c1 723d 68c6 b1bd 00d1 ccbd fd31 783c
00000080: aa55 503d f9be 67be 22c3 01be f30c 9ebe
00000090: 2574 8f3d fb2b 90be 5184 a43d fe5c b8bd
000000a0: 2499 d6bc 6bcd 68bd de4c 3cbe b0b4 f43a
000000b0: 0473 783d 9263 98be 3873 a1bd 716d 5cbd
000000c0: dcc2 4bbe 54cd 9b3d 04ee 5abe 47a8 7b3d
000000d0: e49b 90be 1cd8 87be 37cf 2cbc 4a69 4dbe
000000e0: 753d 45be 1c75 58be d341 cc3c 7c98 adbe
000000f0: db32 75bd a53b 103d ee7a 5e3e 8fab c93b
00000100: 396e a2be 6088 9bbd 01ef 5fbe e002 313e
00000110: 5088 bfbe 9215 223e 83ce 4a3e a5b0 1cbf
00000120: 26be cf3d 1746 303d ecca 65b8 d67c 103d
00000130: 171e 97be f018 b93e 7587 2cbe 23ec 93bd
00000140: 1973 383d ea28 e13d 83d4 4fbc 153d a8be
00000150: 3b9c ddbd 5f3b bdbd efd5 dabd 3bef 963d
00000160: 0484 25be 9a77 8dbc d9cc aabd ddae 47bd
00000170: a362 88be f568 15bc c9e7 133e 3db7 763e
00000180: 8b44 1abf de97 673e 707b 613e 1839 e3be
00000190: 35e5 b3be 208d 0fbe 203a 07be 6191 62be
000001a0: f7ea bcbe f287 65be fa0a 613d 74fb 55be
000001b0: a51a afbd cbb3 d73d 7ee9 7ebe c899 8cbe
000001c0: 6ebc 7ebe 1afc e33e 938f 003e 3eda ab3e
000001d0: 0fcf cbbe 0bd5 6bbd 7787 ecbe 3184 3fbf
000001e0: 413f 80be a497 8bbe f2b1 3f3b 9f8d 83bd
000001f0: 12b1 7a3c f78e 12bd 24c6 333e e5bd 3b3d
00000200: 2462 32bd 3d9f c43d 8515 26bd 00b6 29bd
00000210: c517 76be 6adc a8be 9b5e a4be 1cb5 e0bd
00000220: c0de 81bd fbd1 bdbe 1dd6 01bf 3793 adbc
00000230: 8483 3c3d b6c8 2cbe 7436 9bbe edfe cdbb
00000240: 6fe5 1a3e addc 033e f4f3 4d3d 67df e23d
00000250: 6e04 a7be 1cd4 9abe a865 c0be d2de 76be
00000260: ecd7 11bd 551b 08bd 5203 2bbf d29c 17be
00000270: 53dd 11be f282 d8be dfd7 7fbe dedb 113e
00000280: 6023 c53e 579b f5be 87b2 303f 0122 9f3e
00000290: 1277 36be c71a 07bf b46d 5a3c 2810 adbe
000002a0: f776 443e c435 d53d 963a 1abd 0150 70bd
000002b0: ec80 db3d 0dd6 893c 9a0b 95bd db6f 2bbe
000002c0: 4624 05be 0835 a23b 98e4 b6bc 8907 afbd
000002d0: c83b 5abe ca5f 0abe 26e3 3abe 4031 85bd
000002e0: 7952 e93d b85e 8b3d 5328 853d 2cb4 3ebe
000002f0: 6f47 d13c dcac 92bd a880 563d 8abe 3b3e
00000300: 82db 1abf 6913 893e aa8d 88bc 6557 06bf
00000310: d26a 01bf a55d 8d3d 3312 613e 9a23 4ebf
00000320: bbfc 1fbf 1775 183d 19bb 493e 7373 bebd
00000330: 9fbc 65be 1cbb d5bd 69d1 fdbd 157d fabd
00000340: d7e2 143f 187d 9c3e 3dd3 5fbf 5cbe e5be
00000350: 0fb5 0abe eb5f fc3d 1ce8 cdbd 7498 babe
00000360: e35f 60be d698 6c3e 7295 77bd 9a59 bdbd
00000370: a2da 8c3d 8bef c53e b0e7 62bc 208b e13d
00000380: c25e 01bc 9869 86bc 0c41 0dbf e2ed 66be
00000390: af4a 93be 46f3 0bbf 4b26 113f 5639 f9be
000003a0: cd98 13bb 8c27 bb3e a838 e3be ce10 8cbe
000003b0: 9f12 10be ef41 223e 7de4 943d edc6 f23e
000003c0: ed39 0e3d 2718 3cbd adf2 bc3d 9976 febd
000003d0: 8e60 25be 6093 05be d4c0 e4bd 35bc 9b3d
000003e0: 564b 40be 2f08 7cbe b230 7dbc bdc0 a2bd
000003f0: 16d9 05bd 50dd f7bd 6049 f8bd 6431 74bd
-0.020890394 -0.08558618 0.03644816 0.13970746 -0.081027016 0.023927525 -0.165129 -0.079461895
0.017852778 -0.03680891 -0.23633745 -0.30528378 -0.093718946 -0.08703643 -0.042619407 -0.19912899
0.18929002 -0.07403303 -0.4081026 0.33836782 -0.39536738 -0.6244356 -0.21523188 -0.610695
-0.11538383 0.10826614 -0.37728858 -0.2711289 0.05926688 -0.08680421 -0.10000801 0.015148637
0.050862946 -0.22631444 -0.12672094 -0.30869254 0.07004575 -0.28158554 0.0803305 -0.09002112
-0.02619607 -0.056836527 -0.18388698 0.0018669572 0.060656562 -0.29763466 -0.07883304 -0.05381531
-0.19898552 0.076075226 -0.21379858 0.06143978 -0.28243935 -0.26532066 -0.010547451 -0.20059696
-0.19261725 -0.21138424 0.024933731 -0.339054 -0.059862953 0.03521313 0.21726581 0.0061544846
-0.31724718 -0.07594371 -0.21868517 0.17286253 -0.37408686 0.15828541 0.1980534 -0.6120704
0.1014369 0.043035593 -5.478684e-05 0.035275303 -0.29515144 0.36151838 -0.16848548 -0.07222774
0.04503164 0.10994132 -0.012684944 -0.32859102 -0.10820814 -0.0923984 -0.10685336 0.07369848
-0.16163641 -0.017268945 -0.08339853 -0.048750747 -0.26637754 -0.009119262 0.14443888 0.24093337
-0.6026084 0.22616526 0.22019744 -0.44379497 -0.3513581 -0.14018679 -0.13205767 -0.2212577
-0.36898014 -0.2241514 0.05494211 -0.20896703 -0.08550004 0.1053234 -0.24893758 -0.27461076
-0.24876568 0.44528276 0.12554769 0.33564943 -0.3980641 -0.05757622 -0.461971 -0.74811083
-0.2504826 -0.2726413 0.002925035 -0.064234965 0.015301006 -0.035780873 0.17556053 0.045835394
-0.043550625 0.09600685 -0.040547866 -0.041433334 -0.24032505 -0.32980663 -0.32103428 -0.10972044
-0.06341314 -0.37074265 -0.50717336 -0.021188362 0.04602386 -0.1687344 -0.30314982 -0.006286493
0.15126584 0.1287715 0.05028148 0.11077767 -0.32620567 -0.30239952 -0.37577558 -0.24108437
-0.03560631 -0.03322919 -0.6680194 -0.14805916 -0.14244585 -0.42287403 -0.24984692 0.14244029
0.3850355 -0.47970077 0.6902241 0.3108063 -0.17818859 -0.52775234 0.013331819 -0.3380139
0.19186006 0.104106456 -0.03765353 -0.058670048 0.10717949 0.0168257 -0.072776034 -0.16741888
-0.13002118 0.0049501695 -0.022325799 -0.08546359 -0.21311867 -0.13513103 -0.18250713 -0.06503534
0.113926835 0.068051755 0.06501832 -0.18623418 0.025546758 -0.071618766 0.05236879 0.18334404
-0.6049119 0.2677262 -0.016669113 -0.52477103 -0.5055362 0.06902627 0.21979599 -0.80523074
-0.6249501 0.03722104 0.19700278 -0.09299364 -0.22435234 -0.10436079 -0.123934574 -0.12230889
0.5815863 0.3056419 -0.874317 -0.44871795 -0.13545631 0.123229824 -0.10054037 -0.36444438
-0.21911578 0.23105177 -0.060445257 -0.09245606 0.068776384 0.3865932 -0.013849184 0.11012864
-0.007896127 -0.016407773 -0.5517738 -0.22551683 -0.28767917 -0.5466808 0.56699055 -0.48676556
-0.0022521496 0.3655361 -0.44379163 -0.2735657 -0.14069603 0.15845464 0.07270143 0.47417393
0.03472321 -0.04592147 0.09225974 -0.124249645 -0.16150114 -0.130445 -0.111695915 0.07604257
-0.18778738 -0.24612497 -0.015453504 -0.07946918 -0.032677732 -0.12102759 -0.1212337 -0.059617415

feature.0.bias f4 [256]
00000000: 008f 03be 0ae8 7bbe beb5 3ebe d382 62be
00000010: 4f05 253e b30d cabe 8473 8bbe 8167 b2be
00000020: 03f0 183c 4c07 b5be f8ee a7be 5f5f 99be
00000030: 1bac aabd e46b d4be 1695 4bbe 2edb d0bd
00000040: 7388 9ebe 98eb b0be 9173 03bf 345c b2be
00000050: e9c2 d4bd ea65 5bbe 8680 bc3e 1bb4 00bd
00000060: 04c3 3abe 72bc f2bd 7186 66be 203d 94bd
00000070: e611 be3e 91cb c0be d222 b5be 48a9 98be
00000080: 2814 02be a9a9 98be ce9c a2be 73cf 08be
00000090: 5df5 4ebe 2379 d4be cf65 81be ddc8 d43c
000000a0: 9473 c6be 8eff 81be b1dc e5be 71a9 a7be
000000b0: 4085 86be b150 7fbd f398 39bd e583 14be
000000c0: 6f1c e8be 422e e2bd 411c acbe 21a4 edbd
000000d0: be5b 96bc 8e2a cabd 2864 bbbe 7e70 f4be
000000e0: ac21 9e3d 23e2 acbe b1bd 04be c373 8ebe
000000f0: 6405 46bd 2ebd 0e3b 7c11 d9be 5908 d6be
00000100: 155d 643e cfbd 17bd 7b83 0a3f 5b61 333e
00000110: 4e11 cfbe 6baa 1dbf fb87 09be eb8a 2bbd
00000120: 88b5 0cbd e899 9abe 14e5 b5bd 5200 02bf
00000130: 9704 2cbe cea2 babe 8b4e c93d 5268 3bbe
00000140: 4161 e8be 73cf 5f3e dc49 d6be ae7d f0be
00000150: 89ad 90be d001 003e f653 fbbd b3ed e1be
00000160: 9ef7 83be f59a 9bbe 915d e0be 7a49 40bd
00000170: e192 d0be bfab a9be 665f 7abe 0d4a 88be
00000180: 6705 04bf bb31 99be 1b05 39be 1639 e9be
00000190: 5237 7fbe 3ec0 a3be 4f56 d5be 6f53 e63d
000001a0: 7d04 dabe cfc0 61bd 7a0a 0dbf aa24 d9be
000001b0: 5f1a 03be 3f5f 4ebe 91db cfbe 4fca 6fbe
000001c0: 5363 ddbd e2f0 a7be 47b1 bcbe 9dd8 60be
000001d0: 2478 38bd b3d9 12be 0af4 95be 7a69 63be
000001e0: ba11 fabd fcba a3be b630 a0bd 83df 2f3d
000001f0: 7715 323e 7d88 0cbe 65ee cabd 816c e7be
00000200: 7d98 20bf b99e 5abe 97ce 36be bdce 97be
00000210: 8f0c b3be 535c b3bd 03ea 85be f64a 85be
00000220: 1c80 a5be f513 9fbd 6c46 9bbe 8bbd 1ebe
00000230: c1ed 2c3e d5ef ae3e 6f4d 03be 531e 98bd
00000240: 26b7 85be 45e6 e7be 887d 3fbe e099 75be
00000250: 476b 59bd 39b3 8cbe 5910 afbe 037f 6f3c
00000260: 703b 4abe e160 04bf f5cc 66be e0cf 19be
00000270: e841 e4be b2d5 3fbd c0f0 b43e 4155 833e
00000280: 8e35 7f3e 632d 5ebe 2058 84be fae8 b53d
00000290: 13e1 79bd e0d5 d4be f604 a7bd 7202 a1bd
000002a0: ee1c febd beb7 d6bd 1674 a0be 249f df3a
000002b0: 4f15 aa3e 85aa 90be a48a bbbd 963d 6cbe
000002c0: f9b7 79be 1dec 32bd 959b 58bd 2aaa 8dbd
000002d0: 1162 babe 9d62 a9be a561 a1be 890e 07be
000002e0: 2ee6 d4bc 493d b43d b675 3cbe d930 a7be
000002f0: bd40 15be 56b2 96bd 4854 80be e0cc a3be
00000300: 41b6 06be 0093 7ebe ea4d c8be 562a 07be
00000310: db7d 9ebe 9bd3 6abe 6640 a6be d633 08be
00000320: a7ba a9be 09b6 bcbe eb76 91be 4314 a3be
00000330: cbae 893e 6fd6 ecbd cfdf 4b3e 29c8 4cbe
00000340: 99ea 6ebe 8076 55be a3fd f8bd b818 8abe
00000350: 3657 49be 4dd0 96bd 9443 24be 8b23 053e
00000360: 17d6 60bf 7ca4 5abe 0ef6 26bd df7f 813c
00000370: 7bd6 19bf 8e0c b4be 32f6 f53e d44a 2dbe
00000380: 1835 72be cf34 86be 96fd 35bf 953a 09be
00000390: 494a 38be 3176 90be 315e 06be a748 89be
000003a0: eea4 a9be 0fb9 2cbe e2dd ca3a ecaa d6be
000003b0: 9e2e c53e 9e58 fcbd 9ac1 15bd 4c96 85be
000003c0: 6f4c 53be 7dea 2bbe 5be3 78be f770 b2be
000003d0: 3036 efbe a3c8 0a3e 88d2 2bbc 5649 c3be
000003e0: 45ba 9cbe 2721 d7bd e292 fbbd 0f41 cebe
000003f0: 87b5 abbe af1f 5fbc ff14 f0bd b63b 54be
-0.12847519 -0.24600235 -0.18624017 -0.22120218 0.16115306 -0.39463577 -0.2723657 -0.34844592
0.009334567 -0.3535713 -0.32799506 -0.29955575 -0.08333608 -0.41488564 -0.1988109 -0.10198055
-0.30963477 -0.34554744 -0.51348215 -0.3483597 -0.10388739 -0.21425596 0.36816806 -0.031421762
-0.18238455 -0.11852349 -0.22512223 -0.07238221 0.3712303 -0.3765531 -0.35378128 -0.2981665
-0.12703001 -0.2981694 -0.31760257 -0.13360386 -0.20210786 -0.4149867 -0.25272986 0.025974685
-0.38760054 -0.25390285 -0.44894937 -0.3274646 -0.26273537 -0.062332813 -0.04531188 -0.14503439
-0.45334193 -0.11043979 -0.33615306 -0.11603571 -0.018354293 -0.09871398 -0.3659985 -0.47742075
0.07721266 -0.3376628 -0.12962987 -0.27822694 -0.048344985 0.002178024 -0.42396152 -0.41803244
0.22301133 -0.03704625 0.54106873 0.17517607 -0.4044289 -0.6158816 -0.13430779 -0.04188053
-0.03435281 -0.30195546 -0.08881584 -0.5078174 -0.16798626 -0.36452335 0.09829434 -0.18301514
-0.453867 0.2185648 -0.41853225 -0.46970886 -0.28257397 0.12500691 -0.12271874 -0.44126663
-0.25774854 -0.3039166 -0.43821386 -0.046945073 -0.4073706 -0.33138844 -0.24450454 -0.26618996
-0.51570743 -0.29920754 -0.18068354 -0.45551366 -0.24923447 -0.31982607 -0.4166741 0.112463824
-0.4258155 -0.055115517 -0.5509411 -0.42410785 -0.12803029 -0.20153521 -0.40597203 -0.23417018
-0.1080996 -0.32800967 -0.36854002 -0.21957631 -0.04503645 -0.14340858 -0.2928775 -0.22208205
-0.12210412 -0.31978595 -0.07821791 0.042937767 0.17391 -0.13723941 -0.099087514 -0.4519997
-0.6273268 -0.2134961 -0.17852245 -0.29649916 -0.3497052 -0.08757844 -0.261551 -0.26033753
-0.32324302 -0.077674784 -0.30327165 -0.15501992 0.16887571 0.34167352 -0.12822507 -0.07427659
-0.26116294 -0.4529287 -0.1870023 -0.2398448 -0.053080823 -0.27480486 -0.3419216 0.014617684
-0.19749236 -0.51710325 -0.22539122 -0.15020704 -0.44581532 -0.046834655 0.35339928 0.2565098
0.24922773 -0.21697001 -0.25848484 0.088823274 -0.061005663 -0.41569424 -0.08155243 -0.078617945
-0.12407862 -0.10484265 -0.31338567 0.0017060977 0.33219382 -0.28255096 -0.09157303 -0.23070368
-0.24386586 -0.043682206 -0.05288275 -0.06917222 -0.36402944 -0.33083048 -0.3151981 -0.13189138
-0.025988664 0.08800752 -0.18404278 -0.32654455 -0.14575477 -0.07358234 -0.25064301 -0.31992245
-0.13155462 -0.24860764 -0.39121944 -0.13199744 -0.30955395 -0.22932284 -0.32471007 -0.13301024
-0.33150217 -0.36857632 -0.2841104 -0.31851396 0.2689117 -0.115643375 0.19909595 -0.1999823
-0.2333168 -0.20845985 -0.12157752 -0.26971984 -0.19662175 -0.07363949 -0.16041404 0.1300184
-0.87826675 -0.21351808 -0.040762 0.015808044 -0.60092896 -0.35165828 0.48039395 -0.16923076
-0.23653066 -0.26212165 -0.71090066 -0.13401254 -0.17997088 -0.28215173 -0.13121869 -0.26813242
-0.33133644 -0.16867469 0.0015477503 -0.41927278 0.3851213 -0.1232159 -0.036561586 -0.2609123
-0.20634626 -0.16788669 -0.24305479 -0.3485181 -0.4672103 0.135531 -0.010487206 -0.38141888
-0.30610862 -0.1050437 -0.12283875 -0.4028401 -0.33536932 -0.013618394 -0.11722755 -0.20725903

value.0.weight f4 [128, 256]
00000000: 1769 23bd f137 fcbc 9a9b bcba 561f 603c
00000010: 3881 9e3c 66ad 24bd e7d6 273d e813 0f3d
00000020: 17a7 ee3c 57a1 20bd 4265 a4bd 3ddc 783d
00000030: c52d f3bc 969a 7abd e04a b73c b232 04bc
00000040: 56bf d3bc 925e 2b3d 8b0d 183d 61a5 5cbc
00000050: 23d6 e8bc 73b7 153d c7fa 0dbb 0209 9fbd
00000060: 9dbd 7ebd 000e 443c 912f 49bd b239 eebc
00000070: 5ecb 4bbd 863e 223d 76f3 6f3c 3515 a13c
00000080: 229b da3b eafd af3c e5f0 2b3d 691f 28bc
00000090: d4dc 19bd a50e 2abd 7931 63bd 2a38 b7bd
000000a0: 3b08 93bc e6c8 56bd 1039 09bd f5fb f6bc
000000b0: c23a 123d 3f0b 3b3d 71f9 89bc b867 e2bb
000000c0: af5e 2abd 3203 36bd c782 f2bc 5934 67bd
000000d0: b634 3abb a93d 6dbd e179 3bbd c279 08bb
000000e0: bf0e 6bbc 3199 fdbc d08a 5c3d c1d6 4a3c
000000f0: 8814 01bd 39fb 41bd 294d 5bbc 0e51 5bbd
00000100: fe00 bb3c ed58 6dbd 7ac7 c5bd 3b83 933c
00000110: fa88 01bc efd4 02bd b77b 53bd 3522 93bd
00000120: 663a 60bd 6b82 34bd 716b a4bd 299f 873c
00000130: cc83 3a3d d15e 1bbd 37b9 b33c 973b 68bd
00000140: 4751 503c fcf8 83bd da33 63ba b7e4 81bd
00000150: 7842 d23c 6203 c9bd 2585 2e3d 2146 44bd
00000160: 8815 12bd 7d97 53bc 50b1 3ebc 3c16 6b3c
00000170: cadd 4dbd b9fc cbbd 26f6 44bc c8d5 ff3c
00000180: bd9f 42bc 20dd 6c3d b67a 62bc 2d94 6cbd
00000190: b4fd 9bbc 786a 103c 0e43 23bd 0e89 773c
000001a0: 8fcc 103b 3cb6 8bbd a004 133c d012 bf3b
000001b0: eee8 afbc 0619 943b 1683 133d c520 ddbd
000001c0: 7809 463d 8232 e6bd 4547 b43c 7a39 f93b
000001d0: 6c3c 4bbc 70bc b63b a030 033c 121e a5ba
000001e0: d260 60bd 4306 3eb9 fe45 3d3d 8cad 1fbd
000001f0: 588c 23bd 1b29 96bd 0af8 303d 66a4 9bbd
00000200: 3b82 ba39 595f f1bd 4d00 80bd ce79 413d
00000210: 28b8 123d da31 3cbc c67f f8bc 1f5f 22bd
00000220: b4db 62bd da92 2a3c f428 4dbc df96 41bd
00000230: 2e6a 813c 21d6 05bd 3099 5ebc 0cb7 9e3b
00000240: 47f2 8bbc 37d7 2e3d 995e 86bc 7a42 8ebd
00000250: cfc5 2fbd 6881 e63c 4597 f0bc 0d24 80bc
00000260: 72e0 38bd b827 dfbc 3f8f 9fbd ab93 7cbd
00000270: dd69 67bd 7681 143d dad9 86bd 50e5 eebc
00000280: c086 e93c e06c 1abd 921e 5dbd 22b7 75bd
00000290: 8715 9abd 3314 29bd df7a bc3c 7d4b 4ebd
000002a0: 31de b0bd 3863 843c e26f c7bc f4a4 11bd
000002b0: d0a5 91bc a697 83bd 90ea c33a 692a cdba
000002c0: dc31 8fbb c450 ab3c cd24 dfbc 1fdb feba
000002d0: 46b0 0f3d 0b90 4fbd 6e1d e8bc 80e3 953a
000002e0: f071 f4ba 2ee6 aabd 87da d33c fc51 af3c
000002f0: 00cb c8bc 5fe3 08bd 7237 7d3c dd2e 8abd
00000300: 8ca1 1ebd 3cee 6dbd b4c1 32bb 3395 59bd
00000310: 99c8 83bd 6352 23bd ba9b 48bd 161d d23b
00000320: 09d8 23bd 3ae7 f3bb f8aa 05bd aee0 1abd
00000330: de5f 22bc c3c7 a3bd 7a30 98bd d0da 64bd
00000340: 4e39 72bd d79d 3dbd a58c 413c 2886 673d
00000350: d33c f0bb e2ce cfbc 0a76 6d3b 2689 303d
00000360: 0465 17bd 6714 54bd 2e52 65bd e043 413b
00000370: 5554 80bd 0d5c 613d 5a10 3bbd dd8c b9bd
00000380: b73e b53c c8f1 fcbc 6dff d43d 8e37 a13c
00000390: 9273 29bd 1a97 b23c e8d3 e0bc 190a 0e3c
000003a0: ae67 4cbc 6a1c 443d 0e65 09bb 8391 71bb
000003b0: 9b6f 92bd 4da7 403d bd61 f6bc dd70 e2ba
000003c0: 451c 8cbc c3d9 1cba 8ebc 37bc 54f7 c13c
000003d0: 0682 31bd 9e7d 3ebd e231 99bd c811 053c
000003e0: daea 2bbd 1229 c83c 0102 04bd 7096 383d
000003f0: 715f 6a3d 5fb8 8ebd 1caf 9bbc 10ad 85bb
-0.039895143 -0.030788394 -0.0014389635 0.013679346 0.019348726 -0.040204428 0.04097643 0.034931093
0.029132409 -0.039216366 -0.08027126 0.06075691 -0.02968491 -0.06118258 0.02237457 -0.008068727
-0.025848072 0.041838236 0.03712229 -0.013467164 -0.02842242 0.036551904 -0.0021664368 -0.0776539
-0.062192548 0.0119662285 -0.04911763 -0.029080246 -0.049754493 0.03961041 0.014645448 0.019663433
0.0066713253 0.02148338 0.04197778 -0.010261395 -0.037564114 -0.041517872 -0.055467103 -0.08946259
-0.01794826 -0.052437685 -0.033501685 -0.03014944 0.035700567 0.045665022 -0.016842576 -0.006909337
-0.041594204 -0.04443664 -0.029603375 -0.056446407 -0.0028412766 -0.05792013 -0.04577053 -0.0020824526
-0.014346777 -0.030956836 0.05384332 0.012380303 -0.03151372 -0.047358725 -0.013385096 -0.053544097
0.022827622 -0.057946134 -0.09657188 0.018006912 -0.007906193 -0.03194135 -0.051631656 -0.07184259
-0.054743193 -0.04406969 -0.08028305 0.016555386 0.045535848 -0.03793222 0.021938903 -0.056697454
0.0127146905 -0.064439744 -0.0008667089 -0.06342452 0.02566646 -0.09815098 0.042607445 -0.047918443
-0.035665065 -0.012914536 -0.011638954 0.014348563 -0.050260343 -0.099603124 -0.012021577 0.031229869
-0.011878905 0.05782807 -0.013823202 -0.0577585 -0.019041874 0.008814447 -0.03985887 0.01510836
0.0022094583 -0.06821868 0.008973271 0.0058311 -0.021473374 0.0045195846 0.036013685 -0.10797266
0.048348874 -0.11240102 0.02200664 0.0076057287 -0.012404542 0.0055766627 0.008007199 -0.0012597463
-0.054779835 -0.00018122145 0.046209328 -0.038983867 -0.039928764 -0.07332059 0.0432053 -0.07599716
0.00035573714 -0.11785764 -0.06250057 0.047235303 0.035820156 -0.011486495 -0.030334365 -0.039641496
-0.055385306 0.010410989 -0.012521971 -0.047263023 0.0157977 -0.032674912 -0.013586327 0.004843598
-0.0170833 0.042685714 -0.01640253 -0.06946273 -0.042913254 0.028137878 -0.029369006 -0.01564219
-0.045135923 -0.027240619 -0.07790994 -0.061664265 -0.056497443 0.036256276 -0.06584521 -0.02916208
0.028506637 -0.037701488 -0.053984232 -0.059989102 -0.07523637 -0.04127903 0.023007808 -0.05036496
-0.0863613 0.016160592 -0.024345342 -0.035557702 -0.01777926 -0.06425409 0.0014947224 -0.0015652898
-0.0043699574 0.020912535 -0.027239228 -0.0019443965 0.035080217 -0.05067448 -0.028334346 0.0011435598
-0.0018649679 -0.083446845 0.025861038 0.021401398 -0.02451086 -0.033419963 0.015455114 -0.0674722
-0.03872828 -0.058088526 -0.00272761 -0.053120803 -0.06434745 -0.039873492 -0.048976637 0.0064121587
-0.04000095 -0.007443336 -0.03263375 -0.037811927 -0.009910552 -0.07997086 -0.07431121 -0.05587274
-0.05913668 -0.046293106 0.011813317 0.056524426 -0.0073314696 -0.025367204 0.0036233687 0.043099545
-0.03696157 -0.05177727 -0.055986576 0.002948992 -0.06266085 0.055019427 -0.04566989 -0.09060071
0.022124631 -0.030877009 0.10400281 0.01967981 -0.041369982 0.021800566 -0.027444795 0.0086694
-0.012475891 0.04787866 -0.0020964774 -0.0036860413 -0.07150193 0.04703455 -0.030075902 -0.0017276068
-0.017103324 -0.0005983377 -0.011214389 0.023677506 -0.04333689 -0.046506517 -0.074802175 0.008121915
-0.04197202 0.024433646 -0.032228474 0.045065343 0.057219926 -0.0696876 -0.019004397 -0.0040794685

value.0.bias f4 [128]
00000000: 4656 a6bd 36d5 fcbd b2c0 86bd 6ab0 3fbe
00000010: 132a 8bbd 85ed a3bd 833c 0cbe b328 8cbe
00000020: 53d7 dbbd 34c0 20be f614 97bd 1f09 dbbd
00000030: f596 9bbe 5c79 f7bd a7dd b7bd 0949 ffbd
00000040: 4123 6ebe 08fe e4bd be21 1cbe e539 97bd
00000050: b43b 3bbd aa16 b7bd 5ec4 60bd 2b14 f9bd
00000060: e867 e5bc b218 d8bd 0950 9ebd abce e8bd
00000070: 4126 f2bd a406 bbbd d8df 113e ccc1 3bbd
00000080: 4d08 78bd 18a5 6cbd a33f 3fbe 53fe 31be
00000090: e2ba 52bd 945e 7ebd 7c7a 66bd 9fef 5abd
000000a0: 17cd b0bd bbb7 803d 4dde 31bd 75d3 7fbe
000000b0: 3a20 a2bd 32fa dfbc ef87 40bd 8e7b 163f
000000c0: d666 35be 2f36 f5bd e7f4 c4bd 6e5e 01be
000000d0: 8761 50be d1f8 83bd b093 debd b215 67bd
000000e0: 0fc0 24be d9bd bdbd d580 47bd 9065 55bd
000000f0: a18c acbd 84af 36bd 4c46 9cbd 70bd 52bd
00000100: dcd3 0cbd 8cf7 dabc f48b 66bd cd57 a9bd
00000110: 5cb4 6bbd f3b4 02be a2b3 a0bd c4df 69bd
00000120: 251c 59be 9f33 d7bd c2ff 31bd a6bb 15be
00000130: ebed d9bd ae31 d2bd 2903 06bc 6023 e6bd
00000140: cca9 0dbe 0af2 2abe 611a f8bd 3942 70bd
00000150: 7398 c9bd d722 6abe 4323 dfbd 02bc 96bd
00000160: 4930 4cbd eb15 c5bd 6055 bcbd e0de c6bd
00000170: 8975 68bd e88c d63e c126 adbe 7ac4 f7bd
00000180: c56e 1cbe f58f cdbd 7f93 2abd 73ee 7d3e
00000190: 89fc 9cbc 3ce7 44bc 91e7 d2bd d862 fcbd
000001a0: 59ee 62be 47ca a1bd 561b 36bd 63ce 03bb
000001b0: cb95 14ba 3501 93be 15df d1bd d941 01be
000001c0: 4c7b 49bc ccee 1fbe 8fc7 eabd c3bc 06be
000001d0: 8ee8 85bd c42f b0bd 534c 8bbe 9982 1dbe
000001e0: afbb 94bd cbf9 01be 4b17 54be 08c4 91bc
000001f0: 2a2c 04bd 831e b3bd 7958 28bd 8acd f3bc
-0.08121924 -0.12345354 -0.065797225 -0.1871964 -0.067951344 -0.08004288 -0.13694958 -0.273748
-0.10734429 -0.1569832 -0.07377045 -0.10695099 -0.3038861 -0.12083694 -0.08977824 -0.12465102
-0.23255636 -0.11181265 -0.15247247 -0.073840894 -0.045711234 -0.0893987 -0.05487477 -0.1216205
-0.028003648 -0.10551585 -0.07730109 -0.11367544 -0.118237026 -0.09132126 0.14245546 -0.045839116
-0.06055479 -0.057774633 -0.18676619 -0.17382173 -0.051447757 -0.062101915 -0.056269154 -0.053451177
-0.08632868 0.06285044 -0.043424893 -0.24983008 -0.07916303 -0.027340982 -0.047004636 0.5878228
-0.1771501 -0.11973225 -0.09617024 -0.12633678 -0.20349704 -0.06443942 -0.10868013 -0.056417175
-0.1608889 -0.09264726 -0.04870685 -0.05209881 -0.0842526 -0.04460098 -0.076305956 -0.051450193
-0.034381732 -0.026729368 -0.056285813 -0.082687 -0.05754505 -0.12764339 -0.07846762 -0.057098165
-0.21202143 -0.10507893 -0.0434568 -0.14622363 -0.106410824 -0.10263382 -0.008179464 -0.11237216
-0.13834304 -0.16693893 -0.121144064 -0.058656905 -0.098435305 -0.22864853 -0.108953975 -0.073600784
-0.049850736 -0.09623321 -0.091959715 -0.09710479 -0.056752715 0.41904378 -0.3381863 -0.12098022
-0.1527663 -0.10037223 -0.04164457 0.24797992 -0.019163387 -0.012018021 -0.10298074 -0.123235404
-0.22161235 -0.078999095 -0.044459663 -0.002011203 -0.0005668073 -0.28711858 -0.10247628 -0.12622775
-0.012297463 -0.15618438 -0.11463844 -0.13157944 -0.06538497 -0.086028606 -0.27206668 -0.1538185
-0.0726236 -0.12692945 -0.2071201 -0.01779367 -0.03226868 -0.08746054 -0.0411 -0.029761095

value.2.weight f4 [1, 128]
00000000: 25ae db3c 6424 0f3e b30c 89bc b819 83bb
00000010: 2289 133d 1791 4dbd 6475 e9bc c2d8 2d3e
00000020: 813b 073c ee94 18bf d22c d03c 4264 953b
00000030: 1bd8 1ebe 790e 9fbc 2e25 5a3c c8a7 8c3b
00000040: 2b98 e7be c7c7 a5bc 6eb0 51bb d512 cabc
00000050: ce0f 0d3c 226d 043c 2a1e 10bc 9e03 01bd
00000060: e82c edbc 1a0c 833c 002a b6bb a718 bd3c
00000070: 5a82 50bb 24a1 28bd 9138 c53c 9003 983c
00000080: cdac 59bd 6878 bcbc 2403 323c 3006 0fbe
00000090: 539d f6bc fc7f 63be 4a3f d4bc e383 71bb
000000a0: 1a29 ffbc 9c5d a83c 4ab5 b9bc 24b5 8bbe
000000b0: 1886 a43c 25ae 003d 0b6b f3bc bd2b 1a3e
000000c0: a607 08bf 896d cbbe 14ab 7e3c d25b bc3d
000000d0: 7f54 95be 0527 9cbb 023b 95bb 2a86 b3bc
000000e0: 94e5 02bd ab5d 123a 3846 f0bc cce8 563c
000000f0: c3de 37be 29ad d23b 13dd 093c 5719 68bc
00000100: f14e a93d 6917 d13b 61fb 0cbc 5222 c03c
00000110: b398 6a3c 990a 81be 4aee 66bc e161 7c3b
00000120: 65d7 b9bb 6c1a bf3c e517 f3bc 02fd 9fbb
00000130: 235b f93b 6f62 84bc acb5 513c 2827 833b
00000140: 2821 dfbc 212e 9c3c aab9 1f3e 7dc4 79bc
00000150: 9f0d abbc 9e1a 89be 1e70 2dbc de52 37bd
00000160: 4455 c6bc 00f4 0b3b d741 693c aa40 a6bc
00000170: 7655 ccbb 44d1 3abe be2e d6be 9445 edbc
00000180: 4a85 ebbe 94c6 cabb 8844 63bc fc9a da3d
00000190: 2242 03be 380b c7bc 5240 f73c a31a fabc
000001a0: 00cc e8be 21e5 6ebb 6be1 da3b 90a9 0abe
000001b0: 2caf 803d 3225 9dbb 4d7d 5ebb cd41 4ebc
000001c0: ef13 403d c2bc 5fbb bc5a f2bc 9a1d 38bc
000001d0: 0278 8a3d 7838 d63b e888 3a3b 6c99 9fbd
000001e0: 0242 543d 5e99 73be 14a1 573c dd4b 9fbc
000001f0: e2dc 283c 8f3e 9c3c 7adc dabb 2cee 82bb
0.026816437 0.13978726 -0.016729688 -0.0040008686 0.036019452 -0.050187197 -0.028498359 0.16977218
0.008253933 -0.5960225 0.025411997 0.004559071 -0.15512125 -0.01941608 0.013314528 0.004292462
-0.45233282 -0.020236863 -0.003199603 -0.024667183 0.008609725 0.00808266 -0.008796254 -0.03149759
-0.028952077 0.015996981 -0.005559206 0.023083044 -0.0031815977 -0.0411693 0.024074825 0.018556386
-0.05314331 -0.023006633 0.010865007 -0.13967204 -0.030104315 -0.22216791 -0.025909085 -0.0036852292
-0.031147528 0.020552449 -0.022669453 -0.27286637 0.020083472 0.031416077 -0.029714128 0.15055747
-0.5313667 -0.39732006 0.015543718 0.09197201 -0.29166028 -0.0047653937 -0.0045541534 -0.02191456
-0.031957224 0.00055834156 -0.029330358 0.013117027 -0.1795607 0.0064293337 0.008414525 -0.014166198
0.0826701 0.0063809645 -0.008604855 0.023453865 0.014318633 -0.25203398 -0.0140948985 0.0038510489
-0.005671429 0.023328029 -0.02967448 -0.004882456 0.0076097413 -0.016160218 0.012799662 0.0040024705
-0.02723749 0.019064965 0.15598169 -0.0152446 -0.020880518 -0.2677812 -0.010585813 -0.044756763
-0.02421058 0.0021355152 0.014236889 -0.020294506 -0.0062357737 -0.18243891 -0.41832536 -0.028963841
-0.4600013 -0.006188223 -0.01387132 0.10674092 -0.12818196 -0.024297342 0.030182038 -0.03053028
-0.4546814 -0.003645249 0.006679704 -0.13541245 0.062834114 -0.004795694 -0.0033949197 -0.01258893
0.04689401 -0.0034139608 -0.029584281 -0.011237526 0.06761171 0.0065374933 0.002846295 -0.07792935
0.051820762 -0.23788974 0.013160963 -0.019445354 0.010306569 0.019072799 -0.006679115 -0.0039956775

advantage.0.weight f4 [128, 256]
00000000: c44e 87bc 37d1 05bd 5266 513c 8a77 0ebc
00000010: f0cf 85bc 9496 ba3c 59b6 86bd 7fad f33b
00000020: 4421 74bd a726 45bd 2704 993c 308a 6a3d
00000030: f2f3 0d3b 0585 e63c 64e6 f1bc 19ff 99bd
00000040: 1d68 cc3c 507e dd3b 2487 9fbc 0b82 7abd
00000050: 3ddf d6bc 02a7 1d3d a241 8a3b a1c5 883c
00000060: 8e4f 20bd aa9a 5dbd b8a9 75bc 739b d0bc
00000070: 50f8 18bd fd62 eebc 7a02 033d 1255 4abd
00000080: 8c45 b3bd ce78 203d 2372 55bd 5a84 a4bd
00000090: 384c 23bd 3889 5ebc 0852 5cbd 51ec 9abd
000000a0: b252 04bd d70c 57bd b471 c8bc 14a4 473d
000000b0: f06c ecbc 92f1 50bd f688 ecbc 85eb c4bb
000000c0: 00d7 6b3d 0f6f 51bd 50ee 98bc 44ce aa3c
000000d0: ea86 65bd d0da 0f3c 990b 3dbc a060 8abc
000000e0: 9abb 283d 94cd 523d 6d4f cfbc 1610 d13c
000000f0: c0d6 d1bb 3c1c 6abd 44b8 853b fc98 433d
00000100: 935a 0fbd 1303 4abd af59 c8bd 8182 e0bc
00000110: 0490 12bc b20e 7bbd e23a 7f3c 1208 2f3d
00000120: caac 8abd cadf 0abd 79a3 6dbd 105c 0d3c
00000130: ef03 103c 3792 713d 6551 50bd 8367 b5bc
00000140: aee6 15bd 5b32 e7bb 2c07 5b3d 8a1e 9a3d
00000150: 8960 f0bc feae 43bc 8c78 ec3c 71ee 4b3b
00000160: 8752 ce3c 364a 013d 1a17 4dbd f69b 1a3c
00000170: 64ea 6ebd f801 81bc 6064 38bd 50d9 2dbd
00000180: fcb0 dabc 3041 903b 1cf8 2dbd 4176 65bb
00000190: 5b35 853c 52f5 a33d ad97 e1bc a999 20bc
000001a0: 4550 5fbd 093f 97bd 5dc6 3d3c c66e 453d
000001b0: 1946 febc 00e1 d5bb f09a 503d e050 bd3b
000001c0: c837 16bc ae5e 51bd 55d3 283d d83b acbc
000001d0: fbe3 63bc d8c6 52bc 3435 6cbd 2753 43bd
000001e0: 049d 883b 421b 0fbd ea8a 51bb e0be dd3c
000001f0: ee24 59bc 68ec 55bc c40e 1f3d 791c d4bd
00000200: 9fbb 64bd 258c 9cbc 9d8e 4abc 6875 50bc
00000210: b518 c9bc 6f1b 113c 0823 bebc c0d8 87bb
00000220: fdc4 a73c 6cdc 48bd 6987 d5bc 8b86 2abd
00000230: 352b 7ebd 9349 083d c006 d53b 7d38 3a3d
00000240: ee41 7dbd b278 88bd 384d 96bc b4fd aabd
00000250: 9555 5dbc 7012 033d 0088 5a3a e4c3 bcbb
00000260: 9ea4 dfbc 85dd 30bb aa23 d0bd 44a6 293d
00000270: 8656 5dbd 3fed bbbb 3808 11bd 48d5 51bd
00000280: 358e 9cbd 8ef9 e8bc ce98 1dbc 5545 a2bc
00000290: 6058 ffbb c804 2c3c 3cea e43b 03c2 2bbd
000002a0: c0d1 393d 966c 50bd a2c0 87bd f8b3 cdbd
000002b0: 5c77 bbbc ec69 253d 13cf 3338 88a1 8f3c
000002c0: b015 e73b 0056 6c3c a933 f33c f726 25bd
000002d0: ac19 1cbd 0deb b9bc 7a23 13bc d1a9 42bd
000002e0: e175 f13c 746a 8dbd 2871 0ebc 8cb5 59bd
000002f0: d8f3 1abc e85c b03c eefa 6ebc 9289 033d
00000300: 4ed4 6cbb 6cbd 4a3d 60b1 6f3c 2d4b 6b3b
00000310: 6ce8 313d 2cc6 25bb 650a a0bd a8b8 8dbd
00000320: 20e4 ab3d e31f acbb bf2b e13b be81 2f3d
00000330: d769 07bd f8f0 3dbd 088f 50bd 45e4 78bc
00000340: cc5c a73c 6251 55bd 0086 33bb 9608 cb3c
00000350: db35 863d 52e1 ddbd 7056 a03c 80d0 2ebc
00000360: b0ca d6bd 2e8e 8bbc b643 e33b 5e68 03bd
00000370: 6aab 8ebd 7bab 02bd ccf5 f2bd 31ca 6f3c
00000380: 1200 963c 465d d93b 1565 73bc d470 103d
00000390: 1806 2cbd 30ce 04bd bead 3a3d 8aa7 77bd
000003a0: 94ce 293d 1fac ea3c c9ce b3bc 1061 2abd
000003b0: 4b61 7dbd d299 a63d fbaa 8bbd 68d0 fcbc
000003c0: 2a60 65bd 324c 1d3d 5294 4f3c b0b5 ff3b
000003d0: 0b5e 5dbd 88b0 4c3c 5612 4b3b db3f 153d
000003e0: 50f4 ab3b 548b 203d 9c90 80bc 0e70 283d
000003f0: 7eac 67bc 74d8 513d a541 963c 205a 583c
-0.01651705 -0.032670226 0.012780743 -0.0086954925 -0.016334504 0.02277688 -0.06577749 0.007436454
-0.059602037 -0.048132565 0.018678738 0.057260692 0.0021660295 0.0281396 -0.029528804 -0.07519359
0.024951989 0.0067594424 -0.01947362 -0.061159175 -0.026229495 0.03848935 0.00421925 0.0166958
-0.03913837 -0.054102577 -0.014994077 -0.025464749 -0.037346184 -0.029099936 0.031984784 -0.049397536
-0.087534994 0.03917771 -0.052110802 -0.080330566 -0.03986761 -0.01358252 -0.05378917 -0.07564605
-0.032305427 -0.05250248 -0.02446828 0.04874046 -0.02886054 -0.05101163 -0.028873902 -0.0060095214
0.057578087 -0.051131304 -0.018668324 0.020850308 -0.056036867 0.008780196 -0.01153841 -0.016891778
0.041194536 0.051465586 -0.025306428 0.025520366 -0.006403774 -0.057155833 0.004080804 0.04775332
-0.034998488 -0.049319338 -0.09782731 -0.02740598 -0.008945469 -0.06129331 0.015578004 0.042732306
-0.06771238 -0.033904828 -0.058017228 0.008627906 0.00879 0.058977332 -0.050858874 -0.022144085
-0.036596946 -0.0070555634 0.053473637 0.07525356 -0.029342907 -0.011943577 0.028866075 0.0031117464
0.025185836 0.031564914 -0.05007086 0.009436598 -0.058329 -0.01574801 -0.0450176 -0.042443573
-0.02669572 0.004402302 -0.042472944 -0.0035013112 0.016260793 0.080057755 -0.027538145 -0.00980226
-0.05451991 -0.0738507 0.011582938 0.048201345 -0.031039285 -0.006527066 0.05092901 0.0057774633
-0.009168573 -0.051115684 0.041217167 -0.02102463 -0.013909335 -0.012864791 -0.057667926 -0.047686722
0.0041691083 -0.034938104 -0.0031973668 0.027068555 -0.013253434 -0.013056852 0.03883244 -0.10356993
-0.055842992 -0.019109795 -0.012363103 -0.012723304 -0.024547914 0.008856638 -0.023210064 -0.0041457117
0.020479674 -0.049038336 -0.026065545 -0.041632216 -0.062052924 0.03327329 0.006501049 0.045464028
-0.061830454 -0.06663646 -0.018347368 -0.08349171 -0.013509174 0.032000005 0.00083363056 -0.0057606567
-0.027300175 -0.0026987505 -0.101630524 0.04141833 -0.054037593 -0.005735069 -0.03540823 -0.05122879
-0.07644311 -0.02843931 -0.009618951 -0.01980845 -0.0077925175 0.010499187 0.0069859307 -0.04193307
0.04536605 -0.050884806 -0.06628539 -0.10044092 -0.022884063 0.040384218 4.286978e-05 0.017533079
0.007052146 0.014424801 0.02968772 -0.040320363 -0.03811042 -0.022695089 -0.008980626 -0.04752523
0.029475154 -0.0690507 -0.008693971 -0.053151652 -0.009457551 0.021528676 -0.0145861935 0.03211362
-0.0036137286 0.049497053 0.014629692 0.0035902963 0.043434545 -0.0025295122 -0.078144826 -0.06919986
0.08393121 -0.0052528246 0.00687167 0.04284834 -0.03305992 -0.046372384 -0.050917655 -0.015191142
0.020429991 -0.052079566 -0.0027393103 0.024784368 0.06553241 -0.10833992 0.019572467 -0.010669827
-0.10487878 -0.01703557 0.006935562 -0.032081954 -0.069662884 -0.031901818 -0.11863288 0.0146356085
0.01831058 0.0066334335 -0.014855643 0.03526385 -0.041998 -0.0324232 0.04557585 -0.060462512
0.041456774 0.028646527 -0.021949189 -0.041596472 -0.061860364 0.08134808 -0.06819721 -0.030861095
-0.055999912 0.038402744 0.01266964 0.0078036413 -0.054044764 0.01249326 0.003098627 0.03643785
0.00524763 0.039195374 -0.015693955 0.04112249 -0.014140246 0.051231816 0.018341849 0.013205081

advantage.0.bias f4 [128]
00000000: f55c d4bd 80a0 74bd 48cf 53be 3b65 8b3e
00000010: b06c a2bc 1f67 e9bd fe08 34bd a918 99bd
00000020: 4c9c e7bd add9 abbd 0638 b8bd 85ef 41be
00000030: dcb6 e9bd 8ac5 ecbd b4c9 0fbe 22e1 58bd
00000040: 22f5 d8bd 6169 10be 4196 e4bd 5d0e d93e
00000050: 2e50 f0bd b42a f2bd 7ca5 f0bc 6412 d2bd
00000060: d560 6fbd c7dd e8bd 80bc 46be a4e3 76be
00000070: 72bf 08be 6a47 fdbd 56f9 bcbd 50b0 57bc
00000080: 4af5 b0bd f6fd 563e e0c7 c7bd d148 38be
00000090: 9cd2 a5bd 6b4e b5bd 2b50 2fbd df76 5bbd
000000a0: 2cfa 94bd f0b5 a33c 67f8 b7bc 13b0 84bc
000000b0: 706e 8ebe b787 1abd f674 e2bd f96e 3ebe
000000c0: d1ed a7be 061f eebd a2b5 22bd 4028 ddbd
000000d0: 0491 e6bd a4fa c0bd 99d9 19bd a4c0 2bbe
000000e0: 95d8 9fbe cb9f cbbd 20a4 15be a0d0 23bd
000000f0: b7f8 a3bd 304b a33d 987f 48bd 9e24 803d
00000100: 015d 41bd e093 55bd 7e4b 883e 0b02 16bd
00000110: 653e 6fbd cbca bbbd b035 9abe 70a1 b5bd
00000120: 1166 9dbd a783 88bd 0c25 29be b835 a9bd
00000130: 8e11 73be 4158 cebd e631 e3bd eb3c 2dbe
00000140: c36f 07be 05df d3bc 199f cabd b0bb afbc
00000150: e5dc 07be 5509 1d3c cc6c f0bd d17e 3abc
00000160: 8eae 91bd 412a 91be 27a6 a9bd 54ea d1bd
00000170: 7f7c 57bd d8b6 0fbe 0ad6 32be ec6c 74bd
00000180: ebf8 0abe 9ff6 02be 70ff 88bd 241e 2abe
00000190: 098d 04be 4a77 70be 30f7 90be 528c c9bd
000001a0: 2e81 fcbc 194f f7bd b668 b4bd d3ff 9cbd
000001b0: 4857 a7bd b34c aabd ad6e 7ebd 5d4b 7dbd
000001c0: c7e4 edbd e31f 01bd 0dca bfbd 4a24 07bc
000001d0: 6920 913e 99a4 92bd a32f 49bd 9895 e2be
000001e0: 450f 86be bd6e 84be 412e 62be 560b a2bd
000001f0: 2202 1ebe 5f18 0b3d 1a58 0fbe 8380 b3bd
-0.10369293 -0.059723377 -0.2068454 0.2722567 -0.019827217 -0.11396622 -0.043953888 -0.07475407
-0.11309108 -0.08391128 -0.089950606 -0.18939026 -0.11411831 -0.11561115 -0.14041787 -0.05294908
-0.105936304 -0.14102699 -0.11161471 0.4239377 -0.11734043 -0.11824551 -0.029375784 -0.10257414
-0.058441956 -0.11370426 -0.19407845 -0.24110276 -0.1335428 -0.12367137 -0.092272446 -0.013164595
-0.08640535 0.20995316 -0.0975492 -0.17996527 -0.08096811 -0.08852848 -0.042801064 -0.05358016
-0.07274279 0.019984215 -0.022457315 -0.01619724 -0.27818632 -0.037727084 -0.11057465 -0.1859702
-0.32798627 -0.11627011 -0.039724 -0.10798693 -0.11258128 -0.09422806 -0.037561033 -0.16772705
-0.31219926 -0.099425875 -0.1461339 -0.039993882 -0.08006423 0.07973325 -0.048949808 0.06256984
-0.047207836 -0.052142978 0.26620096 -0.036623042 -0.058409113 -0.09169539 -0.30119085 -0.088686824
-0.07685483 -0.06665736 -0.16518039 -0.08262199 -0.23737165 -0.10075427 -0.11093502 -0.1691777
-0.13226227 -0.02586318 -0.09893627 -0.021451801 -0.13267858 0.009584744 -0.11739501 -0.011382774
-0.07113372 -0.2835255 -0.08283644 -0.10249773 -0.052608963 -0.14034593 -0.17464462 -0.05967419
-0.13571517 -0.12789391 -0.06689346 -0.1661306 -0.12944426 -0.23483005 -0.2831359 -0.09841217
-0.030823316 -0.120756336 -0.088090345 -0.07665982 -0.081709445 -0.083154105 -0.062117267 -0.06183945
-0.116159014 -0.03152455 -0.0936471 -0.008248398 0.2834504 -0.07160301 -0.049117696 -0.44254756
-0.26183525 -0.25865737 -0.22087957 -0.079123184 -0.15430501 0.03395879 -0.13998452 -0.08764746

advantage.2.weight f4 [3, 128]
00000000: f53c 473d 1122 273c 4751 073d a2d2 813b
00000010: ffa2 893d 34f3 35bd 9333 8ebd df33 aa3c
00000020: cde2 a4bb a240 323d 756a 003e 78a9 123d
00000030: cc70 193d 3742 ac3d baa7 3d3d e5b1 c33c
00000040: e179 03be 1b03 90bd d849 9cbd 43ec b93d
00000050: 0041 403d bf03 90bd 00e0 07bd 7caa a03d
00000060: 4a7e 0dbe 9edb 703b 5a57 a53d a88f 0a3d
00000070: 0048 ffbc 4acb df3e 0d3f 773c a7ce 2ebd
00000080: 6308 5dbd c38c d03c c766 81bd 2f28 0a3d
00000090: adff 713d fd71 3dbb 0865 353d 83d6 a63d
000000a0: cd48 fabc 8738 b0bc 8c65 1d3d 8364 b93c
000000b0: 02b7 093e 852d 243c 2177 963c 6adf f43d
000000c0: e2d4 223e 10f9 b8ba 0980 a13c 9240 3abd
000000d0: 3d1d 443d 1ef2 33bc 6c53 03bd 0872 1dbd
000000e0: 2a11 793a 4e89 003e 0179 ab3d 6e9f d2bc
000000f0: c36a af3c 47d8 b53e e63c 4e3d 54d9 08bc
00000100: a0c7 c8bc 05d3 de3c 3dfa 0ebe 7f07 eabb
00000110: e73c 3cbd ebc3 2e3d fdbc e23d 55a4 0d3d
00000120: 83ab 8f3c a885 febb 5c14 3f3d 734c 613d
00000130: 7c66 443d d053 a03d 489e 9d3b d260 66bd
00000140: 23b3 963c bb77 863e 903a dfbd 81cd 79bc
00000150: 1b14 8fbb f441 193e 7184 153d b0dc 87bb
00000160: 6941 7a3c 3154 5e3c db07 523d 820c a3bd
00000170: d494 4fbd 725e 923d 12ab 94bd c751 44bd
00000180: 7ac3 b13c 055e 293d 14d4 9abc 9a55 003d
00000190: 7a26 673c 8746 993d f0de c23d 8128 ab3c
000001a0: 13cb 913c 7782 ae3d b437 623c 055c 493d
000001b0: ed91 33bc 8384 f63b b5ae 7dbc 07a8 cfbc
000001c0: 8ba3 e3ba 9136 973d 5359 30bd cfda 8cbc
000001d0: bfbc 55be 1e6e 813d 688c f1bc b817 a43d
000001e0: 127b 8abd 7eec 603d 883e 573d 4614 aebc
000001f0: a864 9a3e 0a90 9f3b a9ff 943d abee bfbc
00000200: 8cbb ca3d 953e 923c e3c8 f33c d35f 18be
00000210: eddd dc3d b237 233d fc9c dcbc 9c26 103c
00000220: 7fda 98bc 5bcb 7bbc 5f5f 1abe b420 b7bb
00000230: aeff 493d 5420 0bbd 2e0d 103d 4c3f b83d
00000240: f634 bfbc 01c7 333d 84e4 35bd d4b0 89bd
00000250: c093 38bd 0846 09be 7834 c63d 8344 5c3d
00000260: 4d33 0fbd 9643 1dbe 5c5b 6f3b 0477 dabc
00000270: 7160 963c f983 143d 7057 023d 4a55 e83c
00000280: 3a0d 87bd 8ea6 cabd ded0 68bd d246 dd3c
00000290: 2020 753d 3ddb 013d 9891 c53d 0d8e 443d
000002a0: 6f64 d23c 8ee0 f83d 6dd7 ae3c cb5a 9539
000002b0: bc06 28be 7ce3 5b3c 8e0a 02be fae7 5a3d
000002c0: 64ae 513e 9238 383c 2802 efbb 0cf8 0c3d
000002d0: f93f 9b3c e487 afbd d589 bb3d a069 29bd
000002e0: b14c 043b 9224 093e f0da 953c 392b 51bd
000002f0: 6032 5c3d aae5 b0be d9b9 cc3c d733 4c3e
00000300: df87 2a3d 634d 6e3c f7df 373e ae1e 8abd
00000310: 6c0b 8dbd 9e7d 143b 4a2a 833d 21e0 02bd
00000320: fff1 a73d 88c2 78bd 9e01 6bbd aa65 743c
00000330: 40b0 013e 8112 21bd f743 5dbc fef3 ddbc
00000340: a736 423c 707a 8fbd a7fc e5bc 6a81 a2bc
00000350: 9283 543d 01c5 e4bd 10ff a5bc d2d5 3b3d
00000360: 1e5b 293d 3174 5abc a32a 583d b63c aa3c
00000370: 399b 033d c1dc 583d 627d 2abd f9bd 3fbd
00000380: a236 0f3d bab5 bf3d ab4c 41bd cd75 0d3d
00000390: 367d 6abd ee58 a6bc f3b9 cb3d ae4c c1bc
000003a0: d0ea 603d 8773 29bc 7dff 00bd dd9c e2bb
000003b0: 92c1 33bc 0d49 783c 656e a1bb 83f5 c23b
000003c0: 0466 c03c 1291 823d 775e 4e3d bf3e 1a3d
000003d0: dc88 ee3d 4282 753d 4fa0 80bb 8728 963d
000003e0: d768 27bd e85b 2a3d 5de9 ce3d 9935 123d
000003f0: dc82 b1bd 88b9 dd3d a592 d23d a15a b3bb
0.048642118 0.010200993 0.033036496 0.003961877 0.06720542 -0.04442139 -0.06943431 0.020776687
-0.0050319196 0.04351867 0.1254061 0.03580615 0.037461087 0.08411067 0.046302535 0.023888538
-0.12839462 -0.07031842 -0.07631272 0.090782665 0.04693699 -0.070319645 -0.033172607 0.07845017
-0.13817707 0.0036751996 0.080733016 0.033828408 -0.031162262 0.43709785 0.015090716 -0.042677548
-0.053963076 0.025457745 -0.06318431 0.03372973 0.059081722 -0.0028907054 0.044285804 0.081463836
-0.030552292 -0.02151133 0.03842692 0.022630936 0.13448718 0.010020618 0.018367352 0.11956675
0.15901521 -0.0014112312 0.019714372 -0.045471735 0.047879446 -0.010983018 -0.03206198 -0.038438827
0.0009501154 0.12552378 0.08372689 -0.025710788 0.021413213 0.3551657 0.050351046 -0.008352596
-0.024509251 0.027200231 -0.13962646 -0.007142007 -0.04595652 0.04266731 0.11071203 0.034580547
0.017537838 -0.007767398 0.046650276 0.05500455 0.0479493 0.07828486 0.0048101284 -0.05624468
0.018395966 0.26263222 -0.10899842 -0.01524675 -0.0043664104 0.14966565 0.03650326 -0.004146181
0.015274384 0.0135698775 0.051277023 -0.0796137 -0.050679043 0.0714692 -0.072591916 -0.04792955
0.021699656 0.04134943 -0.018899955 0.031331636 0.014108295 0.07484155 0.09515178 0.020893337
0.017797029 0.08520978 0.013807226 0.049160022 -0.010960084 0.007523121 -0.015483548 -0.025348676
-0.0017367465 0.073834546 -0.043053936 -0.01719418 -0.20872782 0.06319831 -0.029485896 0.080123365
-0.06761755 0.054913037 0.05254987 -0.021249902 0.3015492 0.0048694657 0.07275326 -0.023429235
0.09899053 0.017852107 0.029758876 -0.14880304 0.107845165 0.039848037 -0.026930325 0.008798268
-0.018658875 -0.015368308 -0.15075444 -0.0055886153 0.0493161 -0.033966377 0.03516882 0.08996448
-0.023340683 0.043890957 -0.044407383 -0.067231804 -0.04506278 -0.13405621 0.09677976 0.053776275
-0.034961034 -0.15357813 0.003652296 -0.02666808 0.018356534 0.03625867 0.03182167 0.028360981
-0.0659432 -0.09895049 -0.056839816 0.027011309 0.05984509 0.031703223 0.096469104 0.047987033
0.025682656 0.121522054 0.021342957 0.0002848714 -0.16408819 0.013420936 -0.12699339 0.053443886
0.20476681 0.011243956 -0.007293958 0.034416243 0.018951403 -0.08570841 0.09157149 -0.041360497
0.0020187313 0.13392857 0.018292874 -0.05106661 0.05375898 -0.3455022 0.024990963 0.1994165
0.041633483 0.014544818 0.1795653 -0.06744133 -0.06886944 0.0022657881 0.064045504 -0.031952027
0.08200454 -0.060732394 -0.05737459 0.014916817 0.1266489 -0.039324287 -0.013504974 -0.027093884
0.01185385 -0.07005775 -0.028074576 -0.0198371 0.051883288 -0.11170388 -0.020263225 0.04585821
0.04134666 -0.013333366 0.052775037 0.020780902 0.032130454 0.052944902 -0.04162348 -0.04681203
0.03496421 0.093608335 -0.047192257 0.03453617 -0.057248317 -0.020306077 0.099475764 -0.023596134
0.054911435 -0.010342485 -0.031493653 -0.006915672 -0.010971444 0.015154135 -0.00492649 0.0059496774
0.023486145 0.06375326 0.050383057 0.037657496 0.116471976 0.059938677 -0.0039253603 0.07331949
-0.040871467 0.041591555 0.10103104 0.035695646 -0.086675376 0.10826403 0.102818765 -0.0054734503

advantage.2.bias f4 [3]
00000000: fe18 1a3e 9da1 f8bd 2b15 ecbd
0.15048596 -0.121402 -0.11527475
